models/training_all_threshold_0.99_boxcox/model_1_MSE_loss/space_buffer_8_date_buffer_1/pfts/train_pfts_1/MLP_1.pth (torch, 57494 bytes, 18 tensors)

layers.0.weight f4 [70, 6]
00000000: 8976 0bbf 2a4a b13e 7e4d 3c3f 27ed 3540
00000010: 3d23 323f 3e33 5e40 a829 3f3e 0699 0e3e
00000020: 3cb4 cf3e 3943 bcbe 19e1 cebe 4de2 9d3f
00000030: 32cb 543f 25d3 9fbf 68fa 5c3f 30e1 68be
00000040: 0e21 ccbc 5a1c cd3e 33ab a9be de6e bb3f
00000050: b025 c0be 6ef5 33be 0c53 99bd 187a a93c
00000060: 291b ef3d d8c1 303f ed1f dabb ea3c 7cc0
00000070: 0de9 bdbf 6e08 a53b a57a a1bf 8539 51bf
00000080: 6550 dabe fc79 f93e b902 463f c3a6 1e3f
00000090: 14a5 7d3e 412b 29bf 3dcc c4be 41be db3e
000000a0: f8c1 71bd 5388 123e d457 363d 315c 22bf
000000b0: cb16 773f a827 1bbf fb27 443f 219e 3ebf
000000c0: b455 403f 0b94 983f 2a72 acbf 2b23 4a3f
000000d0: 6234 aa3f 8fa9 06bd 7c1f 133e 7702 63be
000000e0: 3be6 56bf c942 e1c0 c5ca adbf 9ce3 d2be
000000f0: a627 83bf b8cd 9d3f d41b 2d3e 1831 6dbe
00000100: 9d39 863d 1833 a43c 64a8 d2bd b664 d7be
00000110: 0e8b bebe eaca 8b3f 4cb3 43bf d4d8 2a3f
00000120: be39 0abf ab06 9bbf 3a47 a03f 944f 773e
00000130: e9d1 aebf 3676 c63e 4bba ecbe df61 c33f
00000140: 2d0f 89bf e660 463e c8a1 fe3d 496f 2cbe
00000150: c3fc c4bd b79f dcbe 8c81 1abf 5973 693f
00000160: 8c8e 97bf a99c 0140 41b0 be3e 297d 2fbf
00000170: 1e61 e9be 1e1a 853e ab8b 943c fc6a c53d
00000180: 0382 423e baf5 9bbe 58d1 fc3c 8dee c03f
00000190: d30f 0a40 ba6a b940 3b66 c23d 6515 583f
000001a0: 1434 2abf d614 fabd 6c36 a2be 766e 943f
000001b0: ba69 24bf d889 d13e 3530 453f 0d12 60be
000001c0: fb9a d4bd 7c95 173d 9d92 813d 02ca 0a3f
000001d0: 0aef 6f3e 7257 fbbe 08b2 2f3e 0ae7 fdbe
000001e0: d444 6abf 511e 983e f1ae 96bf 92df 4d40
000001f0: e814 e7bf e357 a9be 8eba 533e 5f06 39bf
00000200: 0e4b 9fbe b667 633f db9f ef3d 0b30 cbbf
00000210: 9399 123e fb06 01be 6791 4c3f 697f 70bf
00000220: 66fb c7bf 653d 983f aa7a 8dbb 69f1 c9be
00000230: 1ff3 2cbf f3b0 c23f 7074 a13d 90a6 b13f
00000240: 0ec2 50bf 8a5c aa3f 9e50 7dbe e50d 953d
00000250: 3a7b acbd 3471 06bd 177f 95be 1593 923f
00000260: 8183 9dbf af23 1b3e 330f cdbd 88f8 d13e
00000270: aeee abbd 6704 143f a5c6 8cbf 02e5 673d
00000280: 21bc 363e e942 07be eb67 95be c363 8a3f
00000290: c534 9ebf 31bf d13e 4ced 123f dfbb 69bf
000002a0: 2ea0 cdbc 6c71 b03f d130 3dbf 0aef 39c0
000002b0: 04d7 433f 6c78 a13f 084a 103e aa30 6bbf
000002c0: 7edc 623e 5fcd 0d3f 360d b6bf 3646 833f
000002d0: 14fc 78be 4b11 1a3f 7718 b1bf ddbb a03f
000002e0: 3c43 3ebf 3166 95bc 22e0 31bf 1bef fabe
000002f0: dc55 663f 37cd 0f40 f035 d3bf c505 9a3e
00000300: e756 0dbf d5f1 943f 6a0d 8fbf 6a43 073e
00000310: 456d e33d 0987 68be 5a8e 03bf c52d 743c
00000320: b65a a33f 115d 62be afb3 c33d d17e 7b3d
00000330: 65af 1cbf 681f 333f e9e0 0a3f cbcd 4fbe
00000340: b511 533c dc0e 9abd 0af5 ab3d cab9 aabf
00000350: c2b1 b73f 4fc8 9cbe 2a21 53bf 9605 093f
00000360: 8c06 ca3e ae91 32bf c28e 743f b5d2 38bf
00000370: 4b86 c1bf 962a 833f b579 4b3d d69c afbe
00000380: 54d3 8b3f 83e0 e3bd 8c6a 21bd e143 cc3d
00000390: beed 4e3e 9d64 4e3f 73a0 c8bd e9a9 cebe
000003a0: 43ad 19be a5a0 02be 7463 1ebf 9dd8 3a3f
000003b0: e4dd 203f 9334 a2be b4e4 8d3d 04f2 08bd
000003c0: 493c b63c 4372 6d3f 1c3a 73bf c618 dcbe
000003d0: 5f38 cb3e a6a5 f4be 9115 d83e 3691 1fbf
000003e0: 97d7 a23f e8a9 51be 5dc4 5b3d 4308 d23d
000003f0: 36fe 853e 3d7b 0dbf e17f 3abf 4a90 d43e
-0.54477745 0.34626895 0.73555744 2.8425996 0.6958502 3.4718776 0.18668234 0.13925561
0.40567195 -0.36770037 -0.4040611 1.2334687 0.8312255 -1.2486311 0.8631959 -0.22742152
-0.024918105 0.40060693 -0.33138427 1.4643209 -0.37528753 -0.17574093 -0.07486543 0.020688102
0.11675102 0.6904578 -0.006656638 -3.941218 -1.4836746 0.0050364053 -1.2615553 -0.8172839
-0.4263946 0.4872588 0.77347904 0.6197321 0.24770004 -0.66081625 -0.3843707 0.4291859
-0.059022874 0.14309816 0.044517353 -0.6342192 0.96519154 -0.60607386 0.76623505 -0.74460036
0.7513077 1.1920179 -1.347234 0.7895991 1.3297236 -0.032876547 0.14367479 -0.22168909
-0.83945054 -7.0394025 -1.3577505 -0.41189277 -1.0246475 1.2328405 0.16905147 -0.23163259
0.065539576 0.020043895 -0.10286024 -0.42069024 -0.37215465 1.09213 -0.7644546 0.66737103
-0.5399436 -1.211141 1.2521737 0.2415145 -1.365781 0.38762063 -0.4623588 1.5264243
-1.0707756 0.19372901 0.12433201 -0.16839327 -0.09618523 -0.43090603 -0.6035392 0.9119163
-1.1840377 2.0251868 0.37243846 -0.68550354 -0.45581907 0.25996488 0.018133005 0.09639546
0.18994908 -0.30460912 0.030861542 1.50728 2.1572158 5.794278 0.09492155 0.84407645
-0.66485715 -0.122110054 -0.31682146 1.159621 -0.64223826 0.4092548 0.77026683 -0.21881886
-0.10381123 0.037007794 0.063267924 0.5421449 0.2343103 -0.49090153 0.17157757 -0.4959033
-0.91511273 0.2971063 -1.1772138 3.2167706 -1.8053255 -0.33074865 0.20676634 -0.72275347
-0.3111195 0.88830125 0.11700412 -1.5874037 0.14316396 -0.12600319 0.79909366 -0.9394441
-1.5623596 1.1893736 -0.004317601 -0.39441994 -0.67558473 1.5210251 0.07883537 1.3878956
-0.81546104 1.3309491 -0.24737784 0.07278041 -0.08421941 -0.032822803 -0.29198524 1.1451136
-1.2305757 0.15150331 -0.10012665 0.41009927 -0.08395134 0.5781922 -1.0998122 0.056614883
0.17845203 -0.13209118 -0.29180846 1.0811695 -1.2359854 0.4096618 0.57393336 -0.91302294
-0.025100794 1.3784614 -0.7390261 -2.9052148 0.7649996 1.2614875 0.1409074 -0.9187113
0.22154424 0.55391496 -1.4222782 1.0255802 -0.2431491 0.60182637 -1.3835591 1.2557331
-0.7432134 -0.018237205 -0.69482625 -0.49010548 0.8997476 2.2469003 -1.6500835 0.30082527
-0.5521073 1.1636301 -1.1175969 0.1320931 0.11104826 -0.22707762 -0.51389086 0.01490349
1.2762058 -0.22105815 0.09555756 0.06140024 -0.6120513 0.699698 0.54249436 -0.20293348
0.01288264 -0.075223655 0.08396347 -1.3337948 1.4351122 -0.30621573 -0.8247248 0.5352415
0.3945812 -0.6975354 0.9553033 -0.72196513 -1.5119108 1.0247371 0.049676616 -0.34299344
1.0923867 -0.111268066 -0.03940825 0.099738844 0.20207879 0.80622274 -0.09796228 -0.40364006
-0.150075 -0.12756594 -0.61870503 0.72986776 0.6283858 -0.31680736 0.06928387 -0.03343393
0.022245543 0.92752475 -0.9501054 -0.4298765 0.39691445 -0.4778263 0.42203954 -0.6233095
1.2722043 -0.2047497 0.053654063 0.10255482 0.2617051 -0.5526617 -0.7285138 0.41516334

layers.0.bias f4 [70]
00000000: 9394 35be 8b2b 71bf 131f 3bbe 0444 f73e
00000010: c8aa 88bf 7678 fd3d 0828 093e f611 20bd
00000020: 7282 b4bf a3af ab3f c96f 723e e6b7 c9bc
00000030: 27ac 6a3f 239a 49bc 54cf 3cbf 065f 393a
00000040: 8aa2 b0be 7fb6 48bf 4bbd d33d 7312 9f3c
00000050: d8b2 00bf 36f1 c53f d21d a23f bd81 9d3f
00000060: 76d3 cdbd f1d3 40bf 869a d0be 8a5d 7b3e
00000070: 4ee1 6f3e 1c80 fcbd 7547 4cbd 7332 3bbf
00000080: d145 c0be 553d 6e3f 229b c7bc 2a27 e3bb
00000090: bea0 943f 7e0e 353f dbf0 85bf 5bec 173e
000000a0: a675 33be e078 993f 559b ecbe ab30 483e
000000b0: 13fa b6be 5d38 e23e 128d 5dbd deb5 023e
000000c0: 4d13 0b3e 75e7 343f ea06 b3be 7206 de3e
000000d0: 75a8 57bf 02d8 4f3d 6aac 3cbf 09e7 773c
000000e0: fc9f 423c 4c7f 30bd cc11 333e 50a2 953e
000000f0: e452 98bf c540 783f 427a b73e 1338 afbe
00000100: 6101 bdb9 114c 9e3f 8977 783f 8bae 1bbf
00000110: d9b5 3c3f 9db2 f2bd
-0.17732458 -0.94207066 -0.18273573 0.4829408 -1.0677118 0.12376492 0.13394177 -0.03907963
-1.4102309 1.3412975 0.23675455 -0.024623822 0.91668934 -0.012304815 -0.7375386 0.00070713495
-0.34499007 -0.78403467 0.10338839 0.019417977 -0.50272894 1.5464237 1.266535 1.2305218
-0.100500986 -0.75323397 -0.40742892 0.24547401 0.2342579 -0.123291224 -0.049872834 -0.73123854
-0.37553266 0.93062335 -0.024365965 -0.006932159 1.1611555 0.7072524 -1.0464128 0.14836256
-0.17525348 1.1990013 -0.4621226 0.19549815 -0.35737666 0.44183627 -0.054089613 0.1276469
0.13581581 0.70665675 -0.34966213 0.43364292 -0.8424142 0.05074311 -0.73700583 0.015130767
0.011878964 -0.04309015 0.17487258 0.29225397 -1.1900296 0.9697383 0.35835463 -0.3422247
-0.00036049917 1.2366964 0.97057396 -0.60813206 0.7371498 -0.11850474

layers.1.weight f4 [50, 70]
00000000: 82a3 3bbf e900 25bf 0435 d9be 5361 9d3f
00000010: 87b7 bb3f f090 3abf 6a27 a2be 05ad e63e
00000020: f945 fabe 9cb5 be3e de7f f33e 10ad 56bf
00000030: 0a3f bcbc 80c8 5bbe 185e 02c0 bf1c 71bf
00000040: 2e1e b1be ec8d 07bf b581 d43e 128f 443f
00000050: abb6 df3e b9c5 673f 4343 093f 66a8 a83e
00000060: b62d 653e d1a4 b0bf c1c5 78be 5c43 913e
00000070: 2111 31be bd30 8ebf 034a 24bf 5cc0 763f
00000080: 5fd5 81bd f4a3 6a3f 23ca 033f 18fd a0be
00000090: 32a8 b13e 03d6 bd3e 1ed4 16be 4803 4e3f
000000a0: a755 3a3e 2cc2 eb3e cc2b afbf e164 153f
000000b0: 0275 4ebe 21ba 0ebe 0d4e 023f 4755 793d
000000c0: ed06 1cbe 6309 cd3e 324c 86bf e3d3 a43e
000000d0: ed45 6cbf 9c3d 5c3b df6c 2cbe 9f51 85be
000000e0: 99cc 53bf db4e a63d f6ba 823e 2aab a6be
000000f0: dce4 0bbf 4b40 6f3f 963c df3e 7956 8fbe
00000100: a37e 59bf 18f7 213f 5719 1c3f 4292 c0bc
00000110: 2a31 18bf 15f7 103d 0fb4 6f3f 17e6 c33e
00000120: ddb6 ce3c 9ad0 56bf 036e 8ebf 7326 1f3e
00000130: 3e8d b03e 6662 babe 2682 383e c43f f9be
00000140: 38f7 61bf 292a eabc 2e96 0b3e f047 d9bd
00000150: 1b63 a63f 3e1e 643f 5d58 b73f 2fd0 d03e
00000160: 3d78 1bbf 87e0 59be a20a 3b3f 33e9 bdbe
00000170: 6c7d 27be 1539 99be 08da 58be 0c84 0e3e
00000180: 1e11 223f f620 e13e 32f1 3ebf 16e5 383f
00000190: b199 4a3f 05db e3be 0315 bb3e 45f9 91bf
000001a0: eae8 43bf 1ac0 62be c74e 8fbd 45b0 61bf
000001b0: bd61 2d3e fbc5 7dbf 58f0 063f 75ec 3dbf
000001c0: 9c68 943f 615a 33be 71f2 123f 03e0 05bd
000001d0: f59c f53e 8840 1e3f 7c01 a7be 24cc 64bf
000001e0: b654 b03f 5a7d 473e 326e ee3e 7299 19bf
000001f0: 38fe c03d 0a38 073f 01dd de3d 3281 653f
00000200: f1fd 7abe 6ade cd3e 890b 523d bbd6 7ebf
00000210: 33df e9bd db6d 6e3f b946 f63e 5fb6 08bc
00000220: 40a8 60bf b664 66bd 3797 823e 59cf d0bd
00000230: b8b4 2c3f a1e0 0d3c f991 cdbe f27b a63e
00000240: 4800 d5bf a6e3 9ebe 1eba d7be 25ab da3e
00000250: cbf3 3b3f 3265 88bf f932 df3e 07a3 f4be
00000260: 2d6f 22bf 859f f73e 024c debd 2df9 57bf
00000270: 5d8d 833e 6f75 54be 6ac8 603f 9df5 bb3e
00000280: 029c f63f 19a3 e9bd 08f4 c6be 28e1 11be
00000290: dcb3 703f 7bf4 01bf b4ab 9abe 88a4 90bd
000002a0: 57e2 07c0 fa6e 0bbf b4ba 0e3e 55dd d33f
000002b0: f8df 993e 5165 043f 155e 163f 1b94 6bbf
000002c0: c59f 6bbf b2bc d93d 789a 0c3e 570a f63e
000002d0: 7c75 dc3d 1755 a3be 4b07 1ebf f982 f2bd
000002e0: f0d7 0dbf 6a86 c2be 9bbf e9be bffa 173d
000002f0: c8e1 53be 2ba8 96bd c495 1fbf f67e 303e
00000300: e1fa e53e 914f 663f d87c 0c3f 7ef4 a3bd
00000310: 30d2 163f 8e1e 05bf 01f3 82be 6017 e2be
00000320: 3a04 fc3e 808d 603e 9a5e 993e 9ae9 80be
00000330: 4556 e33e 08b8 063f 969e 4dbd 24cc 0a3e
00000340: 8222 04bf e436 3cbd 37fe 25be 2861 3b3d
00000350: 92d5 12bf 67f5 45be 8c6a 0e3f 4ffc 4e3d
00000360: 8966 94be d0f0 abbe 080c bdbd 545e 633f
00000370: 20b8 f33e 2aab c93c 7919 123f 796d 853e
00000380: 3e93 04bf ddb6 67be f28c 99be 1907 05bd
00000390: f70b 3d3f 8b8d d63a ac16 a23f f33f fcbd
000003a0: a48e 8139 463f 5cbf ebac 6c3f b817 28be
000003b0: 2544 94be 513c e7bd a5b1 69bb 33e6 c13e
000003c0: ed36 d63f 6ff7 543f a5ce 7f3d 8a7e c03e
000003d0: ea53 f03e a742 e43e 201d 4abd 23a2 933e
000003e0: ac36 ad3e b5dd cd3d 93ca dcbd 0c59 a43d
000003f0: 6f20 59bd 5555 08c0 5ff4 0abf 4884 aebe
-0.7329637 -0.64454514 -0.4242326 1.2295326 1.4665383 -0.7287741 -0.31670696 0.45053878
-0.4888151 0.37247932 0.47558492 -0.8385782 -0.022979278 -0.21463203 -2.036993 -0.9418449
-0.34593338 -0.5295093 0.4150521 0.7678081 0.43694052 0.90536076 0.5361826 0.32940978
0.22380719 -1.3800298 -0.24294187 0.28371704 -0.1729169 -1.1108624 -0.6417543 0.9638727
-0.063395254 0.9165642 0.5148031 -0.31443095 0.34698635 0.3707734 -0.14729354 0.80473757
0.18196736 0.4604658 -1.3685241 0.58357054 -0.20161822 -0.1393819 0.50900346 0.060872342
-0.15237017 0.40046224 -1.0492003 0.32192907 -0.922942 0.0033606058 -0.16838406 -0.26038834
-0.82734066 0.08120509 0.25533265 -0.32552463 -0.54646087 0.9345748 0.4360091 -0.2799566
-0.8495886 0.6326766 0.60976166 -0.023507241 -0.5945002 0.035391886 0.9363412 0.38261482
0.02523368 -0.8391205 -1.1127323 0.15542011 0.3448276 -0.36403197 0.18018398 -0.48681462
-0.8826785 -0.028584557 0.13631508 -0.10609424 1.2998995 0.89108646 1.4323841 0.4078383
-0.60730344 -0.21277057 0.730631 -0.3709198 -0.16356438 -0.29926363 -0.21176922 0.1391756
0.6330737 0.4397046 -0.74586785 0.7222456 0.79140764 -0.44503036 0.36539468 -1.1404196
-0.76527274 -0.22143593 -0.069974475 -0.8815959 0.16931815 -0.9913022 0.52710485 -0.7418893
1.1594424 -0.17514946 0.57401186 -0.032684337 0.4797131 0.61817217 -0.3261832 -0.89373994
1.3775852 0.19481412 0.46568447 -0.59999764 0.094234884 0.52819884 0.10881997 0.8965026
-0.24510933 0.4020875 0.051280532 -0.995464 -0.11419525 0.93136376 0.48100832 -0.008344262
-0.8775673 -0.05624839 0.25505993 -0.101957984 0.67463255 0.008659513 -0.4015043 0.32516438
-1.6640711 -0.31033057 -0.42134184 0.42708698 0.73418874 -1.0655882 0.43593577 -0.4778063
-0.6345089 0.4836389 -0.10854341 -0.8436459 0.2569379 -0.20747922 0.8780581 0.36710826
1.926636 -0.114080615 -0.38858056 -0.14246047 0.94024444 -0.5076367 -0.30209124 -0.07062632
-2.1231897 -0.5446621 0.13938409 1.655192 0.30053687 0.51717097 0.5873731 -0.92022866
-0.92040664 0.10631694 0.137308 0.48054764 0.10764596 -0.31900856 -0.6172988 -0.11841387
-0.5540762 -0.37993175 -0.45653996 0.037104364 -0.20691597 -0.07356294 -0.623379 0.17235932
0.44917968 0.8996516 0.54877996 -0.080056176 0.5891447 -0.5199975 -0.25576022 -0.4415846
0.49221975 0.21928978 0.29954988 -0.25178224 0.44401756 0.5262456 -0.050200067 0.13554436
-0.51615155 -0.045950785 -0.16210257 0.045746952 -0.5735713 -0.19331895 0.5563133 0.05053359
-0.28984478 -0.33582163 -0.092308104 0.8881581 0.47601414 0.02461775 0.5707012 0.26060084
-0.51787174 -0.2262835 -0.29990345 -0.032477472 0.7384638 0.0016369087 1.2663169 -0.12316885
0.00024711073 -0.8603405 0.9245135 -0.16415298 -0.2895824 -0.11290801 -0.0035658863 0.3787094
1.6735512 0.83190054 0.06245293 0.37596542 0.4693902 0.44582102 -0.049344182 0.28834638
0.33830774 0.10052053 -0.107808255 0.08024797 -0.053009447 -2.1302083 -0.5427913 -0.34085298

layers.1.bias f4 [50]
00000000: 7d38 c83d 3de6 ad3e df11 7c3e abba b6be
00000010: 10f1 7e3f 185b 81be 0b93 c73e d428 a73c
00000020: 42e5 ab3d 6edc 1c3c f3b2 133f 39f3 bdbe
00000030: dd0a f23e 8153 703f 9d06 cb3f 7b84 86bf
00000040: e624 09bf b761 a7be da00 aebf e2d4 a4bf
00000050: 8700 77bd 51ca afbe 1510 1fbf 489e 25bf
00000060: 2573 033f ddc5 84be c6c4 943e f192 623e
00000070: 5883 7ebe 65ec 0e3f 275f 6abd c4b7 813f
00000080: 186d 8d3f 5e81 663e 290a 973e a060 d5be
00000090: 9ef0 003f b198 a0bd 0120 bd3e 52c6 88be
000000a0: f1a8 c2be f04c 2ebe 4166 b0be 1dc3 5c3f
000000b0: 51fb 983e 6954 83bd fa60 89be dc3a 9fbe
000000c0: d0f0 973e 2b84 65be
0.09776399 0.3396472 0.24616192 -0.3568929 0.9958658 -0.25264812 0.38979372 0.02040521
0.08393337 0.009574039 0.5769493 -0.37099627 0.47273913 0.93877417 1.5861393 -1.050918
-0.5357193 -0.32691738 -1.359401 -1.2877467 -0.060303237 -0.34334043 -0.62133914 -0.64694643
0.5134757 -0.25932208 0.29056376 0.22126366 -0.24854791 0.5582946 -0.05721965 1.0134206
1.1048918 0.22510287 0.2949994 -0.41675282 0.5036715 -0.078416236 0.3693848 -0.26713806
-0.38019517 -0.17021537 -0.34453014 0.8623522 0.2987924 -0.06412584 -0.268318 -0.31099594
0.29675913 -0.224137

output.weight f4 [3, 50]
00000000: 81f4 a1bd 691e a13d c78f 83bd 2bdd da3d
00000010: 109a 453d 895d d7bc 26e8 85bc 6d37 d33b
00000020: 8942 e73c 5ec2 bcbd 2de2 6b3d bce5 753c
00000030: 2c7d 563d 74bd 323c eb19 d9bd 0751 2c3d
00000040: e462 8cbd 2b6d a6bd 0cfe 4b3d 4ac2 3a3d
00000050: 33e0 76bc 7b08 913b 3f34 d73c 42ef 58bd
00000060: 6813 06bd 63b7 b63d 1943 37bd 4e9d 883d
00000070: 6374 d7bd 0fc8 b63d b588 383d 8bbc 7abd
00000080: f79f 0ebd cdd7 ca3d 7394 d33d e4d2 b0bd
00000090: efb1 8f3d 8f33 863c 888f a53d 81fd d83c
000000a0: a733 253d 916d 183a d3e3 623c 710e ccbc
000000b0: e855 873d 9527 9c3c 8082 da3d 5c7b 1b3d
000000c0: 1d8c 413d 3b1d 343d 1f20 44bd 488b 3e3d
000000d0: a7cc 51bd 3794 233d 095f b53d bb45 98bd
000000e0: 5935 d2bc 2e51 babc d6de 0ebd a68b 47bd
000000f0: f211 933d 74e5 4e3d 739b 5c3d bdb0 353d
00000100: 763f 95bd 1796 183d 7edf b9bd b077 e9bc
00000110: 7852 17bc 50fa e53c 8191 2cbd 9374 3d3d
00000120: 8cb6 783d 5cda d6bc 0613 693b ab35 a4bd
00000130: c126 57bd 2da6 803d 765c 05bc 5f63 d43c
00000140: 13a8 993c b7ae be3c b285 50bc afe5 9a3b
00000150: 10c0 243d 7446 3fbd 1e3f 913d 8a55 5f3d
00000160: 0a2e 953d 5f4e 4e3d 1c12 c73d 1061 823d
00000170: 3333 513d de12 263d 5940 133d 2622 e2bd
00000180: 3e42 9abc 8e1c 3a3d a1e2 c73d 762e b6bb
00000190: 47a7 42bd 27fd a63b 7519 acbd f4aa c3bd
000001a0: a460 463d 1df7 48bd 6b4c b1bd 6aab b9bd
000001b0: 7a83 a0bd 7002 963a 2720 3c3d 4767 fd3c
000001c0: e26c 293d 18f6 bb3d 4d7f fb3d c7c0 843d
000001d0: 78a4 9fbc 403b 603d 96d1 d63d 0765 073e
000001e0: d066 21bd e03d a03d 8356 a63d d580 9cbd
000001f0: bea2 cf3d 2c3b fcbd 46aa fbbd 79cf 163d
00000200: 0fc6 52bd 62aa a73b 9df5 a53d 6ed2 253e
00000210: 9f94 2b3e 3d8a 663d ff39 cebc 6daa 0e3d
00000220: 328e 4f3d ec38 9d3d 3196 9cbd 90f3 e23d
00000230: 6880 83bc eef9 993d c5dd c63d 1978 ea3d
00000240: 9534 e8bc 8f4d c93d 6d17 53bd d7cb bc3d
00000250: 3a0c 1d3d 2e0f 993c
-0.079079635 0.078671284 -0.06423908 0.10686716 0.04824263 -0.026289718 -0.016346049 0.0064458163
0.028229969 -0.0921676 0.057588745 0.015008386 0.052365467 0.010909427 -0.106006466 0.04206946
-0.068547994 -0.08126291 0.049802825 0.045595445 -0.015068102 0.00442606 0.02627003 -0.05296255
-0.03273335 0.08921697 -0.044741724 0.066706285 -0.10520246 0.08924877 0.04505225 -0.061214965
-0.034820523 0.09904442 0.10331049 -0.08633974 0.0701636 0.016382007 0.08084017 0.026488068
0.040332463 0.00058146665 0.013848263 -0.02490923 0.06608182 0.019061843 0.10669422 0.03795944
0.047252763 0.04397319 -0.047882196 0.046519548 -0.051220562 0.03993627 0.08856017 -0.07435175
-0.025660204 -0.022743788 -0.03488048 -0.048717164 0.07181157 0.050511792 0.053859185 0.044358004
-0.07287495 0.03725251 -0.09075831 -0.028499454 -0.009235971 0.02807346 -0.04213095 0.046253752
0.060720965 -0.026227169 0.0035564317 -0.08018049 -0.052527193 0.062816955 -0.00813972 0.02592629
0.018756902 0.02327667 -0.012727188 0.0047270874 0.040222228 -0.04669805 0.07092117 0.054524936
0.07284172 0.05036771 0.09720251 0.063661695 0.051074218 0.040545337 0.03595004 -0.110416695
-0.018830415 0.045437388 0.09760023 -0.005559738 -0.04752281 0.005096096 -0.08403293 -0.09554091
0.048432007 -0.04906379 -0.08657154 -0.09065898 -0.07837577 0.0011444818 0.0459291 0.030933036
0.041363604 0.09177798 0.1228014 0.06482082 -0.019487604 0.054744005 0.10489194 0.13222133
-0.03940469 0.07824302 0.081219696 -0.0764176 0.101384625 -0.12315974 -0.122883365 0.036818955
-0.051458415 0.0051167468 0.08103488 0.16193554 0.16755913 0.056284178 -0.025174139 0.0348305
0.050672717 0.076768726 -0.07645834 0.11081612 -0.01605244 0.075183734 0.09710268 0.11448688
-0.028345386 0.09829246 -0.051536012 0.09218567 0.03834174 0.018683996

output.bias f4 [3]
00000000: 3505 dd3e 9c83 4d3e cd9e c8bd
0.43168035 0.20069736 -0.09795914

exp_avg f4 [70, 6]
00000000: b6c4 5138 e06c 2037 42c4 17b7 c9ac 38b7
00000010: f710 8ab7 d550 02b8 9723 cf3b f7c3 f53b
00000020: 3980 0a3c 3142 313c 19bd b23b 5671 88bb
00000030: e8c7 b539 233a 803a 4b7d c43a a9c3 8a3b
00000040: 26db 333b fccf 7f3b df9c 033a 698b b839
00000050: dd69 2e3a 2deb 863a 92c7 383a 3e3b e839
00000060: e969 d3b9 a68b ebb9 5f20 f9b9 b116 bbb9
00000070: 7225 b3b9 078f afb8 2dcb 5739 55a1 5ab9
00000080: 8313 f4b9 edb8 a3b9 d3f8 093a c387 053a
00000090: f71a 93ba 83ec 56ba 490c 1cba a43a 1e3a
000000a0: 72ea 053b e0a7 853a ac49 d9ba f5f9 d1ba
000000b0: 6e05 02bb f94b 8c38 6062 0e3b a434 163b
000000c0: c295 023b befb e93a cd36 d13a b674 6bb9
000000d0: c390 09bb 84d8 37ba cdbc 6d39 b186 8d39
000000e0: 8b3c 9539 3387 1b39 4aa8 1339 cfe6 feb9
000000f0: a1d9 0abc 916c 12bc c823 23bc 900d e8bb
00000100: bbef 903b 30b9 993b fe25 c03a 2cc8 dc3a
00000110: 265d d23a 0b28 d23a 3c69 e538 7e4c 63ba
00000120: 5286 873b 066b 8d3b 7a38 793b e854 bb33
00000130: e54c 8cbb f59e b4bb 2571 ed3a f4b2 8e3a
00000140: e779 6eba 33ab d6bb 523f a5bb 2789 3dbb
00000150: a6b8 c63a b0b6 7a3a 0717 103a f8c7 73bb
00000160: af6e 6dbb 50a2 aeba 7015 2a37 65e9 31b7
00000170: 85ef 00b9 8f0d dbb9 eb83 8ab9 8906 b9b9
00000180: 9e12 443a d098 3a3a cd1d 0c3a 7a6d d338
00000190: 77b2 8eb7 8948 5637 9148 bbb9 cf17 42ba
000001a0: a75a 47ba 9a32 3fba ea05 f9b8 a4b0 b43a
000001b0: 67b3 5cbb ed2a 57bb 4c57 1abb 58f6 603b
000001c0: 635c f53b 4477 343b 1274 90b8 bfac c6b8
000001d0: b03c 63b9 233e 4fb9 ee34 8eb9 071f 2537
000001e0: 7745 073a 377f 1337 434a 85b9 43a4 48bb
000001f0: 1e65 55bb 71c8 be3a 9e15 1f3b c7b7 3b3b
00000200: 2277 543b 72fa 6f3b cca8 80ba a13e f1ba
00000210: 4b03 5eba 2d39 fdb9 091a ceb9 7a2e b639
00000220: f8f1 8939 731f 29ba 4264 d8b9 998a 283a
00000230: d3da 7db8 6910 d53a 5d18 293b 7899 0ebb
00000240: 7450 0d39 63b0 b5ba 6b0a 1dbb a6c0 d4bb
00000250: 797e ddbb 9e6c 66bb 7c59 04bb b21d f0ba
00000260: 4f35 e1ba a546 99ba dafd 833a 2f26 d2b8
00000270: 686d f43b 6db9 ff3b 29ae eb3b b831 12bb
00000280: adbf 0ebc ddeb 06bc 488c 423a 5ce8 913a
00000290: fba0 6039 2015 50bb ac8a 72bb 6a4b 60bb
000002a0: a578 46bb e9a5 14bb b214 e0ba a6fe cd38
000002b0: 8e26 253b dbfb 83b9 5b36 cb3a 0707 af3a
000002c0: 7458 223a abb9 5dbb 7ad7 66bb ec46 09bb
000002d0: 035c a83a 8ef9 ff3a d427 3b3b bb5e 09b9
000002e0: 07ec f8ba cfba 19bb 26bb 543b 2799 413b
000002f0: 5789 0c3b c392 c1b9 f70e 0ebb 6643 bd39
00000300: b5a2 8cbb 82a6 85bb 8b92 97bb e07b ecbb
00000310: be05 0bbb 1ebd ec39 13e8 2d3b e327 f43a
00000320: 9628 183b a5b2 913b e8a5 fd3a 5fa1 263a
00000330: f54b e63a 5489 e239 d744 0038 c76b 88bb
00000340: f684 e3bb e84a b938 b789 9cbb b200 8dbb
00000350: 80cb 40bb 74a7 713b cc74 0e3c 73cf d23b
00000360: 65c7 053c 815d 1b3c 8165 213c fc28 023c
00000370: de20 213b 409c 57bb 0de5 893b 0f0c 593b
00000380: a729 373b 925a 713a c2f9 b2ba 35c2 1dbb
00000390: 6d50 91bb c868 a0bb d6ec a4bb 8159 6ebb
000003a0: 1ad4 9dba 8d39 293b 8161 25bb db59 4fbb
000003b0: ed2f 12bb 2d58 b839 f856 663a 71f3 8d3b
000003c0: ebda 98bb 7cba 94bb f9e7 9abb a701 28bb
000003d0: 42c2 133a 571b 2d3a 190a 803b 8a15 863b
000003e0: 4a01 803b 3eab 8a3b e0fb 4539 b2c4 0dbb
000003f0: 2348 953b ee69 883b a7c0 7a3b c15b c6ba
5.0012684e-05 9.562093e-06 -9.045996e-06 -1.1007484e-05 -1.6458782e-05 -3.1069696e-05 0.0063213813 0.0075001675
0.008453422 0.010819004 0.005454671 -0.0041639013 0.00034671952 0.0009782951 0.0014990953 0.0042347503
0.0027443855 0.003903388 0.0005020629 0.00035199084 0.0006653348 0.0010293477 0.0007048781 0.00044294627
-0.00040323965 -0.0004492674 -0.000475171 -0.00035684326 -0.0003416944 -8.371291e-05 0.00020579687 -0.00020850201
-0.00046553844 -0.00031227563 0.0005263213 0.00050937774 -0.0011223246 -0.0008198695 -0.00059527584 0.000603596
0.002043393 0.0010197125 -0.0016577742 -0.0016019928 -0.0019839662 6.689871e-05 0.0021726117 0.002291956
0.0019925688 0.0017851514 0.0015961766 -0.00022454825 -0.0020990826 -0.00070131593 0.00022672415 0.0002699397
0.00028464603 0.00014832318 0.00014081705 -0.0004861862 -0.008474738 -0.008937017 -0.009957261 -0.007081695
0.0044231093 0.0046912655 0.001465976 0.0016844324 0.0016049489 0.0016033662 0.00010939172 -0.0008670761
0.0041358853 0.0043157367 0.0038028047 8.7233104e-08 -0.0042816275 -0.005512113 0.0018115385 0.0010887072
-0.00090971444 -0.0065511703 -0.0050429488 -0.002892086 0.0015161231 0.0009563966 0.00054965954 -0.0037198048
-0.0036229303 -0.0013323519 1.0137781e-05 -1.06043635e-05 -0.00012296259 -0.00041781037 -0.00026419698 -0.0003529082
0.0007479581 0.0007118108 0.0005345017 0.00010081656 -1.7010823e-05 1.2772282e-05 -0.00035721486 -0.00074040605
-0.0007604756 -0.0007293612 -0.00011874347 0.0013785553 -0.0033676268 -0.0032831982 -0.0023550568 0.003432652
0.00748782 0.0027536908 -6.888075e-05 -9.473552e-05 -0.00021671015 -0.00019764206 -0.00027123786 9.8419905e-06
0.00051601924 8.791502e-06 -0.00025423066 -0.0030615486 -0.0032561491 0.0014555586 0.002427436 0.0028643475
0.0032419642 0.0036617783 -0.000981593 -0.0018405506 -0.00084691186 -0.0004829852 -0.0003931078 0.00034748373
0.00026310957 -0.00064515247 -0.00041273428 0.0006429344 -6.0523696e-05 0.0016255501 0.0025801875 -0.0021758955
0.00013476779 -0.0013861771 -0.0023962508 -0.006492692 -0.0067594615 -0.0035159956 -0.0020194938 -0.0018319397
-0.0017182025 -0.0011694027 0.001007016 -0.000100206926 0.0074593313 0.007804087 0.0071923924 -0.0022307467
-0.008712691 -0.008234945 0.0007421416 0.001113187 0.00021422275 -0.0031750873 -0.0037008924 -0.0034224638
-0.0030284312 -0.0022681898 -0.0017096011 9.822594e-05 0.0025199982 -0.00025173914 0.001550387 0.0013353535
0.000619299 -0.003383259 -0.003522365 -0.0020946814 0.0012844804 0.0019529329 0.0028557675 -0.00013100628
-0.001899124 -0.0023457294 0.0032460182 0.0029540749 0.0021444166 -0.00036921175 -0.00216764 0.00036099105
-0.004291857 -0.004078687 -0.0046256236 -0.0072169155 -0.002121314 0.0004515433 0.0026536032 0.001862761
0.002321755 0.004446345 0.0019351812 0.00063564436 0.0017570244 0.00043208397 3.058169e-05 -0.0041632387
-0.0069433404 8.83544e-05 -0.004777159 -0.0043030614 -0.002941817 0.0036873491 0.008694839 0.0064334213
0.008165215 0.009482742 0.009850861 0.007944342 0.002458624 -0.0032899529 0.004208213 0.003311876
0.002794841 0.00092069164 -0.0013654756 -0.0024072055 -0.0044346363 -0.0048953034 -0.005033116 -0.0036369266
-0.0012041361 0.0025821656 -0.0025235119 -0.0031639251 -0.0022306398 0.0003516091 0.0008786763 0.004331999
-0.004664769 -0.004538832 -0.0047273603 -0.002563575 0.00056365517 0.00066035 0.0039074537 0.004091923
0.0039064037 0.0042318394 0.00018881215 -0.0021632132 0.0045557185 0.0041630184 0.0038261802 -0.0015133546

exp_avg_sq f4 [70, 6]
00000000: 21de 8238 e183 8438 bc41 8838 72ed ea37
00000010: 39e7 e137 a9ef f837 ded2 0939 f31b 1839
00000020: 8b46 3b39 7a0b 1939 d95a b338 50b5 6a38
00000030: 4a16 793a 1815 823a 3ede 4a3a 27fb 213a
00000040: cddd a33a adc1 9b3a 9fc2 8e37 84a8 5c37
00000050: 45fe c237 d1fd 1e38 f2a3 9937 46d8 4c37
00000060: a228 6738 dd7c 6738 25af 6438 33d4 a437
00000070: 5d66 b637 90c6 0438 a12d 5337 409a 8b37
00000080: cf01 2b38 431a 9538 90d1 6d38 be1a 2b38
00000090: 9cdf 8a38 429e 7038 fd40 6838 5ccc 2638
000000a0: f7e3 9238 48b2 7b38 30da 0439 4be3 0639
000000b0: 6acb f938 ace5 ad38 4160 2239 f8ba 0b39
000000c0: 3173 f838 0f6a ee38 f888 9138 b5f4 f337
000000d0: 51a6 2c39 d98f 3639 f20d 3537 627d 2e37
000000e0: 9bab e836 e48f 4235 d229 d036 f266 3e37
000000f0: 858e df3a 79ad ec3a 3dbd ce3a 30b7 ad3a
00000100: 2917 d13a 2a22 fd3a 513f 0f39 9526 0939
00000110: 2e0f 1139 9b87 f638 10a9 9b38 da37 e737
00000120: a42e 6739 229e 6939 e6b9 3839 50b8 9438
00000130: 2add 7439 1112 8c39 fadc ee3a cf01 f23a
00000140: 3fd0 d83a 45c7 a43a ea5a c73a da31 d33a
00000150: 8938 bc38 f6a5 b938 612a e338 6f63 eb38
00000160: c9ad 6d38 e802 0338 ca64 8d35 f039 bc35
00000170: 4b1f dd36 a579 4737 9614 d936 57c1 8836
00000180: db63 8137 7e59 8437 aa9a 8037 aa04 fc36
00000190: c265 dc35 91e1 7635 680b 8039 889b 8239
000001a0: 7345 7e39 2e22 a839 4fd5 f539 f2ed ce39
000001b0: 12e4 8439 8a5f 7939 4f9c 2439 8363 4239
000001c0: 0543 d339 f993 cd39 eebc 1937 de69 0c37
000001d0: 29e0 9b37 4e7e c037 62d7 8337 ccdd dc36
000001e0: 1f70 b439 b674 ad39 2bb9 9739 771c e639
000001f0: c5d4 183a cb8d e239 76a4 c639 7291 c939
00000200: 1481 cb39 8dda 8539 5861 ba39 3547 d039
00000210: 3bc2 e838 3851 f738 f14b ed38 4a10 8d38
00000220: 8a04 2b39 a2dc 4339 0cbc 3e38 f1df 5a38
00000230: 450e 5c38 563b ce37 d2ab 9837 03f6 9a37
00000240: 9636 6e3a 1909 663a 3220 813a f704 563a
00000250: 3df1 613a f8fc 543a 1b63 213a fd13 213a
00000260: 7c0a 203a 876e c839 eb17 e439 341a d739
00000270: 2795 3639 600b 3b39 851a 0839 fffe d038
00000280: 93d3 8c39 87ad 8b39 be07 ec39 21b1 f939
00000290: cd6d d639 f862 ba39 0f73 123a 1579 0d3a
000002a0: 53e4 8338 da2f 5038 8d22 d737 b55b 8537
000002b0: ce2a 9338 ccfd 5a38 6cdc 413a 16dd 4b3a
000002c0: 4545 503a 8154 da39 69ad bc39 168e ff39
000002d0: 0e02 ab39 a3b8 af39 bfae bf39 0533 b939
000002e0: ad2f 9539 8f99 8e39 67a3 e938 0f65 d138
000002f0: 1c92 7738 96f7 6338 eed1 0f39 48ab e438
00000300: 1f2c 743a 419d 813a 19a0 7f3a c44b 1c3a
00000310: 4264 283a 2e87 343a 4575 4a3a 79bc 4e3a
00000320: 430f 573a 5f0a 0d3a 895e db39 2c65 003a
00000330: c03f 9f38 93d3 8238 250f 5c38 37d8 a838
00000340: c55c 2039 0afe dd38 5d26 4a3a 5601 573a
00000350: e7db 3b3a 463b 083a 36e7 523a 2c02 533a
00000360: 20f7 6b39 ad95 7039 72fe 5439 c661 2c39
00000370: b0a3 9c39 b4ec ae39 ac23 303a 758d 373a
00000380: 606a 3d3a b71c f839 c219 bb39 efab d539
00000390: 30dc 9f38 67f0 9438 cc67 6638 ee5a 5437
000003a0: fa7a 9e37 4c78 b537 e60e 1138 a064 0f38
000003b0: c86c 4138 edce a938 5e88 8238 9040 1538
000003c0: 16c8 8e39 bc26 9239 7c8a 9b39 1c85 4d39
000003d0: aad1 2839 dba4 1339 e22d ab39 f532 ab39
000003e0: fde6 b439 eefd 8539 013a 0639 bbbf 3b39
000003f0: b4eb 8e37 77cd 8f37 df1b b137 daee 4b38
6.240258e-05 6.318815e-05 6.497229e-05 2.8005543e-05 2.6929762e-05 2.9675504e-05 0.00013143892 0.00014506262
0.00017859989 0.00014595492 8.552307e-05 5.5958808e-05 0.00095019175 0.0009924499 0.0007738805 0.0006179087
0.0012502015 0.0011883281 1.7018347e-05 1.3152257e-05 2.3245006e-05 3.790652e-05 1.8315364e-05 1.2209703e-05
5.5112534e-05 5.519098e-05 5.4522552e-05 1.9649136e-05 2.1743757e-05 3.1656178e-05 1.2587204e-05 1.664192e-05
4.077126e-05 7.109765e-05 5.6700374e-05 4.0794483e-05 6.622003e-05 5.7367848e-05 5.5373635e-05 3.976781e-05
7.004284e-05 6.00091e-05 0.00012669782 0.00012863909 0.00011911134 8.2920626e-05 0.00015485381 0.00013325724
0.000118470176 0.00011368479 6.939651e-05 2.9081808e-05 0.00016465156 0.0001741046 1.0791688e-05 1.0400401e-05
6.9341163e-06 7.248002e-07 6.2037516e-06 1.1348851e-05 0.0017056024 0.001805707 0.001577295 0.0013253447
0.0015952337 0.001931255 0.0001366113 0.00013079711 0.00013833932 0.000117554526 7.422466e-05 2.7563354e-05
0.00022047252 0.0002227952 0.0001761686 7.091521e-05 0.00023352043 0.0002671634 0.0018223815 0.0018463674
0.0016541554 0.0012571594 0.001520959 0.0016112879 8.975069e-05 8.8524e-05 0.00010832097 0.00011224194
5.6667053e-05 3.123554e-05 1.0534652e-06 1.4023954e-06 6.5899562e-06 1.1889647e-05 6.4695005e-06 4.0756236e-06
1.5424497e-05 1.57773e-05 1.533081e-05 7.510728e-06 1.6420893e-06 9.1970384e-07 0.0002442256 0.00024911412
0.000242492 0.00032068923 0.0004688897 0.00039468665 0.00025346928 0.00023782082 0.00015698488 0.00018538353
0.0004029499 0.00039210895 9.163499e-06 8.369299e-06 1.8581823e-05 2.2946999e-05 1.5716712e-05 6.5823315e-06
0.00034415812 0.00033084088 0.00028938925 0.00043890227 0.0005830045 0.00043211723 0.00037888036 0.00038446073
0.00038815348 0.0002553057 0.0003554921 0.00039725905 0.000110988 0.00011793006 0.00011315186 6.726438e-05
0.00016309522 0.00018678841 4.5474662e-05 5.2183812e-05 5.2465377e-05 2.4584744e-05 1.8199822e-05 1.8472789e-05
0.00090871134 0.00087751594 0.0009851514 0.0008164192 0.0008619016 0.00081248535 0.00061564305 0.0006144641
0.0006105078 0.00038229322 0.0004350537 0.00041027518 0.00017412436 0.00017837947 0.0001297985 9.9657096e-05
0.00026860516 0.00026641434 0.00045019196 0.00047624952 0.0004089907 0.00035550422 0.0005586603 0.0005396766
6.2890955e-05 4.963563e-05 2.5646086e-05 1.589754e-05 7.017479e-05 5.2211617e-05 0.0007395211 0.000777678
0.0007944892 0.0004164316 0.00035987355 0.00048743252 0.00032617192 0.00033516166 0.00036560555 0.00035323962
0.00028455016 0.0002719876 0.00011140742 9.98472e-05 5.9025464e-05 5.43516e-05 0.00013715748 0.00010903791
0.0009314436 0.0009888784 0.00097513344 0.00059622177 0.0006423631 0.00068865984 0.0007723163 0.0007886361
0.00082038733 0.00053802686 0.0004184137 0.0004897888 7.593585e-05 6.238292e-05 5.2466192e-05 8.0511374e-05
0.00015293348 0.0001058542 0.0007711405 0.0008201798 0.0007166252 0.0005196821 0.00080453174 0.0008049335
0.00022503408 0.00022943942 0.00020312684 0.00016439622 0.00029876595 0.00033364224 0.0006719183 0.0007001975
0.0007225629 0.0004732364 0.0003568661 0.00040754626 7.622724e-05 7.1019684e-05 5.493294e-05 1.2657356e-05
1.8892333e-05 2.1632899e-05 3.458457e-05 3.418757e-05 4.6116096e-05 8.097091e-05 6.2242834e-05 3.5584497e-05
0.00027233426 0.0002787615 0.00029667083 0.0001959991 0.00016099834 0.00014080426 0.00032649847 0.00032653628
0.00034504375 0.0002555693 0.00012800844 0.00017905135 1.7037477e-05 1.7142605e-05 2.1113023e-05 4.862142e-05

exp_avg f4 [70]
00000000: 7978 6bb9 8544 30bc bb9e 623b e981 9e36
00000010: 32aa 843a 4b1c cdba 798b acba 84b8 5d3b
00000020: 2a25 0dba 15a1 243a 540d 9d3c 349c 86b8
00000030: 99cd 0ebb f1a9 a1ba aa15 a1bb f04f 22ba
00000040: 8ce1 e839 0efd c93a 85b9 243c bf56 ce39
00000050: 2990 1fbc 5cb7 eeba e4d0 4d3a 1ac6 23ba
00000060: 9e6f 243c 45f5 14bb 019c 79bc 4847 72bb
00000070: 18ef 32bb 3b06 ffba 7e1f 0cbc 67ac b53a
00000080: 2b93 71ba a87c 74b9 0431 033c bff9 5f3b
00000090: ba02 be3b 015b edba 175a 2ebb 23b5 463c
000000a0: ec20 f93b 5204 daba 2e3a febb fc41 6b3c
000000b0: dee9 cd3b 4686 49b9 906f c2bb 99dd 75bb
000000c0: 0ad2 e4bb a08f 3d3b 34e1 11bc c635 e53a
000000d0: 9fc0 80bb 5ed6 ae3b b1eb 1039 43d8 f4bb
000000e0: cc65 37bb 6fc9 8fbc 291b 873c 12fa 33ba
000000f0: 444c 3c3b 8e3b c1ba a49f 7fbb 11ac ceb9
00000100: 2682 013a 7c44 31ba cfa1 2dbb f6e6 043b
00000110: d057 f8b9 0d9d d93b
-0.00022456226 -0.010758524 0.0034579474 4.7238905e-06 0.0010121523 -0.0015648691 -0.0013164125 0.0033831904
-0.0005384261 0.00062801066 0.019171394 -6.418713e-05 -0.0021790026 -0.0012333972 -0.0049159126 -0.0006191721
0.00044418534 0.0015410499 0.010053997 0.00039356013 -0.00973896 -0.0018212604 0.00078512565 -0.0006247476
0.010036377 -0.00227292 -0.015234948 -0.0036968756 -0.0027303156 -0.0019456813 -0.00855243 0.0013860584
-0.000921535 -0.00023316091 0.008007292 0.003417596 0.005798665 -0.0018108786 -0.002660399 0.012128147
0.0076028015 -0.0016633368 -0.0077584004 0.014358994 0.0062839827 -0.00019218875 -0.0059337094 -0.0037516116
-0.0069830464 0.0028924718 -0.00890379 0.0017487339 -0.003929212 0.005335613 0.00013820712 -0.0074720695
-0.002798426 -0.017552106 0.016492443 -0.00068655715 0.0028731981 -0.001474248 -0.0039005065 -0.0003941958
0.0004940353 -0.0006762219 -0.002649415 0.0020279265 -0.00047367672 0.0066410364

exp_avg_sq f4 [70]
00000000: 27a7 2938 8f4b f938 2370 1d3a 39a3 e637
00000010: 2fe2 1338 f7f3 cb38 9d1f ce38 e38a f638
00000020: 3766 6738 a8c9 5837 72d9 c93a 1cc7 ed38
00000030: 2507 a338 063d ac3a 96cc b038 e4dd 1737
00000040: fdc5 5e37 385c 2b39 6fa6 b639 0c23 8937
00000050: 5144 093a 4ea0 0e39 fd46 e838 3b66 4138
00000060: 133a 533a 5131 b939 6591 2b39 079d 8939
00000070: 1626 9e38 9033 b639 d6d2 cd39 c172 e138
00000080: 2dbe ff39 9c3f af39 1847 3039 f74c 073a
00000090: 606a 3739 f6e4 9239 4757 1238 d9b7 d038
000000a0: 4a71 8e39 c0c7 d438 681f 0538 711f 9a39
000000b0: 5920 a938 07d2 0938 dd90 f43a 6701 1239
000000c0: a4ac e139 2490 c139 3821 683a 2ec4 d038
000000d0: 46f7 8939 1e67 4939 0a81 2338 665d 1b3a
000000e0: b3d8 923a 8335 0d3b df44 5c3a df75 ec38
000000f0: 7807 4338 ffe3 7b39 adc1 ec38 30cd bf39
00000100: fd7b bd39 0e98 6038 7162 8539 b7c4 2838
00000110: 4d38 8138 3588 4839
4.0448413e-05 0.00011887319 0.00060057844 2.7494143e-05 3.525818e-05 9.725236e-05 9.828734e-05 0.00011756064
5.5169887e-05 1.2921555e-05 0.0015399887 0.00011338128 7.7737765e-05 0.0013140745 8.430441e-05 9.051964e-06
1.3278329e-05 0.00016342185 0.00034837748 1.6347993e-05 0.0005236315 0.00013601893 0.00011075845 4.6109995e-05
0.0008057665 0.00035322693 0.00016361994 0.0002624767 7.541121e-05 0.00034752162 0.00039257732 0.00010750211
0.00048779082 0.00033425994 0.00016811152 0.000516131 0.00017491868 0.0002801788 3.4890396e-05 9.952457e-05
0.00027168758 0.00010146154 3.173892e-05 0.00029396595 8.064573e-05 3.285895e-05 0.0018658895 0.00013924167
0.00043043972 0.00036919222 0.00088550476 9.954754e-05 0.0002631491 0.00019207268 3.8982405e-05 0.0005926698
0.0011203497 0.0021546788 0.00084025966 0.00011275312 4.649858e-05 0.0002402216 0.00011289432 0.00036583235
0.00036141268 5.3547374e-05 0.0002544108 4.0237526e-05 6.161686e-05 0.00019124227

exp_avg f4 [50, 70]
00000000: 56c6 cf3a 15c4 2b39 9176 85b8 1787 a2b9
00000010: e9d5 f5ba f6dc e4b8 baef ba3a 75e1 cb3a
00000020: 9a45 acba 86b6 803a 9df1 fb39 c3b3 9b3a
00000030: 453c aa3a 10ea 823a 5ece 9dba dcbe f6b8
00000040: 3686 fe3a cecd 8938 25cc 3bba bd08 b3ba
00000050: ff07 9eba 2e08 b13a e41b fd39 f75f ae3a
00000060: 7d70 dc39 2de9 6239 f39e 3e3a 6a99 c13a
00000070: 1195 733a 5a05 24ba d60f 203a cc2f c0ba
00000080: 4542 1438 f831 983a 3de7 87ba a804 a6ba
00000090: b205 ab38 cde5 903a 4532 b3ba 574e 22ba
000000a0: d0f5 9bb9 583a b2b9 4a2c 0b3a edd4 79ba
000000b0: 61d8 84ba de06 b23a 47e6 14ba fede 733a
000000c0: 5cab 083a e611 dc39 f664 6cba acfd cb3a
000000d0: 2b2a db3a ba79 9cba 8428 f5b7 a6d8 cfba
000000e0: 1979 783a c4db bfb9 6008 1fba 51c3 b23a
000000f0: 0e32 3938 acd4 7e3a b715 b3b9 811f f9b9
00000100: da40 cb3a 0f4c e03a 2b2c 943a 88a0 b1ba
00000110: b4e6 b03a 13ea d1ba 95dd 8e39 ba54 f539
00000120: e00c 1539 c528 83b8 4ae6 fe39 b722 82b8
00000130: 2f02 2ab9 73ff 0c38 2228 1538 e6dc 5b38
00000140: 197a a239 3c43 d0b9 ddcb 0ab9 09a2 64b7
00000150: 8900 1b38 2a29 3d38 2ec3 a8b8 c46d 29b8
00000160: 16af 3c37 a2ae 0e38 7a52 c5b9 28b1 a4b9
00000170: 04df 0d39 027c 8db8 ba52 b537 b94b 4439
00000180: bffc b4b8 c90b a7b9 ee4a 0339 b780 86b9
00000190: b0d1 a2b9 69a1 4537 d32c 1939 ce75 32b9
000001a0: dc59 92b8 f2c9 8138 8bfb 9038 e4f8 17b9
000001b0: 991a 8cb8 dcb5 28b9 a8e6 6e39 31e5 41b9
000001c0: 5498 c639 9a79 093a c0d9 a539 3fbc dcb8
000001d0: 3268 a938 feda d2b9 376f 93b8 ac06 a038
000001e0: ecec 81b9 26e3 79b9 7694 97b9 50e9 28b8
000001f0: 8c7e f837 c951 94b9 2b03 2bb9 10df 36b9
00000200: 2714 4139 93cc 4b38 feff 39b8 e1ed bcb8
00000210: 6aa3 84b9 c42d 0138 ba45 13ba 984c 04ba
00000220: fa9d 98b9 b061 8938 ca6b b2b8 2729 fb38
00000230: 76c7 0938 a84c fcb8 c540 1339 1125 3239
00000240: b088 05ba ba14 e637 7161 6d39 7423 1d39
00000250: 2a00 e4b9 d2bc 7738 069d 46b7 d77c bb38
00000260: 4613 9a39 6547 7db9 a970 30b9 8651 5ab9
00000270: a658 71b9 e3e9 7ab9 9022 7f39 98e2 f938
00000280: c7f2 80b9 250d 9239 bf80 4e39 77f3 c939
00000290: 9ea4 24b8 6eda 60b9 36d4 b0b9 9e90 f1b8
000002a0: 590e 05b8 6642 f839 b38a a4b9 3c39 7cb9
000002b0: 21d6 bab9 cb2d 6f39 c16d 2939 3ef3 b139
000002c0: 0b06 013a 3c32 8739 8b64 e5b8 ade6 7d39
000002d0: 42a0 a1b8 55c6 9539 d884 d6b9 d667 f938
000002e0: 1860 c7b9 ec5f a539 a8ef 0938 17d7 8539
000002f0: f522 7239 806d a139 a3f8 96b9 64ac 9e38
00000300: 8d9a a5b8 19a4 c939 c531 92b9 fa90 8239
00000310: 2d45 9bb9 3377 6738 3614 2739 9c17 8837
00000320: a9e7 ff35 5b9a 9639 4935 a039 dc2d 82b9
00000330: d7d4 88b9 c6b1 1739 61c7 7f39 198a 76b9
00000340: 6e02 e438 dd89 3b38 49c5 4aba f6dd 47ba
00000350: 6c8a b2b9 cf75 6bb9 fd0a 2f3a fe78 5e38
00000360: 88c0 143a 213d 9cb8 62b3 48ba 8212 333a
00000370: 17d5 8e37 7cac 8639 8623 f939 01fd 96b9
00000380: 2d41 9db7 2f8d d1b8 d985 84ba 4576 62ba
00000390: 619f 3bb9 626f b238 e9f5 bcb9 ec59 c339
000003a0: 6235 023a 79e3 36b9 843b 36b8 988e 8fb9
000003b0: 5cd8 de39 f0bc a039 fa89 1c3a a130 c639
000003c0: 77c9 60b9 b78b 08ba 6435 5638 0a9e db39
000003d0: d2e3 99b9 1044 94b9 43ff 6839 0c53 7ab8
000003e0: de4a 24ba 5a9c 7037 5469 d438 fb1d c339
000003f0: 9c43 afb9 d9cc df37 5563 5739 b98c 563a
0.0015851955 0.00016380877 -6.364019e-05 -0.00030999698 -0.0018755767 -0.000109130444 0.0014262118 0.0015554862
-0.0013143301 0.0009820021 0.00048054467 0.0011879135 0.0012987932 0.0009987969 -0.0012039652 -0.000117657444
0.001941866 6.571003e-05 -0.0007163904 -0.001365922 -0.0012056826 0.0013506466 0.000482767 0.0013303746
0.0004204548 0.00021639904 0.000727161 0.0014770452 0.0009291927 -0.0006256901 0.00061058754 -0.0014662682
3.5347668e-05 0.0011611572 -0.0010368597 -0.0012666183 8.154976e-05 0.0011054814 -0.0013671598 -0.0006191483
-0.00029747048 -0.00033994275 0.0005309029 -0.00095303246 -0.0010135287 0.0013582369 -0.0005680066 0.0009302943
0.0005213523 0.00041975005 -0.000901773 0.0015563271 0.0016720941 -0.0011938133 -2.9225142e-05 -0.0015857413
0.0009478494 -0.00036594097 -0.00060666166 0.0013638531 4.4154054e-05 0.00097210216 -0.0003415772 -0.00047516453
0.0015506998 0.0017112511 0.0011304667 -0.001355187 0.0013496489 -0.0016015194 0.00027249442 0.00046793168
0.00014214544 -6.254161e-05 0.00048618234 -6.205349e-05 -0.00016213277 3.3616507e-05 3.5561745e-05 5.2419397e-05
0.00030990018 -0.00039722945 -0.0001323665 -1.3627586e-05 3.6955378e-05 4.509945e-05 -8.047219e-05 -4.0394967e-05
1.1246439e-05 3.4018078e-05 -0.00037636218 -0.0003141251 0.00013529888 -6.746502e-05 2.1615404e-05 0.00018720225
-8.6301465e-05 -0.00031861503 0.00012521047 -0.00025654372 -0.00031055277 1.1779696e-05 0.00014607915 -0.00017019288
-6.97856e-05 6.1888146e-05 6.9133086e-05 -0.00014493201 -6.6806744e-05 -0.00016089476 0.00022783375 -0.00018491295
0.00037878996 0.00052442553 0.0003163349 -0.00010525481 8.077956e-05 -0.00040217483 -7.0302216e-05 7.630637e-05
-0.00024781318 -0.0002383111 -0.00028911576 -4.027161e-05 2.9622832e-05 -0.00028289694 -0.00016309011 -0.0001743997
0.00018413422 4.8589496e-05 -4.434585e-05 -9.008847e-05 -0.00025298755 3.079862e-05 -0.0005617995 -0.0005046814
-0.000291094 6.550865e-05 -8.507779e-05 0.00011976278 3.2849108e-05 -0.00012030575 0.00014043141 0.00016989211
-0.00050939154 2.7427788e-05 0.00022638381 0.00014985894 -0.0004348767 5.906524e-05 -1.18382795e-05 8.940108e-05
0.0002938753 -0.00024154557 -0.00016826637 -0.0002082047 -0.00023016575 -0.00023928988 0.0002433157 0.000119154516
-0.00024594946 0.00027857083 0.00019693653 0.00038519103 -3.925396e-05 -0.00021443676 -0.00033727445 -0.000115187126
-3.1723033e-05 0.00047351717 -0.00031383857 -0.00024053914 -0.00035636223 0.00022809875 0.00016157982 0.000339413
0.000492186 0.00025786634 -0.000109382985 0.00024213894 -7.7069286e-05 0.00028567264 -0.00040916237 0.00011892586
-0.00038027833 0.0003154272 3.2886543e-05 0.0002552799 0.00023091941 0.00030789897 -0.00028795478 7.566137e-05
-7.8966004e-05 0.0003845997 -0.0002788437 0.00024903548 -0.00029615444 5.5185705e-05 0.0001593389 1.6223457e-05
1.9066403e-06 0.00028725233 0.0003055728 -0.000248297 -0.0002609852 0.00014466708 0.0002439297 -0.00023511834
0.0001087234 4.471267e-05 -0.0007735086 -0.00076243223 -0.00034053938 -0.00022455234 0.00066773576 5.3041607e-05
0.00056744413 -7.450046e-05 -0.00076561247 0.0006831066 1.7026947e-05 0.00025686983 0.00047519448 -0.00028798732
-1.8746208e-05 -9.992194e-05 -0.001011069 -0.00086388394 -0.00017893083 8.508448e-05 -0.00036041372 0.00037260295
0.0004967061 -0.00017441613 -4.344761e-05 -0.00027381326 0.0004250434 0.00030658348 0.0005971488 0.00037801734
-0.00021437356 -0.00052088074 5.10713e-05 0.00041888683 -0.00029352173 -0.0002827947 0.00022220337 -5.968199e-05
-0.00062672596 1.4341518e-05 0.00010128567 0.00037215636 -0.00033428974 2.6679061e-05 0.00020541002 0.00081844215

exp_avg_sq f4 [50, 70]
00000000: 4b18 a035 0be3 5d35 6c2b da34 60ba 5e35
00000010: 4fc2 9c35 f7ba 7935 08ea a935 b660 8b35
00000020: ee2e ab35 02ce 8235 3bdf 0b35 95c9 8f35
00000030: 1084 a535 bf89 9b34 2e6d 2835 dac2 8b35
00000040: 9ff7 a835 87a3 8b35 ca64 1335 65b6 a535
00000050: a988 8135 d29f a835 1639 9135 7308 a835
00000060: 1128 9734 cac5 1e35 d63c 4135 faf8 6a35
00000070: 083f 9835 38ac 7a35 a05e d034 37d3 a635
00000080: 871d 0f35 ed3d 8d35 71dd 2335 cd08 1d35
00000090: 0268 7b35 8b3d 8b35 17ca ac35 a5ad ce34
000000a0: 6c3b 2735 d421 8935 44c7 8535 e743 4335
000000b0: 13ef 9935 828a a735 d8d5 7b34 5a69 7035
000000c0: 6aa1 4235 b0d6 8235 f9a9 5635 18cc 8f35
000000d0: 1fed 8535 b19d 4c35 b7b3 9035 e375 5035
000000e0: 5cac bc34 07ca b634 cd36 1c35 48d0 8c35
000000f0: 469e 8035 a3b3 8535 c959 4235 e187 fa34
00000100: ff80 4a35 9ba5 9935 b0ce 8935 c7c0 9035
00000110: 78cd a435 0278 6435 d1a1 3a36 6426 4836
00000120: 9fc3 ab35 5a61 6136 2bf7 1436 cb51 7f36
00000130: f8aa 6436 25c5 3536 48fd 5c36 6776 5636
00000140: fd13 c835 d975 3c36 3848 6936 4993 4835
00000150: 158c 4236 319d 7136 d428 7136 9dfd 6d36
00000160: a94d 1c36 1a98 7a36 e12e 4e36 9c42 6136
00000170: b12f 5136 16ea 6b36 3860 3335 87e3 b835
00000180: 0569 1336 1190 aa35 0dfe 5936 97a8 f635
00000190: 4541 fa35 cb40 1436 6ebb d135 10d5 b335
000001a0: 5c0f 2e36 5f11 9a35 8199 4b36 8ff9 c935
000001b0: 70e1 7a36 4e14 1536 7ff4 2836 4c75 3a36
000001c0: 0ec9 4436 47c7 1236 5f23 5c36 ca44 7236
000001d0: 5868 1335 6eea 4336 a9ae 0236 eade 0836
000001e0: aed3 d035 f2de 1f36 3a0d 3a36 02bc 4036
000001f0: 5798 7b36 25b1 d835 2dfd 5135 6e92 1035
00000200: 8927 8c35 25fa 5c36 b242 5636 2096 c335
00000210: 4d8b 4536 41e1 b835 40e2 ec35 d86c 2c36
00000220: 808f c935 3b78 7636 874b 7136 829d fc35
00000230: c3d1 0036 0138 0836 93e9 9635 71c4 1336
00000240: 3c9f f135 037a 0736 3058 9835 630d f435
00000250: ea53 0d36 71fa 0436 352c 5235 5eeb fb35
00000260: a65e 0836 f9da ed34 37f9 0836 4833 1036
00000270: 30a6 0536 f8e6 0436 0d56 cd34 e54a 0e36
00000280: d578 a835 35f5 1136 6efa 0936 fa8f 0936
00000290: 2855 f734 ccea d935 0e3e 9b35 2613 b535
000002a0: 76a5 eb35 28a7 e335 c409 a835 0eb0 b335
000002b0: da6e 4d35 3545 0536 8c7e 3b35 bc1d 9535
000002c0: c22a f835 afa5 0c36 3327 f935 d511 ce35
000002d0: b08e c535 9c2e 1636 b82c 1236 79bd e035
000002e0: 2d68 0636 d997 dd35 82f8 e134 7130 c635
000002f0: 1f3d 7e35 67f0 e135 e4e7 e335 f956 0a36
00000300: 427e e235 149a ad35 6d4c 0036 30cf ba35
00000310: f0ed 0635 34a8 1235 dfd9 7d35 0a23 d435
00000320: 6145 0236 4528 0b36 60cc 0536 7a1f a135
00000330: 43d0 c835 3c7b 0036 27f2 0c36 6dc6 e635
00000340: 79d1 0436 3bfd d635 b600 1137 09b7 0f37
00000350: 60dd 9236 4e77 2437 9bcb 2337 622e 1e37
00000360: bd26 ff36 06dc 1537 48fe 1c37 fea7 3137
00000370: 3b99 3f36 4cfc 1037 08a4 2437 c62d 0a36
00000380: d8e2 1237 06c3 2a37 f60b 2a37 0a0b 4137
00000390: 5743 8136 b832 2037 d39a e836 c14b 3437
000003a0: a833 2c37 19f9 0737 db81 4536 c9db dd36
000003b0: 08aa eb36 f77a af36 c794 2837 e9c4 1937
000003c0: 5669 bf36 0c7b 0837 2de2 8036 a591 0d37
000003d0: e5c9 d436 6fa6 a736 fdac 1c37 7c9d 0a37
000003e0: ba54 0237 3e49 e936 1d66 0137 e096 2a37
000003f0: ac2f 2a37 eafb 0937 ea31 2637 f9a0 1c37
1.1927999e-06 8.2659307e-07 4.0637258e-07 8.2972656e-07 1.1679457e-06 9.30318e-07 1.2659593e-06 1.0384454e-06
1.2754151e-06 9.745711e-07 5.210638e-07 1.0712998e-06 1.2331893e-06 2.8971223e-07 6.2743754e-07 1.0413016e-06
1.2589043e-06 1.04039e-06 5.4908435e-07 1.2346542e-06 9.651022e-07 1.2563489e-06 1.0819956e-06 1.2519434e-06
2.8155094e-07 5.914741e-07 7.198663e-07 8.75341e-07 1.1343227e-06 9.338287e-07 3.8811868e-07 1.2429435e-06
5.331462e-07 1.0523341e-06 6.104447e-07 5.8499865e-07 9.365614e-07 1.0374218e-06 1.2873815e-06 3.8496833e-07
6.229882e-07 1.0217141e-06 9.967266e-07 7.274197e-07 1.1468968e-06 1.2482781e-06 2.3453993e-07 8.9560274e-07
7.250552e-07 9.748237e-07 7.9968555e-07 1.0713729e-06 9.978284e-07 7.6225393e-07 1.078114e-06 7.7657586e-07
3.5143137e-07 3.4047136e-07 5.8194274e-07 1.0491431e-06 9.582807e-07 9.961553e-07 7.2401286e-07 4.6664994e-07
7.543858e-07 1.1447586e-06 1.0267449e-06 1.0784942e-06 1.2278751e-06 8.5111253e-07 2.781035e-06 2.9824669e-06
1.2797426e-06 3.3584279e-06 2.219759e-06 3.804557e-06 3.4074164e-06 2.7085855e-06 3.2929984e-06 3.1957404e-06
1.4906979e-06 2.808278e-06 3.4761742e-06 7.4720134e-07 2.8989791e-06 3.6003296e-06 3.5935564e-06 3.5463374e-06
2.3291016e-06 3.7341438e-06 3.072368e-06 3.3566384e-06 3.1171187e-06 3.5153985e-06 6.6822713e-07 1.3775287e-06
2.1965836e-06 1.2707916e-06 3.2483397e-06 1.8377494e-06 1.8645447e-06 2.2091433e-06 1.5626263e-06 1.3398549e-06
2.593696e-06 1.147895e-06 3.0338708e-06 1.5048298e-06 3.7384125e-06 2.221455e-06 2.5176266e-06 2.7784436e-06
2.9323305e-06 2.187169e-06 3.2803143e-06 3.610085e-06 5.491361e-07 2.919372e-06 1.9473175e-06 2.0395332e-06
1.5558815e-06 2.3822618e-06 2.7723859e-06 2.8719664e-06 3.7490588e-06 1.614481e-06 7.8226986e-07 5.3857264e-07
1.0442319e-06 3.2928158e-06 3.1927307e-06 1.4572324e-06 2.9436371e-06 1.3774626e-06 1.7649218e-06 2.5693353e-06
1.5017431e-06 3.672684e-06 3.5955761e-06 1.8821304e-06 1.9195584e-06 2.0298178e-06 1.124385e-06 2.201905e-06
1.8002243e-06 2.0187588e-06 1.1350548e-06 1.8183313e-06 2.1059482e-06 1.9815309e-06 7.8295426e-07 1.8769458e-06
2.0320672e-06 4.4304014e-07 2.0410641e-06 2.1487522e-06 1.9915278e-06 1.9803974e-06 3.8246836e-07 2.1203243e-06
1.2552142e-06 2.1749413e-06 2.056036e-06 2.0498396e-06 4.6069295e-07 1.6236095e-06 1.156646e-06 1.3491124e-06
1.755702e-06 1.6961467e-06 1.2519818e-06 1.3387778e-06 7.652976e-07 1.9858828e-06 6.984708e-07 1.1110019e-06
1.8489884e-06 2.0958066e-06 1.8563354e-06 1.5353386e-06 1.4719171e-06 2.2378872e-06 2.1781725e-06 1.6744444e-06
2.0028194e-06 1.6509977e-06 4.209033e-07 1.4766248e-06 9.4711316e-07 1.6833773e-06 1.6980307e-06 2.0614227e-06
1.6875058e-06 1.2934347e-06 1.9117972e-06 1.3918379e-06 5.0265135e-07 5.4634006e-07 9.456689e-07 1.5805429e-06
1.9411893e-06 2.0736054e-06 1.9937506e-06 1.2004596e-06 1.4961773e-06 1.9145218e-06 2.1002577e-06 1.7194085e-06
1.9791462e-06 1.6017942e-06 8.642839e-06 8.56608e-06 4.3769105e-06 9.8029395e-06 9.762963e-06 9.428333e-06
7.604102e-06 8.93232e-06 9.357529e-06 1.0589136e-05 2.855041e-06 8.641811e-06 9.813353e-06 2.0590246e-06
8.755094e-06 1.0178197e-05 1.01355745e-05 1.1506267e-05 3.852339e-06 9.548552e-06 6.9321627e-06 1.0746474e-05
1.0264026e-05 8.104625e-06 2.9430873e-06 6.6118996e-06 7.02334e-06 5.2297214e-06 1.004822e-05 9.165357e-06
5.7045063e-06 8.134881e-06 3.8410276e-06 8.438165e-06 6.341596e-06 4.9963633e-06 9.338602e-06 8.262108e-06
7.768331e-06 6.9524676e-06 7.712774e-06 1.0167918e-05 1.0143889e-05 8.22449e-06 9.905993e-06 9.335804e-06
