models/training_new_loss_pico_soustraction/model_1/space_buffer_8_date_buffer_1/train_pfts_4/MLP.pth (torch, 56798 bytes, 18 tensors)

layers.0.weight f4 [70, 6]
00000000: 149e 06c0 50f8 f7be 0f2b 15bf c92b bf40
00000010: 42ff 8240 a84d 903f aead 003f 256e b83f
00000020: f34a 03c0 1371 813e 0b1d 853f db39 bfbf
00000030: 23aa 3c40 9fb1 2e40 00b5 1840 32bb 37c0
00000040: 2a4e 1440 2fb7 4440 b35a 89be 2ab1 62bf
00000050: 85d2 bf3f 4a12 5bbf 06f1 74bd 789b 65bd
00000060: bfe1 1abe 4baa 793f 1add 67c0 83e6 4a40
00000070: 57d5 72bf 7c79 b3be f267 3ac0 bd18 9e3f
00000080: 4bb3 f93f f928 aebe d16b 213f fa5a bcbe
00000090: dc88 b3be e1cb b5bf 8e47 c63f 816a 15c0
000000a0: fdcc 66c0 0acf fc3f 4c8a 783f 1d87 95bf
000000b0: 1749 873c 05a0 7d3e 66ac b738 b5ec 41be
000000c0: 2fe6 ebbf 5a93 f8bf e6b7 fb3f 89c0 0641
000000d0: 8b71 66c0 9465 f6bf 0766 f8be 685f 33bf
000000e0: c0e2 bf3f b0bc 29bf ae60 623c 82da 9fbe
000000f0: 487f e9bd f688 fcbf 37d7 0840 4fc1 cdbe
00000100: c4e4 8cbf bd3e ac3f 31fd 663e c7d3 8ebf
00000110: 5a28 a53f 8375 18bf 3b7d df3d 24b2 81be
00000120: ed72 ad3f 2342 603f 260b 0c3f d386 43c0
00000130: a659 8940 13e1 74bf 4c7f 593f dbfa 92ba
00000140: 1420 3cc0 c641 1f40 99ee a0bf a2f8 4f3e
00000150: bff1 f9bf 66eb e1be 9068 05c0 2495 e93f
00000160: ed8b 9cbe 5b8f 8ebe a561 1ec0 50ac 42bf
00000170: e109 47bd a214 6640 467a 08c0 bf9e dfbf
00000180: a54c 2540 c2be 4abf 7dd8 e2be bc76 84be
00000190: 85d4 c5bf 80da 1b40 2a81 75bf 3e56 1240
000001a0: 29f4 8ebf 32c5 083d dca6 b73e 575d 68bf
000001b0: 9094 3440 2e1d f4bf 3fd5 b1bf d01e 653f
000001c0: 6e1c adbe 121d 07bc e21e 70bf 728c 3140
000001d0: 4d33 ccbf d91b 503e 307d a2bc 0ff7 ed3e
000001e0: 2c1f b7bf d8e9 d7bf 3d9e 21c0 3515 dc40
000001f0: 0e96 38c0 55b7 3bbf ef39 0040 cac3 5fbe
00000200: 1988 87c0 b03b 2b40 d552 d8be a8d9 c1bf
00000210: 4b2f 2b3f f48e ea3f b066 83c0 8512 703f
00000220: bbb9 6a3e 9106 17be c091 e0bf 7890 0540
00000230: 038a 79bf d9a9 123f adc2 34bf a1be a03e
00000240: 688e d5bf 9bb6 0440 cddb 9dbf 3bea 4d3f
00000250: faea 3dbf 5b2f 733e b07f 9fbf 653f 1cc0
00000260: 3fca 1f40 ddc9 d23e ce48 19c0 fcac 553f
00000270: 80c2 b23f dc7f b0bf 4b39 5540 dd16 ddbf
00000280: e8c7 903e 15c2 8240 2fe4 6a3e 4e68 21c0
00000290: 221d 4840 fb49 bebf 3006 233e 8dd0 083d
000002a0: 75dd 3240 221d 48bf 6f61 99bf d492 42bf
000002b0: e920 d5be cb75 743f aff3 92bf a804 08c0
000002c0: a4b2 d8c0 19a0 fcc0 0151 363f 7a37 a6bf
000002d0: 5bae a03f 0599 9dbf 5c5f 53bf 7dee 9e3e
000002e0: ef6d 983d 3b92 c83c e4a0 943f e3d4 ccbf
000002f0: 9be7 233d aba7 6a3e 418f 8abf 1b25 ec3f
00000300: 2d7f 1cc0 78af c83f b403 183f b85d bfbd
00000310: 6535 12c0 9e70 f33f a76d 62be 0fb1 c13e
00000320: 2cb2 7d3d 2c61 3ebe a6b3 933e 5e5a 813e
00000330: ce87 dcbf 1f49 6240 3ed4 cebf 2ac8 9a3c
00000340: 1291 7c3e 3561 5e3e 4275 dfbe 84a7 193f
00000350: cb4a 27be 6bcc dabd 6a78 683d 9f97 6f3d
00000360: af35 bdbf 581d edbf 4b17 9440 e46e 70be
00000370: 08c9 1abf 8430 543f 6d32 5a3f 41c6 b3be
00000380: 9a32 44bf e38a 0c3f fbda 6ebd 6780 083d
00000390: e98b 303c 40d8 df3e 7805 f93f e4a9 03bf
000003a0: f4c7 c4bf fa8d 4bbf fef8 82bf 603c b53d
000003b0: 063d 0a40 39b8 b1bf b832 2abe 78df 9e3d
000003c0: 1aba 99bf 0eec 2240 7694 8dbf e3b1 283e
000003d0: e79a 5c3b 6273 4cbe 3710 303f 3caa 25bf
000003e0: e1f5 2fbe 77dc 773d bd85 9b3d ef7f 80bd
000003f0: e631 58be 7852 fd3f bdd1 9abf 721b aabe
-2.1033983 -0.48431635 -0.5826883 5.974095 4.0936594 1.1273699 0.50265014 1.4408613
-2.0514495 0.2528158 1.0399488 -1.4939531 2.9478843 2.7295911 2.3860474 -2.8708005
2.3172708 3.0736806 -0.2682701 -0.8855158 1.498612 -0.8557478 -0.05980017 -0.05605647
-0.15125178 0.9752547 -3.62287 3.1703193 -0.9485678 -0.35053623 -2.9125943 1.23513
1.9507841 -0.34015635 0.6305514 -0.3678816 -0.35065353 -1.4202844 1.5490587 -2.3346255
-3.6062615 1.9750683 0.97086024 -1.1681858 0.016514344 0.24768074 8.758232e-05 -0.18937953
-1.8429621 -1.9419968 1.9665496 8.422006 -3.60068 -1.9249749 -0.4851534 -0.70067453
1.4991074 -0.6630354 0.013816996 -0.31221396 -0.1140123 -1.9729297 2.1381357 -0.40186545
-1.1007314 1.3456646 0.22557522 -1.1158379 1.2902939 -0.5955431 0.10912558 -0.25331223
1.3550698 0.87600917 0.5470451 -3.055104 4.2921934 -0.95655936 0.84959865 -0.0011213677
-2.939458 2.4883895 -1.2572814 0.2030969 -1.95269 -0.44124907 -2.084507 1.8248639
-0.30575505 -0.27843747 -2.4747097 -0.7604418 -0.048593406 3.5950093 -2.132463 -1.747032
2.582803 -0.79197323 -0.44305792 -0.25871837 -1.5455481 2.4352112 -0.95900214 2.2865138
-1.1168262 0.033391185 0.3586949 -0.90767425 2.8215675 -1.9071405 -1.3893203 0.8950014
-0.33810753 -0.008246677 -0.93797123 2.774197 -1.5953156 0.20323123 -0.019835085 0.46477553
-1.4306388 -1.6868238 -2.525283 6.8775887 -2.8841586 -0.7332662 2.003536 -0.21852031
-4.2353635 2.675518 -0.42250696 -1.5144548 0.6686904 1.8324876 -4.106285 0.9377826
0.22922413 -0.14748599 -1.7544479 2.0869427 -0.97476214 0.57290417 -0.7060955 0.31395438
-1.6684084 2.0736454 -1.2332703 0.8043553 -0.7418667 0.23748533 -1.2460842 -2.4413693
2.4967191 0.41169634 -2.3950686 0.8346708 1.3965607 -1.378902 3.331622 -1.7272602
0.28277516 4.0861917 0.22938608 -2.5219913 3.1267781 -1.4866327 0.15920329 0.033402015
2.7947667 -0.78169453 -1.1982859 -0.7600529 -0.4162667 0.9549224 -1.1480616 -2.1252842
-6.7718067 -7.894543 0.7121735 -1.298568 1.2553209 -1.2312323 -0.8256738 0.31041327
0.07442843 0.02448379 1.16116 -1.6002468 0.040015798 0.22915523 -1.0824968 1.8448824
-2.4452622 1.5678549 0.5938065 -0.09344047 -2.284509 1.9018743 -0.22112142 0.37830397
0.061937496 -0.18591756 0.28847998 0.25264257 -1.7228944 3.535713 -1.6158521 0.018894274
0.24664715 0.21716769 -0.43644148 0.60021234 -0.16337125 -0.10683521 0.05675546 0.058494207
-1.4782008 -1.852458 4.6278434 -0.23479801 -0.60463 0.8288653 0.85233194 -0.35112193
-0.7663971 0.54899424 -0.058314305 0.03332558 0.010775545 0.43719673 1.9454794 -0.5143111
-1.5373521 -0.79513514 -1.0232236 0.08849406 2.1599746 -1.3884345 -0.1662091 0.07757467
-1.2009919 2.5456576 -1.1060932 0.16474108 0.0033661665 -0.1996589 0.6877474 -0.6471288
-0.17183639 0.060512986 0.07593868 -0.062744014 -0.21112785 1.9790792 -1.2095257 -0.33224064

layers.0.bias f4 [70]
00000000: 74f4 05c0 8bce 463f 6d68 3a40 0208 293e
00000010: 2fc7 09be 8500 aabd ad11 663e 4fb9 5f3c
00000020: 2e6b 10c0 c769 0d3e 1723 e3be b492 983d
00000030: d83d 4abf a709 a4bd 54e8 48c0 93a6 2e3f
00000040: 8edc 0fbf 5efd 953f 6e23 d93c a793 8abb
00000050: 1540 10bf ad04 183e 830f adbe 9519 18bd
00000060: ca07 c83c 585e 8c3b 3f80 c2bf 62e7 193e
00000070: 37d7 97bd 8f86 f0bf 2e7d 24be da79 1bc0
00000080: 8a10 c53d 8f87 b0bc 86ba 703d 258c 6ebd
00000090: 018f 5d3f ec69 b5b9 c294 4cc0 1cf8 6c3e
000000a0: 7db1 423f 1423 34bd e745 cb3f 8b83 87be
000000b0: 31e4 24bd 17da e03d cb1c 05bd 1fbb 26c0
000000c0: 3a89 8f3f 971e 103c 8b58 b53c a982 36c0
000000d0: ccf5 233f e40a 5f3d 002c a13f 0ff2 323c
000000e0: bc9d e2bd 6e67 fcbd 630e 8e3c 0b84 1bbe
000000f0: 4a59 803f 43a8 3ebd e45b 14c0 8090 dd3c
00000100: e498 1abe 9717 1f40 1a12 dd3e 31bb d0bd
00000110: 58be 3f3f 3fe8 9d3d
-2.0930452 0.7765891 2.9126236 0.16506961 -0.13454889 -0.0830088 0.2246768 0.013655021
-2.2565417 0.13809882 -0.4436271 0.074498564 -0.79000616 -0.080096535 -3.1391802 0.6822292
-0.56195915 1.1717947 0.026506152 -0.0042290273 -0.5634778 0.14845534 -0.33800897 -0.037133772
0.024417777 0.0042837076 -1.5195388 0.15029672 -0.07414096 -1.8791064 -0.16063377 -2.4293122
0.09622295 -0.021549014 0.058771633 -0.05823912 0.8654633 -0.00034601928 -3.1965795 0.23141521
0.76052076 -0.043978766 1.5880708 -0.26467547 -0.040256683 0.10979097 -0.032498162 -2.605171
1.1213753 0.008796356 0.022136947 -2.8517249 0.6404693 0.054453745 1.2591553 0.010921969
-0.11065242 -0.12324415 0.017340844 -0.15187089 1.0027249 -0.046547186 -2.3181086 0.027046442
-0.15097386 2.4858148 0.43177873 -0.10191954 0.74899817 0.07710313

layers.1.weight f4 [50, 70]
00000000: ae09 12c0 652c bebf d033 1cbf ca15 b93f
00000010: 3bf1 57bf eeb0 753f eb33 4d3f 6bf4 c03e
00000020: 48fe 31bf ce13 ae3f af95 613f a21b 903f
00000030: 10ca 7cbd 59f5 7cbf 6b85 11bf 56c9 31bf
00000040: 9622 94bf 3ccf cabe 892d f4bf 6cc3 62bf
00000050: 1d53 8fbf 787a a0bf 75b9 34bf 0efd 943e
00000060: 2937 c83e db69 a33f 27fc 093d 0674 a640
00000070: 8f7d 2abf f64b 2d3f bf75 bd3d b126 373e
00000080: 4b2c 893e 3814 953e b224 5abf 8e18 2cbe
00000090: 16d8 1ebe ed31 bbbe 7961 a3bf 61d4 ec3f
000000a0: 21de d9be 7c18 043e d54c 64be f57f a0bf
000000b0: 3433 cf3e 7c5f cabf f66e 0b3f bcd0 88bf
000000c0: 4ed7 1abe b0be d1bd c07c 04be fe9c 1cbf
000000d0: e6c8 5f3e 3e10 25bf 6972 073e e669 4cbf
000000e0: 92b4 fcbf f638 81be 89e4 22bf ca03 0940
000000f0: 5df6 b33f 65b9 80bf dff7 46be 7a23 11be
00000100: d936 77c0 0a4b d0be 7430 94bf 6a31 e73f
00000110: 3de4 273e b6b5 b9bf b0a5 e23e 55b9 1240
00000120: 351b 02c0 26d7 a33f dd27 1dc0 ae64 0d3f
00000130: 5843 fdbe de32 41be 76b6 13bf 24ee f83e
00000140: bbe8 9abf 64d7 5c3e d0a3 ca3f 396c debf
00000150: fdf8 963a 914a 40bf 7180 b1bf 6b91 2840
00000160: 8c0a 93bf e3cd 3c3f f66a 07c0 5061 ad3e
00000170: d4da 533f ff23 453f 390a 503f 9ff1 2cbf
00000180: e5c3 04c0 7fdf a73f 6460 01bf be28 ce3e
00000190: 250c 95bf 3fde d8bf 2732 10bf 9d6b bfbe
000001a0: 6b91 863f 5172 b3bd 3508 80bf 2d06 cfbe
000001b0: 0415 ae3d a3dc b13f 17d0 4240 6c84 f8bc
000001c0: cc06 1740 1713 903f 0f59 da3e 06d1 8bbf
000001d0: d5e2 b8be f8ff d8bf 86ba 043f 9e22 843f
000001e0: 659a ad3e 5bd4 f6be 31a6 0f40 69d1 0cbf
000001f0: 0bfe af3f dd1a d93e dc7c 41bf 8509 c9bf
00000200: 6c86 80be 2df6 94bf 2e91 1140 1158 883e
00000210: 8697 b6bf 4919 4b3e 1697 b5bf 18a9 0bbf
00000220: 80bc 15bf 54c1 1e3f 8391 12be 9200 393d
00000230: 5472 04c0 b7dd 98bf 30b9 ffbd 1ce5 993d
00000240: bd85 6f3f 716d 863f c60b b5bf eea3 cd3d
00000250: 393e 27bf 2f0b c1bb b44c 11be 295b 56bd
00000260: f9a6 44c0 111d 8f3f 09a6 29bf 4b99 0040
00000270: bba4 8c3f 9bbe 333f eed9 a7bf d91f 3c3f
00000280: adf8 dc3c cda0 1ebf 35e4 e8be 48b7 883f
00000290: 7c93 a53f 3554 ce3e f9b8 b83c 6bc0 66bf
000002a0: 4b8a 84bf 7850 5f3f 894a 9cbf 776b 523e
000002b0: bb17 e83f 2635 aa3e 6a3e 1b40 ee36 55bd
000002c0: 1998 433f 00c5 9a3d bf27 3bbf c840 c43e
000002d0: 3b45 6140 7663 04be 1d97 7b3f 6d56 283e
000002e0: 2dff 1f3f 4705 4e3e a7c5 8bbe 8a37 2bc0
000002f0: 2a89 e63f 84bf 553f baac 6abe c0a0 81bf
00000300: 1b94 af3f acf8 633d 3d8b e2bd 6cea c23d
00000310: f94b ea3e c295 93bf 45f7 68be 6f6c 18c0
00000320: 6d5d 0240 552a 763f 267b 303f 6f4d 4e3d
00000330: c911 84bf e417 4b3d b9c0 5a3f 1bb8 863f
00000340: 780a fcbc 9780 793f c46a 5cbf 8233 db3e
00000350: 4c5d 22bf 4bb3 97bf 7079 2a40 a212 193f
00000360: e1a4 f63d 42a8 6a3e 0010 ed3f 5ea0 8ebe
00000370: 2b03 48bf 6ac9 4dbf 8d72 86be a35c 683f
00000380: 2a78 8ebf 81eb 1240 33c3 2e3f 97aa 173f
00000390: 4550 b43e 04e5 8bbc 8c60 763f 5035 5640
000003a0: d833 e9be f379 e13f 19d0 0c40 c8e8 483d
000003b0: bfa7 1ac0 7bb7 3ac0 ff9c 93be 8e68 08c0
000003c0: bad3 17bf a79f af3e 9776 08bf 66bd 28bf
000003d0: dcc7 013f 020b c7bc f967 64be afd9 693e
000003e0: e609 243f 3fa5 753e f795 3d3f 2a44 a0bd
000003f0: b15f e13c d2aa f9bd 4c2a 89bf 41ca 5640
-2.2818408 -1.4857298 -0.6101656 1.4459774 -0.84352463 0.959731 0.80157346 0.37686476
-0.6952863 1.3599794 0.88119024 1.1258433 -0.06171614 -0.9881187 -0.56844205 -0.6944784
-1.1573055 -0.39611232 -1.9076396 -0.8857944 -1.1197239 -1.2537374 -0.70595485 0.29099315
0.39104584 1.276668 0.033687737 5.201663 -0.6659784 0.6769403 0.09250974 0.17885853
0.26791605 0.29116988 -0.8521224 -0.16806242 -0.15512118 -0.36561528 -1.2764121 1.8502313
-0.42552283 0.12899965 -0.22294934 -1.2539049 0.40468752 -1.581039 0.5446619 -1.0688701
-0.15121195 -0.10241449 -0.12938213 -0.6117705 0.2185398 -0.6447791 0.13227238 -0.7984909
-1.9742606 -0.2523877 -0.63629967 2.1408563 1.4059559 -1.0056578 -0.19430493 -0.1417369
-3.8627226 -0.4068225 -1.1577287 1.8061955 0.1639566 -1.4508579 0.44267035 2.2925618
-2.0329106 1.2800033 -2.455558 0.5523175 -0.49465442 -0.1886706 -0.5770029 0.48619187
-1.2102274 0.2156654 1.5831242 -1.7376777 0.0011518296 -0.7511378 -1.3867322 2.6338756
-1.1487594 0.7375166 -2.1159034 0.33863306 0.8275578 0.7700805 0.812656 -0.67556185
-2.0744565 1.311508 -0.50537705 0.4026546 -1.1644331 -1.6942824 -0.56326526 -0.3738679
1.0513128 -0.087620385 -1.0002505 -0.404344 0.08500102 1.3895458 3.0439508 -0.030336581
2.3597898 1.1255826 0.4264607 -1.0923164 -0.3611056 -1.6953115 0.5184711 1.0323064
0.33906856 -0.4820889 2.2445185 -0.55007035 1.3749403 0.42403308 -0.75581145 -1.570603
-0.25102556 -1.1637627 2.274486 0.2662969 -1.4264991 0.19833864 -1.4186733 -0.5455489
-0.58490753 0.62013745 -0.14313321 0.04516656 -2.069478 -1.1942662 -0.124864936 0.07514402
0.93563443 1.0502149 -1.4144218 0.10041033 -0.6532932 -0.0058912258 -0.14189416 -0.05233303
-3.0726912 1.1180745 -0.66268975 2.0093563 1.0987772 0.70212716 -1.3113382 0.73486096
0.026974047 -0.6196411 -0.45486608 1.0680933 1.2935634 0.4029862 0.02254914 -0.90137357
-1.0354704 0.8723216 -1.2210246 0.20548807 1.8132242 0.33243674 2.4256845 -0.05205434
0.7640396 0.07557106 -0.7310752 0.38330674 3.5198505 -0.12928566 0.98277456 0.16439219
0.6249874 0.201192 -0.27299234 -2.6752648 1.8010609 0.83495355 -0.22917452 -1.0127182
1.3717073 0.055657074 -0.11061714 0.09517369 0.45761088 -1.1530077 -0.22750576 -2.3816183
2.0369523 0.96158344 0.6893791 0.050366815 -1.0317928 0.04958333 0.8545032 1.0524935
-0.03076671 0.9746184 -0.8610041 0.42812735 -0.6342361 -1.1851591 2.663662 0.59794056
0.12043167 0.22915748 1.8520508 -0.27856725 -0.78129834 -0.8038546 -0.2625927 0.9076635
-1.1130421 2.295624 0.682666 0.59244674 0.3521749 -0.017076977 0.9624107 3.347004
-0.45547366 1.7615341 2.2002013 0.049050122 -2.4164884 -2.9174488 -0.28830716 -2.1313815
-0.59307444 0.34301493 -0.53305954 -0.65914 0.50695586 -0.024297241 -0.22305287 0.22836946
0.64077604 0.23988818 0.74056953 -0.07825501 0.02751145 -0.121907845 -1.0716033 3.3560946

layers.1.bias f4 [50]
00000000: cc4b ff3e dfb0 1240 6a07 8a40 00e7 25c0
00000010: 76b8 72bf da5f f23f a81c d53e e247 6040
00000020: a320 c23e 3643 163f 6ab5 2dc0 2508 d43e
00000030: 8cd6 ff3f 0646 a83e 5d8a 433f 1268 b0bf
00000040: 61d2 873e 9ae9 b5bd 7f55 4ebf 960d 2ebf
00000050: c084 12be b306 5cbf bcbd ba3e bc2d dc3f
00000060: eb38 753f e019 e8be 3572 7c3f 4271 633e
00000070: 560a 76bf a1de 7dc0 c27e 69bf d69d 6c3f
00000080: 12db e13f f0f3 bb3e ad3c cd3e 1759 1cbf
00000090: 9f3c 6bbd 2e5a bcbf 721e 893f 5c65 36c0
000000a0: 234e 3ebf 1f5d a5bc 2b50 82bf 9e69 8cbb
000000b0: 1348 4d40 831d 2a3f 14f6 0e40 4e85 8ebe
000000c0: 7bd9 92bf 5795 a4c0
0.49862516 2.2920454 4.313405 -2.5922241 -0.94812715 1.8935502 0.41623425 3.5043874
0.37915525 0.58696306 -2.7141976 0.41412464 1.998735 0.32865924 0.76383 -1.378176
0.26527694 -0.088824466 -0.80599207 -0.6798948 -0.14308453 -0.8594772 0.3647288 1.7201457
0.95789975 -0.4533224 0.98611766 0.22211173 -0.9610952 -3.9667132 -0.9120904 0.9242834
1.764498 0.36709547 0.40085354 -0.6107344 -0.05743086 -1.4715021 1.0712416 -2.8499365
-0.7433798 -0.020186005 -1.0180715 -0.0042850515 3.207524 0.6645128 2.2337694 -0.27836078
-1.147262 -5.14323

output.weight f4 [2, 50]
00000000: 6474 85bd 91d9 81bd 2674 a2bd 7974 8e3d
00000010: 5e25 c63c bd9a 9b3d 1e5f 4b3d 7500 943c
00000020: 349d 09bd cf78 783b 675b 43bd 3107 d7bc
00000030: dc3b bebc e622 92bd 1bab adbd 899a aebc
00000040: 04b8 1f3c 51fb 5f3d 43ee 65bd f982 2bbd
00000050: fb3c 803d d049 02bd a0ca b03c 63ca 37bb
00000060: 919f 37ba e78a 2c3d a79e 203d 3b04 7f3d
00000070: 0026 d43d 8388 ac3d 3580 643c e329 cabb
00000080: 4942 ccbc 87c5 333d 6c14 a13c e5c8 4f3d
00000090: c107 a6bd 3e21 9dbd 37ef 8cbd f068 cd3d
000000a0: 3982 503c b877 043d 2eed a9bb 826a 993d
000000b0: ed03 24bd ca55 683d 8d1b dbbd e9f5 b63d
000000c0: 1d76 e63c 1c4b 493b d928 d33c 623f ccbd
000000d0: b8fd e8bc 2a2a da3c 0a6b 423d a9f5 48bd
000000e0: 9db3 70bc be78 df3d accb efbc 0e35 b43c
000000f0: c045 5abd d5dd 913d 5714 edbc 1f05 933c
00000100: fd9b 15bd ddcc 913d 182e 5bbd 1c5c 573d
00000110: 7dad 95bd 5f89 c7bc 32ff 6dbc 6432 f8bc
00000120: 2f9d 1d3d da25 23bd b6bd 503d 37a5 6c3d
00000130: fffa a4bd 895f c7bc 0b78 1dbc 1391 143d
00000140: a898 9f3c 5d5e 8d3d 9d0f 2ebd 1394 233d
00000150: 0582 acbd c79c a33c e1cc 053d 78ba 073c
00000160: 23f8 43bd 0ab6 4d3d 37bf 6d3d d74a 7f3d
00000170: 9802 653d be0f a13c dc96 3bbd 21bf b1bc
00000180: 6f38 29bc 68da 3abc aa0b 993d 6107 b93d
-0.065163404 -0.063403256 -0.0793231 0.06955809 0.02418774 0.07597873 0.049651258 0.018066624
-0.033597186 0.0037913804 -0.04769459 -0.026248546 -0.023221903 -0.071355626 -0.084799014 -0.021313922
0.009748463 0.054683033 -0.056135427 -0.041872952 0.06261631 -0.031808674 0.021580994 -0.0028044216
-0.0007004673 0.042124655 0.039213803 0.062259894 0.103588104 0.08424475 0.013946583 -0.006169544
-0.024933951 0.04388955 0.019663058 0.050728697 -0.08106948 -0.07672356 -0.06881564 0.10029781
0.01272636 0.032340735 -0.0051857447 0.07491018 -0.040042806 0.05672244 -0.10698614 0.089336224
0.028132493 0.0030714935 0.025776314 -0.09973027 -0.028441295 0.026631434 0.04746536 -0.049062405
-0.014691261 0.109117016 -0.029271923 0.021997955 -0.053289175 0.07122389 -0.028940363 0.017946778
-0.036525715 0.07119153 -0.053510755 0.052578077 -0.07308481 -0.024357496 -0.014526175 -0.030297466
0.03847998 -0.03983102 0.050962172 0.05777475 -0.08055686 -0.024337547 -0.00961114 0.036271166
0.019481972 0.06902764 -0.04249536 0.039936136 -0.08423237 0.019972218 0.03266609 0.008284204
-0.047844063 0.050222434 0.058043685 0.062327232 0.055910677 0.019660827 -0.045798168 -0.021697583
-0.010328396 -0.011404611 0.07472928 0.090346105

output.bias f4 [2]
00000000: 8d7f 093f e1f1 c93e
0.5371025 0.3944235

exp_avg f4 [70, 6]
00000000: 5744 ef39 5130 003a 8e7b fd39 3c2c 9039
00000010: b3b5 27b9 c389 95b9 0755 d7b8 c477 84b9
00000020: d5da fcb9 801d 64ba 1a53 fcb9 4d56 c3b8
00000030: 1af7 a539 aa8d a339 2a5e 9539 42fe 9738
00000040: 7ad2 a7b9 ca92 f9b9 e2bb e539 908e c139
00000050: 4a1d 9639 ad0a 35b9 cd1e 08ba 57e5 21ba
00000060: b18e 8d39 e87f 4639 4599 5939 379b 5a39
00000070: a78d 0e3a 2bcb 37b9 c186 deb9 3e6f e2b9
00000080: 9154 5fb9 2713 bd38 d840 703a 29b2 823a
00000090: d3c7 2e3a 958a 2a3a 76c0 1e3a 6dd7 6039
000000a0: 19c1 c4b9 5805 60b9 6867 b639 5ba6 1d3a
000000b0: 68e4 473a 149b 9b3a d94f 313a fa13 3dba
000000c0: 29ef ad39 e088 b939 d931 7439 d62a 4bb9
000000d0: 4873 01ba 653b cfb9 d13c 87b9 4341 6bb9
000000e0: 1b61 d8b9 ebac 8cb9 6405 ffb5 7ae1 4339
000000f0: b235 47ba 738a 1dba 7a81 dcb8 2ac6 c93a
00000100: be4b 963a 92f5 ad3a 5aa8 623a 9d49 823a
00000110: 7bf2 543a a27b 213a 8b59 5839 fdd8 5bba
00000120: f9ee 993a caae 8f3a 4705 693a 0d75 97b9
00000130: da92 b9ba 8d66 07bb b02e a5b9 46aa bab9
00000140: d059 1ab8 116c dc36 ec7b 7939 6bc5 7239
00000150: 79ba 2aba 270f 59ba c6df 53ba ad3b 68b8
00000160: 905c 6a3a ee10 993a 7703 b2ba 6cff aaba
00000170: d2b1 a8ba 1d06 fbb9 3334 623a 63d2 903a
00000180: 7956 61ba 46ac 64ba e76e 5eba e683 01ba
00000190: fcb5 793a 7842 883a 1282 5b3b a2ee 5f3b
000001a0: 0a82 513b d57f d13a 6451 70bb 7919 7cbb
000001b0: 66f8 06bb 4587 d5ba b034 32ba e3fc 0a3b
000001c0: 0395 513b 0518 193b aa5f 2f39 fd04 ecb8
000001d0: 707f 34ba b46c 31bb 5c51 7aba 9a2c 4239
000001e0: 443a ca39 a4c4 9a39 c764 3139 fd35 cbb8
000001f0: c980 7db9 63a0 00ba ca0b f6ba 5295 01bb
00000200: 7d85 05bb 2fb5 c0ba 166d 753a 92fb 583a
00000210: a39f b8b9 143e c5b9 2671 e2b9 e55b 41ba
00000220: fdf2 aeb9 f173 de39 9d52 06ba 840a 67ba
00000230: a3f9 89ba 95d4 66ba 32a0 b138 fec7 8d3a
00000240: dc49 65ba bbf5 91ba 2ff4 9aba ba5b 37ba
00000250: 13da 473a f46b da3a 0eb0 4dba a670 39ba
00000260: 48cb 67b9 4acc 9f3a 009f cc3a 080f b83a
00000270: ba60 3239 0c54 2e39 5cad 3339 7932 9638
00000280: 253f 90b9 7561 9db9 d9a2 ca3a b6a6 ea3a
00000290: 2275 073b 4cb5 113b 1fb1 fe39 d331 47b9
000002a0: d261 9aba 629e 9fba e460 8bba 5b68 8c39
000002b0: 1e51 9d3a aae3 c03a d60e 7a39 ddae 8439
000002c0: 01ef 2239 5c37 39b9 bcab edb9 2793 93b9
000002d0: 24bf bf38 1b38 e938 8ba5 5a39 fef6 fb39
000002e0: a88e fa39 dee1 be39 f327 85bb 09aa 8abb
000002f0: 0be9 8cbb 9ddf 59bb 07bd 723b 4a20 813b
00000300: 020e 74ba 11d4 76ba 9d90 95ba 0554 85ba
00000310: 0d76 163a 8243 253a 845c 70b8 59d6 96b8
00000320: 18ce d9b7 0154 8836 0ed5 7b38 db1f aa39
00000330: 6232 1eb7 4b16 3fb9 ab15 98ba 914e 87bb
00000340: 6ea1 67bb 4ade bfba 212b 59b9 17ed bfb9
00000350: 24da 2cb9 3d99 6ab9 c029 aeb9 8a0d 3938
00000360: 0734 133b 0183 173b 8d30 113b 876a 813a
00000370: ae92 5aba 15b5 15bb de08 903a 3852 8e3a
00000380: c14c 913a ee64 253a 8f8d 9b39 c3c7 3dba
00000390: d0d0 683a 4162 673a 194e 2c3a 19d3 b9b7
000003a0: 878a 43ba 8a0c 5dba 263e 063a 81b8 cf39
000003b0: 99e6 b839 67ac 2e39 375d 01ba c81d 6739
000003c0: 6ab0 2a3b b930 2e3b 054f c03a 1fe0 3cbb
000003d0: f76f bdbb a79f b5bb 2033 33b9 0330 2bb9
000003e0: 6fe0 87b8 09af 2039 09fb 2e3a cbd7 ce39
000003f0: 19df 7f39 529f 9339 9495 c038 c3e3 35b9
0.0004563655 0.0004890012 0.00048347976 0.00027498777 -0.0001599405 -0.00028522135 -0.000102678365 -0.00025266234
-0.00048228228 -0.00087019056 -0.000481271 -9.314399e-05 0.00031655357 0.0003119533 0.00028489652 7.2476e-05
-0.0003200954 -0.00047602347 0.00043818267 0.00036918046 0.00028632052 -0.00017265482 -0.0005192578 -0.0006175837
0.0002699993 0.000189304 0.0002075183 0.00020847922 0.0005437978 -0.00017527926 -0.0004244354 -0.0004318896
-0.0002129844 9.01579e-05 0.0009164936 0.0009971309 0.00066673494 0.00065056357 0.00060559006 0.00021442557
-0.00037527902 -0.00021364295 0.0003479079 0.00060138636 0.0007625283 0.0011871778 0.00067639124 -0.00072127546
0.0003317532 0.0003538793 0.00023288223 -0.00019375546 -0.0004938138 -0.0003952637 -0.00025794518 -0.00022435658
-0.0004127108 -0.00026831715 -1.9000549e-06 0.00018680646 -0.0007599249 -0.0006009705 -0.000105145344 0.001539414
0.0011466665 0.0013272038 0.0008646302 0.0009940151 0.00081232906 0.00061600853 0.00020632723 -0.0008386521
0.0011744193 0.0010962125 0.0008889031 -0.00028888174 -0.0014158145 -0.002066049 -0.00031506037 -0.00035603548
-3.6800106e-05 6.5690915e-06 0.00023792655 0.00023152462 -0.0006512772 -0.0008280151 -0.0008082356 -5.5368688e-05
0.00089401845 0.0011678019 -0.0013581355 -0.0013046092 -0.0012870377 -0.00047879005 0.0008628994 0.0011049028
-0.0008595954 -0.00087231805 -0.00084851537 -0.0004940614 0.0009525714 0.0010395786 0.0033494276 0.0034169336
0.0031968378 0.0015983531 -0.0036669606 -0.0038467331 -0.0020594834 -0.0016290924 -0.0006798012 0.002120786
0.0031979687 0.0023360264 0.00016724938 -0.00011254286 -0.0006885445 -0.0027072849 -0.00095488667 0.00018517897
0.00038571854 0.00029519678 0.00016917578 -9.6898504e-05 -0.00024175936 -0.0004906712 -0.0018771824 -0.001977284
-0.0020373755 -0.0014702434 0.00093622634 0.0008277233 -0.00035214153 -0.0003762102 -0.0004319038 -0.0007376059
-0.00033368907 0.00042429523 -0.00051240047 -0.00088135176 -0.0010526668 -0.0008805481 8.4698564e-05 0.0010817049
-0.00087466626 -0.0011135855 -0.001182204 -0.00069945643 0.0007623743 0.0016664253 -0.00078463636 -0.0007073976
-0.00022105605 0.001219162 0.001561135 0.0014042566 0.00017011436 0.00016625243 0.00017135352 7.161959e-05
-0.00027512867 -0.00030017985 0.0015459909 0.0017902467 0.0020669182 0.0022233305 0.0004857862 -0.0001899668
-0.001177842 -0.0012177939 -0.0010633734 0.00026780632 0.0012002324 0.0014716287 0.00023847385 0.00025307285
0.0001553856 -0.00017663598 -0.00045332115 -0.00028147662 9.1431924e-05 0.00011120756 0.0002085177 0.00048058474
0.00047790003 0.00036407908 -0.0040636 -0.0042316956 -0.004300242 -0.0033244856 0.0037038939 0.0039406167
-0.00093099487 -0.00094157556 -0.0011410896 -0.0010172134 0.0005739637 0.000630431 -5.730662e-05 -7.192483e-05
-2.5964386e-05 4.062895e-06 6.0041486e-05 0.0003244866 -9.4292645e-06 -0.00018223484 -0.0011603137 -0.004129239
-0.0035344022 -0.0014638391 -0.000207108 -0.00036607005 -0.00016484462 -0.00022373065 -0.00033218972 4.4120046e-05
0.002246143 0.0023118856 0.0022154183 0.0009873667 -0.0008337897 -0.002284353 0.0010988971 0.0010858243
0.0011085497 0.000630929 0.00029669373 -0.00072395446 0.0008881213 0.00088265917 0.0006572917 -2.2152019e-05
-0.0007459302 -0.00084323494 0.0005120955 0.00039619583 0.00035267023 0.00016658158 -0.00049348496 0.00022040971
0.0026045092 0.0026579334 0.0014671987 -0.002882011 -0.0057811695 -0.0055427137 -0.00017089816 -0.00016325717
-6.479106e-05 0.00015323995 0.00066749804 0.0003945216 0.00024401805 0.00028156728 9.1831345e-05 -0.00017346353

exp_avg_sq f4 [70, 6]
00000000: 1420 4d36 98df 5736 e8cd 6936 23b7 e735
00000010: 19f2 1335 0947 9c35 517f a137 7cdd a637
00000020: 1fd5 9d37 fddc 5737 3333 5237 d22a 6a37
00000030: 0a92 b737 d583 b437 2af8 8e37 176f 2637
00000040: cf93 c437 d8f4 e537 5f29 8537 f462 8037
00000050: 980b 3137 d903 db36 f721 b837 69d5 be37
00000060: f7f1 8d37 3e0e 9337 7b11 c237 adf8 9337
00000070: 23dc 8837 6885 5c37 ef71 5738 97a3 5938
00000080: 8be2 4b38 4b59 df37 ba01 d337 ceb0 2a38
00000090: dd8c e436 48cb e236 3c35 bf36 94d0 a735
000000a0: 8334 8936 e972 d736 b5ae 1738 063a 1b38
000000b0: aed8 0d38 a955 c737 e3fa 0038 b767 2038
000000c0: a0c4 7537 fa92 6d37 67db 0c37 f483 1f37
000000d0: 79cc 9f37 77a7 9c37 efbd a337 8684 a437
000000e0: 5276 a937 bc5f 1c37 4a0a 0137 2fb6 2537
000000f0: 0e40 cb38 4671 c438 0dcf 9238 00c7 ac38
00000100: cec3 3f39 cce7 2739 8f8f e337 66f0 e637
00000110: f32b f537 da5b 0838 ea36 8337 6231 bd37
00000120: 0471 2938 eb07 1c38 2cc4 e437 370b f237
00000130: b422 7038 3bd9 6838 45a8 2938 000b 2838
00000140: 554a 1438 2dc0 8a37 04e7 3838 b4b8 4038
00000150: 6bb2 8537 9413 9b37 28fd 9b37 8f40 b037
00000160: 391d e637 61cf a537 3c13 8837 313e 8837
00000170: 67d2 7b37 5955 3437 be09 6b37 df29 8737
00000180: c635 cc36 ad50 db36 be4e ea36 09d4 bb36
00000190: d8ca 5b36 4641 9f36 96a5 3839 dadf 4139
000001a0: 0d49 2839 5c58 b638 efc6 3539 8992 7539
000001b0: ad96 2239 ba42 1d39 47ff f538 78f4 8738
000001c0: 16d1 4539 fd57 5339 0ad4 4839 bcc7 4339
000001d0: b3eb 1b39 f7f2 c338 6544 6739 acf5 7839
000001e0: 799d 6937 f859 7537 2e82 6c37 a7ef c336
000001f0: af64 8137 7e00 8537 1671 3a38 80c8 3d38
00000200: ee49 0f38 22a6 0238 3c2e 7b38 30ad 6238
00000210: f208 2437 6f87 2d37 12fa bc36 33e7 5f37
00000220: 2599 be37 6036 be37 1a1e 9338 9a39 9038
00000230: 3888 7238 b9f9 4b38 ed30 b938 2be5 bd38
00000240: 6517 9438 1a22 8f38 5ad8 6338 2c68 3838
00000250: 66ff c638 66f5 cb38 1845 d738 4291 d738
00000260: 2f44 af38 b268 d038 6201 3c39 ce00 3139
00000270: f121 aa36 6bd1 ad36 5168 9c36 e441 1d36
00000280: d968 2f36 c6a3 5236 51a1 8938 8798 8638
00000290: b274 5038 c63a 2a38 b050 bd38 3694 b938
000002a0: 987f e137 a004 e237 f829 e837 f91e 5c37
000002b0: 8ef1 9837 7dc6 9c37 4ded 1736 d9d6 1536
000002c0: c766 9035 25e9 6035 d1e8 a436 e5a1 9136
000002d0: 625c 3236 90dc 0a36 20cf 8736 0a7d 3837
000002e0: 265e 2737 4a2c 2d37 2968 5b39 1945 6139
000002f0: f21a 4f39 e1ce f338 6889 1939 72c5 5c39
00000300: 6fa5 3d38 feeb 3938 fd07 2138 3f3b d737
00000310: c4cc 5338 3f93 7238 9189 b535 d962 ce35
00000320: cac0 0236 8b35 0736 4e4f b235 ca08 4136
00000330: 1500 7439 99b3 6a39 e591 3a39 f65a 0439
00000340: ac2e 9d39 9b0c 9e39 50c8 8237 c0f5 8637
00000350: dcb7 7e37 db5c 1437 2649 d736 e4d3 0f37
00000360: 4b25 9038 c74b 8f38 55eb 6d38 aebc b037
00000370: 77e3 9538 74e6 ab38 fefd 3c38 bdd6 3f38
00000380: 546d 2638 aa2e ec37 265a 2e38 ab4a 2938
00000390: 5ceb f637 c087 e537 1591 a537 c9cf 5c36
000003a0: 2f6b 8536 0b7b 8e36 5394 1437 a7bc 1c37
000003b0: 8faf 2e37 8c6e a636 4891 7c36 ff9d df36
000003c0: eb29 7539 6128 7739 e5f1 3c39 9842 0839
000003d0: 4fdb ba39 16bf d139 1740 8137 1325 6d37
000003e0: c84b 1837 153e f535 d503 a337 e2d9 9d37
000003f0: 1930 c737 eebb cb37 1b44 ca37 7965 b037
3.0566052e-06 3.2167645e-06 3.4839559e-06 1.7264141e-06 5.5114066e-07 1.164358e-06 1.9251982e-05 1.9891879e-05
1.88151e-05 1.28664515e-05 1.2528896e-05 1.3957457e-05 2.1883305e-05 2.1519061e-05 1.704328e-05 9.920236e-06
2.343385e-05 2.7412942e-05 1.58741e-05 1.5304868e-05 1.05527215e-05 6.5271565e-06 2.1950325e-05 2.2749142e-05
1.6921183e-05 1.7530398e-05 2.3134742e-05 1.7639564e-05 1.6314973e-05 1.3144083e-05 5.1366103e-05 5.1889187e-05
4.8609956e-05 2.6625252e-05 2.5153964e-05 4.069582e-05 6.811328e-06 6.75899e-06 5.698441e-06 1.2503174e-06
4.0890313e-06 6.4208766e-06 3.6163914e-05 3.700892e-05 3.381882e-05 2.3762537e-05 3.0751235e-05 3.8243565e-05
1.4648918e-05 1.41605215e-05 8.395734e-06 9.507861e-06 1.9049492e-05 1.8674631e-05 1.9519559e-05 1.9612035e-05
2.0201467e-05 9.3206145e-06 7.691395e-06 9.877184e-06 9.6917254e-05 9.367107e-05 7.000389e-05 8.238666e-05
0.00018288122 0.00016012712 2.7127358e-05 2.753008e-05 2.9226741e-05 3.251047e-05 1.5641988e-05 2.2553551e-05
4.0397994e-05 3.7200673e-05 2.7271068e-05 2.885387e-05 5.725278e-05 5.5515422e-05 4.0449453e-05 4.0064566e-05
3.5355177e-05 1.654037e-05 4.408417e-05 4.5948385e-05 1.5937918e-05 1.8486557e-05 1.8595325e-05 2.1010897e-05
2.7431744e-05 1.9766101e-05 1.622142e-05 1.6241424e-05 1.5009754e-05 1.0748708e-05 1.400936e-05 1.6112752e-05
6.085934e-06 6.5361005e-06 6.9829102e-06 5.5977184e-06 3.2751614e-06 4.746168e-06 0.00017609293 0.00018489306
0.00016048942 8.6948945e-05 0.00017335614 0.0002341961 0.00015505655 0.00014997544 0.000117300595 6.4828375e-05
0.00018865275 0.00020155306 0.00019152477 0.00018671056 0.00014869757 9.34358e-05 0.00022055356 0.00023742643
1.3924547e-05 1.4624085e-05 1.4097006e-05 5.839352e-06 1.5424883e-05 1.5855065e-05 4.4451175e-05 4.524784e-05
3.416271e-05 3.114914e-05 5.9886122e-05 5.4043892e-05 9.7772445e-06 1.0343137e-05 5.6319486e-06 1.3345666e-05
2.2721078e-05 2.2675085e-05 7.015113e-05 6.877184e-05 5.782416e-05 4.8631544e-05 8.8306006e-05 9.054908e-05
7.0615475e-05 6.825123e-05 5.432251e-05 4.3966036e-05 9.4889474e-05 9.725503e-05 0.000102648686 0.00010279055
8.3573505e-05 9.937714e-05 0.00017929592 0.00016880335 5.070346e-06 5.1801812e-06 4.6613063e-06 2.3433176e-06
2.6138061e-06 3.1387767e-06 6.5627166e-05 6.418028e-05 4.9699745e-05 4.0585895e-05 9.0272515e-05 8.849094e-05
2.6881506e-05 2.6943453e-05 2.7676098e-05 1.3120233e-05 1.8232295e-05 1.8689077e-05 2.263888e-06 2.2327788e-06
1.0758748e-06 8.378577e-07 4.9146843e-06 4.3401838e-06 2.657784e-06 2.0691987e-06 4.047426e-06 1.0996368e-05
9.975896e-06 1.0321915e-05 0.0002092427 0.00021483413 0.00019751096 0.00011625677 0.00014642405 0.00021054389
4.5215183e-05 4.4327222e-05 3.839283e-05 2.5657586e-05 5.0497023e-05 5.783443e-05 1.3525588e-06 1.5376964e-06
1.9483728e-06 2.0147734e-06 1.3285114e-06 2.8764357e-06 0.00023269684 0.00022382884 0.00017792692 0.00012622387
0.00029980147 0.000301455 1.5590485e-05 1.6088481e-05 1.5182388e-05 8.843107e-06 6.416015e-06 8.572799e-06
6.8734014e-05 6.832886e-05 5.6724373e-05 2.1068696e-05 7.147242e-05 8.196841e-05 4.505924e-05 4.573794e-05
3.9679304e-05 2.8155122e-05 4.156879e-05 4.036228e-05 2.9435083e-05 2.736214e-05 1.9737092e-05 3.2903502e-06
3.9761867e-06 4.246254e-06 8.856022e-06 9.342249e-06 1.0412084e-05 4.960055e-06 3.763549e-06 6.664311e-06
0.00023380636 0.00023570798 0.0001801919 0.00012994779 0.00035640082 0.00040005957 1.5407843e-05 1.4134933e-05
9.07755e-06 1.8271991e-06 1.9432899e-05 1.8817318e-05 2.3745046e-05 2.4286997e-05 2.411199e-05 2.1028087e-05

exp_avg f4 [70]
00000000: 72c0 a0b9 13c4 c7b9 e3cb 2ab8 5253 66b9
00000010: 8a9e 9ab6 547c 85b9 1a59 01ba f5ee e33a
00000020: d9dc 0339 5483 8b3a 1f06 233b eb44 e33a
00000030: 4c6b c639 8e2d 1cba 67b9 363a eeb1 863a
00000040: 08cf 0c3a 9e34 06bb 0cea e63a 31e9 a0bb
00000050: 2510 1f39 c186 5f3a 5d67 3438 b9a4 41ba
00000060: fcc2 2dba 450c f43a 0fe5 13ba ed9e 9e3a
00000070: 6ff0 c03a e6ce 34b9 908a fd39 f0a7 ff3a
00000080: c16f 0c3a 151d b1b9 f46e a7bb 943b eeba
00000090: 53d8 b0ba ffe1 1e3a 8965 843a 1340 70ba
000000a0: d3dc 56bb b5c1 2eba 8e9d fab9 c14f 13bb
000000b0: 1623 1bbb 5408 86b9 b9d9 e4b8 4e09 893a
000000c0: 5d70 d5b9 c558 40ba 6343 b83a c29f 113a
000000d0: e7eb 58ba 7343 143a 8254 b1b9 c268 343a
000000e0: 8d44 3b3b d062 293a 8ed0 80b5 8452 e83a
000000f0: 87fe 52ba 11d7 e238 7ef9 063a ab92 b1b9
00000100: afa5 b7ba d222 1639 c764 1437 e2a8 c1ba
00000110: 0789 8838 fb55 80bb
-0.0003066096 -0.00038102324 -4.0721043e-05 -0.00021965549 -4.608014e-06 -0.00025460368 -0.00049342366 0.001738994
0.00012575406 0.0010643997 0.0024875475 0.0017339265 0.00037845445 -0.0005957716 0.0006970376 0.0010276416
0.0005371426 -0.002047814 0.0017617359 -0.004910611 0.00015169436 0.0008526855 4.301161e-05 -0.00073869113
-0.0006628481 0.0018619379 -0.00056417374 0.0012101807 0.0014720092 -0.00017243213 0.00048359158 0.0019505005
0.0005357229 -0.0003378174 -0.005109662 -0.0018175715 -0.0013492204 0.0006060898 0.0010101061 -0.0009164821
-0.003278543 -0.0006666438 -0.00047801103 -0.0022477957 -0.0023672036 -0.00025564677 -0.00010912441 0.0010455044
-0.00040710243 -0.00073374464 0.0014058169 0.0005555117 -0.0008274898 0.00056558027 -0.00033823034 0.0006882065
0.0028574795 0.00064615626 -9.59744e-07 0.0017724787 -0.0008048792 0.00010816579 0.00051488716 -0.00033869347
-0.001401117 0.00014318086 8.8449515e-06 -0.0014775062 6.510509e-05 -0.0039164997

exp_avg_sq f4 [70]
00000000: 1afa 3436 7615 9937 2af1 2a37 eaa5 7837
00000010: bb65 a737 162a 3238 eb42 1a37 bacd 2e38
00000020: a97a 8837 5f7c 8937 e388 1139 e1c2 6a38
00000030: f1e6 0138 c52a 1038 057f a637 f644 4e37
00000040: 203a c936 338f dd38 8b81 f338 6770 2239
00000050: 42c3 b337 b59b 2d38 1e66 ce37 7067 4d38
00000060: d35f 5038 6f68 fd38 4e35 b636 e9cd 9438
00000070: 2907 f537 fa27 fd35 f3cb ce37 e5ca 9b38
00000080: 5f4f ba37 28d2 9d36 ace6 4239 c4fb c837
00000090: 5bca 0a38 6777 7a38 49ab 5937 1f29 1c37
000000a0: ddb7 6039 61c2 7037 4364 8237 0952 1a38
000000b0: 87b4 9b38 5258 1938 5c9e 3f36 db80 ff36
000000c0: ddb5 ce36 0467 0039 e444 9f36 3e9f 1437
000000d0: d174 8b37 964e 9537 d743 8e36 5db5 c838
000000e0: 72be 7b38 952b 0439 b6e9 7737 bbbc b138
000000f0: aa72 9d37 9847 2738 7940 d436 71ad 8937
00000100: bf17 8f38 aee5 b836 445c 8a37 39b9 be38
00000110: 9a6b 9d35 6492 f938
2.6967668e-06 1.8249015e-05 1.018894e-05 1.4820582e-05 1.9955323e-05 4.2477703e-05 9.194696e-06 4.167643e-05
1.6269581e-05 1.6389587e-05 0.00013879272 5.5971443e-05 3.0971078e-05 3.4372108e-05 1.984789e-05 1.2294613e-05
5.9970334e-06 0.00010564774 0.00011611272 0.00015491397 2.1429387e-05 4.1391428e-05 2.4604666e-05 4.8972142e-05
4.9680308e-05 0.000120834324 5.430228e-06 7.095544e-05 2.920961e-05 1.8861604e-06 2.4652085e-05 7.428768e-05
2.2209888e-05 4.70343e-06 0.00018587214 2.3959095e-05 3.3090222e-05 5.9715847e-05 1.2974088e-05 9.307899e-06
0.00021430799 1.4350372e-05 1.5543896e-05 3.6792862e-05 7.424602e-05 3.6560297e-05 2.8553395e-06 7.614593e-06
6.16045e-06 0.00012245408 4.746589e-06 8.858564e-06 1.6624488e-05 1.7798779e-05 4.2398274e-06 9.570525e-05
6.002043e-05 0.00012604737 1.4776762e-05 8.4751715e-05 1.8769253e-05 3.988258e-05 6.325598e-06 1.6412438e-05
6.8231944e-05 5.5103656e-06 1.6493846e-05 9.0944064e-05 1.1728728e-06 0.000119005126

exp_avg f4 [50, 70]
00000000: a363 ad37 3816 25b8 cd88 9bb5 d684 ebb8
00000010: 8a68 a1b8 dabb ab38 7689 bab8 d49e ecb7
00000020: 1fea c738 348e 96b7 5b59 21b7 a5d9 b238
00000030: c54e ea38 0ded 5db8 c125 f836 05e3 c4b8
00000040: adbf 8237 0726 abb8 054a aeb7 ed9a 12b8
00000050: 9929 db37 16bf 09b9 f570 ceb8 db6d 5eb8
00000060: 1c5c 12b8 5b39 1cb8 5a5e 0539 8810 0237
00000070: 9a6c 3ab7 8f32 05b9 021c 96b8 ec15 ac38
00000080: bd00 6bb8 0db2 f6b8 b5f9 9cb7 7e44 23b8
00000090: ec18 a2b5 9341 1638 255e e138 736c 1db8
000000a0: d251 6eb8 3f28 c7b8 b3f5 adb8 dd28 5b37
000000b0: a50d d437 c21a 8737 25d8 75b8 15ed 4736
000000c0: d1aa 08b9 b461 bab7 dc53 9738 a9b4 61b8
000000d0: f79f fa38 efa8 97b7 a307 69b8 125b 1eb6
000000e0: 6074 21b7 2823 7238 1a20 feb8 d3fc 5d38
000000f0: 3be7 4638 3e78 6237 b726 0d39 78f4 a437
00000100: 9c06 c437 497f 6bb8 a2ad bb38 4bf0 1438
00000110: ec86 97b8 697d b437 714c 2db9 737a 0a38
00000120: bcf4 b3b8 06e9 abb8 352b 5db8 0ac6 22b7
00000130: 02ef fc37 8046 ce37 e94b 3037 ca9c 0f39
00000140: 834f aab7 40e3 9039 4b8a 28b9 0a25 b9b8
00000150: aecf 5cb9 1896 e5b7 a05e 8c39 a1cd a4b8
00000160: c4c7 3237 5b69 28b7 9993 65b8 aef0 53b8
00000170: de1a 95b9 f342 45b8 1c5a 0cb8 6804 d838
00000180: b609 1038 976d 8138 0d9d dd37 9b5f b1b8
00000190: f0b2 a2b9 0a16 0f39 ac57 2037 9288 88b9
000001a0: b556 d7b8 8dc0 fab8 2109 13b8 670c 0039
000001b0: b833 a539 b058 db38 d5e5 10b8 a61d 91b8
000001c0: 37e8 f238 fee0 2eb9 8866 9eb8 9500 32b8
000001d0: 5389 a7b9 a611 29b9 abd2 f2b8 a6ec 6838
000001e0: 07e2 5539 7d28 d1b8 70dc 9439 cb66 f738
000001f0: 91c1 28b9 302e 17b8 e4b0 6fb7 e653 c8b8
00000200: 40b8 d1b8 14ba e7b6 bb6f 7739 a4e6 b438
00000210: 02f2 3c39 1834 1a38 e0f3 14b8 f247 edb7
00000220: b762 17b9 1618 a238 6832 a2b9 5c0b 09b9
00000230: b5f2 1838 dbfd 1937 cffc 4a38 212b 0e38
00000240: f8a0 1a38 59d0 8638 9593 bf37 6b0a 1fb8
00000250: 7e5f 13b7 970a 94b8 9167 62b8 6729 bc37
00000260: 8c75 2838 5ba7 0f38 bf24 c5b6 9263 86b8
00000270: 14ce c8b8 753a 7f38 2179 0ab8 0b22 9437
00000280: bade 6bb7 b86d 7838 9bcc 1bb8 658d dbb5
00000290: 911d 9137 417c 6ab7 ffab e4b7 7ffc 39b7
000002a0: 601b 8bb8 1fc1 efb7 4a15 c438 761b 84b8
000002b0: e86b 53b8 5e4b 98b6 574a 7338 48f7 7638
000002c0: b844 4138 010b e737 4aaa 44b8 c0dd 5b35
000002d0: c6a9 4b38 fbde 1bb8 127f 6ab8 d7de 8538
000002e0: a105 2138 fd17 01b7 84c5 c6b7 7dc4 a638
000002f0: f6b7 59b8 3eca 0c38 fa2f aa37 8a31 8bb7
00000300: c1f1 17b8 b830 7435 0d68 ad38 d708 07b8
00000310: d7eb a1b8 1bf7 07b8 a60b 8538 b861 3db7
00000320: a56c b4b7 5750 11b8 59c5 41b8 5e88 7eb8
00000330: 5c53 0d37 277f c5b6 b22f 6537 a642 5038
00000340: ec61 9838 f765 8838 2139 d338 bac3 5e38
00000350: 4370 d138 947a 9eb7 5981 6ab6 29a0 fdb6
00000360: 7617 b8b8 a013 5435 a583 1cb8 84ce 58b8
00000370: d927 94b8 1ca3 f8b7 544f 9ab6 f963 ecb7
00000380: a773 84b8 a739 e737 3937 d3b8 1685 5738
00000390: 385e a337 52e9 1fb7 9fa4 a537 b636 6d38
000003a0: 8cad e3b7 3c9d c0b6 5b5e 1633 3e48 68b8
000003b0: fffe 3fb8 e852 e8b7 3670 c5b7 d64e 5eb8
000003c0: 0641 0db8 4203 afb8 33c4 2fb8 16df 8b38
000003d0: 00ec e836 735c bb37 8653 9f37 32b1 21b6
000003e0: 390c 3eb8 50e5 a3b8 2cb3 8737 775c ceb6
000003f0: a6da 6c38 0c30 2838 5d2e 0e37 f927 f037
2.0669604e-05 -3.935976e-05 -1.1588214e-06 -0.00011230416 -7.69655e-05 8.1889055e-05 -8.894775e-05 -2.8207352e-05
9.532668e-05 -1.7947612e-05 -9.6171525e-06 8.528241e-05 0.000111726615 -5.2911277e-05 7.395371e-06 -9.388294e-05
1.5586464e-05 -8.1609986e-05 -2.0776884e-05 -3.49534e-05 2.6126205e-05 -0.00013136523 -9.843885e-05 -5.3031235e-05
-3.4894896e-05 -3.7246715e-05 0.00012719017 7.752453e-06 -1.111175e-05 -0.00012702703 -7.157774e-05 8.2056824e-05
-5.6029054e-05 -0.000117633586 -1.8712928e-05 -3.8926017e-05 -1.2077194e-06 3.5823858e-05 0.00010746372 -3.7532718e-05
-5.6819823e-05 -9.496556e-05 -8.295048e-05 1.3062931e-05 2.5278723e-05 1.6105714e-05 -5.8613852e-05 2.979131e-06
-0.00013033605 -2.2218424e-05 7.215861e-05 -5.3812433e-05 0.00011950725 -1.8079269e-05 -5.555864e-05 -2.3596845e-06
-9.6234435e-06 5.7730038e-05 -0.00012117643 5.2925967e-05 4.742223e-05 1.3498646e-05 0.0001346123 1.9664163e-05
2.3368098e-05 -5.614691e-05 8.9491965e-05 3.550974e-05 -7.225372e-05 2.151607e-05 -0.00016527042 3.3015804e-05
-8.5809705e-05 -8.1973194e-05 -5.2730746e-05 -9.702062e-06 3.0152038e-05 2.4589943e-05 1.0508092e-05 0.00013695951
-2.0302605e-05 0.00027635135 -0.00016073247 -8.8283865e-05 -0.00021058202 -2.736882e-05 0.00026773382 -7.858431e-05
1.0656138e-05 -1.003811e-05 -5.4735316e-05 -5.053047e-05 -0.00028439512 -4.703081e-05 -3.3462522e-05 0.00010300503
3.434132e-05 6.171612e-05 2.6418385e-05 -8.4578256e-05 -0.00031032367 0.00013645753 9.557156e-06 -0.00026041694
-0.00010268149 -0.00011956794 -3.5056033e-05 0.00012211651 0.00031509786 0.00010459253 -3.4546323e-05 -6.919661e-05
0.000115827126 -0.00016677749 -7.553125e-05 -4.243905e-05 -0.00031955037 -0.0001612367 -0.00011578699 5.5533506e-05
0.00020397465 -9.973438e-05 0.00028392999 0.000117970245 -0.00016093838 -3.604422e-05 -1.4286696e-05 -9.5523705e-05
-0.00010000216 -6.905999e-06 0.00023597378 8.626029e-05 0.00018019232 3.6764977e-05 -3.5513076e-05 -2.8286104e-05
-0.00014437256 7.729248e-05 -0.00030936603 -0.0001306957 3.6465663e-05 9.178616e-06 4.8396e-05 3.3895605e-05
3.6866375e-05 6.428426e-05 2.2837698e-05 -3.7918257e-05 -8.784116e-06 -7.0591625e-05 -5.3979053e-05 2.2430626e-05
4.0163795e-05 3.424972e-05 -5.8753353e-06 -6.408164e-05 -9.575128e-05 6.085118e-05 -3.3014574e-05 1.7658827e-05
-1.4058949e-05 5.922999e-05 -3.7145433e-05 -1.6357923e-06 1.7299115e-05 -1.3976417e-05 -2.725981e-05 -1.1085648e-05
-6.6331355e-05 -2.858095e-05 9.349974e-05 -6.2993655e-05 -5.0406816e-05 -4.538727e-06 5.800495e-05 5.888127e-05
4.6078785e-05 2.754247e-05 -4.6888636e-05 8.1906546e-07 4.8557085e-05 -3.7162547e-05 -5.590829e-05 6.383441e-05
3.8390634e-05 -7.694584e-06 -2.3695415e-05 7.9520956e-05 -5.190816e-05 3.3566954e-05 2.028792e-05 -1.659316e-05
-3.6226356e-05 9.096798e-07 8.268664e-05 -3.219474e-05 -7.721007e-05 -3.2416643e-05 6.344104e-05 -1.128803e-05
-2.1508264e-05 -3.4645516e-05 -4.619858e-05 -6.068532e-05 8.4236635e-06 -5.88586e-06 1.3660569e-05 4.9653136e-05
7.266164e-05 6.503978e-05 0.00010071905 5.311121e-05 9.986807e-05 -1.8892148e-05 -3.4944007e-06 -7.5586327e-06
-8.778174e-05 7.900471e-07 -3.7315902e-05 -5.1690746e-05 -7.064612e-05 -2.9639858e-05 -4.5987927e-06 -2.8179946e-05
-6.3157924e-05 2.7564192e-05 -0.0001007155 5.138394e-05 1.9474988e-05 -9.531463e-06 1.974619e-05 5.6556157e-05
-2.7141323e-05 -5.7403504e-06 3.5010412e-08 -5.538039e-05 -4.5775432e-05 -2.7695161e-05 -2.3536482e-05 -5.3002346e-05
-3.3677577e-05 -8.345257e-05 -4.1905976e-05 6.6695895e-05 6.941613e-06 2.2335187e-05 1.899317e-05 -2.409401e-06
-4.5310913e-05 -7.8151585e-05 1.6176687e-05 -6.1500427e-06 5.6470417e-05 4.009907e-05 8.474654e-06 2.8628843e-05

exp_avg_sq f4 [50, 70]
00000000: e884 9d34 17bd 8034 d9aa 9d34 b8d8 8234
00000010: 22a7 9a34 d110 8234 9f07 9e34 6ada 9c33
00000020: 3e10 a134 b08b 0a34 69f1 0834 0054 3b34
00000030: 04b1 a234 5e32 6434 8e49 9034 fe18 7134
00000040: e194 a234 06c0 aa34 624f 4133 bc0b ad33
00000050: 02e8 6f34 fa0f 7034 30b5 b234 3128 fb33
00000060: 4c1b ee33 caf6 1834 d1b5 b334 7389 2433
00000070: 60d4 3d34 bbd9 c334 856a a334 67c6 bf34
00000080: 0753 9b34 cd76 c334 85cf 3733 a1a7 c033
00000090: 740f 5b34 c0da 8133 c3e7 ba34 1613 6834
000000a0: 934e 3d34 975a 7a34 24e1 c234 16a2 0f34
000000b0: 1ffe 7933 8cbe 6a34 95c7 cf34 fa90 9b34
000000c0: b382 b334 714b b433 75c3 5e34 3a96 bd34
000000d0: 526d a234 b862 3334 92d6 ba34 8ab2 3a34
000000e0: d9b0 1434 421e 8333 0ad2 6f34 391e df33
000000f0: 84ca ae34 68c4 c233 c5d1 cd34 2c9d 3834
00000100: 6f00 2233 4a36 c034 2d43 b634 2eb3 e233
00000110: 916e b834 bb07 9e33 e4e0 0b35 aac4 be34
00000120: 8856 f334 1ae9 f734 35fd ef34 950f 9634
00000130: 0be7 fd34 2890 5a34 1bb2 0835 1f86 bd34
00000140: d284 cf34 ac47 a734 bfa5 0635 ed66 b834
00000150: f4d3 0635 05d6 1c35 546f da34 c09b 8434
00000160: 997f 5534 006d f833 7666 1835 792b d834
00000170: bc8f ee34 dcea 8134 e0f3 8434 181b b634
00000180: 7ae8 f334 4df6 ab34 3abe d734 99e0 0b35
00000190: 6b03 e834 26f5 0035 4e96 d034 f0b0 2435
000001a0: dbef da33 79bb a234 3a9c e134 e615 5d34
000001b0: c8fa 3b35 208f c634 aca0 1934 d451 d834
000001c0: 088a d234 e915 ff34 334d 7334 6b67 fc34
000001d0: d9d1 3a35 fc03 1035 decf 2935 e961 2934
000001e0: 0263 0535 45d6 1d35 8ff5 f134 5ef9 d434
000001f0: 305b ee34 63bf 9534 f0b3 aa34 6f40 3d34
00000200: 21a7 d934 02dc 1934 10fc 0535 4e38 4534
00000210: 73ef dd34 9911 f434 4ca5 a234 5826 0f35
00000220: cd68 b634 9e51 8934 76ab 3635 3902 9634
00000230: d6d7 2635 a0f3 1735 d30b 2035 dbbc df34
00000240: d2cb 2835 e488 0a35 2121 3135 8071 1034
00000250: ecb6 1835 1972 1b35 8798 5934 8d6c 0535
00000260: 0662 ad34 9cae ee34 d7f0 0535 8f9a ff34
00000270: 999c 4435 a319 b934 f523 7f34 78d4 cb33
00000280: 8bb5 2c35 2274 c634 bc8d d634 b9a9 c833
00000290: 3fad d633 1154 6334 c8c7 2535 6b78 9634
000002a0: 3ac0 0b35 4bbb 2235 f449 3935 62bb 0b35
000002b0: 36ca e434 298b 3e35 2d15 f433 cc7b ff34
000002c0: f751 0435 2df2 3034 eda7 3735 3086 2e35
000002d0: c82d cd33 00e3 0b35 1913 2135 8df0 8334
000002e0: 2d75 3934 2333 2035 0977 4c35 20b5 2735
000002f0: 37a2 dc34 d943 1234 e0d3 2e35 249d 1535
00000300: 6ffe 3435 26b2 5c34 55d7 3c35 520a 7334
00000310: cf37 ef34 dbf2 ec33 0c91 e334 8cd7 0234
00000320: 7612 4335 c7c5 2134 009f 3135 a374 2a35
00000330: 532f 9b34 d2c6 1c35 2129 0335 1d82 9a34
00000340: 2bc4 4035 fcef 6034 8fd3 d634 72ea ff34
00000350: 633c fa34 1b42 8434 cb40 b834 395d ae34
00000360: 5aef c834 ebb2 1a34 adf6 a334 dfb2 9c34
00000370: 8a6c a534 7289 5834 3c86 b334 5026 8b34
00000380: 0c2f ea34 92c8 e434 c496 b034 bef7 a334
00000390: 8477 d433 e1b0 d433 bd6a ee34 40e4 9734
000003a0: 00a9 b834 6afe 2034 7052 1634 9708 9334
000003b0: ed26 f534 f44d 0834 d3a4 a834 3b63 f534
000003c0: 10f9 a734 4544 0635 9188 b234 63b7 f634
000003d0: 746e b033 a30a 7334 4dd4 0035 ccd0 6633
000003e0: 9037 1d35 38f8 ba34 9efd 3234 ff26 b734
000003f0: 7866 d134 9e5d be34 e934 b833 1975 a634
2.934023e-07 2.397944e-07 2.9367837e-07 2.437207e-07 2.880634e-07 2.4226622e-07 2.9435338e-07 7.3040454e-08
3.0000405e-07 1.290307e-07 1.2753812e-07 1.7446291e-07 3.0303647e-07 2.1252478e-07 2.6875608e-07 2.2453966e-07
3.0283175e-07 3.1804683e-07 4.5008512e-08 8.058075e-08 2.2343013e-07 2.2357554e-07 3.3286915e-07 1.1695409e-07
1.1087704e-07 1.4245884e-07 3.3473637e-07 3.8309235e-08 1.7679258e-07 3.648e-07 3.043862e-07 3.572088e-07
2.893141e-07 3.640802e-07 4.2796746e-08 8.971188e-08 2.0401586e-07 6.046821e-08 3.481383e-07 2.1613627e-07
1.7630582e-07 2.3316021e-07 3.6299127e-07 1.337688e-07 5.8205952e-08 2.1862269e-07 3.870197e-07 2.8976484e-07
3.3436444e-07 8.395626e-08 2.0746468e-07 3.5313298e-07 3.0254392e-07 1.6706588e-07 3.480132e-07 1.7387552e-07
1.3847911e-07 6.105667e-08 2.2335021e-07 1.0389744e-07 3.2557375e-07 9.069555e-08 3.8336853e-07 1.7193514e-07
3.771896e-08 3.5802287e-07 3.3949019e-07 1.0556538e-07 3.4353118e-07 7.3588545e-08 5.2108794e-07 3.553335e-07
4.5325237e-07 4.617694e-07 4.4701451e-07 2.7951015e-07 4.7293028e-07 2.0355276e-07 5.0923126e-07 3.530158e-07
3.8653394e-07 3.1158322e-07 5.016008e-07 3.434756e-07 5.022732e-07 5.842597e-07 4.0686666e-07 2.470024e-07
1.988359e-07 1.1568227e-07 5.677351e-07 4.0264766e-07 4.4435535e-07 2.4199005e-07 2.4764358e-07 3.3919855e-07
4.5431426e-07 3.203044e-07 4.018528e-07 5.210837e-07 4.3215854e-07 4.8040454e-07 3.885238e-07 6.135224e-07
1.01950455e-07 3.0311256e-07 4.2023186e-07 2.0590196e-07 7.0027863e-07 3.698451e-07 1.4307687e-07 4.0292673e-07
3.921598e-07 4.7513393e-07 2.2659223e-07 4.7013904e-07 6.959577e-07 5.364998e-07 6.325989e-07 1.5774971e-07
4.9690436e-07 5.879886e-07 4.5068415e-07 3.9669516e-07 4.4397302e-07 2.7892665e-07 3.179589e-07 1.7625437e-07
4.0541002e-07 1.4329274e-07 4.991316e-07 1.8367538e-07 4.133868e-07 4.5461346e-07 3.029512e-07 5.332745e-07
3.3976394e-07 2.5577623e-07 6.804979e-07 2.7941294e-07 6.21539e-07 5.6606405e-07 5.962185e-07 4.1674397e-07
6.2881475e-07 5.160821e-07 6.598585e-07 1.3452336e-07 5.68906e-07 5.7908034e-07 2.0265189e-07 4.9704323e-07
3.2295083e-07 4.4458e-07 4.989683e-07 4.7609907e-07 7.324357e-07 3.4477588e-07 2.3761807e-07 9.491572e-08
6.4339173e-07 3.6964872e-07 3.9963732e-07 9.344098e-08 9.996665e-08 2.1171606e-07 6.175801e-07 2.8027293e-07
5.206126e-07 6.062225e-07 6.9025486e-07 5.2054213e-07 4.2615437e-07 7.098302e-07 1.1365987e-07 4.7587525e-07
4.9293106e-07 1.647938e-07 6.8417177e-07 6.501532e-07 9.554384e-08 5.2111864e-07 6.0004965e-07 2.4575675e-07
1.7272096e-07 5.967906e-07 7.616914e-07 6.247592e-07 4.109622e-07 1.3621992e-07 6.512837e-07 5.5735495e-07
6.7425475e-07 2.0553907e-07 7.0348807e-07 2.2634893e-07 4.4557825e-07 1.10337815e-07 4.238758e-07 1.2185609e-07
7.2670025e-07 1.5066244e-07 6.6169014e-07 6.3499664e-07 2.8905433e-07 5.840385e-07 4.8861153e-07 2.8779405e-07
7.1811036e-07 2.0948931e-07 4.0014535e-07 4.7668033e-07 4.6610066e-07 2.4635014e-07 3.4319814e-07 3.2477854e-07
3.7427054e-07 1.4407458e-07 3.0540596e-07 2.918741e-07 3.0812618e-07 2.016657e-07 3.3439017e-07 2.5918644e-07
4.3620128e-07 4.2614244e-07 3.289225e-07 3.0541372e-07 9.893759e-08 9.9041934e-08 4.4408617e-07 2.8292015e-07
3.4395634e-07 1.4993716e-07 1.3999829e-07 2.7387134e-07 4.5663128e-07 1.2694346e-07 3.1412364e-07 4.5707006e-07
3.128739e-07 5.0018235e-07 3.325445e-07 4.5954502e-07 8.21573e-08 2.2635008e-07 4.7992654e-07 5.3740948e-08
5.856791e-07 3.4825803e-07 1.6669807e-07 3.411478e-07 3.900384e-07 3.5458373e-07 8.577792e-08 3.100511e-07

exp_avg f4 [50]
00000000: 5008 efb8 4461 95b9 af95 1b38 bb4b 0338
00000010: c907 2b39 2edc 0939 21e7 0d36 c6a1 aab8
00000020: b527 a5b9 15cb f336 cfa1 f335 60ab a1b8
00000030: 905a 4c38 46bf 34b9 12da 78b7 e25b 0639
00000040: d1e7 9e38 dc41 fb38 5a60 eeb7 2c00 11b9
00000050: 85ca 37b9 6301 38b8 04b3 4cb7 0200 54b8
00000060: ba09 18b9 98ec 34b9 85f2 a2b9 293e 8838
00000070: 67a7 39b7 e475 1c39 a833 4d39 f62f adb8
00000080: aa39 a738 899c 2ab8 99c8 4c36 7d24 c9b8
00000090: 11c9 c1b7 90e4 5a39 2029 1839 ad5f 6b39
000000a0: 5396 0ab9 6e87 27b9 c417 cab8 ecfc 1c39
000000b0: 7975 9736 98f6 0cba f6e6 c3b8 7dfd 82b9
000000c0: 7ae8 f238 9f5d 12b9
-0.000113979564 -0.00028491963 3.7094283e-05 3.1303363e-05 0.00016310731 0.00013147361 2.1145172e-06 -8.136364e-05
-0.00031500836 7.265606e-06 1.8152003e-06 -7.708999e-05 4.8721733e-05 -0.00017237393 -1.4832725e-05 0.00012813465
7.577206e-05 0.0001198088 -2.8416678e-05 -0.00013828342 -0.00017527684 -4.387031e-05 -1.2201028e-05 -5.0544746e-05
-0.00014499473 -0.00017254276 -0.0003107974 6.4965636e-05 -1.1065836e-05 0.00014921237 0.00019569567 -8.258216e-05
7.973921e-05 -4.0676943e-05 3.0515132e-06 -9.591223e-05 -2.3101022e-05 0.00020875246 0.0001451117 0.00022446988
-0.00013216706 -0.00015976813 -9.636537e-05 0.0001497154 4.5138263e-06 -0.00053773215 -9.3413444e-05 -0.00024984396
0.00011582761 -0.00013958522
