models/training_all_threshold_0.99_boxcox/model_2_MSE_loss/space_buffer_8_date_buffer_1/pfts/train_pfts_1/MLP_2.pth (torch, 87638 bytes, 18 tensors)

layers.0.weight f4 [100, 14]
00000000: 747a 1d3d 093d 143f 0274 d9bd a4f4 b73e
00000010: ff57 cebd 79c7 3fbe f180 133d f00e 0dbe
00000020: 92fe fd3d cac1 23be 0ab5 39bf ad60 16be
00000030: ce32 33bd 46b3 e93d 4084 6d3e 123e 2fbe
00000040: 1e14 d3be 55cd 30be d4a8 b9bd 5574 5fbd
00000050: 1567 16be 615a 56be c623 99be 4414 1b3d
00000060: 0e87 193f 9f5a 293e 59f8 5a3d 77f4 123d
00000070: ae81 90be 314b 233e 4cc9 7b3e e233 b5be
00000080: bb8c 91bc 582a dbbe 4ec4 7abd 962b 33be
00000090: b00e e1bd 3b7c ce3e 3ded c03e ad44 d0be
000000a0: 3a3b c23e b06e 5dbe 140c 0a3e 9d45 5e3e
000000b0: a57d f83b 08db 1cbf 44cd 9f3c c438 933e
000000c0: b951 723d ca55 503f 6d66 933e da01 033e
000000d0: c7fa 3b3e 7f22 763d c935 303e b338 8bbe
000000e0: d455 ad3d 3f29 36bf 35da aa3d e60e 91bd
000000f0: 1f53 25be 5761 6e3e 5a13 06bd 4274 8bbf
00000100: 8a3a 88be dfaf fb3e 30c0 fd3e 23a8 b5be
00000110: f975 b43d b725 1e3d 6714 bfbe e37e 313f
00000120: ed0f 563c fe02 073c 4f0f 213f 59b9 38be
00000130: 4d59 1f3e ba60 ebbd 1e89 9bbc 424f 48bc
00000140: 617f d7be 4935 de3d 11e8 9fbe 3660 c1bd
00000150: a9c4 833d a474 04bf 653c c5bb bea9 213e
00000160: 659a 1d3e 0767 423e 653e ccbe 1ae6 f0bd
00000170: 6dac 763e 51c3 7d3e fad8 e23e 7493 fbbe
00000180: 130f 633d 4d20 c33b 2c47 96bf 7dc9 cdbe
00000190: e49d f4bc fe38 993e 9d90 1a3f 0fde 06be
000001a0: f9f4 303e 5810 8dbe 7b24 973e c036 8e3d
000001b0: 6fa8 623e 1f2b 503d 327d 30bd 0b14 58bd
000001c0: 11dc 2abf bf34 76be c3cc 34bf 6a29 2e3e
000001d0: 68a9 edbc 6150 01bf 5e84 ecbc 87ea 6dbd
000001e0: b912 923e 7e40 553e 7548 803d 307f 03bf
000001f0: 4b4d 2ebf 957e d6be 0b23 9fbd 14ce a43e
00000200: d9fc a3be 4f02 993e afd1 0e3f ae3d c83e
00000210: 0c38 173f f4de 9e3e 302a 06be 1b07 663e
00000220: 40a1 203f fdde 04bd dad4 a4bd b7e6 d7be
00000230: af9e e93d 5eba d23e 979b f9be fd30 3c3f
00000240: ee7c 1cbd 0f2f e7be f3cd 23be 6336 46be
00000250: bc91 f33d aca0 8fbe 4547 a2be 9223 223d
00000260: b49d 0a3e 8544 a33e cee2 9bbe 476c 133f
00000270: 213a 9cbd bea4 85be c49b 043d 8526 323f
00000280: ed1e ebbe bf71 4f3f efe2 b2bd 1e69 0cbe
00000290: a747 9fbe 013f 5f3e 1614 983d 00de 113e
000002a0: 73e3 5bbc dec6 1e3f 0a37 763d 3722 29be
000002b0: 1db0 813e f99e 36be 8f8a cf3e 52e7 c63e
000002c0: 9a80 bbbe 3f7e ecbe a02b abbc 4a41 a93e
000002d0: 0018 563e 629c 8ebe 94c0 e33e 4ab3 963f
000002e0: 182a 833e aaab 0f3f 4992 a83e 1c6f 863e
000002f0: 244c f5be d9a1 8bbd 08dc bcbe 8bdc 01bf
00000300: 2190 11be b4ac 353f d5d7 7f3e bea0 44be
00000310: 77e2 a13d d4c3 113f 23e8 943e 4608 73be
00000320: e723 c2be 4df3 133e 9d44 e4bd db79 953e
00000330: f410 4cbe 17ce 293d f2e1 81bd 85fc 2bbe
00000340: 31c0 25bf 841a 723e a4da 0a3e 8f13 dbbe
00000350: 48a1 d23e ada0 3ebd 003b a23e f42c 47bf
00000360: e9e5 cabe e286 783c b18c 10be 519e ecbd
00000370: 6e24 a4be 50f4 de3e fb94 7b3d f7c6 ddbd
00000380: f8f4 25bc e7d2 a93e eae6 50be ecfe 87bc
00000390: bab7 28ba 4e85 9d3d 59f8 193e 2f79 e83c
000003a0: c619 afbe e871 4ebe e898 b0be 851a 8f3e
000003b0: 4b26 ce3d f614 99bd ab77 2bbf 51a8 7fbd
000003c0: 3a44 303e 2d3b 24bf dc5b f73d afac 453f
000003d0: d491 4e39 c577 ab3e 593c 89bd 008d 383e
000003e0: 20b7 5f3e 2785 2ebe 2979 89bd bdcf 8dbe
000003f0: a65e 2dbb 091e b43f a02f 3fbe 57b0 c13e
0.03844686 0.5790563 -0.1061783 0.35928833 -0.10075378 -0.18728437 0.03601164 -0.1377523
0.12402071 -0.15991893 -0.7254187 -0.14685316 -0.043749623 0.11411147 0.2319498 -0.17113522
-0.41226286 -0.17265828 -0.090654045 -0.054554302 -0.1468776 -0.20932914 -0.29910105 0.037861124
0.599717 0.16538475 0.0534595 0.03587767 -0.28223938 0.15946652 0.24588507 -0.35391146
-0.0177673 -0.42805743 -0.061222367 -0.17497095 -0.109891295 0.40329155 0.37680998 -0.40677395
0.3793581 -0.21624255 0.1348117 0.21706243 0.0075833374 -0.61271715 0.019507058 0.28754246
0.059159968 0.81380904 0.28789082 0.12793675 0.18357383 0.06009149 0.17208017 -0.27191696
0.08463636 -0.71156687 0.08342401 -0.0708292 -0.1614499 0.2327932 -0.0327333 -1.0894854
-0.26607162 0.49157616 0.4956069 -0.3547984 0.08811564 0.038610186 -0.37320253 0.6933424
0.01306532 0.0082404595 0.62913984 -0.18039455 0.1556141 -0.114930585 -0.018986281 -0.012225928
-0.4208937 0.10850007 -0.3123174 -0.09442179 0.06433994 -0.5174048 -0.0060191625 0.15787408
0.15390928 0.18984614 -0.39891353 -0.117626384 0.24089213 0.24781539 0.44306165 -0.49135935
0.055434298 0.0059547783 -1.174047 -0.40192786 -0.029860444 0.29926294 0.6037691 -0.13170646
0.1728095 -0.27551532 0.2952002 0.069440365 0.22134565 0.050822373 -0.043088146 -0.05275349
-0.66742045 -0.24043559 -0.7062494 0.17007986 -0.029011443 -0.50513273 -0.028871711 -0.05808499
0.2852991 0.20825383 0.0626382 -0.5136595 -0.6808669 -0.4189345 -0.07770356 0.32188475
-0.32028845 0.29884574 0.557887 0.39109558 0.59069896 0.31029475 -0.13102031 0.22463648
0.6274605 -0.03243922 -0.08048411 -0.4216821 0.114072196 0.41157812 -0.48751518 0.7351225
-0.03820508 -0.4515309 -0.15996532 -0.19356684 0.11893031 -0.2805227 -0.31695 0.039584704
0.13536721 0.31888214 -0.30446476 0.57587093 -0.07628275 -0.2610225 0.032375112 0.69590026
-0.45922032 0.8103294 -0.087346904 -0.13711974 -0.31109354 0.21801378 0.07425706 0.14244843
-0.013420927 0.620222 0.060111083 -0.16516958 0.25329676 -0.17834081 0.405354 0.38848358
-0.36621553 -0.46190068 -0.020894825 0.33057624 0.20907593 -0.27853686 0.44482863 1.1773465
0.25618052 0.56121314 0.32924107 0.26256645 -0.47909653 -0.06817979 -0.3688662 -0.50727147
-0.14215137 0.7096665 0.24984677 -0.19201943 0.07904523 0.56939435 0.29083356 -0.23733625
-0.37918016 0.1444828 -0.111458994 0.2919453 -0.19928342 0.04145631 -0.06341924 -0.16795547
-0.64746386 0.23642927 0.13559967 -0.4278836 0.41138673 -0.04653995 0.31685638 -0.7780297
-0.39628533 0.015168877 -0.1411617 -0.11553634 -0.32059044 0.4354577 0.061421376 -0.10828965
-0.010129206 0.33168718 -0.20400587 -0.016601048 -0.0006436069 0.076914415 0.15036143 0.028378097
-0.3419935 -0.2016064 -0.34491658 0.2794992 0.100658976 -0.07474701 -0.66979474 -0.06241638
0.17213526 -0.64152795 0.12078068 0.7721662 0.00019700016 0.33489814 -0.067009635 0.18022537
0.218472 -0.17042981 -0.067125626 -0.27697554 -0.002645412 1.4071666 -0.18670511 0.3782985

layers.0.bias f4 [100]
00000000: d89d 3bbf 7468 16bd 7535 413e 1837 f93e
00000010: 85c9 ce3e 896b ca3d 5db6 89be b7bb b43d
00000020: e30b 233f a745 3a3f 2e9e 63be a0d5 48be
00000030: 3557 883d d4d7 293f 7fa3 023f 74d0 8c3e
00000040: 514d a63e 6c6e 8fbd 5a51 56be e5ed 12bf
00000050: 3d46 133f 362a d2be b18f 1c3f 069f 62be
00000060: 9388 a3be feb6 f23e 49b8 f13e 61b8 0ebf
00000070: d9ce ffbe 6271 12bf 3923 0ebf bafc e13e
00000080: 5c13 d6be 8b7f 293e bf86 c7be 0feb ba3d
00000090: 720a c6be db1a f3be 263a 44be 190c c63e
000000a0: 227b 2e3f e05e 2a3f e1f0 ef3e 2747 803f
000000b0: 7631 233d efc4 36bf 3f74 063f 855e 06bf
000000c0: e1e3 b93e 57f2 8cbe f264 01be aba4 3d3e
000000d0: 3b6c 113e e110 283f bea3 5d3e a2c6 183f
000000e0: bf31 0bbf 8c3c 60bf 7fe4 46bf debf 09be
000000f0: 254b 44be 243c a2be 750a 6bbe 0859 0bbe
00000100: 7041 583e 9471 4abd c7d2 8dbd 318d 5abe
00000110: 7413 54bf d91c 1abe 74d7 9cbb 17f7 6e3e
00000120: 8987 9bbe d45e 063f a446 783b 718b 9bbe
00000130: c84a 4a3f e76f 01bf 837b eb3e 51c1 ad3e
00000140: 8d95 973e 8f48 35bc eaa9 573f 2308 943e
00000150: abcc 7f3d fc56 9bbe 577a f83e 1010 77be
00000160: 5b9c eebe 33fa a2be b191 9d3e ae6b 41be
00000170: 7d6b 1ebf 4380 b33d 6522 a9be 8eec 503e
00000180: 1785 aa39 9c0e 003f 5f00 ccbc 6641 d5be
-0.73287725 -0.036720708 0.18868048 0.48674846 0.40388122 0.09883792 -0.26896945 0.08824866
0.6369001 0.7276253 -0.2222831 -0.19612741 0.066572584 0.6634495 0.51030725 0.27502787
0.32480863 -0.07003483 -0.2092947 -0.5739425 0.5752905 -0.4104783 0.61156756 -0.22130975
-0.31940135 0.47405237 0.4721091 -0.5575009 -0.499625 -0.5720426 -0.55522496 0.44138128
-0.41811645 0.1655256 -0.3896999 0.09126865 -0.38679844 -0.47481427 -0.19162807 0.38681105
0.68156636 0.6655102 0.46863464 1.0021714 0.03984209 -0.71394247 0.5252113 -0.52487975
0.3630667 -0.2752864 -0.12636164 0.18519847 0.14201443 0.65650755 0.21644494 0.5967809
-0.5437278 -0.8759239 -0.7769241 -0.13452098 -0.1916929 -0.3168651 -0.22953208 -0.13608181
0.21118712 -0.049424723 -0.06924968 -0.21342923 -0.82842183 -0.15050067 -0.004786426 0.23336445
-0.30376843 0.52488446 0.0037883902 -0.30379823 0.7902036 -0.50561374 0.4599267 0.3393655
0.29606286 -0.011064663 0.84243643 0.28912458 0.062451046 -0.303398 0.48530838 -0.24127221
-0.46603665 -0.31831512 0.30775216 -0.18888733 -0.61882764 0.08764698 -0.33034053 0.20402738
0.00032524086 0.5002229 -0.02490252 -0.41651458

layers.1.weight f4 [50, 100]
00000000: 2b92 0dbe d399 47bd 7423 653e 87eb 733d
00000010: c12c af3e 5683 21be dfd7 c5bd 8761 203f
00000020: 92e4 d53e 6f2e c3bd 3e38 c3bd 9c44 50be
00000030: 153a 6ebc edea 2c3d c5a5 3abd 70cc 153e
00000040: 4bb7 27ba 7b5d ab3d 6ebf 25be ed41 2abe
00000050: 72d4 92bd 217f 29be 2ca9 7e3e 0e1b d13a
00000060: f1f9 343d bd98 a83d c0b7 9e3e f8f8 96be
00000070: fc89 94bc 27a9 81be 7968 a2be 20f7 9cbe
00000080: 1119 4d3e 875b 8c3d 97fb b5bd 97a8 d23d
00000090: 5fdb 21be 659b 76be 8e72 40be c59d 5b3e
000000a0: 3433 a53c 4e85 cfbd fd77 153d 0602 203e
000000b0: dc8c a13d 82f7 52bd ea4a 5c3e 4a08 30bf
000000c0: 08d2 ed3c 7236 f7bd 0a91 4abc 2415 22be
000000d0: 057f 523d d718 ab3e 263c 113f a27b 5c3e
000000e0: 9c82 01be e641 29be c531 253d 005d 3ebe
000000f0: 5a17 e13e 8580 89be 0b74 1ebd a9ec fa3d
00000100: 83ba 343e 980c bb3d 36ab 6cbe 1608 1abe
00000110: 745d 40bf 8164 953d ce65 c7bd 7428 503d
00000120: e81c 1c3d 2ccb d13b 659e 19bd e963 0fbe
00000130: 4626 613d 889a 7cbe 567b 8a3d 64ec d0bd
00000140: 376f 203e a86d 1abe 67a0 d73e 498f 65bd
00000150: ea83 513e 00f3 f23c 60c5 dfbd ce1f 893d
00000160: 876c 6fbd 7dfc 6ebe 3310 703e 78ce da3c
00000170: 89ee 94bd cd5f be3d 3214 03be 9fa2 8b3d
00000180: 18ea 4f3e e8fe b73d d9ba 033e 5792 14be
00000190: 245e 033d 8065 21be 23cc b73d 9458 363e
000001a0: 92f2 18bd 49f3 973e 272b c1be 76bd 1cbe
000001b0: fbb6 b4bc 7143 f93d e15e b9bc bfce c43e
000001c0: 76fc bcbc d1a2 d73e 2e9b 42bc c957 773e
000001d0: 3a62 2f3e 016c 70bc fb9a b0ba 8586 06bf
000001e0: 3006 433f 0078 413d 0dbf cd3e 6639 c03c
000001f0: 7e5b 793e 3ace 833e a50b c5bd 46f4 9ebd
00000200: c94a 81be 37b4 f5bd a225 4cbe 1083 103e
00000210: fc10 f6bd 48bd d43e f7cc 713e 58e5 d0bc
00000220: e631 aabb 5e2d 3e3e 8d74 903e 0a3d 003d
00000230: 455c 8b3d 5ed3 7a3e fa9d 1dbd 2f1e fc3d
00000240: 9e3f bcbe c43e aabe c582 713d a527 9a3a
00000250: d397 9f3d 67be 2fbd 3222 d4be d267 23be
00000260: ac22 833e 2db4 7dbd 4f8c 2b3e 8297 2ebd
00000270: 0978 9bbb c45f 90bd f295 0ebf 3436 45be
00000280: 26d3 81be eaa4 debe 58d3 043d b78f 11be
00000290: 94ae ea3d 9d4f dd3e ba34 663d 2c08 71be
000002a0: 2b4e 9fbd 7465 fabd 6e99 683d 44cd 75bd
000002b0: b595 f9bc b469 5a3d 77d3 943e 6074 283e
000002c0: 59d4 d03d 4b9a 973d 4758 8b3e 2a41 dabe
000002d0: ce42 5b3d 2d71 68be e47b e13d c135 0fbe
000002e0: e59b 9dbd 3650 033d a4d7 573c 4bee 3dbe
000002f0: e7f3 c43d 09f9 d1bd 64f9 ac3d 1ec5 82be
00000300: cc24 863e 0f47 edbc 65c1 7abd a193 00be
00000310: 7fd3 edbd 2229 4fbe 572e 6dbe df11 17be
00000320: c264 353c 4aab 5e3c a344 99bd 3746 463e
00000330: 4e9a 39be 69c7 ffbd 23cf 3ebe dd98 7a3e
00000340: 355c 50bb 9506 f2bb 557f b4bc 8f25 06be
00000350: 7c26 653d 2824 5bbe 6c91 80bc 758c d4ba
00000360: fa51 53bd ddb7 173e 84f1 6f3d e688 b1bd
00000370: d0e4 66be bccb 183e 060e 4fbe 434c b6bc
00000380: 80e6 96be 0733 46bd 593a 9bbe b0c7 47be
00000390: ea0f b2bc 611b c2be 1a52 8bbd 09d3 a5bd
000003a0: db3c 92bc 4f3c cc3d 2570 413d a91f 53be
000003b0: 4a03 013e acd6 6dbe de30 9f3e 5567 b8bc
000003c0: 9147 ffbd a64b 103e 83dc 9bbc b557 e6bd
000003d0: 1dc3 ae3d 6fec 42be 21d3 8f3e 2c93 37be
000003e0: 4dd4 ccbe 37c6 c5bb 0439 a0bd 818b 1abf
000003f0: 5fa1 1bbe 1ed1 d23d e51a 493e 9d86 d43e
-0.1382529 -0.048730683 0.22376806 0.05955079 0.34213832 -0.15772757 -0.09660315 0.62648815
0.41775948 -0.09530341 -0.09532212 -0.20338672 -0.014540215 0.04221623 -0.045568246 0.14628768
-0.0006397857 0.08367439 -0.16186306 -0.16626711 -0.07169427 -0.16552402 0.24869221 0.0015953497
0.044183675 0.082322575 0.30999565 -0.29486823 -0.018132202 -0.25324365 -0.3172033 -0.3065729
0.20029093 0.06853395 -0.088858776 0.10286062 -0.1580634 -0.24082716 -0.18793699 0.21446903
0.020166017 -0.10132848 0.036491383 0.15625772 0.07888195 -0.051505573 0.21512952 -0.6876265
0.029030815 -0.120709315 -0.012363682 -0.15828377 0.051390667 0.3341739 0.56732404 0.21531537
-0.1264748 -0.16529045 0.040330667 -0.18590164 0.43963128 -0.26855865 -0.038684886 0.122521706
0.17649274 0.091332614 -0.23112187 -0.15042147 -0.751426 0.0729456 -0.097362146 0.05081983
0.038113505 0.006402394 -0.037504572 -0.14002956 0.05496814 -0.24668324 0.06761806 -0.10201338
0.15667425 -0.15080893 0.42114565 -0.05604485 0.20460477 0.029656887 -0.10926318 0.066955194
-0.05845311 -0.23338504 0.2344368 0.02670978 -0.072720595 0.09295616 -0.12800673 0.06818127
0.20304143 0.089841664 0.12864245 -0.14508949 0.0320722 -0.15761375 0.08974483 0.17807227
-0.037340708 0.296778 -0.37728235 -0.15306649 -0.022059908 0.121710666 -0.02262825 0.38438985
-0.023069602 0.42116407 -0.011877818 0.24154581 0.17127314 -0.014674188 -0.0013473922 -0.5254901
0.76181316 0.04723358 0.40184823 0.02346487 0.24351308 0.25743276 -0.09621362 -0.07761435
-0.2525237 -0.11997264 -0.19936231 0.14112496 -0.12014958 0.4155066 0.23613344 -0.025499985
-0.0051939366 0.18571994 0.2821392 0.03130821 0.068047084 0.24494693 -0.038480736 0.123104446
-0.36767286 -0.3325101 0.058962602 0.0011761083 0.0779263 -0.04290619 -0.4143234 -0.15957573
0.2561239 -0.061939407 0.16752742 -0.042624958 -0.004744534 -0.07049516 -0.5569755 -0.19258958
-0.25356406 -0.43485194 0.032428116 -0.14214979 0.114590794 0.43224803 0.056202628 -0.23538274
-0.07778581 -0.12226382 0.056786947 -0.06001021 -0.030466894 0.053323463 0.29067585 0.16450644
0.10196752 0.07402476 0.27215788 -0.4262784 0.053530507 -0.22699423 0.110099584 -0.13985349
-0.0769575 0.032058917 0.013173971 -0.18547933 0.09616833 -0.10252578 0.08446005 -0.25541013
0.2619995 -0.028964547 -0.06121959 -0.12556316 -0.11612605 -0.20230535 -0.23162208 -0.14752911
0.011071386 0.013590643 -0.074837945 0.19362722 -0.18125269 -0.12489206 -0.18633704 0.24472375
-0.003179324 -0.0073860385 -0.022033373 -0.13100265 0.055944905 -0.21400511 -0.015694343 -0.0016216176
-0.05159185 0.14816232 0.058579937 -0.086686894 -0.22548223 0.14921468 -0.20220193 -0.022253161
-0.29472733 -0.048388507 -0.30317953 -0.19509768 -0.021736104 -0.37911513 -0.06802769 -0.080968924
-0.017851284 0.099724405 0.04722609 -0.20617546 0.12598911 -0.23226422 0.3109197 -0.02251021
-0.12464822 0.14091358 -0.019026047 -0.112471975 0.08533309 -0.19035505 0.28090766 -0.17927235
-0.40005723 -0.006035592 -0.07823375 -0.60369116 -0.15198277 0.10293792 0.19639166 0.41508952

layers.1.bias f4 [50]
00000000: 22d4 093e d5d9 ba3d b5d5 15bd f375 c6be
00000010: c5cf 72bd 0b57 c0be 3f6a fe3e de21 eebd
00000020: bbe9 4c3e b68c 993e fe3d 1abe 7e50 dabe
00000030: 6f06 023e 0830 fbbb 1121 283f a138 42be
00000040: a3af 16bc f17b ab3e 7cea 0e3e 3119 203e
00000050: 1b49 afbc e6ce 093f ca66 033f 4464 5c3e
00000060: 1d4b 0ebf 3ab2 273e 37d4 6f3d b89e 30be
00000070: 200a 75ba 5a68 9b3e 0e1a 363e 7d8d 0e3e
00000080: a9f2 17bf b539 853e 2d14 d83e 3d02 db3c
00000090: 1f27 5e3d 0f46 8ebe 6d6a 493e 4c8a 583c
000000a0: 6bbb 7ebe de5c 983d 65bf 173d 7d15 7e3e
000000b0: de4a 45bf ae54 e63c 722a 9e3e f660 fdbd
000000c0: 0871 bebe 397e 96bb
0.13459828 0.091235794 -0.03658076 -0.38761863 -0.059280176 -0.3756641 0.49690434 -0.116275534
0.20011036 0.29990166 -0.1506271 -0.42639536 0.12697767 -0.007665638 0.65675455 -0.18966915
-0.0091971485 0.33492997 0.13956636 0.1563461 -0.021397164 0.53831327 0.5132872 0.21522623
-0.55583364 0.16376582 0.058551993 -0.17248046 -0.0009347517 0.3035305 0.17783377 0.13921161
-0.59354645 0.2602059 0.42202893 0.026734466 0.054236528 -0.27787825 0.19669504 0.013216566
-0.24876182 0.07439588 0.037047762 0.24812885 -0.77067363 0.02811655 0.30891758 -0.123720095
-0.3719561 -0.0045926836

output.weight f4 [3, 50]
00000000: 3365 e2bc e65e 42bb 4096 41bc 6ee1 fe3c
00000010: b6e2 80bd bee1 02bd a46e 12bd 1390 aa3c
00000020: 66fa c13c 990b ccbc 2edf 52bd 56ed 47bd
00000030: 9599 2ebd 45a2 e63c 54dc 343d d28f 843c
00000040: d5b6 33bd c2fa 1e3d 15ca b0bc 99ab 343d
00000050: c96c 1fbd 49f4 76bd 6110 473d c943 29bb
00000060: 8605 8cbd df8a 2ebd 00e5 b73c 4b2a 1b3d
00000070: 6065 48bd c2e7 f33c 32e9 4cbb e1f6 813d
00000080: 3dc9 a13d 7995 2439 4abe 1f3d 4078 3dbc
00000090: eb23 3d3d c9be ef3c 1348 663c 810d 8dbc
000000a0: 6a4a cf3d 8c56 44bd 836f 72bc b754 523d
000000b0: 7046 b13d be62 b1bd d7b2 63bd 2282 6e3d
000000c0: e690 d93c a575 82bd 1ce1 74bc e20b e03c
000000d0: d647 56bc bca4 1e3d e462 72bd 02bb 57bd
000000e0: 9533 0bbd 7695 0ebc 6c88 553d 5e30 2c3d
000000f0: db24 85bd 8984 89bd 44ab 29bd 1556 723d
00000100: 0495 2d3d 597a 063d cf0e 21bd 2088 863d
00000110: acd0 d8bc 85ec 843d 4749 22bd b42f 5cba
00000120: 2ddc 123d 9aea bfbc 4c08 7bbd 64af daba
00000130: 8c8e a73c 2b46 843c 42f4 57bd 5728 f53c
00000140: 1aae 9fbd ee17 633d c17c ae3c bf49 663d
00000150: e290 553d 9ca7 8bbc 2b2d 673d 90a1 4f3d
00000160: 6429 563d 69e4 4ebc 7431 7c3c c584 56bd
00000170: b9c6 3bbd 8d5a 063d 6b6c d93c c1dc 763d
00000180: 25cc 6f3c 3d1f 573d bc2d 7a3d 2729 34bc
00000190: b4ea 75bd 0098 cf3d b64a a6bd 6b0e 7e3d
000001a0: 5f78 a5bb d84e 97bc 1262 85bd e7cf 8b3d
000001b0: fa93 e73c b984 f33d 63d5 3cbd eb8e 3fbd
000001c0: 7efe 05bd c756 e63b b567 14bb ca53 0e3d
000001d0: bfa1 95bc 5283 8d3c 08c5 76bd ea7b 243d
000001e0: 821b 063b 5fb2 f83d 1e6d 7cbc 60c1 89bd
000001f0: 5502 0f3c 3b7d 44bc 31bb 613d 4209 5d3d
00000200: cf39 c1bc 4328 043c 429b ca3d dfe9 a5bb
00000210: 93f9 c8bc 4a44 953d e238 aa3c 95e7 42bd
00000220: 53fb 7ebc 1421 8c3d c3f4 05bd 79e1 8e3d
00000230: 523c 22bd 9d35 2d3c 27aa 2cbd 073f a03c
00000240: 4d5e dfbd 25a9 9e3a d5c7 05bd f598 3ebc
00000250: e450 893d c647 a83d
-0.027636146 -0.0029658615 -0.011815608 0.031113353 -0.06293242 -0.031953566 -0.035750046 0.020820653
0.02367897 -0.024907874 -0.051482372 -0.048810326 -0.042626936 0.028153548 0.044155434 0.01618186
-0.043875534 0.03881336 -0.021580735 0.04410896 -0.038922105 -0.060291562 0.048599605 -0.0025827757
-0.06836991 -0.042612907 0.022448063 0.03788213 -0.048924804 0.029773597 -0.0031266925 0.063459165
0.07899711 0.00015695942 0.038999833 -0.011564314 0.046176832 0.029265778 0.01405527 -0.017218353
0.10121615 -0.0479341 -0.014797094 0.05135032 0.08656013 -0.08661412 -0.055590477 0.058229573
0.02655835 -0.06370095 -0.014946248 0.027349416 -0.01307865 0.03873132 -0.05917634 -0.05266858
-0.03398474 -0.008702626 0.052132055 0.042038314 -0.0650117 -0.06714732 -0.041423097 0.059164125
0.04237844 0.032831524 -0.039320763 0.065689325 -0.02646669 0.06490425 -0.039620664 -0.00083994423
0.035854507 -0.023427296 -0.06128721 -0.001668435 0.020453714 0.01614674 -0.052723177 0.029926462
-0.07796879 0.055442743 0.021299722 0.056222674 0.052140124 -0.017047696 0.05643956 0.050691187
0.052285567 -0.012627699 0.01539265 -0.052372713 -0.045843814 0.0328012 0.026540956 0.06026912
0.014636074 0.052520026 0.061078772 -0.01099614 -0.060038283 0.101364136 -0.08119719 0.06202547
-0.0050497497 -0.018470213 -0.06512846 0.068267636 0.028268803 0.11890549 -0.04610194 -0.046767157
-0.032713406 0.0070293876 -0.0022644822 0.034747876 -0.018265603 0.017274532 -0.060246497 0.040157236
0.0020463173 0.121433966 -0.015406875 -0.067263365 0.008728583 -0.011992748 0.05511016 0.053963907
-0.023587136 0.00806624 0.09892894 -0.00506328 -0.024533069 0.07288416 0.020779077 -0.047584135
-0.01556285 0.06842247 -0.032704126 0.06976599 -0.039608307 0.010571864 -0.042154457 0.019561304
-0.10906658 0.0012104852 -0.032661278 -0.0116331475 0.06704882 0.08216815

output.bias f4 [3]
00000000: 0cfe d23e 91ce 0b3e 4ee7 9f3c
0.41209447 0.13653018 0.019519474

exp_avg f4 [100, 14]
00000000: ad6b 0fba e82f c1b8 a272 a3b9 c380 0039
00000010: 64ef 53ba 02ad 103a 5d75 eb39 578e 3d3a
00000020: 484d 703a 60cb 883a 20d3 753a 0e55 063a
00000030: 092d 03ba 4710 6bba 53d0 9039 a6a8 7d37
00000040: 791a 49b9 ebec 853a c910 9939 a119 a539
00000050: 8b07 013a a6da 08b9 7abd 1c3a 9bef 023a
00000060: 47fb e139 e561 9737 5e5b 7a37 e8ef 97b9
00000070: bef1 76ba 0038 f639 537b 0dba 2bd0 6aba
00000080: 77d0 b4b9 9184 2438 b481 7b3a 8bf3 c139
00000090: 29c2 2839 431c 1239 54bb 2539 872d 1439
000000a0: a9e1 eab8 e961 42b9 3c75 ce39 c398 02ba
000000b0: 1ac7 7239 e4af 37ba 5bc2 14b8 bf26 7fb9
000000c0: 0261 b8b9 41f4 e637 9779 e8b8 b6a4 c2b8
000000d0: 39ee 0ab9 ad98 72b9 0a1d 74b9 760f b4b9
000000e0: c7dd 113a 24b2 b9b9 9c4f 0fba 81d6 18ba
000000f0: 1324 e439 7855 73b9 8bb7 2c39 2df3 1739
00000100: 4679 0539 8442 2839 1757 6939 9fd2 1c3a
00000110: d084 9939 5ffc 0fb9 b98c b7b9 439a 1139
00000120: 80f4 5839 2872 88b9 7901 0eb9 acbe 5b38
00000130: 2f83 a937 06a9 0739 c6c6 0bb9 3046 45b9
00000140: ed77 feb8 18cc db38 02f7 d939 7ecf 513a
00000150: c031 983a c0db c0ba 2b8a 9eba cb3a 523a
00000160: 6020 0db9 9e6c 46ba b540 f739 92c4 a739
00000170: b4a0 8aba 35f4 69ba 2082 27ba 81d4 0a38
00000180: 015e 733a 9ae5 4739 9f52 3cb9 501c e8b9
00000190: 7c34 8ab9 f165 2939 8401 9d39 1c04 d1b8
000001a0: 8219 8d3a acaa 6b39 439a 92b7 7341 88b8
000001b0: 9133 d838 272e ccb8 0d72 69b9 f8a3 2eba
000001c0: 11a3 c8b6 1d9e 4d3a eb4a da39 3404 7dba
000001d0: 9622 7539 a997 953a 7ef0 f839 2d75 6db9
000001e0: aa77 813a bdf3 873a 43a9 753a 9ac9 8739
000001f0: 8228 22ba 415d 5aba 09ba 98b9 fd64 f139
00000200: 3e24 beb8 6a4b b139 698d bc38 0485 50b9
00000210: 5bf4 a0b9 3592 0839 e363 6b39 e6ca 5c39
00000220: eeed 7c39 35f1 0b39 3162 8438 dde9 5639
00000230: 41e0 0e3a c4fd 353a 3a04 16b9 76ec c2ba
00000240: 5894 9f39 b970 7539 f9ce 73ba 52b9 20ba
00000250: 636e 0e3a 7c3a 113a 62b5 513a 1622 9a3a
00000260: 4435 69b9 9025 f938 ef31 6e3a 888e ab38
00000270: 7594 0b3a b3ae ddba 96c2 d9b9 152d 4b3a
00000280: 2edf 8339 ffa3 48b8 d13f 9a39 1d32 4139
00000290: 98a3 dbb8 3f71 41ba c025 9aba a5b7 8fba
000002a0: 3729 6a3a f62e 193a 9c47 7f3a e06e d239
000002b0: 8cb6 3f39 252b 053a 8504 f338 a85a 82b9
000002c0: 367d ce38 7fed 0938 7e67 ecb8 08f1 aab9
000002d0: e2da 25b9 ac86 58b9 5453 28b8 639e 2539
000002e0: 6114 78ba e299 8fb9 bf4f d538 3435 0db9
000002f0: 2256 a73a 0ccd 1439 e3b0 1dba a0a9 19ba
00000300: f2e5 3dba ed36 92ba dd45 1bba 099f 4bba
00000310: 8616 3b37 01ac f837 5c1e dfb8 d2ce ceb9
00000320: 1f3f 1ab7 f13d 0aba 12db d239 d076 a2b9
00000330: 01d7 9937 8a3f 81b6 88fa 61b6 f965 8539
00000340: e1bf a839 aa6f fc39 c458 7aba 284e 3d39
00000350: 476a b8b9 c280 9239 0f50 c239 11af 5ab9
00000360: cb26 1039 4ce8 cdb9 7ddb c0b9 5a51 bbb9
00000370: ae1f 2fb9 e00d 2139 6463 a839 9f22 6c39
00000380: 1a86 a9b8 e05e 31ba c665 10b9 b965 96b9
00000390: 3d8f 8eb9 e563 deb9 516a a1b9 f092 9e39
000003a0: fa1a 08ba cee4 00ba 8c16 e6b9 f8e0 64b9
000003b0: 70a4 fc38 6cd6 5e39 b085 1c38 7e4c bb38
000003c0: aca4 f3b9 f54b 833a 9e35 a339 28a4 223a
000003d0: 7ba3 7b3a 58b3 bb39 3145 4539 6612 7639
000003e0: 68b7 a239 a2bb 7839 4678 9537 47a7 d9b9
000003f0: 9ca9 1cbc 223c e0bb 9ddf f0bb ca92 2fbc
-0.0005471062 -9.2118804e-05 -0.0003117519 0.00012254999 -0.0008084683 0.0005518944 0.00044910135 0.0007230988
0.0009166789 0.0010436587 0.00093774684 0.00051243685 -0.0005003964 -0.0008966964 0.00027621034 1.5119242e-05
-0.00019178716 0.0010217702 0.0002919494 0.00031490347 0.00049220835 -0.00013051424 0.0005979162 0.00049948104
0.0004310256 1.8046188e-05 1.4922434e-05 -0.00028979708 -0.00094201777 0.000469625 -0.00053971 -0.0008957411
-0.00034487594 3.922411e-05 0.00095942174 0.00036993282 0.00016094059 0.00013934173 0.00015805411 0.0001413134
-0.00011200022 -0.00018537756 0.00039378728 -0.000498187 0.0002315309 -0.0007007106 -3.5466957e-05 -0.00024333129
-0.0003516749 2.7531876e-05 -0.0001108527 -9.281321e-05 -0.0001324945 -0.00023135795 -0.00023280471 -0.00034343795
0.00055643584 -0.00035418675 -0.000546688 -0.00058303034 0.00043514426 -0.00023206125 0.00016471573 0.00014491072
0.00012729046 0.00016046508 0.00022253055 0.0005982313 0.00029281387 -0.00013731558 -0.00035009327 0.00013885745
0.00020690449 -0.00026024994 -0.00013542724 5.2391246e-05 2.0207457e-05 0.0001293757 -0.00013330122 -0.00018813531
-0.00012134002 0.00010480749 0.000415735 0.0008003636 0.0011611506 -0.0014713928 -0.0012095621 0.0008019625
-0.00013458868 -0.0007569286 0.00047159722 0.00031999178 -0.0010576458 -0.00089246343 -0.00063899346 3.3099674e-05
0.0009283722 0.00019063652 -0.00017959856 -0.00044271583 -0.00026360515 0.00016155072 0.00029946503 -9.966662e-05
0.0010765048 0.00022474927 -1.747639e-05 -6.497176e-05 0.000103092876 -9.7360746e-05 -0.00022263099 -0.00066620065
-5.979448e-06 0.000784369 0.00041636018 -0.00096518104 0.00023377905 0.0011412996 0.00047481427 -0.00022645733
0.0009877582 0.0010372322 0.000937123 0.0002589941 -0.00061858457 -0.0008329936 -0.00029130306 0.00046042344
-9.066657e-05 0.0003381626 8.990878e-05 -0.00019885978 -0.00030699637 0.00013024437 0.00022448557 0.0002105642
0.00024121228 0.0001334593 6.31254e-05 0.00020495751 0.00054502866 0.0006942416 -0.00014306689 -0.0014871496
0.00030437368 0.00023407013 -0.00093005557 -0.00061311305 0.0005433319 0.0005540026 0.00079997454 0.0011759426
-0.00022240455 0.00011880242 0.000908642 8.180464e-05 0.0005324551 -0.0016913026 -0.00041534443 0.0007750553
0.0002515255 -4.783645e-05 0.00029420716 0.00018424583 -0.000104732055 -0.00073792407 -0.0011760518 -0.0010964765
0.0008932533 0.00058434845 0.00097381487 0.0004013693 0.00018283183 0.00050799764 0.00011587985 -0.00024863076
9.846168e-05 3.288453e-05 -0.00011272634 -0.0003260451 -0.00015817166 -0.00020649534 -4.0131927e-05 0.0001579463
-0.0009463486 -0.00027389737 0.00010171485 -0.00013466628 0.0012766758 0.00014190766 -0.0006015433 -0.0005861763
-0.00072440424 -0.0011155285 -0.0005923191 -0.00077675335 1.1151313e-05 2.9644e-05 -0.000106391235 -0.00039445475
-9.193812e-06 -0.0005273512 0.0004021754 -0.0003098757 1.833914e-05 -3.8518965e-06 -3.367344e-06 0.00025443712
0.00032186418 0.00048148382 -0.000954997 0.0001805356 -0.00035174398 0.00027943222 0.00037062212 -0.00020855317
0.00013747362 -0.00039273722 -0.00036784625 -0.0003572803 -0.00016701102 0.00015359325 0.0003211751 0.00022519611
-8.083526e-05 -0.00067661516 -0.00013770824 -0.0002868602 -0.0002719107 -0.00042417567 -0.00030787525 0.00030245585
-0.0005192008 -0.0004916907 -0.00043885817 -0.00021827582 0.00012046925 0.00021251448 3.7317805e-05 8.931103e-05
-0.00046471262 0.0010017144 0.0003112973 0.0006204271 0.00095992506 0.0003580104 0.0001881316 0.00023467242
0.00031035696 0.00023721022 1.781819e-05 -0.00041514097 -0.009561922 -0.006843106 -0.0073508755 -0.01071615

exp_avg_sq f4 [100, 14]
00000000: d091 3837 b884 8d37 b33f 5f37 0f47 8a37
00000010: 2fc2 be36 4c18 9437 ef09 c137 df84 cd36
00000020: 3331 9937 f429 9f37 56fd 9f37 57b1 8637
00000030: 6965 a437 e1af 8937 54e8 2036 c667 f036
00000040: 8452 ab36 bcb5 9436 a503 8b36 5ea0 ee36
00000050: 2b4b bc36 166b b835 b32d ac36 b504 ab36
00000060: 23d6 ac36 9938 8636 33b8 b836 7790 ce36
00000070: cb45 c037 596e 4c37 20ea 1f38 2d77 9b37
00000080: e0ef 6437 1e37 a937 6285 9937 5ad8 e936
00000090: 3190 c937 56e4 c237 33e0 d137 380c b137
000000a0: 5b35 3d37 7d79 9d37 9d9e 5d36 d802 3836
000000b0: 9c32 8f36 b625 9f36 6c2d ae35 cbb1 4636
000000c0: d0ae d836 aadf f135 9485 f435 f86a 0136
000000d0: 92d8 2436 ef17 3336 dc7f 4c36 9a4c 4536
000000e0: 3e59 3637 6178 bf36 cf58 aa37 603d f236
000000f0: 1923 e136 a641 0c37 1bc3 5b37 ac4c 1a36
00000100: b025 0537 bfc5 f236 7470 ef36 4069 3c37
00000110: 70ea 6c37 5c3b 5537 8f6a 9936 f243 f836
00000120: 31fc 1637 c84b 2337 76bf dc35 3021 2137
00000130: cecc 3737 122f c435 bad0 4e37 45b8 5237
00000140: 05d0 4837 b4d3 3337 12c1 4337 9894 4e37
00000150: 6ae1 7436 d28f a536 6b5c 1037 8ba7 1037
00000160: 5936 f135 c238 dd36 6f20 3637 9d6b a435
00000170: ed75 4637 6bb4 5737 ef13 5f37 0639 0037
00000180: a326 4a36 efdc b036 f77b 9f35 ca41 8c37
00000190: a1d9 fc36 4fa4 3a37 dc15 b336 1e8f 9c37
000001a0: 526a 4937 77fb 6236 107d 5837 f060 5b37
000001b0: 16e6 2737 826d f636 9b42 7b37 5f4a 7c37
000001c0: d48b d836 baff ac37 98ae 7637 9128 5337
000001d0: 7c74 5337 fe5c 9d37 f787 5837 bfe1 d036
000001e0: ba81 8c37 4ae0 8e37 bfa8 9f37 3fa6 9337
000001f0: 7c1c 4537 2985 5737 c96c e936 3c02 1237
00000200: 38b8 2b37 669d dd36 f359 ae36 4566 2737
00000210: dddc 9d36 f651 0637 7ab2 1537 6915 1837
00000220: dbd7 0837 3b2e 1437 2c8d 5437 c8c7 5537
00000230: e6d9 0737 1709 5137 9569 2137 440f 8237
00000240: c8b9 6937 e622 5237 d580 8037 a2ea 6037
00000250: 5399 1137 d8fb 1337 2d20 2337 f444 8537
00000260: 2c3c a637 c622 7137 bea1 6338 c877 cf37
00000270: cfcf f837 fac9 1038 3d7f ec36 89cb 3037
00000280: ca68 1638 a495 a536 9f93 6538 45de 5438
00000290: ed0e 0838 8d9e 7537 9816 bc37 2c01 b037
000002a0: a964 6737 34fa c137 ed19 ec37 ea47 9337
000002b0: 9002 a637 67ae b237 a654 e737 b901 b536
000002c0: ed12 dd37 9d03 e537 b7e4 e037 729d f637
000002d0: 4d77 c137 c914 d637 effa ea37 b07d 6638
000002e0: 3ac0 d237 d0f2 4338 21fe 5f37 d3a2 6f38
000002f0: ef93 0538 5495 8137 118b 6b38 ad13 6938
00000300: 0566 4c38 4db8 6a38 7aa1 7938 261d 7a38
00000310: 40e8 8836 8ce0 1736 e85d a836 5b2a e436
00000320: f50b fd35 7955 7836 28e1 9236 c90f 3936
00000330: dca8 9136 e14a 8b36 ae4e 9236 1832 7536
00000340: 81d8 5b36 5c26 a336 8cb8 0437 acac 6636
00000350: 86dd 0c37 f8f7 3637 2203 df36 b40c 2e36
00000360: 5766 fb36 c857 3036 384a 2137 ed38 3137
00000370: 1bc1 4037 598b 1b37 478f aa36 5b02 d236
00000380: 3ceb 9936 0633 f936 82f9 e436 1d60 fe36
00000390: 6b64 a436 b7ec cf36 921b 1537 b9de 4836
000003a0: 9fde c536 f85a ca36 22e7 ef36 651c e336
000003b0: 1a82 f336 9a8e 8336 557c 7036 12ca 8e36
000003c0: 71c9 9436 2f8b a036 59d8 8f36 1ecc ae36
000003d0: 7c21 9a36 79db 6136 1eb3 c336 cf55 ca36
000003e0: 583d da36 7148 cb36 2c23 af36 c32e ae36
000003f0: 7f9f a037 8a9a e836 164e 4237 07ce 8437
1.1001204e-05 1.6870312e-05 1.3306667e-05 1.6483971e-05 5.685047e-06 1.7654289e-05 2.3012019e-05 6.1249443e-06
1.8261931e-05 1.8973813e-05 1.9072246e-05 1.6056625e-05 1.9597546e-05 1.6413573e-05 2.397709e-06 7.164638e-06
5.105803e-06 4.4319004e-06 4.142947e-06 7.111622e-06 5.6115873e-06 1.3740234e-06 5.1313195e-06 5.096745e-06
5.1509282e-06 4.0001e-06 5.505071e-06 6.1560963e-06 2.2920683e-05 1.218504e-05 3.81266e-05 1.8532935e-05
1.3645709e-05 2.0172036e-05 1.8301133e-05 6.9691278e-06 2.4028212e-05 2.323293e-05 2.5019142e-05 2.1105734e-05
1.1277701e-05 1.877243e-05 3.3023891e-06 2.7419792e-06 4.267624e-06 4.7429594e-06 1.297723e-06 2.9607788e-06
6.4576525e-06 1.8020994e-06 1.8218293e-06 1.9284762e-06 2.4563965e-06 2.668701e-06 3.0472793e-06 2.9399876e-06
1.0868824e-05 5.7062575e-06 2.0306934e-05 7.219307e-06 6.7096084e-06 8.359935e-06 1.3098844e-05 2.2992417e-06
7.936193e-06 7.2351827e-06 7.1358463e-06 1.1230179e-05 1.412128e-05 1.270961e-05 4.5721604e-06 7.398886e-06
8.999415e-06 9.733201e-06 1.6447e-06 9.604075e-06 1.0955335e-05 1.4616837e-06 1.2327155e-05 1.2559879e-05
1.1969362e-05 1.0718522e-05 1.1667858e-05 1.2313154e-05 3.6490042e-06 4.934126e-06 8.604587e-06 8.622078e-06
1.7971716e-06 6.5929207e-06 1.0855597e-05 1.2250272e-06 1.1829176e-05 1.28570055e-05 1.3296477e-05 7.642671e-06
3.0122835e-06 5.270929e-06 1.1882502e-06 1.6719936e-05 7.5355206e-06 1.112472e-05 5.3371605e-06 1.8663293e-05
1.2005288e-05 3.3822996e-06 1.2903722e-05 1.3075987e-05 1.0007547e-05 7.3441197e-06 1.4976274e-05 1.5037686e-05
6.4535798e-06 2.062308e-05 1.4703393e-05 1.2586025e-05 1.2603701e-05 1.8759161e-05 1.290626e-05 6.2251634e-06
1.674971e-05 1.7032162e-05 1.9032856e-05 1.760118e-05 1.1748747e-05 1.2846002e-05 6.9566054e-06 8.702798e-06
1.0235286e-05 6.604637e-06 5.1960756e-06 9.977787e-06 4.7046765e-06 8.006105e-06 8.922647e-06 9.064891e-06
8.1564895e-06 8.832251e-06 1.2669054e-05 1.27423045e-05 8.0973605e-06 1.2459487e-05 9.6209305e-06 1.5504316e-05
1.3931138e-05 1.2525101e-05 1.5318781e-05 1.340607e-05 8.678372e-06 8.82052e-06 9.723049e-06 1.5886944e-05
1.9816762e-05 1.4372816e-05 5.427165e-05 2.47321e-05 2.9660672e-05 3.452038e-05 7.0481606e-06 1.0537807e-05
3.586038e-05 4.9348037e-06 5.4735337e-05 5.0751743e-05 3.2438827e-05 1.4640053e-05 2.2421867e-05 2.098138e-05
1.379211e-05 2.3123903e-05 2.8145465e-05 1.7557253e-05 1.9789935e-05 2.1300466e-05 2.7576763e-05 5.394421e-06
2.6354066e-05 2.730061e-05 2.6809385e-05 2.9398801e-05 2.3062947e-05 2.5520467e-05 2.8011824e-05 5.495333e-05
2.5123463e-05 4.671776e-05 1.3351005e-05 5.7133682e-05 3.1847445e-05 1.5447535e-05 5.615788e-05 5.5569853e-05
4.8732403e-05 5.596159e-05 5.9516613e-05 5.963179e-05 4.0801533e-06 2.2631457e-06 5.0177223e-06 6.7998603e-06
1.8853449e-06 3.7004631e-06 4.3773507e-06 2.7576336e-06 4.3409946e-06 4.15124e-06 4.3602986e-06 3.6537003e-06
3.2759565e-06 4.862244e-06 7.910781e-06 3.437318e-06 8.396228e-06 1.090578e-05 6.6462826e-06 2.5935415e-06
7.492297e-06 2.627714e-06 9.613628e-06 1.0563276e-05 1.1489053e-05 9.271164e-06 5.0830745e-06 6.258762e-06
4.58714e-06 7.426718e-06 6.823976e-06 7.580979e-06 4.899271e-06 6.196638e-06 8.887511e-06 2.9931964e-06
5.896974e-06 6.0306593e-06 7.1496625e-06 6.7684327e-06 7.25711e-06 3.9207052e-06 3.5835158e-06 4.255454e-06
4.4341946e-06 4.7845747e-06 4.2869183e-06 5.2093665e-06 4.5934557e-06 3.3655363e-06 5.832305e-06 6.0300586e-06
6.5040476e-06 6.0583047e-06 5.219501e-06 5.191048e-06 1.9147757e-05 6.9321295e-06 1.1581482e-05 1.5831565e-05

exp_avg f4 [100]
00000000: 6fef 97ba 71c8 48ba 0bfa 893a d3b1 d1b9
00000010: 72dd 8639 778b e039 0071 5dba 2699 c0ba
00000020: f6df 89b9 b59f cfb9 d3ae 83ba ceb9 063a
00000030: 5ad1 3aba 58cb 2839 a310 35b9 7faa 5339
00000040: 3600 88b9 3ef1 583a b440 e8bb 8324 35ba
00000050: ed33 5838 c4bd 1f3a cdac 7138 f4b5 8db9
00000060: 2b47 1aba 639f f238 c011 efb8 9cfd 8439
00000070: 9b21 b6bb ec41 cab7 c585 3fba 9ed4 31b9
00000080: a098 2d3a 9af2 a339 c3fa 76bb 0f61 d5ba
00000090: cbdb 06bc 71f2 003a 183f a3ba 94ac 7e3a
000000a0: cc27 b8b9 5ef1 8ab8 f4bc 3aba 8168 d7b9
000000b0: 2fd4 543b 3df5 d0b9 b8ad 153a 3b6e e439
000000c0: 2f16 bf39 a863 3eb8 1aac 99b9 cac4 04bb
000000d0: 8ed4 213a e107 b8b9 811d cfb7 1dac f9b9
000000e0: 0e2b ce39 39f2 c33a bdae 273b 82e6 133a
000000f0: e492 f2b9 4928 ab3a ec74 ceb9 2d39 9939
00000100: 65e1 863b 082a e7b9 cdd2 e039 7af4 ac3a
00000110: c0b1 55b9 0f58 16ba a635 e6b8 36fe 31ba
00000120: 1a85 cc3a 5200 6239 a458 69ba 6ce4 923a
00000130: d6b8 a836 27d2 8239 ac8c c2b9 332f 1c37
00000140: d1bd fb3a 1f99 ac39 8ea5 eaba 3e4b 83ba
00000150: 6f93 b4bb 36b0 ef39 70af b3b9 a705 9cba
00000160: 4cc5 c938 62f2 d63a abc2 9239 43f9 50b8
00000170: 148c edba b07f cd38 e50e 09b9 140a 7438
00000180: 7ab3 1e39 da3f c639 e2ca 0db8 2a1f 3c39
-0.0011591743 -0.00076592626 0.0010526789 -0.00039996076 0.0002572346 0.0004282852 -0.0008447319 -0.0014694079
-0.0002629754 -0.00039601108 -0.0010046609 0.00051393814 -0.0007126533 0.0001609748 -0.00017267703 0.00020186043
-0.000259401 0.0008275694 -0.0070877913 -0.0006910043 5.1546773e-05 0.0006093646 5.761981e-05 -0.0002702918
-0.00058852386 0.00011569147 -0.00011399714 0.00025365956 -0.0055582053 -2.4110974e-05 -0.0007306005 -0.00016959241
0.0006622169 0.00031270535 -0.0037686087 -0.0016279536 -0.008231114 0.0004918939 -0.0012454716 0.0009715047
-0.00035124866 -6.625311e-05 -0.0007123493 -0.00041085857 0.0032475104 -0.00039855568 0.0005709785 0.00043569677
0.00036446887 -4.5392342e-05 -0.0002931066 -0.0020258897 0.0006173336 -0.00035101085 -2.4690062e-05 -0.00047621215
0.0003932346 0.0014949507 0.002558633 0.00056419533 -0.0004626728 0.001305827 -0.00039378495 0.00029225033
0.0041162246 -0.0004409107 0.00042881668 0.0013195418 -0.0002037948 -0.00057351677 -0.000109772474 -0.00067898945
0.0015603632 0.00021553159 -0.0008901453 0.0011206991 5.028308e-06 0.00024952108 -0.00037107372 9.309314e-06
0.001920635 0.0003292048 -0.0017902122 -0.0010016931 -0.0055107395 0.0004571692 -0.00034272252 -0.001190354
9.621176e-05 0.001639914 0.0002799233 -4.9823208e-05 -0.0018123412 9.7989454e-05 -0.00013070887 5.818352e-05
0.00015134914 0.00037813076 -3.380597e-05 0.00017940687

exp_avg_sq f4 [100]
00000000: d30f 8737 7b97 b036 2fdf f537 3889 9536
00000010: 7993 5937 62fe 2437 4274 1f37 3d2b 2637
00000020: a5a9 4e37 81dd 1337 4b7a 6137 30ba 1338
00000030: 03cc c837 c5dc 1938 982e d136 4a3f 2137
00000040: 8106 0437 f807 a636 6b22 5b37 8dfa 9e37
00000050: 51a0 b337 cb64 d436 23f0 0f37 ab58 dc36
00000060: 1a82 0c37 d40d dc36 94d9 d736 1322 d537
00000070: c241 8837 4b08 3637 5abe c137 8c32 3737
00000080: c5e3 1437 3c1d 0d37 f2f2 9937 3820 de37
00000090: e46c 0338 276e 2237 36c9 2738 fb4e 6537
000000a0: efee 0237 b3dd 2c37 39b2 c137 d9f6 bb37
000000b0: 8b67 d337 80e7 da36 2ba5 a737 e0e4 dc37
000000c0: 4103 7a37 87ec 5837 02c0 9737 70ae 2238
000000d0: 0896 1237 f83a 2037 7797 7337 79fb 5f37
000000e0: 7e7c df36 9a2b 3e37 6489 1c37 71d4 3b37
000000f0: dd5f 0c37 819d 3438 1f11 1f37 fe7f 8b38
00000100: 1ebd 2e37 2247 0237 187e c437 b68a 5637
00000110: c539 8337 b004 6037 11fb 6237 5aaf 6a37
00000120: df1b 8837 5ec5 4f37 283f 3137 bf47 9637
00000130: e9b4 0537 2d96 0b37 6acc b336 d4a4 c937
00000140: a6f2 4537 cb7f 9337 1c91 2437 13a4 1837
00000150: 9d36 8837 6a3c 7d37 2d9a 4437 f044 8437
00000160: a68d d636 cea9 9437 34b2 8f37 11f4 6837
00000170: 8f8d 7937 3e06 df36 7e9c ae36 9adf 4337
00000180: af6b ef36 9ece 0737 bfb3 2637 f2c7 0637
1.6100623e-05 5.2628434e-06 2.9310204e-05 4.4565204e-06 1.2968544e-05 9.83439e-06 9.504207e-06 9.904438e-06
1.2318055e-05 8.813456e-06 1.3439519e-05 3.522093e-05 2.3936858e-05 3.668365e-05 6.2341096e-06 9.611083e-06
7.869327e-06 4.948113e-06 1.3061431e-05 1.895174e-05 2.1413116e-05 6.329826e-06 8.579375e-06 6.5668332e-06
8.374942e-06 6.5581207e-06 6.4328287e-06 2.5407446e-05 1.6243084e-05 1.0849976e-05 2.3096032e-05 1.0919419e-05
8.874519e-06 8.411062e-06 1.8352152e-05 2.6479465e-05 3.1334246e-05 9.681599e-06 4.0003295e-05 1.3667853e-05
7.804235e-06 1.0303617e-05 2.3090384e-05 2.2407085e-05 2.5201376e-05 6.5238564e-06 1.9984864e-05 2.6332622e-05
1.4901919e-05 1.2929674e-05 1.8090013e-05 3.8786267e-05 8.73721e-06 9.550473e-06 1.4519194e-05 1.3350386e-05
6.6604107e-06 1.1335034e-05 9.330313e-06 1.1195531e-05 8.36697e-06 4.306203e-05 9.481125e-06 6.651877e-05
1.04152405e-05 7.765166e-06 2.3423738e-05 1.278769e-05 1.5643318e-05 1.3352532e-05 1.3529106e-05 1.3988314e-05
1.6225442e-05 1.2384115e-05 1.0564727e-05 1.7914803e-05 7.969539e-06 8.320011e-06 5.3584126e-06 2.4037821e-05
1.1798611e-05 1.7583274e-05 9.808948e-06 9.0981075e-06 1.6237895e-05 1.5094041e-05 1.1718407e-05 1.5767728e-05
6.394187e-06 1.7722046e-05 1.712991e-05 1.3885104e-05 1.4874516e-05 6.6466446e-06 5.203822e-06 1.1674967e-05
7.135291e-06 8.094734e-06 9.936221e-06 8.033576e-06

exp_avg f4 [50, 100]
00000000: 90b9 123a 5791 f2b9 6d82 4d38 9b13 4eba
00000010: 348b d0b9 36bc 33ba f3c4 1dba 086d a8b9
00000020: c29f a339 a67d 2bba 4d4f e239 59c2 d6b9
00000030: 5ec5 15ba b266 d3b7 1e0b a939 978d 7d3a
00000040: 3245 0f3a 3cdd 5938 0de6 d3b9 af99 e538
00000050: 3b12 55ba 0099 4e3a 9ba3 32b9 1507 fc39
00000060: fdaf 3fb9 1f12 973a 9091 4c3a 51f7 65b9
00000070: 3b03 c339 7869 1bb9 0677 323a 82bc 4a3a
00000080: dfb4 373a b8e7 1e3a ed52 6fb9 8fef c7b7
00000090: eecf dd38 7803 9ab8 e447 6339 6971 7eba
000000a0: 5e59 883a 01a7 0bba 8f28 333a c1da 113a
000000b0: 3eaa a7b9 8b7a 5e3a 0b82 fdb7 3c19 da39
000000c0: 9b74 5639 2656 843a 80cb e1b9 d8d9 90b9
000000d0: d76e 873a 4412 b439 c863 90ba d348 ddb9
000000e0: aff8 7938 a95a e536 ac3b f138 43d4 c7b9
000000f0: 6060 873a c995 8239 dc96 86ba bd6a b4b9
00000100: 380f 30ba 4249 afb9 49bc 1cba 1ebc 4fba
00000110: e8bb f537 27eb 5b38 f500 c1b9 e4e9 d2b9
00000120: 3818 47ba bc86 48ba 80d8 01ba 2ab6 763a
00000130: 8773 753a 188a 9c39 6d97 0d3a 5370 653a
00000140: 5b4f 8ab9 10f9 97b9 d16d 1f38 404f 04ba
00000150: ed8f 2d3a c540 d6b9 0fdc 11ba 2898 4cb9
00000160: 59ef fcb9 148b 05ba 1c2f 10ba d28d bbb9
00000170: b0c0 54ba 183d 1bba 6ae8 dab8 237e f339
00000180: aef6 01ba 80d8 aab9 f4d8 7139 83e2 8e39
00000190: 2e1a d638 a827 36b9 7a09 b4b9 f6f2 9939
000001a0: 8552 3139 1c17 a338 467a 2939 d384 0639
000001b0: 0926 7539 1159 a439 3d2b 0bb9 94a0 4a39
000001c0: d375 9439 c49c f737 b7a3 7f38 445d 8db9
000001d0: 3568 0cb7 0d7e a137 7838 fe39 9070 de38
000001e0: 330d 6037 5b1e cfb8 7612 c838 88a1 a0b9
000001f0: 9b7e 5338 067a 2cb9 b93a 04ba c9f4 59b9
00000200: a004 8938 6954 6e39 3c72 0439 d7db beb9
00000210: 5c12 a5b9 eb65 9fb9 32e0 32b8 17c1 a639
00000220: 2f17 0db9 f822 7139 527b 5739 d2a3 063a
00000230: 9286 2db9 7b56 ac39 0049 edb8 dc26 be38
00000240: c5c8 80b9 089f 13b9 e11f 08b9 3a72 2e39
00000250: a408 a3b9 2692 2039 9716 8739 4f7c 5ab9
00000260: a2ff cbb9 946d 67b9 0517 27b9 d9d8 8a38
00000270: 0172 b5b9 23b0 e336 be2f be38 c9e4 4839
00000280: dc66 3db8 ca65 7639 b1ed 4339 6abf cf39
00000290: 561a 6139 cced 8138 2902 e038 5571 043a
000002a0: 3fa3 9738 fb7a 0b39 e6c4 2639 28da 26b9
000002b0: 942e 1e39 4e6d 8639 4f3f 7039 2dd2 e1b8
000002c0: 5c40 1139 956c 4339 7e35 89b8 a8ff a0b9
000002d0: 99e6 91b8 84e6 aa39 7d46 6339 23ee a639
000002e0: 8a4d 8fb9 7549 3a39 431c af39 4bdf 92b9
000002f0: 06dd a239 7095 9539 2d94 9eb8 5e39 d2b7
00000300: 2627 4f39 6127 36b9 6359 eab7 2f4f 5eb9
00000310: c8bf ca39 9a35 4f38 91fa cbb9 d0fd 8ab9
00000320: a036 7ab8 b58a 3bb7 807c ee38 3e63 c0b8
00000330: 843a 73b8 e823 9cb8 ff27 1539 8b56 96b8
00000340: dd5f 33b8 8707 39b9 eb83 61b9 bdfc f2b8
00000350: d7b8 91b8 d265 6237 6e8a ce38 02c2 a938
00000360: efe5 86b9 e0ef 1d39 2dee fbb8 d033 1939
00000370: 4144 6cb8 e483 6fb9 fe34 70b9 d712 1f39
00000380: 0eaf 2fb9 1143 cab9 5bf3 1339 59d3 9938
00000390: db7e a237 bb96 c7b8 ab3f 8eb8 b517 0ab9
000003a0: 96f0 0038 5591 c437 9c8e 9538 b76e 0339
000003b0: ef9c 13b9 257b 4a39 1c16 5f37 0b53 9337
000003c0: 9adc 66b7 43d7 5338 4a55 1fb7 24da 0f38
000003d0: 1f0c 0239 eaaf 26b9 f82b 5739 49fd 09b8
000003e0: 8a95 f0b7 59d4 99b7 1302 8e39 ce71 2839
000003f0: 006c 1a38 d0ae 6eb7 2aaf 33b9 fd43 5eb9
0.0005597109 -0.00046266124 4.8997277e-05 -0.0007861198 -0.00039776566 -0.0006856354 -0.00060184224 -0.00032124692
0.00031208812 -0.00065418554 0.00043165163 -0.0004096206 -0.0005713309 -2.5200981e-05 0.00032242475 0.00096722826
0.0005465328 5.1942872e-05 -0.00040416457 0.00010948197 -0.0008128022 0.0007881075 -0.0001703635 0.00048070462
-0.0001828074 0.0011525786 0.0007803673 -0.00021931274 0.00037195705 -0.00014821242 0.0006807897 0.00077337783
0.0007007848 0.00060617505 -0.00022823708 -2.3834202e-05 0.00010576831 -7.343938e-05 0.00021675188 -0.00097062305
0.001040261 -0.0005327315 0.0006834352 0.0005563908 -0.00031979562 0.0008486888 -3.0220506e-05 0.00041599
0.0002045207 0.0010096475 -0.00043066964 -0.00027628127 0.0010332715 0.00034345884 -0.0011016065 -0.00042206663
5.959783e-05 6.835286e-06 0.0001150289 -0.00038114385 0.0010328405 0.0002490713 -0.0010268348 -0.00034411802
-0.0006716135 -0.00033433182 -0.00059789844 -0.0007924455 2.9293777e-05 5.243267e-05 -0.00036812542 -0.00040228583
-0.00075948564 -0.00076494715 -0.00049532205 0.00094113 0.0009363223 0.00029857527 0.00054012873 0.00087523944
-0.00026380536 -0.0002898653 3.801083e-05 -0.00050472096 0.0006620873 -0.00040865518 -0.00055641023 -0.00019511639
-0.00048243513 -0.00050942716 -0.0005500184 -0.00035773084 -0.0008115871 -0.00059218844 -0.000104383405 0.0004644255
-0.00049577176 -0.00032586232 0.00023064372 0.00027253115 0.000102091915 -0.00017371646 -0.00034339336 0.00029363454
0.00016910776 7.77675e-05 0.00016162646 0.00012828717 0.0002337919 0.00031346877 -0.0001327218 0.00019324041
0.00028316546 2.9517694e-05 6.094921e-05 -0.00026963104 -8.368913e-06 1.9251393e-05 0.00048488728 0.00010606751
1.3354514e-05 -9.876183e-05 9.540182e-05 -0.00030637928 5.042423e-05 -0.00016448656 -0.0005044151 -0.00020785922
6.5335305e-05 0.00022728894 0.00012631057 -0.00036403417 -0.0003148493 -0.00030402778 -4.2647305e-05 0.0003180585
-0.00013455444 0.00022996578 0.00020549938 0.00051361055 -0.00016548697 0.0003287083 -0.00011314638 9.067144e-05
-0.00024563647 -0.00014078256 -0.00012981847 0.00016636486 -0.0003109622 0.00015313234 0.00025766037 -0.00020836409
-0.00038909639 -0.00022070698 -0.00015934937 6.620744e-05 -0.0003460795 6.785632e-06 9.068799e-05 0.00019158715
-4.5156907e-05 0.00023498308 0.00018685196 0.0003962473 0.00021467483 6.1954925e-05 0.00010681555 0.0005052288
7.230648e-05 0.00013301887 0.00015904344 -0.00015912263 0.00015085406 0.0002563991 0.00022911768 -0.00010767984
0.00013852253 0.00018637099 -6.542633e-05 -0.00030708057 -6.957091e-05 0.00032596674 0.00021674666 0.00031839413
-0.00027332857 0.00017765707 0.00033399658 -0.00028013656 0.00031063723 0.00028530834 -7.561627e-05 -2.5060664e-05
0.00019755642 -0.00017371542 -2.7936598e-05 -0.00021201068 0.0003867133 4.9402566e-05 -0.00038905864 -0.00026510516
-5.965552e-05 -1.1178364e-05 0.00011371914 -9.173759e-05 -5.799021e-05 -7.445348e-05 0.00014224647 -7.168677e-05
-4.2766205e-05 -0.00017645779 -0.00021506815 -0.000115865354 -6.948568e-05 1.3494357e-05 9.84863e-05 8.094685e-05
-0.00025729786 0.00015062047 -0.000120129764 0.00014610519 -5.633035e-05 -0.00022841949 -0.00022907925 0.0001517044
-0.00016754513 -0.0003857841 0.0001410967 7.334975e-05 1.9370977e-05 -9.517135e-05 -6.782947e-05 -0.00013169537
3.074164e-05 2.3432696e-05 7.131437e-05 0.00012534378 -0.00014077475 0.00019310096 1.32969835e-05 1.7562435e-05
-1.3760431e-05 5.05068e-05 -9.496996e-06 3.4297016e-05 0.00012402282 -0.00015896527 0.00020520377 -3.2899236e-05
-2.8679864e-05 -1.8337903e-05 0.00027085896 0.00016064124 3.6817044e-05 -1.4226607e-05 -0.00017136024 -0.00021196897
