models/model_save_tchla_best_training/model_2/train_11/MLP_2.pth (torch, 24510 bytes, 9 tensors)

layers.0.weight f4 [100, 14]
0	0xbe046dc2	-0.12932494
1	0xc070d5c6	-3.7630477
2	0x3fe38039	1.7773505
3	0xbe8cfc58	-0.27536273
4	0x3f4c0945	0.79701644
5	0x407811e8	3.876093
6	0x3ea97e76	0.33104295
7	0xbe7c64cc	-0.24647826
8	0x3f4716f4	0.777694
9	0x3fe4a819	1.7863799
10	0x3fbb8328	1.4649401
11	0xbfd39d85	-1.6532446
12	0x3f30175b	0.6878564
13	0xbe371be7	-0.17881738
14	0xc071022c	-3.7657576
15	0x3fa3c89a	1.2795594
16	0xbf1d442d	-0.61432153
17	0xbf42b6e9	-0.7606035
18	0x407a08b8	3.9067822
19	0xc0f6d4a7	-7.7134585
20	0x4058fffa	3.3906236
21	0x401662d0	2.349781
22	0x3f1439e7	0.5790085
23	0xbff34192	-1.9004385
24	0xbe86ad6f	-0.26304194
25	0x3f333a0d	0.70010453
26	0x3fca981a	1.5827668
27	0xbf2e2eba	-0.6804005
28	0xb9739628	-0.00023230223
29	0xbb736d6b	-0.0037144076
30	0x3c09ace4	0.008403037
31	0xbc854ea5	-0.016272852
32	0x3c7b1af6	0.015326252
33	0xbda22546	-0.079172656
34	0x3c9b26ad	0.01893934
35	0x3c9c31f2	0.019066785
36	0xbe48d1e0	-0.19611311
37	0x3f028a47	0.50992244
38	0xbde8fc99	-0.11376304
39	0x3c9012e5	0.017587135
40	0xbda8002c	-0.08203158
41	0xbd02038a	-0.031741656
42	0xbcdc685c	-0.026905231
43	0x3d02796f	0.03185409
44	0xba15f5ce	-0.00057205267
45	0x3cbcd326	0.023049902
46	0xbc20edbf	-0.009822308
47	0x3da268fb	0.0793018
48	0xbcb140f0	-0.02163741
49	0xbc95f19c	-0.018303685
50	0x3de7029a	0.11279793
51	0xbeb0b841	-0.34515575
52	0x3c8cd7f4	0.017192818
53	0x3c24bb3d	0.010054407
54	0x3de7c6d0	0.11317217
55	0x3c1c3477	0.009533993
56	0xbf23fd62	-0.64058506
57	0x4089d423	4.3071456
58	0x3f21b967	0.63173527
59	0xbe8e7ae2	-0.27828127
60	0x3f50ed08	0.8161168
61	0xc0271b20	-2.6110306
62	0xbef7a635	-0.48368993
63	0x3ffb5746	1.9636009
64	0x3eca0266	0.39454955
65	0xc02fa023	-2.744149
66	0xbf645e6f	-0.89206594
67	0x3fc3d915	1.5300623
68	0xbd9a0864	-0.07521132
69	0x3dc23d52	0.09484352
70	0x3fdd304e	1.7280366
71	0x408226cd	4.0672364
72	0x3d83576d	0.064131595
73	0xbf8b7d32	-1.0897582
74	0xc0344801	-2.8168948
75	0x40a15ba9	5.042439
76	0xbf2e1367	-0.67998356
77	0x401ab6f9	2.4174178
78	0xbfc3e6bf	-1.5304793
79	0x3f0b280e	0.54357994
80	0xbf4a47c7	-0.79015774
81	0xc013fb8b	-2.312228
82	0x3fa60d33	1.2972778
83	0x400297b2	2.0405087
84	0x402c1cc2	2.6892552
85	0x3f517779	0.81822926
86	0xc02d79de	-2.7105632
87	0x408f69a5	4.481646
88	0x4008423f	2.1290433
89	0x3faf9f69	1.3720523
90	0x3fedf9b0	1.8591824
91	0xbc966032	-0.018356416
92	0x40439ccf	3.0564458
93	0x3ed3a4f3	0.41336784
94	0xbe08eb97	-0.1337112
95	0xbfc78b07	-1.5589303
96	0xc01f751b	-2.4915226
97	0x3ea6b71f	0.32561585
98	0xbc8fcc3e	-0.017553445
99	0xbbdf03c2	-0.006805868
100	0x3cd07f38	0.025451288
101	0xbbece32d	-0.00722923
102	0x3c0d847d	0.008637545
103	0xbd929349	-0.07156999
104	0x3d153028	0.03642288
105	0x3d9c4cee	0.07631861
106	0xbea5dbdf	-0.3239431
107	0x3f0fcdd0	0.5617342
108	0x3d709892	0.058739252
109	0xbd254129	-0.040345345
110	0xbd9a7336	-0.07541506
111	0xbc9087a6	-0.017642807
112	0xbd485583	-0.048909675
113	0x3be645c3	0.007027359
114	0xbcffe71c	-0.031238131
115	0x3c000a25	0.007814919
116	0x3a7b952e	0.00095971196
117	0x3de98bf3	0.11403646
118	0xbbf35811	-0.00742627
119	0xbca10cf7	-0.019659502
120	0x3e98a4f5	0.29813352
121	0xbf1b56cd	-0.6067932
122	0x3de8ca32	0.11366691
123	0x3cd3de8f	0.02586296
124	0x3db2a180	0.0872221
125	0x3cc46676	0.023974638
126	0xbea2c824	-0.3179332
127	0x409c38b2	4.881921
128	0x3f8cab0a	1.0989697
129	0xbf11a43e	-0.5689124
130	0x4043afec	3.0576124
131	0x409e8a6d	4.9543977
132	0xbf3af22f	-0.7302579
133	0x40706762	3.75631
134	0xbf66ea18	-0.9020095
135	0x3f85a821	1.0441934
136	0x3f5b21d7	0.8559851
137	0x400869ff	2.1314695
138	0xc09b053e	-4.84439
139	0x3fa2be1d	1.2714268
140	0x3ec280bb	0.3798884
141	0xbfae6ded	-1.3627297
142	0x401d05f6	2.4534888
143	0x3fbaba6e	1.4588144
144	0x403c8442	2.9455724
145	0x3f8af557	1.0856122
146	0xc08a04cc	-4.3130856
147	0xbf9c00a2	-1.2187693
148	0x3f2e1f0a	0.6801611
149	0x4045a7d6	3.088369
150	0x3fd39662	1.6530268
151	0xc0560aa1	-3.3443987
152	0x3f0f0b79	0.5587688
153	0x3fc55221	1.5415689
154	0xc0b338cb	-5.6006827
155	0xbec4673a	-0.38360006
156	0x3f8d864b	1.1056608
157	0xbfa39361	-1.2779351
158	0x4036fa43	2.8590248
159	0xbfdf1d24	-1.7430768
160	0xc000d771	-2.0131495
161	0x40dc8937	6.89175
162	0x3f245499	0.64191586
163	0xbeeba5cf	-0.4602494
164	0xbf597314	-0.8494122
165	0x3d7be66e	0.06149905
166	0xbf6abdfa	-0.9169613
167	0x3f9e7d1b	1.2381929
168	0xbf3793d4	-0.7170994
169	0xc0805681	-4.0105596
170	0xbfa52f36	-1.2905033
171	0xbe696aeb	-0.22794692
172	0xc003f717	-2.0619562
173	0x3f0d05e4	0.55087113
174	0x401468b0	2.3188896
175	0xbfe98926	-1.8244979
176	0x3f7d59ad	0.9896496
177	0x40161a46	2.3453536
178	0x3f168b7b	0.5880658
179	0xbdcc93b3	-0.09989109
180	0xbf6801ae	-0.90627563
181	0xbf7125d2	-0.94198334
182	0x39662afd	0.00021950524
183	0xbc4cf759	-0.012510144
184	0xbcb8f055	-0.022575537
185	0x3c875e5a	0.016524483
186	0xbcc00739	-0.023440944
187	0x3e00c8b1	0.12576558
188	0xbcd3bfa7	-0.025848223
189	0xbd35ac09	-0.04435352
190	0x3e2ec2ed	0.17066546
191	0xbeeb1997	-0.4591796
192	0x3d92e5d0	0.071727395
193	0xbb2760df	-0.0025539917
194	0x3d93535f	0.07193636
195	0x3d648f21	0.05580056
196	0xbf12dc7f	-0.573677
197	0xbdf8e3e6	-0.12152843
198	0x402fcf2f	2.7470205
199	0xbf986db2	-1.1908476
200	0xc0345196	-2.8174796
201	0xc02be8cd	-2.686084
202	0xbfb202ae	-1.3907068
203	0xbfb66090	-1.4248219
204	0x3fcda2ce	1.6065309
205	0x4055f6d3	3.34319
206	0xbe3741f4	-0.17896253
207	0xbf2750f3	-0.65357894
208	0x3e1122a5	0.14173372
209	0xbf5e7189	-0.8689199
210	0xbf72e945	-0.9488719
211	0xc109e389	-8.618051
212	0xbf3c5244	-0.7356303
213	0x3f114b9b	0.5675599
214	0xbfa38047	-1.2773522
215	0x403b7675	2.929105
216	0x3fd12778	1.634017
217	0x3df2a0f5	0.11847106
218	0xbff45b38	-1.9090338
219	0x3d643e52	0.055723496
220	0xbf8599f2	-1.0437605
221	0xc085a92b	-4.1769004
222	0x3f3ca806	0.73693883
223	0x409bde35	4.870875
224	0x3c629d38	0.013831429
225	0xbb045f00	-0.0020198226
226	0x3cc5bd43	0.024138099
227	0xbce840c1	-0.02835119
228	0x3c43321f	0.011913805
229	0xbdb2ab32	-0.08724059
230	0x3c6eda2e	0.014578385
231	0x3d402638	0.04691145
232	0xbe5a1c25	-0.21299799
233	0x3f00ea9f	0.50358003
234	0xbd624818	-0.055244535
235	0xbceb4b82	-0.028722528
236	0xbd989890	-0.07450974
237	0x3aa36d37	0.0012468462
238	0x3ac9b52b	0.0015389075
239	0x3c8995ba	0.016795028
240	0x3c1ed3f5	0.009694089
241	0x3ae2bddb	0.0017299013
242	0xbd03dfe4	-0.03219594
243	0x3de5eef6	0.11227219
244	0xbd33fcc6	-0.043942235
245	0xbd11fa9f	-0.0356394
246	0x3e98b0e2	0.2982245
247	0xbf170c59	-0.59003216
248	0x3d95a2c8	0.07306439
249	0x3a334621	0.0006838758
250	0x3dc81b87	0.097708754
251	0x3cab1a49	0.020886557
252	0x4104d34b	8.301585
253	0xbfc5d35f	-1.545513
254	0x3f452bb9	0.7701984
255	0xbf1530a6	-0.58277357

layers.0.bias f4 [100]
0	0xc00a4145	-2.1602337
1	0x3f263b18	0.6493392
2	0xbc325027	-0.010883368
3	0xbc9e16fb	-0.019298067
4	0x401c09e8	2.4381046
5	0x40407874	3.0073519
6	0x4049f484	3.155549
7	0xbd0bae6b	-0.034101885
8	0xbc6c8ad7	-0.014437399
9	0x4093bbde	4.616683
10	0xc060bee9	-3.5116522
11	0xc04399ee	-3.0562701
12	0xc0ac9b49	-5.3939557
13	0xbcbb4bbb	-0.02286326
14	0xc00d9ee5	-2.2128232
15	0x402e39ff	2.7222898
16	0xbc41b857	-0.011823735
17	0x3d4cbb09	0.049983058
18	0x404bd2e2	3.1847463
19	0x40353818	2.8315487
20	0xbea9c4c5	-0.33157936
21	0xbecde57d	-0.40214148
22	0x403994bf	2.8997037
23	0xbf589b2a	-0.8461176
24	0x3ff75acd	1.9324585
25	0xc08114f4	-4.0338078
26	0xc044a1f2	-3.0723844
27	0x3e6ea7e2	0.2330623
28	0x3b97b95f	0.0046302523
29	0x402e80a6	2.726602
30	0xc0467e0a	-3.1014428
31	0xbcabd77c	-0.020976774
32	0xc072f505	-3.7962048
33	0x3fda0016	1.7031276
34	0x3c9456a6	0.018107723
35	0x3f79e8f7	0.976211
36	0xbb3786c3	-0.0028003908
37	0xc01cd58c	-2.4505339
38	0x3beb345e	0.0071778735
39	0x40487441	3.1320956
40	0x400746ff	2.1137083
41	0xc04f908b	-3.2431972
42	0x3cecc170	0.028900832
43	0x404954e9	3.1458075
44	0x3fdaf8fe	1.7107236
45	0xbfeb2296	-1.836993
46	0xc057341a	-3.362555
47	0xbcf4bf3b	-0.029876342
48	0x3cf8c2de	0.030366357
49	0xc02895c5	-2.6341412
50	0xc031130a	-2.766787
51	0x40173e77	2.3631876
52	0xbf72ed69	-0.9489351
53	0x3c76e74e	0.015069796
54	0x40430095	3.0469105
55	0xc0343d01	-2.8162234
56	0x3c6c6fca	0.014430949
57	0xc0db4d14	-6.853159
58	0xbd2cc703	-0.04218198
59	0x40949afa	4.643918
60	0xbea72ac6	-0.3264982
61	0xc052a006	-3.291017
62	0x40763a58	3.847311
63	0xc044c023	-3.074227
64	0x40256413	2.584233
65	0xbd8329eb	-0.064044796
66	0x3d4c808a	0.049927272
67	0xbe5df9dc	-0.21677345
68	0xc0d068ba	-6.512784
69	0xc0b7beb5	-5.7420297
70	0x3fa2beb2	1.2714446
71	0x400e6f36	2.2255378
72	0x3fad102e	1.3520563
73	0xbea0c66d	-0.31401387
74	0xc089fa07	-4.311771
75	0xc039938b	-2.8996303
76	0x3e67c01f	0.22631882
77	0x402033cc	2.5031614
78	0xbfc11f16	-1.5087612
79	0x408936a8	4.287922
80	0x3fe034f5	1.7516161
81	0x403e786d	2.9761002
82	0xc0aa416b	-5.3204856
83	0xc01640a2	-2.3476949
84	0xbf815987	-1.0105447
85	0x3cbb15da	0.022837568
86	0x407d36ab	3.9564617
87	0x3fbf48e1	1.4944116
88	0x3f98f06a	1.1948369
89	0xc00b2f91	-2.1747782
90	0xbfb32dd2	-1.3998358
91	0xc073f435	-3.8117802
92	0xc0621053	-3.5322464
93	0xbd252731	-0.04032058
94	0xc021a7b2	-2.5258603
95	0xbfdba31d	-1.7159153
96	0x402fe334	2.7482424
97	0xc03db19d	-2.9639657
98	0xbf923c23	-1.1424602
99	0xbd418744	-0.04724814

output.weight f4 [1, 100]
0	0xbcf49374	-0.029855467
1	0x3d0ebab5	0.034846026
2	0xbd96f2e7	-0.07370549
3	0x3d81083a	0.06300397
4	0x3d014533	0.031560134
5	0xbd1fa4fe	-0.03897571
6	0xbce07917	-0.02740149
7	0xbd8da025	-0.06915311
8	0x3d6cb2a8	0.057787567
9	0xbd0c6e96	-0.03428515
10	0xbd407cab	-0.046993893
11	0x3cf992cc	0.030465506
12	0xbce81ea0	-0.028334916
13	0x3d878e59	0.066189475
14	0xbcf70183	-0.030152088
15	0xbd09f34c	-0.03367929
16	0xbd832aa1	-0.06404615
17	0x3d8f4bb4	0.06996861
18	0x3ce4167e	0.027842756
19	0xbd2ebe96	-0.042662226
20	0x3cf667d1	0.0300788
21	0x3ce7d5fd	0.02830028
22	0x3d102a21	0.035196427
23	0x3d006f6e	0.031356268
24	0xbd2737f9	-0.040824864
25	0xbd0794ed	-0.03310101
26	0xbd18b210	-0.03727919
27	0xbd1a9fda	-0.037750103
28	0xbcd3e1c9	-0.025864499
29	0xbcd828a9	-0.026386576
30	0x3d288a0c	0.041147277
31	0xbd8878c2	-0.06663658
32	0x3ce9e786	0.028552782
33	0xbd305f88	-0.043059856
34	0xbd4893b9	-0.048969004
35	0xbd1bfea3	-0.038084637
36	0x3d87fc8e	0.06639968
37	0xbd4078eb	-0.046990316
38	0x3d8f540e	0.06998454
39	0xbd0ea908	-0.03482917
40	0xbd110428	-0.035404354
41	0x3cf97957	0.030453367
42	0x3d845f1a	0.06463452
43	0xbcb1da6a	-0.021710593
44	0x3d032f92	0.03202779
45	0x3d038b6a	0.032115377
46	0xbd04a0ef	-0.03238004
47	0xbd7c0621	-0.061529282
48	0x3d8ec250	0.06970656
49	0xbd098367	-0.03357258
50	0xbca58fe6	-0.020210218
51	0x3d134679	0.03595588
52	0x3d1897af	0.03725403
53	0x3da23853	0.07920899
54	0xbd137540	-0.03600049
55	0x3d17d37f	0.037066933
56	0x3d33bc48	0.04388073
57	0x3d194229	0.03741661
58	0xbd85fa0b	-0.065418325
59	0xbd2d9202	-0.042375572
60	0x3d2777ee	0.04088586
61	0x3d1d0cb5	0.038342196
62	0x3d361fbf	0.04446387
63	0x3d040855	0.03223451
64	0xbcd5ee55	-0.026114622
65	0xbd7523f6	-0.05984875
66	0xbd1b145d	-0.037861217
67	0x3d0b5300	0.0340147
68	0x3cfa14ce	0.030527499
69	0xbd057191	-0.03257901
70	0x3d22fa9f	0.039789792
71	0xbcd7d8b7	-0.026348455
72	0x3ca9f651	0.020747336
73	0xbd31cabf	-0.043406244
74	0xbd0c6521	-0.03427613
75	0x3d12537e	0.035724156
76	0xbd06d1d9	-0.03291497
77	0xbd0414dc	-0.032246456
78	0x3d023221	0.031786088
79	0x3d0c0937	0.034188475
80	0x3cacd6e1	0.021098556
81	0x3d0b4bb9	0.03400776
82	0x3cfd85af	0.030947534
83	0x3d10b874	0.03533216
84	0x3d26e51d	0.040745843
85	0x3d5e4529	0.054265175
86	0x3cf83d6a	0.030302722
87	0xbcc91bb2	-0.024549339
88	0xbd0f589f	-0.034996625
89	0xbd16a686	-0.036779903
90	0x3d0e8784	0.034797207
91	0x3d05e6bf	0.03269076
92	0xbd082167	-0.03323498
93	0xbd72e210	-0.05929762
94	0x3cf31251	0.02967182
95	0xbce3d5fe	-0.027812
96	0xbcfabf6d	-0.030608857
97	0x3d241799	0.040061567
98	0x3d017d7b	0.031613808
99	0xbd8091e6	-0.06277828

exp_avg f4 [100, 14]
0	0x3963bed7	0.000217195
1	0xb83bd7f5	-4.47854e-05
2	0x388e9f43	6.8007525e-05
3	0x39ae9d44	0.00033305038
4	0x3672fa8d	3.620665e-06
5	0xb904b7dd	-0.00012656995
6	0x394a7466	0.00019307583
7	0x388b7aa4	6.65088e-05
8	0x3912c465	0.00013996808
9	0x38db9210	0.0001046994
10	0x390301a4	0.00012493745
11	0x38bc5932	8.9811525e-05
12	0x383deac9	4.5279772e-05
13	0x3941b8c2	0.00018474742
14	0xb8cacc28	-9.670138e-05
15	0x3933ca69	0.00017146174
16	0xb9c1737f	-0.0003689788
17	0xb6a3e43f	-4.88435e-06
18	0x38b01c7c	8.3976396e-05
19	0xb7aa344a	-2.0289928e-05
20	0xb9b5a52d	-0.00034646076
21	0x37c6c921	2.3697097e-05
22	0xb8a6051c	-7.9164485e-05
23	0xb8fb56c2	-0.000119847726
24	0xb8db4673	-0.00010455856
25	0xb8b88abe	-8.7996465e-05
26	0xb6a812d7	-5.0089834e-06
27	0x399d28c2	0.0002997574
28	0x3b9720ac	0.004612049
29	0x382a12d1	4.0548683e-05
30	0x3aabf20e	0.0013118403
31	0x3b9f4dac	0.004861554
32	0x39ef41f1	0.00045634763
33	0xbb10d049	-0.0022096804
34	0x3b578f93	0.0032891973
35	0xbb166871	-0.0022950436
36	0x3b01db55	0.001981457
37	0x3b29f29e	0.0025931965
38	0x3b97a386	0.004627648
39	0x3b85d14c	0.004083788
40	0x3a80a41c	0.0009814533
41	0x3a827b68	0.0009954991
42	0xbb9c9c41	-0.004779369
43	0x3a759712	0.00093685195
44	0xba69467c	-0.00088987476
45	0xba8e87e4	-0.0010874239
46	0x3a346120	0.0006880928
47	0x3a926236	0.0011168185
48	0xbaff69c9	-0.0019486482
49	0xba407f67	-0.0007343203
50	0x3a8ff80e	0.001098396
51	0x3a78796a	0.00094785413
52	0x3a871be2	0.0010307992
53	0xba31acfa	-0.00067777897
54	0xb9fc808c	-0.0004816096
55	0x3a309a66	0.00067368743
56	0xba8a0922	-0.0010531286
57	0xb894d8d8	-7.09758e-05
58	0xb8251f52	-3.9368235e-05
59	0xba3be860	-0.00071681105
60	0x396e1fb2	0.00022709256
61	0x38385d8b	4.3956137e-05
62	0xb991c2b2	-0.00027801614
63	0x3952f2a7	0.00020117556
64	0x399ad711	0.00029533406
65	0x39acf398	0.00032987888
66	0x39e3efc4	0.00043475453
67	0x39d35f60	0.00040316116
68	0x399a7694	0.00029461517
69	0x395652dc	0.00020439498
70	0x380a1a47	3.2926237e-05
71	0x35ba7495	1.389201e-06
72	0x39089b1d	0.00013027755
73	0xb82428b7	-3.9138566e-05
74	0xb827c438	-3.9998646e-05
75	0x389814ca	7.251797e-05
76	0x39208cbc	0.00015311217
77	0xb7f81329	-2.9572826e-05
78	0x387ad5f5	5.9803908e-05
79	0x38531a3a	5.0330746e-05
80	0x385082eb	4.971299e-05
81	0x3727e02b	1.0006169e-05
82	0xb806e2b2	-3.2159216e-05
83	0xb74392e2	-1.1657105e-05
84	0x36dd0dda	6.587926e-06
85	0x37178180	9.030453e-06
86	0xb57d5f77	-9.4388764e-07
87	0xb89e5eb6	-7.5516684e-05
88	0xb80e0f23	-3.3869535e-05
89	0x38777fff	5.9008595e-05
90	0x38fceb62	0.0001206014
91	0xb7cb0897	-2.4203486e-05
92	0x38a2c7f5	7.762007e-05
93	0x38b2ddcb	8.5290136e-05
94	0x38a98c43	8.084674e-05
95	0x388062e5	6.121936e-05
96	0xb76f69d7	-1.4270153e-05
97	0xb8303bc1	-4.201732e-05
98	0x3954cc75	0.00020294062
99	0xbb17b7af	-0.0023150255
100	0x3aceed36	0.0015787247
101	0x3b51f88a	0.003203901
102	0x3aae5e56	0.0013303261
103	0xbb889735	-0.004168416
104	0x3b3076c5	0.002692626
105	0xbad2bd42	-0.0016078132
106	0x3aac4e08	0.0013145814
107	0x3ad0af59	0.0015921398
108	0x3b911bd0	0.0044283643
109	0x3bb2b13f	0.0054532583
110	0x3b66ed09	0.0035236499
111	0x3b751c4e	0.0037400904
112	0xba7ddd93	-0.0009684201
113	0x3b1f56bb	0.002431317
114	0xba96ec02	-0.0011514428
115	0xbb520dab	-0.0032051604
116	0xba8e02ed	-0.0010834612
117	0x3b28594f	0.0025687998
118	0xbb2ca62f	-0.002634417
119	0x3aa2b09c	0.0012412253
120	0xbb327603	-0.0027230985
121	0xbb52a92a	-0.0032144287
122	0xbbbe5992	-0.0058090175
123	0xbbc3fa97	-0.0059808004
124	0xbb1cd364	-0.002392971
125	0xbae8c004	-0.001775742
126	0x37d611f5	2.551915e-05
127	0x3766e246	1.3761752e-05
128	0x36f89b92	7.4090867e-06
129	0xb766007b	-1.370918e-05
130	0x37636384	1.3553425e-05
131	0x36653006	3.4151612e-06
132	0xb84abd2d	-4.8336737e-05
133	0xb8504e50	-4.9664e-05
134	0xb77a3f06	-1.4915835e-05
135	0xb7f065bf	-2.8657609e-05
136	0xb8231361	-3.8880276e-05
137	0xb840c848	-4.5962894e-05
138	0xb69407f9	-4.411672e-06
139	0xb524fa3c	-6.14589e-07
140	0x38954850	7.118343e-05
141	0xb8511ec4	-4.9858136e-05
142	0xb93d1d3d	-0.00018035337
143	0x390a3691	0.00013181033
144	0x381392f3	3.518439e-05
145	0xb94e2436	-0.0001965918
146	0xb753026e	-1.2577146e-05
147	0xb7d79a3f	-2.5701824e-05
148	0x37a99de1	2.0219888e-05
149	0x376e7187	1.4212338e-05
150	0x384d484b	4.8943137e-05
151	0x391746e8	0.00014426897
152	0x39703ff9	0.00022912015
153	0x390b2c65	0.00013272611
154	0x38741ee2	5.8202895e-05
155	0x388e16cb	6.775333e-05
156	0x38aa3cc4	8.11755e-05
157	0x371b99b2	9.274505e-06
158	0xb8e98afe	-0.00011136195
159	0x392077f1	0.0001530347
160	0xb90d0dcf	-0.00013451952
161	0x383cd8f0	4.502473e-05
162	0x38401f12	4.5805304e-05
163	0x37faf8c8	2.991817e-05
164	0x3802dff2	3.120298e-05
165	0x36f562f1	7.3130873e-06
166	0x385132c0	4.9876748e-05
167	0x37b98052	2.2113472e-05
168	0x37bd6615	2.2578091e-05
169	0xb89b4f98	-7.4058014e-05
170	0x3940445f	0.00018336017
171	0xb8e7b0c1	-0.00011047861
172	0x37c7ba77	2.3809478e-05
173	0xb8c20697	-9.251868e-05
174	0x38526bea	5.0168404e-05
175	0xb7e3d5c3	-2.716005e-05
176	0xb8fb041e	-0.000119693796
177	0xb8f67a55	-0.0001175298
178	0xb8e8988f	-0.00011091038
179	0xb8456d91	-4.70705e-05
180	0x38341870	4.2938103e-05
181	0xb58f02e7	-1.0655175e-06
182	0xbb713161	-0.0036803114
183	0x3a8ea2b0	0.0010882225
184	0x37a43d27	1.95788e-05
185	0xbbb75155	-0.0055944123
186	0xba946bea	-0.0011323665
187	0x3ac97df2	0.0015372618
188	0xbb29455d	-0.0025828697
189	0x3b16ffed	0.0023040727
190	0xbb6fd0ef	-0.003659304
191	0xbb8d5a8d	-0.004313773
192	0xbbd2f2ab	-0.0064376197
193	0xbbc16ae0	-0.005902633
194	0xbab87d83	-0.0014075491
195	0x39528a1a	0.00020078607
196	0xb8daa352	-0.00010425471
197	0x380fe269	3.4304718e-05
198	0xb8405814	-4.5858396e-05
199	0xb83bf189	-4.480922e-05
200	0xb841797a	-4.612792e-05
201	0xb842a315	-4.6405086e-05
202	0x39218088	0.00015402038
203	0x37692333	1.3896078e-05
204	0xb914e443	-0.00014199414
205	0xb91af6d0	-0.0001477853
206	0xb8bc8553	-8.989372e-05
207	0xb86830ac	-5.535844e-05
208	0x36a5cff3	4.9415917e-06
209	0xb7c63853	-2.3629667e-05
210	0xb9d2b568	-0.0004018948
211	0xba6b14df	-0.00089676486
212	0x39d5d587	0.00040785616
213	0x3a44130d	0.00074796454
214	0x3a09a74a	0.0005251063
215	0xba800722	-0.0009767751
216	0x3a1be6a7	0.00059471506
217	0xba81dc00	-0.0009907484
218	0x3a393512	0.0007065098
219	0x3a75c6bc	0.0009375622
220	0x3b07f003	0.0020742423
221	0x3b05c582	0.0020411913
222	0x3a845765	0.0010096846
223	0x3a3cc51e	0.00072010036
224	0x3b517bb9	0.0031964614
225	0x38ae5943	8.313593e-05
226	0x3a6bc47f	0.0008993819
227	0x3b80d07a	0.0039311023
228	0x3a395da8	0.0007071146
229	0xbaa5c7fb	-0.00126481
230	0x3b0167fb	0.0019745815
231	0xbb2403f3	-0.0025026768
232	0x3af580f1	0.0018730444
233	0x3b202fde	0.0024442594
234	0x3b9388fa	0.004502413
235	0x3b715904	0.003682674
236	0x3a581653	0.00082430727
237	0x3a0b89db	0.0005322971
238	0xbb9e1a20	-0.0048248917
239	0x3b3de024	0.002897271
240	0xba89c225	-0.001051013
241	0xbbd405ee	-0.0064704334
242	0xb964e0ad	-0.00021827473
243	0x3b87b037	0.0041408795
244	0xbb8434d6	-0.004034619
245	0x3ae7b08b	0.0017676515
246	0xbb49b78a	-0.0030779564
247	0xbb69eedf	-0.0035695357
248	0xbbd4c54a	-0.0064932453
249	0xbbee6b53	-0.0072759776
250	0xbb4d3878	-0.0031314176
251	0xbafce1a0	-0.0019293316
252	0xb90b2b28	-0.0001327215
253	0xb844cf5b	-4.6923156e-05
254	0xb8c115b2	-9.206998e-05
255	0xb8fecb93	-0.000121495825

exp_avg_sq f4 [100, 14]
0	0x353a7856	6.946551e-07
1	0x3522c90f	6.064228e-07
2	0x353933fb	6.899351e-07
3	0x350df12c	5.2877544e-07
4	0x357058b5	8.9536053e-07
5	0x35006889	4.7835834e-07
6	0x34c5958a	3.6802913e-07
7	0x34a873d2	3.137671e-07
8	0x34bcd7c8	3.517473e-07
9	0x34aa9a34	3.1777165e-07
10	0x3498e2b1	2.8477146e-07
11	0x345b6020	2.0430934e-07
12	0x34bcf625	3.5196823e-07
13	0x34bac964	3.479173e-07
14	0x34971b18	2.8145655e-07
15	0x34a96867	3.1554666e-07
16	0x34ff33dc	4.7535184e-07
17	0x34e877ba	4.330048e-07
18	0x34db853f	4.0888878e-07
19	0x3485de42	2.4934894e-07
20	0x3509cb44	5.133227e-07
21	0x3458d0a1	2.0192466e-07
22	0x34fc13b0	4.6952982e-07
23	0x3501341f	4.813209e-07
24	0x34e31589	4.2297714e-07
25	0x347ff80f	2.3838969e-07
26	0x34a74b86	3.1161125e-07
27	0x349a2d7d	2.8717832e-07
28	0x3833c031	4.2855918e-05
29	0x386c9a9c	5.6410776e-05
30	0x3829ba99	4.0466522e-05
31	0x384f1361	4.9370694e-05
32	0x3824badc	3.9274673e-05
33	0x38803c3a	6.114734e-05
34	0x384d8718	4.9001625e-05
35	0x37c311db	2.3254126e-05
36	0x385d38a1	5.2743246e-05
37	0x386484cb	5.448311e-05
38	0x386ed0f1	5.6938214e-05
39	0x38523226	5.0114606e-05
40	0x382deb8b	4.146578e-05
41	0x383efe72	4.55365e-05
42	0x384db7ab	4.9046863e-05
43	0x38722cb7	5.773894e-05
44	0x38375978	4.3713924e-05
45	0x384be839	4.8615246e-05
46	0x38378aa4	4.375972e-05
47	0x3884cd57	6.332498e-05
48	0x3858dda3	5.170483e-05
49	0x37bb6890	2.2340828e-05
50	0x386f5806	5.706402e-05
51	0x3879651f	5.9460403e-05
52	0x387c489f	6.0149116e-05
53	0x38684f95	5.5387227e-05
54	0x38389542	4.4008026e-05
55	0x384878b0	4.7796115e-05
56	0x350a5285	5.152909e-07
57	0x3577d666	9.232666e-07
58	0x35875490	1.0082895e-06
59	0x356307ee	8.457563e-07
60	0x348b4233	2.5938934e-07
61	0x359369f3	1.0983189e-06
62	0x352dd364	6.4755136e-07
63	0x34866416	2.5032267e-07
64	0x34f00bc5	4.4712047e-07
65	0x34e407bd	4.247394e-07
66	0x35008bd7	4.788721e-07
67	0x34eda40d	4.4264053e-07
68	0x34af2966	3.2626411e-07
69	0x34f040ec	4.475072e-07
70	0x34b56fe5	3.379529e-07
71	0x34c18fdf	3.605373e-07
72	0x35117342	5.418443e-07
73	0x3527ad06	6.246413e-07
74	0x34cfb3e9	3.8687656e-07
75	0x34c49cd0	3.662194e-07
76	0x354adb64	7.557012e-07
77	0x3451adf7	1.952793e-07
78	0x351f8846	5.943042e-07
79	0x35284060	6.2678555e-07
80	0x351e9a95	5.9084533e-07
81	0x35144682	5.52369e-07
82	0x3518081f	5.663623e-07
83	0x35150b30	5.5523105e-07
84	0x34ed38a3	4.41859e-07
85	0x34a29a43	3.0287092e-07
86	0x34ca477c	3.7677444e-07
87	0x3504f9dc	4.9537425e-07
88	0x343099f7	1.644729e-07
89	0x34b15e90	3.3037622e-07
90	0x34e6935a	4.294805e-07
91	0x33bbb6c6	8.7411124e-08
92	0x34d0ae3a	3.8869786e-07
93	0x34cc3c4d	3.8041836e-07
94	0x34fb3b6d	4.679563e-07
95	0x34c88413	3.7349e-07
96	0x349d2e92	2.9277413e-07
97	0x3493de28	2.7542524e-07
98	0x3823de6b	3.906937e-05
99	0x3855bcef	5.0959115e-05
100	0x381b475c	3.702134e-05
101	0x3837e7e4	4.3846565e-05
102	0x38115e48	3.46585e-05
103	0x386fa0d1	5.7131812e-05
104	0x38352a8f	4.31934e-05
105	0x37a1390e	1.9219264e-05
106	0x38403915	4.582953e-05
107	0x3846c290	4.738808e-05
108	0x3850de1c	4.979792e-05
109	0x3840edac	4.5997716e-05
110	0x381fe40f	3.812095e-05
111	0x3826010f	3.957847e-05
112	0x3823dcc8	3.9067847e-05
113	0x38430691	4.649774e-05
114	0x38258313	3.9461138e-05
115	0x38209afb	3.829131e-05
116	0x380e8c65	3.398619e-05
117	0x385ae09d	5.2184438e-05
118	0x382f33f1	4.1771626e-05
119	0x3795327f	1.7785698e-05
120	0x3836085c	4.3399967e-05
121	0x383c9a92	4.4966648e-05
122	0x384c3063	4.8682454e-05
123	0x384ba6b8	4.855424e-05
124	0x38134093	3.510767e-05
125	0x3816a9c8	3.5920908e-05
126	0x34507ad8	1.94162e-07
127	0x341a2575	1.4355994e-07
128	0x34b4747a	3.361236e-07
129	0x34ad7bc7	3.231382e-07
130	0x343abbad	1.7390876e-07
131	0x33f2cba8	1.1306048e-07
132	0x352e698a	6.497363e-07
133	0x341ec331	1.4785907e-07
134	0x33ec9552	1.10167676e-07
135	0x34105c7d	1.3444692e-07
136	0x345e6888	2.071339e-07
137	0x34cce670	3.8165626e-07
138	0x3493e227	2.754543e-07
139	0x34a55bb3	3.0800365e-07
140	0x354341ef	7.2739107e-07
141	0x356e8088	8.8848947e-07
142	0x3546742c	7.39298e-07
143	0x352debd5	6.4790703e-07
144	0x34adc8a8	3.2369758e-07
145	0x35403633	7.1604444e-07
146	0x3579feb3	9.3130365e-07
147	0x3497f783	2.830603e-07
148	0x352f10b3	6.521688e-07
149	0x352a008a	6.333072e-07
150	0x35259df9	6.169717e-07
151	0x3522ed4d	6.069502e-07
152	0x3584b751	9.888118e-07
153	0x351737e6	5.6333226e-07
154	0x3401e09d	1.2095775e-07
155	0x34ed9def	4.4259602e-07
156	0x34ab066d	3.1855907e-07
157	0x34dded38	4.1337057e-07
158	0x348f94d1	2.6744104e-07
159	0x35057ad8	4.972512e-07
160	0x348dfaf6	2.6445895e-07
161	0x33bc389f	8.7647315e-08
162	0x347cb3e6	2.3534776e-07
163	0x346d9fe9	2.213052e-07
164	0x3481893d	2.4127976e-07
165	0x3499a7ed	2.8620653e-07
166	0x34c4d6a7	3.6664025e-07
167	0x348485ab	2.4684172e-07
168	0x34493d1f	1.874182e-07
169	0x352bdce7	6.402392e-07
170	0x34ec8055	4.40518e-07
171	0x3530b946	6.583472e-07
172	0x341724b6	1.4076326e-07
173	0x35443f83	7.310811e-07
174	0x34d7418f	4.009457e-07
175	0x346c56f6	2.2010849e-07
176	0x3510058f	5.365227e-07
177	0x3513a651	5.500379e-07
178	0x3502e580	4.876274e-07
179	0x3489bd19	2.5655825e-07
180	0x3476bd0b	2.2979309e-07
181	0x34ad800c	3.2316927e-07
182	0x382dea50	4.1464635e-05
183	0x38484c32	4.775468e-05
184	0x38319f79	4.234861e-05
185	0x38366c2d	4.3492928e-05
186	0x381a9ebc	3.6864294e-05
187	0x385b5932	5.229674e-05
188	0x382814c8	4.0073675e-05
189	0x37a8b781	2.0112611e-05
190	0x3843e17e	4.670163e-05
191	0x384b4b70	4.846923e-05
192	0x385ae2fa	5.218664e-05
193	0x384a81a4	4.828129e-05
194	0x3819fae0	3.6711688e-05
195	0x381ff651	3.8137954e-05
196	0x34dba02d	4.0908472e-07
197	0x35400e7c	7.154665e-07
198	0x34fa87c4	4.666491e-07
199	0x355a9755	8.1431546e-07
200	0x347234c4	2.2557202e-07
201	0x353563d3	6.757302e-07
202	0x35158002	5.56931e-07
203	0x3485d7bd	2.493015e-07
204	0x34ec14ab	4.3973463e-07
205	0x34dec833	4.1496386e-07
206	0x34da0c36	4.061455e-07
207	0x34e12b55	4.1941044e-07
208	0x350efce7	5.3267144e-07
209	0x3533b032	6.6939094e-07
210	0x34814425	2.4077704e-07
211	0x3447f946	1.8624004e-07
212	0x348d724e	2.6346464e-07
213	0x34be05a4	3.5394362e-07
214	0x343ad898	1.7401396e-07
215	0x348f879a	2.673449e-07
216	0x346f5b3c	2.22918e-07
217	0x343ff9f3	1.7879192e-07
218	0x3469f328	2.1788276e-07
219	0x349e7c57	2.9520263e-07
220	0x3535b93e	6.769732e-07
221	0x353bd018	6.9965745e-07
222	0x34a5d8cf	3.0891394e-07
223	0x3482b829	2.434838e-07
224	0x380a5673	3.2982276e-05
225	0x383a6524	4.444005e-05
226	0x380ecc0a	3.4045464e-05
227	0x381b57d1	3.7036665e-05
228	0x37f65326	2.9364204e-05
229	0x384b13eb	4.841752e-05
230	0x3815f1d0	3.5749574e-05
231	0x379a7385	1.8412024e-05
232	0x3823dd8f	3.906857e-05
233	0x382bcc34	4.0959756e-05
234	0x38378ec7	4.376357e-05
235	0x38364b0b	4.346207e-05
236	0x3806ba02	3.2121323e-05
237	0x3814d9cd	3.5488792e-05
238	0x383324b5	4.271111e-05
239	0x38687848	5.542513e-05
240	0x38255010	3.941363e-05
241	0x384dc025	4.9054757e-05
242	0x3817bff1	3.6179965e-05
243	0x3880ba76	6.138247e-05
244	0x384d49f9	4.89447e-05
245	0x37a7ff79	2.0026915e-05
246	0x385bd375	5.2410604e-05
247	0x3864ecb9	5.45799e-05
248	0x3872b855	5.786897e-05
249	0x38697a1f	5.5665263e-05
250	0x383788f1	4.3758137e-05
251	0x383dfab1	4.5294586e-05
252	0x33bab201	8.693679e-08
253	0x3475d6ad	2.2895502e-07
254	0x3485d7da	2.4930233e-07
255	0x346c5e4a	2.2013515e-07

exp_avg f4 [100]
0	0x38971bfb	7.205453e-05
1	0xb9480703	-0.00019076098
2	0x3b14c219	0.00226987
3	0x399c3eee	0.00029801525
4	0xb9cb1dee	-0.00038741477
5	0xb91a7ec8	-0.00014733814
6	0xb85d98c2	-5.2832773e-05
7	0x3aa8d461	0.0012880677
8	0xba5ee4ce	-0.00085027225
9	0x37494076	1.1995542e-05
10	0x36cbdda3	6.0756734e-06
11	0xb8938b37	-7.035437e-05
12	0xb82916cc	-4.031397e-05
13	0xbab8516a	-0.0014062349
14	0xb96726ce	-0.00022044333
15	0x3a2edf5c	0.00066708564
16	0x39d454ac	0.00040498876
17	0xbb32f65a	-0.0027307482
18	0x384dd1b5	4.9071114e-05
19	0x38de9f52	0.000106154606
20	0x377369a3	1.4508524e-05
21	0xb8ee85e8	-0.00011373666
22	0x39892e1d	0.00026165033
23	0xb7e10322	-2.6823549e-05
24	0x37b55089	2.1614384e-05
25	0xb90ef1c6	-0.00013632243
26	0x3806f818	3.2179145e-05
27	0x394eb4fc	0.00019713113
28	0xb9beed83	-0.00036416584
29	0x39248a14	0.00015691697
30	0x392acb17	0.0001628812
31	0x3a91f7b8	0.0011136448
32	0x3994b5ab	0.00028364113
33	0xb92e8cfc	-0.00016646454
34	0xb98be0df	-0.00026679688
35	0xb9416f7c	-0.00018447445
36	0x39974abe	0.00028856652
37	0x38a9070a	8.059859e-05
38	0xbb393175	-0.0028258238
39	0x3945be10	0.00018858188
40	0xb90e3323	-0.00013561225
41	0xb836d2d3	-4.3588527e-05
42	0xb9a9f502	-0.00032416737
43	0xb89226c4	-6.969043e-05
44	0x39355bbb	0.00017295677
45	0x3942d993	0.00018582334
46	0x397996fe	0.0002380274
47	0xb81f0a36	-3.7918064e-05
48	0xbb1f65ad	-0.0024322078
49	0x35df28b1	1.6626637e-06
50	0x39abc420	0.00032761786
51	0xb82aa652	-4.0686056e-05
52	0xb9a8dc4f	-0.000322076
53	0xb94414f9	-0.0001869983
54	0x37ca7700	2.413569e-05
55	0x351193f3	5.4232004e-07
56	0xbae0501e	-0.001711372
57	0x3921ec16	0.00015442105
58	0x3a987316	0.0011630978
59	0xb91bf093	-0.00014871573
60	0xb9e5b608	-0.00043813908
61	0x3917dc5a	0.0001448257
62	0xb8657bff	-5.4713335e-05
63	0x38acad6c	8.2339015e-05
64	0xb96ce426	-0.00022591706
65	0x3a63812b	0.00086786103
66	0x3a1a8ac6	0.00058953126
67	0x3833308b	4.2722135e-05
68	0x373b0b90	1.1148761e-05
69	0x379f2365	1.8970759e-05
70	0x38680069	5.5313492e-05
71	0xb67bc461	-3.7516222e-06
72	0xb7a6d219	-1.9886576e-05
73	0xb929f1ff	-0.00016207247
74	0xb991a2e1	-0.0002777791
75	0x3865b805	5.4769236e-05
76	0x3a2dffc4	0.00066375383
77	0x39d7bba9	0.00041147813
78	0x38ee0a93	0.00011350694
79	0xb80d31fe	-3.366358e-05
80	0xb99716ad	-0.0002881786
81	0xb9601f08	-0.00021373865
82	0x390dc26d	0.00013519237
83	0x38c8ddce	9.5780575e-05
84	0xba85487e	-0.0010168699
85	0x3a02a688	0.00049839215
86	0xb9272e6f	-0.00015943659
87	0xb8a66c9b	-7.935726e-05
88	0xb9624d24	-0.00021581777
89	0xb8d91223	-0.000103507446
90	0x38f04298	0.00011456496
91	0xb8e504f5	-0.00010920494
92	0x39bcd9d6	0.00036020455
93	0x3b04b149	0.0020247272
94	0x3735f01e	1.0844347e-05
95	0xb934fd21	-0.00017260436
96	0xb90cc108	-0.0001342335
97	0xb9bcddab	-0.0003602331
98	0xb7280e6f	-1.0016941e-05
99	0x3a0f6ec1	0.00054715207

exp_avg_sq f4 [100]
0	0x3527444c	6.2311733e-07
1	0x34f7164f	4.6023567e-07
2	0x383fc2ca	4.571936e-05
3	0x385914b2	5.1756106e-05
4	0x3560cb3a	8.3742236e-07
5	0x3525e034	6.179355e-07
6	0x34fd57c8	4.7188792e-07
7	0x3829b857	4.046442e-05
8	0x3829b9f7	4.0465933e-05
9	0x34d27626	3.9201512e-07
10	0x353d52e4	7.052861e-07
11	0x34b2f0ee	3.3330383e-07
12	0x351dd8c0	5.880247e-07
13	0x38392c6b	4.4148805e-05
14	0x3536bbc8	6.807354e-07
15	0x34ad0406	3.2226689e-07
16	0x3822c0cc	3.8803366e-05
17	0x3844e77b	4.6945624e-05
18	0x34899199	2.5624175e-07
19	0x3520ed9b	5.9950406e-07
20	0x357c7243	9.404359e-07
21	0x3505f1f5	4.9898455e-07
22	0x35100eda	5.366579e-07
23	0x354cf255	7.634856e-07
24	0x350489f5	4.9374586e-07
25	0x3541ac5e	7.214893e-07
26	0x34ed4e7a	4.420179e-07
27	0x35857314	9.942764e-07
28	0x34f6f096	4.599612e-07
29	0x34c4c708	3.665266e-07
30	0x34ea6373	4.3658255e-07
31	0x386766b1	5.517033e-05
32	0x35216065	6.0117446e-07
33	0x35706107	8.954816e-07
34	0x3752b3f2	1.2558872e-05
35	0x3595c5cc	1.1158932e-06
36	0x38207d6c	3.826378e-05
37	0x357bb226	9.3764027e-07
38	0x384c82c9	4.8759193e-05
39	0x3536daff	6.8118965e-07
40	0x3517f8c7	5.66139e-07
41	0x3528c3fd	6.287008e-07
42	0x382cf947	4.1240153e-05
43	0x34087c0d	1.2711116e-07
44	0x3517010d	5.625341e-07
45	0x35627a46	8.436949e-07
46	0x34bec808	3.55358e-07
47	0x383f801a	4.5657252e-05
48	0x38226c99	3.872495e-05
49	0x34c88080	3.73464e-07
50	0x3523a2cc	6.095913e-07
51	0x351ee16c	5.918762e-07
52	0x35383602	6.8623933e-07
53	0x381eed2a	3.789101e-05
54	0x35421aca	7.2309615e-07
55	0x357cb5a6	9.414165e-07
56	0x383ecf16	4.5492394e-05
57	0x352ad00f	6.36327e-07
58	0x3837efd4	4.3853957e-05
59	0x34a0dcc9	2.9962965e-07
60	0x368f6bb9	4.2742727e-06
61	0x3504e0a8	4.950075e-07
62	0x351c5c88	5.824918e-07
63	0x34d37a39	3.939074e-07
64	0x348fab8c	2.6760642e-07
65	0x3831c5ee	4.2384425e-05
66	0x3554df29	7.9300895e-07
67	0x3562817b	8.437998e-07
68	0x34731022	2.2637008e-07
69	0x35268fc0	6.2049e-07
70	0x35701ea5	8.945156e-07
71	0x33da36d4	1.0161389e-07
72	0x34cb2039	3.7835142e-07
73	0x35454b66	7.349794e-07
74	0x350e4318	5.2996756e-07
75	0x35192533	5.7051074e-07
76	0x3699d6bd	4.584754e-06
77	0x34a002f7	2.980448e-07
78	0x350c29d2	5.221492e-07
79	0x356bf1c7	8.7896154e-07
80	0x34cee54d	3.8537328e-07
81	0x35025910	4.8558377e-07
82	0x34e216f4	4.211248e-07
83	0x34d951f7	4.0479037e-07
84	0x35bcccd9	1.406671e-06
85	0x37ed0eff	2.8259585e-05
86	0x35263764	6.1920423e-07
87	0x3525392f	6.1550503e-07
88	0x35221f15	6.0394933e-07
89	0x34f3d0e2	4.541426e-07
90	0x351698bb	5.6101607e-07
91	0x34f1e6d3	4.5057695e-07
92	0x351bfa49	5.810621e-07
93	0x38688fa2	5.544688e-05
94	0x3460bf65	2.0931255e-07
95	0x34b2fea4	3.334036e-07
96	0x350bdfe3	5.2107333e-07
97	0x3585690c	9.939845e-07
98	0x34de283f	4.1380005e-07
99	0x38529b5b	5.0212588e-05

exp_avg f4 [1, 100]
0	0x3b58d70c	0.0033087162
1	0x3c29c8e3	0.0103628365
2	0xbc4e9672	-0.012609111
3	0x3ab8b563	0.0014092143
4	0xbc0ab989	-0.008467087
5	0x3d079334	0.03309937
6	0xbccf70b4	-0.025322296
7	0xb95f96a3	-0.00021323054
8	0x3c09b0ea	0.008403996
9	0xb9e0ea24	-0.00042899058
10	0x3c0cb89c	0.008588936
11	0x3d366549	0.044530187
12	0xbcae69c3	-0.021290665
13	0x3c9f0e93	0.01941613
14	0x3cb7d3a2	0.022439782
15	0xbd169b76	-0.036769353
16	0xbc0dc67b	-0.008653278
17	0x3c37808e	0.011200083
18	0xbc881773	-0.016612744
19	0x3d9440c3	0.07238915
20	0x3a7f2978	0.00097336574
21	0xbcbf150c	-0.023325466
22	0x3b97129f	0.004610374
23	0x3d0a2b4f	0.03373271
24	0x3b0152c6	0.0019733175
25	0x3b243a9b	0.0025059346
26	0xbb828486	-0.003983083
27	0x3c25b9f0	0.010115132
28	0x3d0f5c8e	0.035000376
29	0xbd021064	-0.031753913
30	0x3d88afc0	0.06674147
31	0xbac543c4	-0.0015050103
32	0xbbc5ee1f	-0.006040349
33	0xbd5b3557	-0.053517666
34	0x3a187cac	0.00058169174
35	0xbcad3383	-0.021142727
36	0x3b8d6f15	0.0043162205
37	0x3c27f922	0.010252269
38	0x3c0ddcc4	0.008658592
39	0xbd540e4a	-0.05177144
40	0x3d0bb7e5	0.034110922
41	0xbc5a68a1	-0.01333061
42	0x3c4f9e21	0.012671978
43	0x3baa1c07	0.0051913294
44	0xbbf860bf	-0.0075798924
45	0x3c04faa2	0.008116396
46	0xbad818c0	-0.0016486868
47	0xbbd654c0	-0.0065408647
48	0xbb910eda	-0.0044268193
49	0x3d0395c4	0.03212525
50	0xbaf455f5	-0.001864134
51	0xbd283b57	-0.041072216
52	0x3bbc0f6c	0.005739143
53	0x3bf2def6	0.007411833
54	0xbc46d787	-0.012136347
55	0xbc9e62ee	-0.019334283
56	0x3b9b5f8d	0.004741615
57	0x3d219092	0.039444514
58	0xbc4cf5a6	-0.012509739
59	0xbd91afcc	-0.07113609
60	0xbbb73b12	-0.0055917585
61	0x3d83fb2b	0.06444391
62	0x3d30a28f	0.043123778
63	0x3b3073c3	0.0026924468
64	0xbc44a336	-0.012001803
65	0xbc0d3c78	-0.008620374
66	0x3d421f71	0.047393266
67	0x3be58b3a	0.0070051225
68	0x3d3a2dd5	0.045453865
69	0xbd603bb1	-0.054744426
70	0xbbd30bf8	-0.006440636
71	0xbb6906d4	-0.0035557048
72	0x3b0f613a	0.002187802
73	0xbb0b5f02	-0.0021266346
74	0xbd81ad68	-0.06331903
75	0xbcfda4f0	-0.030962437
76	0xbca5bcdb	-0.020231655
77	0x3c6c670f	0.014428868
78	0xbcc8482c	-0.024448477
79	0xbb8a9a28	-0.0042298026
80	0xbd3a02f5	-0.045412976
81	0x3cc53819	0.024074601
82	0xbc4d516a	-0.012531618
83	0xbcb41f54	-0.021987595
84	0x3d1575c8	0.036489278
85	0xba9ffac7	-0.0012205475
86	0x3cda5438	0.026651487
87	0xbd36030c	-0.0444365
88	0x3d3e9b17	0.046534624
89	0xbb86b1da	-0.004110557
90	0x3c5dbc74	0.0135337
91	0x3a64dcc2	0.0008730405
92	0x3d1e69c3	0.03867508
93	0xbbf57f38	-0.0074919723
94	0xbcadb3d4	-0.021203913
95	0x3d900c9d	0.07033656
96	0xbd01b10b	-0.031662982
97	0x3c0b67cf	0.008508637
98	0xbd25cdce	-0.040479474
99	0xbb3eb2db	-0.0029098305

exp_avg_sq f4 [1, 100]
0	0x3c44cf00	0.012012243
1	0x3c49cd19	0.0123169655
2	0x3a586511	0.0008254806
3	0x3a5b8953	0.000837465
4	0x3c4a014b	0.01232941
5	0x3c3e0496	0.011597773
6	0x3c3c004c	0.01147468
7	0x3a490dec	0.0007669616
8	0x3a45e4c7	0.0007549044
9	0x3c3f26c0	0.011666954
10	0x3c3cdaf0	0.011526808
11	0x3c50c62d	0.012742561
12	0x3c52662a	0.012841741
13	0x3a3a25fe	0.0007100998
14	0x3c3faf24	0.011699472
15	0x3c54b922	0.012983592
16	0x3a300912	0.0006715219
17	0x3a600540	0.0008545704
18	0x3c50c904	0.012743238
19	0x3c3fbe43	0.011703077
20	0x3c300325	0.010742937
21	0x3c443b3f	0.011977016
22	0x3c3b0073	0.011413681
23	0x3c329a22	0.010901006
24	0x3c499c6d	0.012305361
25	0x3c305ee8	0.010764815
26	0x3c33f074	0.010982621
27	0x3c3a4cac	0.011370819
28	0x3c34b8c6	0.011030382
29	0x3c3f072c	0.011659425
30	0x3c4cc719	0.01249864
31	0x3a7b6329	0.0009589666
32	0x3c484372	0.012223111
33	0x3c551e76	0.013007751
34	0x3b30bb3c	0.002696707
35	0x3c2d6dd9	0.010585272
36	0x3a25b95a	0.000632187
37	0x3c3929f6	0.011301508
38	0x3a4ae53b	0.00077398465
39	0x3c45a557	0.012063346
40	0x3c21bbf7	0.0098714745
41	0x3c3ec9d4	0.011644799
42	0x3a503467	0.0007942379
43	0x3c50e19a	0.0127491
44	0x3c36d532	0.011159228
45	0x3c31487a	0.010820502
46	0x3c627310	0.013821378
47	0x3a5c5a0d	0.00084057526
48	0x3a6b2f00	0.0008971542
49	0x3c4be350	0.012444332
50	0x3c3a99fb	0.011389251
51	0x3c41bb76	0.011824479
52	0x3c48d660	0.012258142
53	0x3a3eb352	0.00072746456
54	0x3c3fa198	0.011696242
55	0x3c3bf68d	0.0114723565
56	0x3a3a4d60	0.00071068667
57	0x3c40c20b	0.011765013
58	0x3a1c3787	0.0005959202
59	0x3c546c96	0.012965342
60	0x3bf2a5ec	0.0074050333
61	0x3c424485	0.011857157
62	0x3c409c22	0.011755975
63	0x3c36eb6a	0.0111645255
64	0x3c47f703	0.012204888
65	0x3a3eacdd	0.00072736834
66	0x3c45f51b	0.0120823635
67	0x3c3e7942	0.01162559
68	0x3c46e37a	0.012139196
69	0x3c2be6ec	0.010492068
70	0x3c3ac3e0	0.011399239
71	0x3c50da12	0.0127473045
72	0x3c387b1f	0.011259823
73	0x3c440c63	0.011965844
74	0x3c2d8dfa	0.010592932
75	0x3c404dda	0.011737311
76	0x3c0340ab	0.0080110235
77	0x3c436fcf	0.011928513
78	0x3c43cc7f	0.011950611
79	0x3c423d5a	0.011855448
80	0x3c3ae805	0.011407857
81	0x3c406857	0.011743627
82	0x3c3235a8	0.01087705
83	0x3c50a109	0.012733706
84	0x3c399376	0.011326661
85	0x3a3e8f23	0.0007269254
86	0x3c46609b	0.0121079935
87	0x3c473e84	0.012160901
88	0x3c575d48	0.013144799
89	0x3c46cc93	0.012133735
90	0x3c3c99d0	0.011511281
91	0x3c2e0112	0.010620372
92	0x3c4dcf58	0.012561642
93	0x3a2bca26	0.0006553255
94	0x3c5895f2	0.0132193435
95	0x3c4c5a69	0.012472727
96	0x3c41edb3	0.011836457
97	0x3c44af8e	0.012004746
98	0x3c3e50d6	0.0116159525
99	0x3a7839d6	0.00094690674
