models/training_new_loss_pico_soustraction/model_1/space_buffer_8_date_buffer_1/train_pfts_16/MLP.pth (torch, 57374 bytes, 18 tensors)

layers.0.weight f4 [70, 6]
0	0x3db5492c	0.08851847
1	0x3e159492	0.14607456
2	0xbed0f0a6	-0.408086
3	0xbe0a2e27	-0.13494168
4	0x3e5c67e1	0.21524002
5	0xbe0f660e	-0.14003775
6	0x3b4970ab	0.0030737321
7	0xbcac8397	-0.02105884
8	0x3c41ba66	0.011824226
9	0x391e1faf	0.00015079857
10	0x3b7a0c52	0.0038154316
11	0xbc2b3c63	-0.010451409
12	0x3bae558e	0.0053202575
13	0x3c23b239	0.009991222
14	0xbbc8f19f	-0.006132319
15	0xbc00119d	-0.007816699
16	0x3a4cbd37	0.00078101776
17	0x38f753bc	0.000117934746
18	0xbe5dd379	-0.21662702
19	0xbc8367d6	-0.016040724
20	0xbe800662	-0.2500487
21	0x3ed35714	0.41277373
22	0xbd9d7220	-0.07687783
23	0x3d4e52a1	0.05037177
24	0xbc3778da	-0.011198247
25	0xbc093119	-0.008373522
26	0xbc359c49	-0.011084625
27	0x3c873613	0.016505277
28	0x3ca05981	0.019573929
29	0x3d0f9ba2	0.035060532
30	0x3b97e9da	0.0046360316
31	0xbc3214ab	-0.010869185
32	0x3bd25c9a	0.0064197304
33	0x3b5b9923	0.0033508025
34	0xbb55973d	-0.0032591366
35	0x3b384866	0.0028119325
36	0xbdf4677b	-0.119338
37	0xbe269f18	-0.16271627
38	0x3ed2901c	0.41125572
39	0x3de30dea	0.11086638
40	0xbe28e28a	-0.16492668
41	0x3de2752b	0.11057504
42	0x3c05936b	0.008152823
43	0xbc0349ab	-0.008013169
44	0x3c1be318	0.009514593
45	0xbc35b463	-0.011090371
46	0x3bd1682d	0.0063905925
47	0xbca29230	-0.019845098
48	0x3c106a81	0.008814455
49	0x3c2b46d4	0.010453898
50	0xbbc920ba	-0.0061379345
51	0xbc6777c7	-0.014127678
52	0x3c08a77a	0.008340711
53	0x3aae7657	0.0013310415
54	0x3c1b2857	0.009470067
55	0x3bd30a52	0.0064404393
56	0x3c485bea	0.012228945
57	0xbb97133a	-0.0046104463
58	0x3c853cfe	0.016264435
59	0x3bbe9492	0.005816051
60	0xbc28451f	-0.010270386
61	0xbc2ea170	-0.010658607
62	0x3c28fcdf	0.010314195
63	0x3bdf0107	0.0068055424
64	0xbc358eb1	-0.011081384
65	0xbc8892d9	-0.016671585
66	0x3b1116bd	0.0022138797
67	0x3e02b59e	0.12764594
68	0x3b413df0	0.002948638
69	0x3baf978b	0.0053586415
70	0xbdfffae1	-0.12499023
71	0x3d179296	0.03700503
72	0x39161bc4	0.00014315458
73	0xbc31b82a	-0.010847131
74	0x3a85077e	0.0010149328
75	0xbcfa6865	-0.030567357
76	0x3c795b1e	0.015219478
77	0xbd5c424b	-0.05377416
78	0xbdbac365	-0.091193
79	0x3ec4efea	0.3846429
80	0xbe09ba74	-0.13450032
81	0x3c1bfa0e	0.009520067
82	0xbd100437	-0.03516027
83	0xbca99e88	-0.020705476
84	0xbd5f8654	-0.054571465
85	0x3eac0367	0.33596346
86	0xbe041dbc	-0.12901968
87	0xbb5011eb	-0.0031748961
88	0xbcb623c4	-0.022233851
89	0xbda7d6b8	-0.08195251
90	0x3bc7cdfe	0.006097554
91	0x3d0553cf	0.03255063
92	0xbb8da3b7	-0.004322495
93	0xbc490975	-0.012270321
94	0xbcaa8b2a	-0.020818312
95	0xbd0f5f91	-0.03500325
96	0xbd91a745	-0.07111982
97	0x3e9c5acf	0.3053803
98	0xbe0c5cfd	-0.13707347
99	0x3d82607c	0.06366059
100	0xbe06eb43	-0.13175683
101	0x3cee3b1a	0.029080916
102	0xbded956c	-0.116007656
103	0x3e6f6c99	0.2338127
104	0xbe5ec00a	-0.21752945
105	0xbd55015e	-0.052003257
106	0x3e6aaedd	0.22918268
107	0xbdef4b6e	-0.11684309
108	0x3a533f31	0.00080584275
109	0x3b8fa6fb	0.0043839193
110	0xbc08760d	-0.008328927
111	0xbad2e1c5	-0.0016089013
112	0x3a7157dd	0.0009206513
113	0x3b383d69	0.0028112775
114	0x3cca5fbb	0.024703851
115	0x3d3e4266	0.04645004
116	0x3ad85cc6	0.0016507141
117	0xbd5fe38f	-0.054660376
118	0xbd060b81	-0.032725815
119	0xbe092720	-0.13393831
120	0x3cc8beca	0.024505038
121	0xbd0c075a	-0.0341867
122	0x3c598ad7	0.013277731
123	0xbce10673	-0.027468896
124	0x3cd56490	0.026048928
125	0x3c920eeb	0.017829379
126	0xbe037589	-0.12837805
127	0x3ee4293e	0.44562715
128	0xbe1a6e5d	-0.15081163
129	0x3d09015f	0.033448573
130	0xbdb3fbac	-0.08788237
131	0x3c9a2d2f	0.018820373
132	0xbd9ced34	-0.076624304
133	0xbe5163f2	-0.20448282
134	0x3ed38341	0.41311076
135	0x3ddd1ad4	0.10796133
136	0xbe5779f6	-0.21042618
137	0x3e34c28b	0.17652337
138	0xbd88c4f9	-0.066781946
139	0xbeccd057	-0.400027
140	0x3e4f8c64	0.20268399
141	0x3de612a8	0.11234027
142	0xbe83be89	-0.25731304
143	0x3eeab537	0.4584138
144	0x3c0ae604	0.008477692
145	0x3b262ef8	0.0025357585
146	0xbaa89a41	-0.0012863354
147	0xbc2fe48d	-0.010735643
148	0x3c27c12e	0.010238929
149	0x3adc86d1	0.0016824846
150	0xbbb30da0	-0.0054642707
151	0x3b5527ec	0.0032525016
152	0x3a1e2286	0.0006032366
153	0x3a01983f	0.0004943646
154	0x3980376e	0.0002445536
155	0xbc3049b4	-0.01075976
156	0xbd7e8a11	-0.06214339
157	0xbe80f93f	-0.2519016
158	0x3d18cffe	0.03730773
159	0x3db0b9ab	0.08629163
160	0xbd5b54ee	-0.053547792
161	0x3e2505cb	0.16115491
162	0xbce5bdd7	-0.028044624
163	0xbe720d1a	-0.2363781
164	0x3d00421b	0.031313043
165	0x3df10f52	0.117705
166	0xbdc60efa	-0.09670825
167	0x3dd14446	0.102181
168	0x3bf7b803	0.0075597777
169	0xbbf42764	-0.007450985
170	0x3bc6b741	0.006064326
171	0xbb6875e0	-0.003547065
172	0xbbc9b671	-0.006155782
173	0x3bbc6556	0.005749385
174	0xbc95a512	-0.018267188
175	0xbaf91540	-0.0019003525
176	0xbab0c8df	-0.0013487599
177	0x3c9d47a6	0.019199204
178	0xbc8c45fa	-0.017123211
179	0xbc84912a	-0.0161825
180	0x3d0ba1fb	0.034090023
181	0xbe97614b	-0.29566416
182	0x3d6fa57a	0.05850742
183	0x3cb14a61	0.021641912
184	0xbb49a745	-0.0030769866
185	0x3daa0fcb	0.083037935
186	0xbf08a634	-0.53378606
187	0x3e924767	0.285701
188	0xbe2c776d	-0.16842432
189	0x3f3a2a8c	0.7272117
190	0xbeadbf48	-0.33935
191	0xbd8d7b37	-0.06908267
192	0xbad990c3	-0.0016598928
193	0x3c56fca4	0.013121758
194	0xbbff8152	-0.0077973986
195	0xbc284fe7	-0.010272956
196	0x3c1bdef2	0.0095136035
197	0x3afabe4f	0.0019130203
198	0x3cfa61ed	0.030564273
199	0x3cf64bb6	0.030065399
200	0x3c8a22d8	0.016862318
201	0x3a16d0a9	0.00057531387
202	0xbcd0135b	-0.025399854
203	0xbdaf776d	-0.085677005
204	0x3d90e079	0.07074065
205	0x3e75b44b	0.23994558
206	0x3cd479b2	0.025936935
207	0xbe3d8fe2	-0.18511918
208	0x3de3ceb9	0.111234136
209	0xbe39eebb	-0.18157475
210	0xbd8978b6	-0.06712477
211	0xbe4b1ea2	-0.19835904
212	0x3edb3f1d	0.4282159
213	0x3e0eb00b	0.13934343
214	0xbe4e7e3e	-0.20165345
215	0x3e118ee5	0.14214666
216	0x3e214f15	0.15752824
217	0x3e1edc5d	0.1551375
218	0xbeca00de	-0.39453787
219	0xbdf27fdf	-0.11840796
220	0x3e439bd4	0.19102412
221	0xbded678e	-0.11592017
222	0xbb23784a	-0.0024943524
223	0xbcbd4562	-0.023104373
224	0x3b9b324e	0.0047362214
225	0x3b991fdd	0.004672988
226	0x3caad7f7	0.020854933
227	0x3cf5c746	0.030002248
228	0x3c32d934	0.010916043
229	0xbbcbe44b	-0.006222283
230	0x3b8759ac	0.004130563
231	0xbc8c4ccb	-0.017126461
232	0x3c239987	0.009985334
233	0x3b3c00d6	0.0028687022
234	0x3dd8d850	0.10588133
235	0x3e3a0e38	0.18169487
236	0xbed86ee4	-0.42272103
237	0xbe06cdc3	-0.1316443
238	0x3e429592	0.19002369
239	0xbdfb4507	-0.12269025
240	0xbb40bedd	-0.0029410638
241	0x3b6c5376	0.0036060489
242	0xbc1ca345	-0.009560411
243	0x3a047819	0.00050532963
244	0x3b175d76	0.0023096479
245	0xbc8c31e3	-0.017113632
246	0xbc110539	-0.008851343
247	0x3cba251c	0.022722773
248	0xbcaed9a3	-0.021344012
249	0xbbb2adf8	-0.0054528676
250	0xbb9557db	-0.0045575923
251	0xba1ec9eb	-0.000605731
252	0x3e290fe6	0.16509971
253	0xbe8f6dc9	-0.28013447
254	0x3ed3c08a	0.41357833
255	0xbe0cfa68	-0.13767397

layers.0.bias f4 [70]
0	0xbd0da654	-0.03458245
1	0x3ae109fb	0.0017169112
2	0x39e13a9f	0.0004295902
3	0x3d774745	0.060370702
4	0x3ca3fe2f	0.020018665
5	0xbb2f36ba	-0.00267355
6	0x3d3e0fb1	0.046401683
7	0x3c306a7c	0.010767575
8	0x3b94d0a3	0.004541473
9	0x3cdf70f7	0.027275546
10	0xbb1fd9b0	-0.0024391226
11	0x3d2a8e5c	0.04163967
12	0xbc838b6e	-0.016057696
13	0x3bd76609	0.006573443
14	0x3cb64d03	0.022253519
15	0x3bb3d71c	0.0054882895
16	0x3b2f2898	0.0026727077
17	0xbca83cb4	-0.020536758
18	0x3a12311d	0.00055767765
19	0x3c96d55e	0.018412288
20	0x3a9497bd	0.0011336725
21	0xbc94f32f	-0.018182365
22	0x3d8e9f5b	0.069639884
23	0xbe8adaec	-0.2712015
24	0x3c1e4d9f	0.009662061
25	0xbb82d755	-0.0039929547
26	0xbd3e3484	-0.0464368
27	0x3b079157	0.0020685995
28	0x3b80c6ca	0.0039299475
29	0xbba8fbcc	-0.0051569697
30	0x3c0232ec	0.007946711
31	0xbd2b1440	-0.04176736
32	0x3bd823e3	0.006596075
33	0xbde96e0e	-0.113979444
34	0xbb1ed7d9	-0.0024237542
35	0x3cb6a7f3	0.022296881
36	0xbdc1f48a	-0.0947047
37	0x3c7e070a	0.015504608
38	0xbafe7062	-0.0019412155
39	0xbdb3276a	-0.08747752
40	0x3bb99aa6	0.0056641875
41	0xbb177c76	-0.0023114956
42	0xbe5e675d	-0.21719117
43	0xbcc7a215	-0.024369279
44	0xbe428605	-0.18996437
45	0x3c473752	0.0121591855
46	0xbd111c70	-0.03542751
47	0xbd40bea4	-0.04705681
48	0x3bdbf44b	0.0067124716
49	0xbd3a97da	-0.045554973
50	0x3c95d351	0.01828924
51	0x3c1be7c3	0.0095157055
52	0x3df887ab	0.121352516
53	0x3d3e3899	0.046440694
54	0x3a249739	0.00062786374
55	0xbbbb18a4	-0.0057097245
56	0x3e127ada	0.14304677
57	0xbce159ff	-0.027508734
58	0xbe0e32b7	-0.13886534
59	0x3af0d52f	0.001837408
60	0x3b4796e7	0.0030454935
61	0xbcbed9cd	-0.023297215
62	0x3d85847d	0.06519411
63	0x3c5b71bf	0.013393818
64	0x3bac7ce7	0.005263913
65	0xbd0b6c5c	-0.034038886
66	0xbb9d2e52	-0.0047967816
67	0xbc1e6c7a	-0.0096694175
68	0xbd1855e8	-0.0371913
69	0xbe03a546	-0.12856016

layers.1.weight f4 [50, 70]
0	0xbc12b9ea	-0.008955458
1	0xbb1a42b9	-0.0023538305
2	0x39fdfac1	0.00048442747
3	0x3dddc53e	0.108286366
4	0x3c01265c	0.007882681
5	0x3b19839b	0.002342439
6	0xbce13941	-0.027493121
7	0xbb8120c2	-0.0039406726
8	0xbb2ff492	-0.0026848656
9	0xbc49d4dc	-0.012318816
10	0xbbcfec4a	-0.0063453065
11	0xbc649323	-0.013951096
12	0xbcfd878e	-0.030948427
13	0xbd3f2468	-0.04666558
14	0xbd8b1b24	-0.06792286
15	0x3b28c382	0.0025751297
16	0xbc59b46e	-0.013287647
17	0xbd46d558	-0.048543304
18	0x3a9e8bc6	0.0012096099
19	0xbd62b29d	-0.05534612
20	0xbbc14181	-0.0058977013
21	0xbd2607c5	-0.040534753
22	0x3b841761	0.0040311073
23	0x3e735670	0.23763442
24	0xba2ff08e	-0.00067115657
25	0x3aad42ac	0.0013218722
26	0x3e15a861	0.14615013
27	0x3db106a3	0.08643844
28	0x3a1f8b4f	0.0006086127
29	0x3b326e43	0.0027226366
30	0x3dc3b168	0.09555322
31	0x3dfc96f3	0.12333479
32	0x398844c7	0.00025991185
33	0xbc2a0341	-0.010376752
34	0xbe294f12	-0.16534069
35	0xbce94c26	-0.028478693
36	0x3c063c40	0.008193076
37	0x3acabb6d	0.0015467234
38	0xba4e02c6	-0.00078586896
39	0x3d043c5a	0.03228412
40	0x39d3c357	0.00040390596
41	0xba2b76b6	-0.00065408216
42	0x3e524455	0.20533879
43	0x3cb4ad07	0.022055162
44	0x3db918c2	0.09037925
45	0xbdd89b58	-0.105765045
46	0x3d3c4c25	0.045971055
47	0x3d8e7f10	0.06957829
48	0xbab2df0a	-0.0013646793
49	0xbdf9bd05	-0.12194256
50	0x3b92e3e4	0.004482733
51	0xbc43993e	-0.011938391
52	0xbcd5dc0b	-0.026105901
53	0xbd2bf1da	-0.041978694
54	0x3a445d34	0.0007490695
55	0x3b64160a	0.0034803175
56	0xbe637fb6	-0.22216687
57	0x3bee0b40	0.0072645247
58	0x3e92a26b	0.2863954
59	0xbbbbd672	-0.005732351
60	0x3b7c70a4	0.0038519287
61	0xbdd249e0	-0.10267997
62	0xbe0c5da5	-0.13707598
63	0xbc37fd9f	-0.011229902
64	0xbb2b5f73	-0.0026149421
65	0xbe13c49f	-0.14430474
66	0x3c5b9207	0.013401515
67	0xbb51dab7	-0.0032021233
68	0x3dfcf63f	0.12351655
69	0x3ce102ba	0.02746712
70	0xbbde7eea	-0.0067900317
71	0xbb0464e8	-0.0020201746
72	0xb9a1ac88	-0.0003083686
73	0xbc475218	-0.012165569
74	0xbca44053	-0.020050203
75	0x3ade994a	0.001698294
76	0x3cecb729	0.028895931
77	0x3c576074	0.013145555
78	0xba2a0e3b	-0.0006487106
79	0xbb3615fd	-0.0027784102
80	0x3bd46fe3	0.0064830645
81	0xbd7fcf5d	-0.062453616
82	0x3c023a6e	0.007948501
83	0xbd6db280	-0.05803156
84	0xbd8ef26e	-0.069798335
85	0x3c4bf1fe	0.012447832
86	0xbd895536	-0.06705706
87	0x3d6617f8	0.056175202
88	0xbba7ac21	-0.005116955
89	0x3c0549e4	0.008135293
90	0xbc1e6798	-0.009668253
91	0xbdd3750a	-0.10325058
92	0xbbc060e4	-0.0058709253
93	0x3d5023f8	0.050815552
94	0xbaf0face	-0.0018385292
95	0x3ba56b28	0.0050481744
96	0x3d6f1486	0.058369182
97	0x3cc5999f	0.024121104
98	0xbaab8a17	-0.0013087419
99	0xb7cec91b	-2.465076e-05
100	0x3d77615a	0.060395576
101	0x3ad90552	0.0016557372
102	0xb9afc673	-0.00033526457
103	0x3d3efae4	0.046625987
104	0xbcf37b38	-0.029721841
105	0x3c89d3bb	0.016824594
106	0xbb45bd5a	-0.0030172677
107	0xbbf79f37	-0.0075568217
108	0xbafac507	-0.0019132205
109	0x3a9498f2	0.0011337085
110	0x3b40f690	0.0029443838
111	0xbb217b02	-0.0024639969
112	0x3b4f7391	0.0031654576
113	0x3dac1d7c	0.08404061
114	0x3d5a1b0d	0.053248454
115	0xbd76e8a2	-0.06028045
116	0x3d939308	0.07205778
117	0x3da33b57	0.079703026
118	0xbb86ae47	-0.004110131
119	0xbbbd683b	-0.0057802475
120	0xba16e2c1	-0.0005755835
121	0xbd5a1611	-0.0532437
122	0xbdd84e3a	-0.105617955
123	0xbdd228fb	-0.10261723
124	0xba9b7d69	-0.0011862937
125	0xbb97b836	-0.004630114
126	0xbd10f0d3	-0.035385918
127	0x3bf9dc06	0.007625106
128	0x3d751715	0.059836466
129	0x3afc4926	0.0019247874
130	0x3b53ccdd	0.0032318153
131	0xbc98845d	-0.018617803
132	0xbd3b8362	-0.045779593
133	0x3b9a58d1	0.004710295
134	0x3b4193a3	0.0029537461
135	0xbbd0035c	-0.0063480567
136	0x3aac0ae3	0.0013125803
137	0x3aa54e53	0.0012611843
138	0x3d42c292	0.047548838
139	0x3b86bdcb	0.0041119806
140	0xb892ce83	-7.000288e-05
141	0x39cab70e	0.0003866483
142	0x3816d87d	3.5964407e-05
143	0xbb1daf36	-0.0024060733
144	0xbb261100	-0.0025339723
145	0xb80006e3	-3.0523992e-05
146	0xb9eca77e	-0.0004513822
147	0x3874f610	5.8403297e-05
148	0xb89e4a22	-7.5478354e-05
149	0xba241fee	-0.00062608614
150	0x3a3e27c8	0.00072538527
151	0x3a86adf8	0.0010275235
152	0x3a834463	0.0010014888
153	0xbaaeac90	-0.0013326574
154	0xb98c49e0	-0.00026757922
155	0x3b5667eb	0.0032715749
156	0x39ee4425	0.0004544567
157	0xbab6e242	-0.0013952928
158	0xb9011d8b	-0.00012313404
159	0x3bca01a9	0.0061647487
160	0xb9ae647e	-0.0003326274
161	0xbac6f813	-0.0015180133
162	0xb9ad5d76	-0.00033066765
163	0xbba39615	-0.0049922564
164	0xb9149a65	-0.00014171896
165	0x39b0b641	0.00033705126
166	0x3af3c997	0.0018599507
167	0xbb453a84	-0.0030094692
168	0xb8a8fef8	-8.058356e-05
169	0x392ee381	0.00016678685
170	0x3a9482aa	0.0011330445
171	0x3b3a9584	0.0028470466
172	0xb895a2d6	-7.135204e-05
173	0x3b5e6b00	0.0033938289
174	0xbb99b303	-0.0046905293
175	0xba5044a4	-0.00079447986
176	0xbb02e1b5	-0.0019970958
177	0xbb604a1a	-0.0034223855
178	0xb9183ca3	-0.00014518439
179	0x3aad0094	0.0013199025
180	0x39cdaf2d	0.00039231163
181	0x3803f57b	3.1461455e-05
182	0x3b114501	0.0022166374
183	0xbb234543	-0.002491311
184	0xba0884c8	-0.0005207774
185	0xbb0a0b1f	-0.0021063758
186	0x3a555422	0.0008137842
187	0xba096f6b	-0.0005242738
188	0xb9359576	-0.00017317184
189	0x3b1dd354	0.002408226
190	0xbac5b7de	-0.0015084704
191	0x391fa716	0.00015225666
192	0x3a5b7932	0.00083722465
193	0xb90402c7	-0.00012589536
194	0xba26b791	-0.0006359751
195	0xb92173dc	-0.00015397317
196	0x3b29a01b	0.0025882784
197	0x3ac3dffc	0.0014944072
198	0xba8893e1	-0.0010420048
199	0x3aa2460f	0.0012380498
200	0xb80d49e4	-3.3685836e-05
201	0xb99fb3d1	-0.00030460817
202	0x3b7faedb	0.0039014134
203	0x3acfd725	0.0015856965
204	0xb9b96381	-0.00035360086
205	0xbacaa841	-0.001546152
206	0xb9991abd	-0.00029202356
207	0x3aa4c79b	0.0012571694
208	0xb9d03af0	-0.00039716763
209	0x3aff1be8	0.0019463273
210	0x3ce7fb47	0.02831806
211	0x3b0fe030	0.0021953695
212	0x39f52731	0.0004675924
213	0x3c42e4ca	0.011895368
214	0xbb86d783	-0.0041150465
215	0xba525241	-0.0008023121
216	0xbc701038	-0.014652304
217	0x3ab298a2	0.001362581
218	0xbac2e0a3	-0.0014867972
219	0x3c27ae0e	0.010234369
220	0xbb559bc7	-0.0032594071
221	0xbd9d2517	-0.0767309
222	0x39a6e10c	0.0003182966
223	0xbd94a6a5	-0.072583474
224	0xbda01f6d	-0.07818494
225	0xbc4e8f65	-0.01260743
226	0xbdc40bcd	-0.09572563
227	0x3da37b43	0.07982495
228	0x3b4d80fa	0.0031357394
229	0xbcc6d9f3	-0.024273848
230	0x3c54303d	0.012950954
231	0xbdcfca24	-0.10145977
232	0xbd0f0913	-0.034920763
233	0x3d9c1765	0.0762165
234	0xba5ad31b	-0.0008347497
235	0xbac984c4	-0.001537465
236	0x3d993b5a	0.074820235
237	0x3d1cb4f1	0.038258497
238	0xbaba95c8	-0.0014235312
239	0xbb863e0b	-0.0040967516
240	0x3d99d584	0.07511428
241	0xbb4e996e	-0.0031524557
242	0xba54357d	-0.00080951286
243	0xbc92f5c9	-0.017939465
244	0xbd54cc72	-0.051952787
245	0xbce6930b	-0.028146287
246	0x3cb41a5d	0.021985227
247	0x3bfa23c3	0.0076336577
248	0x3b86fb1f	0.0041192914
249	0x3cc5db43	0.024152404
250	0xbbbcc6e8	-0.005761016
251	0x3b5974ac	0.0033181114
252	0x3d10f852	0.035393067
253	0x3ddf7ed5	0.10912863
254	0x3cc232c1	0.023705842
255	0xbd689827	-0.05678573

layers.1.bias f4 [50]
0	0xbccf7efe	-0.02532911
1	0xbd8801a9	-0.06640942
2	0x39f24bce	0.00046214316
3	0xbd83ee18	-0.06441897
4	0x3d1dc0e5	0.038514037
5	0x3ded924b	0.11600169
6	0xb987264a	-0.00025777734
7	0x3d152744	0.0364144
8	0x3c8d8593	0.017275607
9	0x3dc0bede	0.09411405
10	0x3ae57b91	0.0017508139
11	0x3bdc32af	0.006719909
12	0x3d72357c	0.059133038
13	0xbe59a2a5	-0.2125345
14	0x39b76701	0.00034981224
15	0xbc75d4c5	-0.0150043415
16	0xbb4205a5	-0.0029605415
17	0xbe8ef156	-0.279185
18	0xbb440067	-0.0029907466
19	0x3b06e056	0.0020580492
20	0xba998d88	-0.0011715153
21	0x3f18cf25	0.5969108
22	0xb8f541eb	-0.000116947886
23	0x395f3032	0.00021284891
24	0x3e8b4353	0.27199802
25	0x391ce7b4	0.00014963635
26	0xb9b8798a	-0.00035185769
27	0x3cf46e15	0.029837647
28	0x3df3596a	0.11882289
29	0x3ec33839	0.38128832
30	0x3b6fe0de	0.0036602537
31	0x39feddea	0.00048611994
32	0x3dedbe4a	0.116085604
33	0x3c3150d8	0.010822497
34	0x3e818af5	0.25301328
35	0x3cc31900	0.023815632
36	0x3cfe5ba9	0.031049566
37	0xbe153c36	-0.1457375
38	0x3c14433b	0.009049232
39	0x3da10035	0.078613676
40	0x3af36af0	0.0018571299
41	0xbb1ef9f3	-0.0024257868
42	0x3ce2ec27	0.027700497
43	0x3c0b854e	0.008515669
44	0x3d882368	0.06647378
45	0xb834f903	-4.3147254e-05
46	0x3b406662	0.00293579
47	0xbd6f3a18	-0.058405012
48	0x38933b78	7.020583e-05
49	0x3c6dc09c	0.014511254

output.weight f4 [3, 50]
0	0x3dcb6646	0.099316165
1	0x3e0e866b	0.13918464
2	0x39bf672c	0.00036507228
3	0x3e2796dc	0.16366142
4	0xbe09fbf8	-0.13475025
5	0x3b524a2a	0.0032087662
6	0x39f7ce7e	0.0004726536
7	0xbe32b4ae	-0.17451736
8	0xbe1c79bc	-0.15280813
9	0xbd44b4ea	-0.048024096
10	0xb899e75c	-7.3387026e-05
11	0xbabd53f8	-0.001444458
12	0xbd6416bc	-0.055685744
13	0x3e1ad031	0.15118481
14	0x3a5a50a7	0.0008328058
15	0x3e1d459b	0.15358584
16	0xbd248788	-0.040168315
17	0x3c177b14	0.009245653
18	0xb99dd3a3	-0.00030103055
19	0xbe269d6b	-0.16270988
20	0x394d4148	0.00019574643
21	0xbd91591c	-0.070970744
22	0xba3aa89f	-0.00071204634
23	0x386bf8fb	5.6260247e-05
24	0xbe2af94d	-0.16696663
25	0x3821e388	3.8597296e-05
26	0x3abe77ef	0.0014531593
27	0x3e08bf49	0.1335422
28	0xbe267f7a	-0.16259566
29	0xbc28874d	-0.0102861645
30	0x3d113f36	0.035460673
31	0x392b1568	0.00016315805
32	0xbda01f90	-0.0781852
33	0xbd4d791d	-0.05016433
34	0x3b9ab34a	0.00472108
35	0x3d806b3b	0.062704526
36	0xbe245515	-0.16048081
37	0xbd6f1aa0	-0.058375
38	0xba15eb95	-0.00057190034
39	0xbe2f5ca6	-0.17125186
40	0xba5f63fa	-0.00085216726
41	0xbb18e6f1	-0.0023331011
42	0xbe049c35	-0.12950213
43	0x3abb4d51	0.001429001
44	0xbd884488	-0.06653696
45	0x390290d9	0.00012451726
46	0xba261681	-0.0006335751
47	0x3e1a3cbb	0.1506223
48	0xb8bf2485	-9.114392e-05
49	0x3e29a0e1	0.16565277
50	0x3e1a5d82	0.15074733
51	0x3cbb7fdc	0.022888117
52	0xbabebbf7	-0.0014551867
53	0x3d0bc206	0.034120582
54	0xbd2dc573	-0.04242463
55	0xbd9a0ea2	-0.07522322
56	0xb9575c46	-0.00020538372
57	0xbd38949d	-0.045063604
58	0xbd1b1434	-0.037861064
59	0xbe2648b0	-0.16238666
60	0xbba1f921	-0.0049430286
61	0x38823e0c	6.21044e-05
62	0xbe26649d	-0.16249318
63	0x3dcbbb0c	0.09947786
64	0xba3e7f94	-0.00072669354
65	0x3c90caf7	0.017674906
66	0xbe0b7996	-0.136206
67	0xbe777038	-0.24163902
68	0xbaa6f794	-0.0012738579
69	0xbd065f98	-0.03280601
70	0x3a28646d	0.0006423656
71	0x3e31c861	0.17361595
72	0xbbf14a5e	-0.0073636016
73	0xb956115b	-0.00020415096
74	0xbd2f1663	-0.04274596
75	0xb8d20747	-0.00010014936
76	0x3aa3251f	0.0012446976
77	0x3cae731e	0.021295127
78	0xbd4300df	-0.047608253
79	0x3d584bba	0.052806593
80	0x3e25d697	0.16195141
81	0xba99e4c7	-0.0011741155
82	0xbd2f2e4a	-0.042768754
83	0xbdf2edad	-0.11861739
84	0x3e41238d	0.18861218
85	0x3e321c13	0.17393522
86	0xbc99820d	-0.01873877
87	0xbe521519	-0.2051586
88	0xbb467dbf	-0.0030287353
89	0xbd0e77a3	-0.034782063
90	0x3b737ae4	0.0037152106
91	0x39ca03a9	0.0003853117
92	0xbbbc3e62	-0.0057447413
93	0xbc05c6fb	-0.008165116
94	0xbe02e5a1	-0.12782909
95	0x3aaab2a1	0.0013023206
96	0xbb9a12ab	-0.0047019324
97	0x3c77dc60	0.015128225
98	0xb7332a9a	-1.067915e-05
99	0x3d6233bc	0.05522512
100	0xbc08266a	-0.00830994
101	0x3cc4689a	0.02397566
102	0x3a0ff56d	0.00054915884
103	0xbbae8578	-0.0053259693
104	0x3cf1503f	0.02945721
105	0xbe32db7b	-0.17466538
106	0x35ef8d5d	1.784803e-06
107	0x3a7dd811	0.00096833805
108	0x3c3e8aaf	0.011629744
109	0xbdd4fdae	-0.10399948
110	0xba6dcf6e	-0.0009071742
111	0xbb469e35	-0.00303067
112	0xbda8de55	-0.082455315
113	0xbcee9e1a	-0.029128123
114	0x3a75f2a1	0.0009382163
115	0xbc11f090	-0.008907452
116	0xbdf94218	-0.121708095
117	0x3e08231d	0.13294645
118	0x3a5572c0	0.0008142404
119	0xbabef07c	-0.001456752
120	0xb984946e	-0.0002528759
121	0x3e94aaf2	0.2903667
122	0x3c195ccf	0.009360506
123	0x393e9682	0.0001817588
124	0x3d3d5692	0.046225138
125	0xb73c51eb	-1.1224746e-05
126	0xba9b2967	-0.00118379
127	0x3c9ef9af	0.019406168
128	0x3ce1569f	0.027507124
129	0x3e890a33	0.26765594
130	0x3dbee52a	0.09321053
131	0x39cb0593	0.0003872333
132	0x3e8380f7	0.2568433
133	0xbdd43e42	-0.10363437
134	0xbdb756e0	-0.08952117
135	0x3daa6e85	0.08321861
136	0xbbbd14e8	-0.0057703145
137	0x3b95ce92	0.0045717442
138	0xba0f2d6c	-0.00054617855
139	0x3cd4dfae	0.025985565
140	0xbb8a495c	-0.004220171
141	0xb8ba14bc	-8.873033e-05
142	0x3bdef683	0.006804289
143	0x3a68e5c7	0.0008884337
144	0xbd0a989f	-0.033836957
145	0xba1b1362	-0.0005915669
146	0x3a39eb1e	0.0007092225
147	0xbd230898	-0.039803118
148	0xb64411c3	-2.9216615e-06
149	0xbc4a9bb8	-0.012366228

output.bias f4 [3]
0	0x3ecb69b0	0.3972907
1	0x3d818149	0.06323487
2	0xbe292163	-0.16516642

exp_avg f4 [70, 6]
0	0x3c00b94a	0.007856676
1	0x3bfdf5c1	0.0077502434
2	0x3bc099e8	0.005877722
3	0xbb0c83d7	-0.0021440887
4	0xbc139829	-0.009008446
5	0xbc0ee79f	-0.008722215
6	0x3847b9b8	4.761826e-05
7	0x3897894c	7.2258146e-05
8	0xb749cc06	-1.20280365e-05
9	0xb99d2fc8	-0.00029980973
10	0xb978cef6	-0.00023728222
11	0xb9e64a91	-0.00043924575
12	0x39ab497b	0.0003267041
13	0x38f6da23	0.00011770825
14	0xb99b661a	-0.00029639975
15	0xba9b3c94	-0.0011843615
16	0xba91ebbb	-0.0011132875
17	0xbae21d39	-0.0017251141
18	0x3ab4b31c	0.0013786289
19	0x3ad1ba6b	0.0016000991
20	0x3b1309a9	0.0022436178
21	0x3afa5aa2	0.0019100497
22	0x39c2c6f7	0.00037150804
23	0x3b0a9c33	0.002115023
24	0x3963391c	0.00021669682
25	0x38c4b03c	9.3788345e-05
26	0xb87922ea	-5.9398742e-05
27	0xba068a4c	-0.0005132302
28	0xba1381bf	-0.00056269387
29	0xba8a74ad	-0.0010563337
30	0xba7e8c70	-0.0009710258
31	0xba84076a	-0.001007301
32	0xbaa09784	-0.0012252186
33	0xba95a4ca	-0.0011416909
34	0xb94ea7ac	-0.00019708154
35	0xba199916	-0.00058592984
36	0xbbf80c23	-0.007569806
37	0xbc068d4c	-0.008212399
38	0xbbcff79c	-0.006346656
39	0x3afc5fa7	0.0019254581
40	0x3bff59a8	0.0077926703
41	0x3c0e4405	0.008683209
42	0x39f299df	0.0004627248
43	0x3a060ae7	0.0005113319
44	0x3a03ccf0	0.00050277915
45	0x396b80b3	0.0002245929
46	0xb97c1e2a	-0.0002404383
47	0xb988b706	-0.00026076304
48	0xb9353aca	-0.00017283406
49	0xb9553140	-0.0002033161
50	0xb82987bb	-4.041915e-05
51	0x39b2ab44	0.00034078408
52	0x39d912ec	0.00041403563
53	0x3a286ab1	0.00064245897
54	0xbab27f07	-0.0013618179
55	0xbab6f6f0	-0.0013959091
56	0xba971158	-0.0011525555
57	0x396c53f8	0.00022537995
58	0x3ab413b9	0.0013738788
59	0x3ad738ac	0.0016420088
60	0xba0edd90	-0.00054498855
61	0xbaacddac	-0.0013188622
62	0xbad2de52	-0.0016087985
63	0xbade1518	-0.0016943542
64	0xba4bafc4	-0.00077700266
65	0xbacfec1e	-0.0015863215
66	0xba4970b2	-0.00076843344
67	0xbadbf239	-0.0016780562
68	0xbb3ca959	-0.0028787463
69	0xbb826eee	-0.003980509
70	0xbb29f09a	-0.0025930763
71	0xbb464d78	-0.0030258577
72	0xb9f01b9c	-0.00045796938
73	0xb9d2475b	-0.00040107485
74	0xba06e937	-0.0005146446
75	0xb8126b7a	-3.4909208e-05
76	0x3985508c	0.0002542775
77	0x384c30e7	4.8682934e-05
78	0x3b12fcf1	0.0022428597
79	0x3b03b802	0.002009869
80	0x39f79193	0.00047219972
81	0xbb7657e6	-0.0037589013
82	0xbb93e108	-0.00451291
83	0xbbca0131	-0.006164693
84	0x3adb5eed	0.0016736664
85	0x3aa24fc8	0.0012383396
86	0xb989647a	-0.00026205537
87	0xbb800a39	-0.0039074686
88	0xbba32041	-0.00497821
89	0xbbc46dc1	-0.005994529
90	0x3989dacd	0.00026293696
91	0x398ced62	0.00026879745
92	0x3906319d	0.00012797718
93	0xb98ec02a	-0.00027227524
94	0xb9e38f69	-0.00043403663
95	0xb9feb605	-0.0004858227
96	0x394753be	0.00019009315
97	0xb82eb5e1	-4.165422e-05
98	0xba5f3e14	-0.0008516025
99	0xbb2cbdc6	-0.002635823
100	0xbb29f75e	-0.0025934796
101	0xbb2b1d76	-0.002611009
102	0xba19d3f6	-0.00058680715
103	0xba4b3670	-0.0007751947
104	0xba06e2a4	-0.00051454664
105	0x39a4fbd1	0.00031468135
106	0x3a787edd	0.00094793533
107	0x3a8b1db0	0.0010613706
108	0x39141d47	0.00014125287
109	0x3900a11f	0.00012267054
110	0x380a3cf7	3.2958542e-05
111	0xb9609854	-0.00021419051
112	0xb99b33ec	-0.0002960259
113	0xb9b4e523	-0.00034502996
114	0x3abac269	0.0014248613
115	0x3b111b23	0.002214142
116	0x3b2782d8	0.0025560167
117	0x3b17f924	0.002318927
118	0x3a9959a0	0.0011699684
119	0x3a7cb90d	0.0009640612
120	0x3a757885	0.0009363967
121	0x3a830d18	0.0009998409
122	0x3a3fe632	0.00073203736
123	0xb9dc6f8d	-0.00042044782
124	0xba87df1b	-0.0010366173
125	0xbabd81d9	-0.0014458253
126	0x3ab31854	0.0013663867
127	0x3a9b5f76	0.0011854011
128	0xb62ae2fb	-2.5464094e-06
129	0xbb48ef55	-0.003066023
130	0xbb86db31	-0.004115485
131	0xbb9f277d	-0.0048570023
132	0xbbb1c191	-0.0054246862
133	0xbbc4ea17	-0.006009351
134	0xbb9e56c4	-0.0048321206
135	0x3a4bfc1b	0.0007781402
136	0x3b9d7488	0.0048051514
137	0x3bb14d5f	0.0054108347
138	0xbbe09cec	-0.006854644
139	0xbbd329ae	-0.0064441776
140	0xbb382728	-0.002809951
141	0x3c0d9e4f	0.008643701
142	0x3c574ec7	0.013141341
143	0x3c6b298f	0.01435317
144	0x3ae57957	0.0017507476
145	0x3b0b97f1	0.002130028
146	0x3b12abe4	0.0022380287
147	0x3a9dfd9a	0.0012053729
148	0xba3cc546	-0.0007201027
149	0xb7d605e5	-2.5513533e-05
150	0x387b7b47	5.9957874e-05
151	0x38933c0d	7.0206916e-05
152	0xb9081f6c	-0.00012981676
153	0xb9e57779	-0.00043767298
154	0xb9a2f2f2	-0.00031080056
155	0xb992e925	-0.00028020996
156	0xbaa4df12	-0.0012578687
157	0xba24dd29	-0.0006289059
158	0x3aa98cc8	0.0012935633
159	0x3bb1aeea	0.0054224627
160	0x3bc4b75a	0.0060033025
161	0x3bd95829	0.006632824
162	0xbad5cbed	-0.0016311385
163	0xbab4b618	-0.0013787178
164	0xba54e92b	-0.0008121903
165	0x3b060e04	0.0020455131
166	0x3b606070	0.0034237169
167	0x3b898b50	0.0041975155
168	0x3a06be54	0.00051400554
169	0x39ef384d	0.0004562758
170	0x39803f26	0.00024461112
171	0xba0cac69	-0.0005366267
172	0xba594515	-0.0008288187
173	0xba7f91ea	-0.0009749221
174	0xb8ba3c83	-8.880442e-05
175	0xb8650ee6	-5.461173e-05
176	0xb90d57d7	-0.00013479531
177	0xb9b8e11e	-0.0003526294
178	0xb8fd1a5e	-0.000120688914
179	0xba1dc39f	-0.00060182245
180	0x3abcdca1	0.0014409014
181	0x3afc677a	0.0019256913
182	0x3b38fab9	0.0028225614
183	0x3b502eb6	0.0031766123
184	0x3ad442b9	0.0016194201
185	0x3b0c5fde	0.0021419446
186	0xbbfded99	-0.007749271
187	0xbc0c4b2d	-0.008562845
188	0xbbc959e2	-0.006144748
189	0x3b964f95	0.0045871236
190	0x3c31053d	0.010804472
191	0x3c5221cf	0.012825443
192	0x3ad2abff	0.0016072987
193	0x3af9b012	0.0019049665
194	0x3ae9e391	0.0017844309
195	0x39ea5e90	0.00044702413
196	0xba9735d5	-0.0011536429
197	0xbaa4c2e8	-0.0012570294
198	0xba35dcb5	-0.000693749
199	0xba886c21	-0.0010408201
200	0xbaa1019a	-0.0012283802
201	0xbaa7b09f	-0.0012793726
202	0xb99052ee	-0.00027527608
203	0x39c4cd80	0.00037537143
204	0x37a467d7	1.9598678e-05
205	0xba0d9966	-0.00054015813
206	0xbb1dd4ad	-0.0024083063
207	0xbbb17056	-0.005415003
208	0xbb9ec244	-0.0048449356
209	0xbbae4a8a	-0.0053189443
210	0x3a039479	0.00050193776
211	0xb9e63f9f	-0.0004391642
212	0xba2de767	-0.0006633908
213	0xba7dca85	-0.0009681362
214	0xbabcb647	-0.0014397585
215	0xba8c548a	-0.0010706347
216	0x3bb91e18	0.0056493394
217	0x3bd163cc	0.0063900705
218	0x3bb1de61	0.005428121
219	0xb9e88e0e	-0.00044356327
220	0xbbb30599	-0.005463314
221	0xbbbe807f	-0.005813658
222	0xb8c7e26f	-9.531236e-05
223	0xb8b642dc	-8.69089e-05
224	0xb904d03e	-0.00012666077
225	0xb9243b31	-0.0001566231
226	0xb812d658	-3.5008736e-05
227	0xb8735d73	-5.8022746e-05
228	0xba332cb2	-0.0006834968
229	0xba51a9f5	-0.0007998043
230	0xba3d4954	-0.00072207046
231	0xb918b446	-0.00014563007
232	0x39ef2b7d	0.00045618034
233	0x3a0e6718	0.0005432232
234	0x3bc90747	0.0061349007
235	0x3be4cc1a	0.0069823386
236	0x3bb90d94	0.0056473706
237	0xbadb6135	-0.0016737344
238	0xbbd6e008	-0.0065574683
239	0xbc031e21	-0.008002789
240	0xb9c0a48b	-0.00036743688
241	0xb9c83a75	-0.00038190527
242	0xb9a0f6b7	-0.00030701395
243	0x391fc502	0.00015236813
244	0x39d6669c	0.0004089371
245	0x3a1e04bf	0.0006027929
246	0x3ae8b341	0.0017753617
247	0x3af2ebad	0.0018533372
248	0x3aa8edb4	0.0012888224
249	0xba8458fd	-0.0010097321
250	0xbb269354	-0.0025417404
251	0xbb523c5c	-0.0032079434
252	0xbc4b782e	-0.01241879
253	0xbc4e8be7	-0.0126065975
254	0xbc0e47aa	-0.008684078
255	0x3beb60a1	0.00718315

exp_avg_sq f4 [70, 6]
0	0x3986d208	0.00025714957
1	0x3985fd42	0.0002555643
2	0x395446b1	0.0002024423
3	0x3938d7b8	0.00017627969
4	0x399fd189	0.0003048296
5	0x39a757e6	0.00031918212
6	0x37a2ccc0	1.9407249e-05
7	0x37a355dd	1.9471097e-05
8	0x378364ff	1.5663447e-05
9	0x375dde46	1.3224379e-05
10	0x37bdf157	2.2642938e-05
11	0x37cc7954	2.4375193e-05
12	0x36f0cd93	7.1764894e-06
13	0x36f1478a	7.190688e-06
14	0x36f07ebb	7.1673107e-06
15	0x36dbeac7	6.5540403e-06
16	0x36d3bee1	6.3105113e-06
17	0x36ce8c22	6.155592e-06
18	0x3905c42e	0.00012756951
19	0x390e6a6e	0.00013581823
20	0x392271d0	0.00015491922
21	0x391ac991	0.00014761674
22	0x38c6f6f3	9.4873736e-05
23	0x38a9d39c	8.097963e-05
24	0x36c57bb1	5.885457e-06
25	0x36ceb586	6.1604105e-06
26	0x36c9ca4d	6.0138177e-06
27	0x36bf7275	5.705568e-06
28	0x36be6378	5.674021e-06
29	0x36bde4dd	5.659282e-06
30	0x36a8e246	5.033132e-06
31	0x36ab9e79	5.114646e-06
32	0x36ab10e1	5.098162e-06
33	0x3692c9c9	4.37463e-06
34	0x3689537a	4.092636e-06
35	0x3688e711	4.0800155e-06
36	0x39a2416f	0.000309478
37	0x39a09af0	0.00030633016
38	0x3978709a	0.0002369307
39	0x3950dac8	0.00019917928
40	0x39c14cc4	0.00036869023
41	0x39cbfd40	0.00038907863
42	0x36ca9f87	6.0386405e-06
43	0x36cc496b	6.0882207e-06
44	0x36c56ef4	5.883974e-06
45	0x36d2ce79	6.2825243e-06
46	0x36e3910d	6.7820133e-06
47	0x36f472a8	7.2851144e-06
48	0x36e90917	6.9449993e-06
49	0x36e9f152	6.9720345e-06
50	0x36df4786	6.6542443e-06
51	0x36c6436b	5.9087083e-06
52	0x36ee4c6b	7.101849e-06
53	0x36e5213e	6.8286017e-06
54	0x36b66b41	5.4365087e-06
55	0x36bc4911	5.6113427e-06
56	0x36b8aac6	5.503508e-06
57	0x369fd2b1	4.763097e-06
58	0x36b07221	5.258495e-06
59	0x36a93ff6	5.0440385e-06
60	0x37291742	1.00786e-05
61	0x3731b30b	1.0591709e-05
62	0x373ae1ca	1.11390345e-05
63	0x372ab4dd	1.01749e-05
64	0x371e09ee	9.419846e-06
65	0x371da845	9.3971075e-06
66	0x392db10f	0.00016564525
67	0x3934f037	0.00017255625
68	0x394dc502	0.00019623715
69	0x3951431b	0.00019956792
70	0x39126a1d	0.00013963175
71	0x3912e672	0.00014009493
72	0x36d83c8c	6.44435e-06
73	0x36db7af3	6.541022e-06
74	0x36d314cf	6.2907125e-06
75	0x36b6d66c	5.4489847e-06
76	0x36cd15a2	6.1119945e-06
77	0x36d9830b	6.4823594e-06
78	0x391b3e34	0.00014805124
79	0x39205a11	0.00015292341
80	0x3935dc38	0.00017343543
81	0x393130c2	0.00016898199
82	0x38e4f841	0.00010918128
83	0x38ea0536	0.0001115896
84	0x3958db7c	0.0002068113
85	0x3963d0a5	0.00021726133
86	0x398213ed	0.00024810378
87	0x397ca7ef	0.00024095153
88	0x39224222	0.0001547416
89	0x39188038	0.00014543615
90	0x36d97cc3	6.481628e-06
91	0x36e2c6bd	6.758461e-06
92	0x36f89aba	7.4089885e-06
93	0x36dd7dc4	6.6009543e-06
94	0x36918842	4.3371992e-06
95	0x3693f5b8	4.409547e-06
96	0x39139c15	0.00014077158
97	0x391a8595	0.00014736348
98	0x3930159f	0.00016792722
99	0x3931282b	0.00016894999
100	0x38de487b	0.000105992855
101	0x38f1a615	0.00011522711
102	0x370160a5	7.711501e-06
103	0x37059271	7.961514e-06
104	0x3702ea42	7.803146e-06
105	0x36ef22b9	7.1267973e-06
106	0x37061147	7.991045e-06
107	0x36feab38	7.5897224e-06
108	0x36d655d9	6.387691e-06
109	0x36d64fa6	6.3869693e-06
110	0x36ceed17	6.1668793e-06
111	0x36c0a3b8	5.7411053e-06
112	0x36d302a9	6.2885997e-06
113	0x36d4054e	6.31871e-06
114	0x370e12d9	8.468248e-06
115	0x37160167	8.941023e-06
116	0x372c6410	1.02752965e-05
117	0x3720f967	9.594812e-06
118	0x36ec2bb0	7.038434e-06
119	0x36eb61a9	7.014915e-06
120	0x36f9f291	7.4490167e-06
121	0x36f7585e	7.371461e-06
122	0x36f7099c	7.3622923e-06
123	0x36b5b7f7	5.4156367e-06
124	0x36b87377	5.497069e-06
125	0x36cc5507	6.0895723e-06
126	0x391e8f2d	0.00015121391
127	0x3920d472	0.00015337931
128	0x39306d46	0.00016825375
129	0x3929b250	0.00016183523
130	0x39034539	0.00012518921
131	0x3901b091	0.00012368175
132	0x3989e6ca	0.00026302628
133	0x3989868d	0.00026230924
134	0x395a49e2	0.00020817624
135	0x3939e582	0.00017728473
136	0x39a23f9d	0.00030946443
137	0x39aa6ecc	0.00032507477
138	0x39271aec	0.0001593639
139	0x392f4ae4	0.000167172
140	0x3949b620	0.000192367
141	0x394e8109	0.0001969376
142	0x391eff1d	0.00015163091
143	0x38fb52d8	0.000119840435
144	0x36bce781	5.629787e-06
145	0x36c49b09	5.8593037e-06
146	0x36c51374	5.873322e-06
147	0x36b51c81	5.3975386e-06
148	0x36b28bf9	5.3211083e-06
149	0x36aef3e2	5.213996e-06
150	0x36cb0eea	6.0516077e-06
151	0x36cd8fb1	6.126204e-06
152	0x36cb7bce	6.064284e-06
153	0x36ad0e45	5.157463e-06
154	0x36a3bbb3	4.8796296e-06
155	0x36ad1afa	5.1589423e-06
156	0x390b2e4a	0.00013273317
157	0x3912210d	0.00013935957
158	0x392d9d91	0.00016557264
159	0x392f8448	0.00016738579
160	0x38d89658	0.00010327686
161	0x38afb374	8.378076e-05
162	0x39148192	0.00014162649
163	0x391c625a	0.00014913958
164	0x39345c77	0.00017200584
165	0x39343753	0.00017186748
166	0x38e31578	0.00010828202
167	0x38c68473	9.466046e-05
168	0x36cffacb	6.198277e-06
169	0x36d39912	6.3061098e-06
170	0x36ce06ba	6.1400615e-06
171	0x36c182c4	5.7670713e-06
172	0x36b7a331	5.472823e-06
173	0x36bb5f94	5.584161e-06
174	0x36a95e32	5.0475583e-06
175	0x36ad9915	5.173623e-06
176	0x36a1c851	4.821494e-06
177	0x368c8c04	4.188625e-06
178	0x369a6e8b	4.6024265e-06
179	0x36a76e14	4.9898026e-06
180	0x392243dd	0.00015474805
181	0x3929ae6d	0.00016182075
182	0x39459844	0.00018844107
183	0x3950f910	0.00019929209
184	0x390d1bbc	0.0001345714
185	0x39035143	0.00012523406
186	0x39d59497	0.00040737234
187	0x39cc004e	0.0003891014
188	0x3991b69e	0.00027792616
189	0x39820f1e	0.00024806795
190	0x3a17c376	0.0005789319
191	0x3a1e462c	0.0006037678
192	0x36e593fb	6.841959e-06
193	0x36ec4d9c	7.042383e-06
194	0x36e1713b	6.7187043e-06
195	0x36cda3e1	6.128554e-06
196	0x36d4b8af	6.3395923e-06
197	0x36e11607	6.708087e-06
198	0x36b5b398	5.415128e-06
199	0x36ba4d30	5.5522178e-06
200	0x36b9d9e7	5.538797e-06
201	0x36a080d6	4.78337e-06
202	0x36a3d1fb	4.8822235e-06
203	0x369f6184	4.7499216e-06
204	0x39362d7f	0.00017373821
205	0x393c624b	0.00017965694
206	0x395cba55	0.00021050249
207	0x39571fb7	0.00020515813
208	0x39098466	0.0001311466
209	0x38eac61b	0.000111948895
210	0x39994f0e	0.00029241334
211	0x399959c6	0.0002924932
212	0x397ac90f	0.00023916758
213	0x395460e7	0.00020253994
214	0x39aeb8d7	0.00033325583
215	0x39bbb3b2	0.00035801303
216	0x3981705e	0.00024688517
217	0x39811f58	0.0002462815
218	0x3951b2d1	0.00019998408
219	0x392f5187	0.00016719672
220	0x3996cb76	0.0002876182
221	0x399fe0fb	0.00030494467
222	0x37085c62	8.127741e-06
223	0x370b49b5	8.302207e-06
224	0x37018613	7.720216e-06
225	0x36ee6544	7.1047416e-06
226	0x37100b97	8.585767e-06
227	0x37149e4e	8.858346e-06
228	0x369f49bf	4.7471544e-06
229	0x36a30c09	4.8591796e-06
230	0x36a1e65e	4.824992e-06
231	0x3699483f	4.568166e-06
232	0x36a4be98	4.909769e-06
233	0x36987339	4.5433667e-06
234	0x39a11292	0.0003072215
235	0x399fae8b	0.00030456888
236	0x397a1645	0.00023850154
237	0x394a6156	0.00019300482
238	0x39bc7945	0.00035948507
239	0x39c78c63	0.00038060834
240	0x36a3f255	4.8859897e-06
241	0x36a85c80	5.0175586e-06
242	0x36a6abac	4.9671708e-06
243	0x36a07686	4.7821695e-06
244	0x36aa5b28	5.077007e-06
245	0x36a19f1f	4.816698e-06
246	0x36d962a1	6.478586e-06
247	0x36d85396	6.4470323e-06
248	0x36c30a6d	5.8126666e-06
249	0x36a5f299	4.9456253e-06
250	0x36d1a30b	6.247666e-06
251	0x36ea83cf	6.989088e-06
252	0x398ae666	0.0002649307
253	0x398d4e6f	0.00026952053
254	0x396ae2be	0.00022400447
255	0x39563180	0.0002042707

exp_avg f4 [70]
0	0xbb640d5c	-0.0034798002
1	0x388d2f5b	6.7322246e-05
2	0xbb0e6ce1	-0.0021732377
3	0x3b6f5d2a	0.0036524036
4	0xbad5c7a0	-0.0016310103
5	0xbabf8368	-0.0014611306
6	0x3b1b0730	0.0023655407
7	0x389b1469	7.394778e-05
8	0x3a334556	0.000683864
9	0x3a95511b	0.0011391969
10	0xbba175c0	-0.004927367
11	0xbbd6e0c4	-0.006557556
12	0xb98e9771	-0.00027197183
13	0xbbdf7d14	-0.0068203304
14	0xbbd4882a	-0.0064859586
15	0xb9c78f0f	-0.00038062825
16	0xbb51bebb	-0.0032004553
17	0xb963a1d4	-0.00021708693
18	0xb99c325b	-0.00029792156
19	0x3b2b4e13	0.0026139065
20	0xba97e42b	-0.0011588385
21	0xbb943400	-0.0045228004
22	0x3a45caa8	0.0007545152
23	0x3c34ba77	0.011030785
24	0x3b0c89eb	0.002144451
25	0xb8e33e1b	-0.000108357715
26	0x3bee87a8	0.007279355
27	0x3b8bfea5	0.0042722994
28	0xba5ca164	-0.0008416383
29	0xba4533b7	-0.000752266
30	0x3b917d39	0.0044399765
31	0x3bef9a3a	0.0073120864
32	0x39935af0	0.0002810578
33	0xb9fc38fd	-0.00048107645
34	0xbbc7492a	-0.00608172
35	0xbb8e9afa	-0.0043519707
36	0xba9fdd55	-0.0012196699
37	0xb905ba17	-0.00012753192
38	0x369fa85a	4.758168e-06
39	0xbb3a8316	-0.002845948
40	0x3a1ffac7	0.00061027374
41	0xbb14ad24	-0.0022686208
42	0x3c403c5c	0.011733141
43	0x3b2fd7a9	0.0026831424
44	0x3c040345	0.00805742
45	0xbbc7c59e	-0.006096556
46	0x3b97368d	0.0046146573
47	0x3bae8c40	0.0053267777
48	0xb7dba688	-2.6184382e-05
49	0xbba42886	-0.0050097136
50	0x377d165a	1.5085179e-05
51	0xbb4037dd	-0.0029330172
52	0xbb71ae21	-0.003687747
53	0xbb62739c	-0.0034553772
54	0x3b3f8b97	0.002922749
55	0x3994efad	0.00028407332
56	0xbc091285	-0.008366232
57	0xb9c16b0b	-0.00036891582
58	0x3c610445	0.013733928
59	0xba06ce88	-0.000514247
60	0x3aba9d03	0.0014237467
61	0xbbcd43fe	-0.006264209
62	0xbbb98786	-0.0056619076
63	0xbacf5f6f	-0.0015821288
64	0x39f2cd2c	0.00046310702
65	0xbb5f8e0b	-0.0034111764
66	0x3a828ed7	0.0009960782
67	0xb93a5d2d	-0.00017773053
68	0x3bc45577	0.0059916335
69	0xbb8790b0	-0.004137121

exp_avg_sq f4 [70]
0	0x393cceba	0.00018006089
1	0x375fb1d7	1.3333242e-05
2	0x36cc14e9	6.082108e-06
3	0x39026ee0	0.0001243907
4	0x36b6dbb0	5.4495977e-06
5	0x3692a637	4.370489e-06
6	0x395d90f7	0.00021130206
7	0x3697d53f	4.524976e-06
8	0x36db6f63	6.5396757e-06
9	0x367d6493	3.775848e-06
10	0x372d1a69	1.0317753e-05
11	0x3923ed1e	0.00015633224
12	0x36bc561a	5.61286e-06
13	0x3900e2c1	0.00012291504
14	0x39510267	0.00019932688
15	0x36bdc071	5.655042e-06
16	0x3900b0dd	0.00012272918
17	0x36e26050	6.746537e-06
18	0x36b1c883	5.2983537e-06
19	0x3700e32c	7.682287e-06
20	0x36b8085a	5.4845996e-06
21	0x39075499	0.00012906118
22	0x3944e734	0.00018778146
23	0x391d7b26	0.00015018563
24	0x36937065	4.394026e-06
25	0x36a0b149	4.7890103e-06
26	0x390deea5	0.0001353571
27	0x39155399	0.0001424089
28	0x369a8bc3	4.605828e-06
29	0x36761708	3.6670262e-06
30	0x39279388	0.00015981321
31	0x39d0488d	0.00039726906
32	0x369ff692	4.767274e-06
33	0x3697193f	4.5030897e-06
34	0x39434c9e	0.00018625191
35	0x396e87b5	0.00022748004
36	0x3941d218	0.0001848418
37	0x36ca2879	6.0247808e-06
38	0x3687a7a2	4.0428286e-06
39	0x396f82ac	0.00022841495
40	0x36856547	3.975499e-06
41	0x36b10cb6	5.276491e-06
42	0x39418358	0.00018454844
43	0x38d2c35e	0.0001004997
44	0x39256526	0.00015773307
45	0x39028211	0.0001244622
46	0x39209112	0.00015312832
47	0x38b5c0b2	8.666645e-05
48	0x36f7dc5d	7.3868273e-06
49	0x392ceb82	0.00016490932
50	0x36b4f462	5.392868e-06
51	0x38f66f94	0.00011750977
52	0x38cd5320	9.790645e-05
53	0x38db0c2d	0.00010445002
54	0x36b2a958	5.3245276e-06
55	0x369a741c	4.6030746e-06
56	0x391fac1e	0.0001522754
57	0x37188f96	9.093337e-06
58	0x3a07dc93	0.00051827094
59	0x36440b3d	2.9212817e-06
60	0x367988ec	3.718359e-06
61	0x391832c5	0.00014514763
62	0x38faa50f	0.000119516735
63	0x36a1a3c3	4.8172383e-06
64	0x373b5211	1.1165176e-05
65	0x38e56d42	0.00010939922
66	0x36b264b6	5.3165377e-06
67	0x36cd7a88	6.1237406e-06
68	0x3902fdf2	0.00012492368
69	0x3987fff7	0.00025939915

exp_avg f4 [50, 70]
0	0xba91b05b	-0.001111518
1	0xb8630f7b	-5.4135435e-05
2	0x3991858e	0.0002775606
3	0x39da41d2	0.0004162924
4	0x3953ac2e	0.0002018667
5	0xb80cac33	-3.3538974e-05
6	0x3ab01b9f	0.0013435966
7	0xb85ccf50	-5.2645162e-05
8	0xb90a4bee	-0.00013188992
9	0xb8bb4809	-8.9302725e-05
10	0x391787d9	0.0001445109
11	0x3a167170	0.00057389494
12	0x393fcc3a	0.0001829126
13	0x39a6e2c1	0.00031830932
14	0x38081c87	3.2451495e-05
15	0x387a3179	5.965072e-05
16	0x39456d17	0.00018828023
17	0xb7213640	-9.608979e-06
18	0x38268a70	3.9706414e-05
19	0x3431029c	1.6485359e-07
20	0xb73026b1	-1.0499426e-05
21	0x388f66e4	6.837936e-05
22	0x3a90ecc0	0.0011056885
23	0xba156a82	-0.000569977
24	0xb6c53d9c	-5.87823e-06
25	0xb89e57b6	-7.5503645e-05
26	0x3925f59f	0.00015827127
27	0x38192f2f	3.6521986e-05
28	0x392dee29	0.00016587287
29	0x3885be73	6.377408e-05
30	0xb882ebda	-6.242814e-05
31	0x3aa793a3	0.0012785088
32	0xb8f0a1f7	-0.0001147426
33	0xba5f6523	-0.00085218454
34	0xb790fd1d	-1.7284003e-05
35	0x3aae7990	0.0013311375
36	0xbaa89ace	-0.0012863518
37	0x3716a9a5	8.980195e-06
38	0xb93754b5	-0.00017483796
39	0xbaab1201	-0.001305163
40	0xb754a41d	-1.2674395e-05
41	0x3a35ef16	0.00069402286
42	0x393d01af	0.00018025072
43	0xb78a8bf5	-1.6516055e-05
44	0x3b3fb6bc	0.0029253205
45	0x39290ef5	0.00016122668
46	0xb8b28463	-8.5123604e-05
47	0x393590db	0.00017315468
48	0x3805432d	3.1772233e-05
49	0xb9ddd8a1	-0.00042313806
50	0xb8ff5d27	-0.000121766985
51	0x398d9809	0.0002700689
52	0xb9384b13	-0.00017575575
53	0x39829c64	0.00024912052
54	0xb9f23646	-0.00046198274
55	0x38fba31c	0.00011998994
56	0x387e7ff3	6.067748e-05
57	0x37bb8d4c	2.2357934e-05
58	0x3a930d63	0.00112192
59	0xb7c297c3	-2.3197272e-05
60	0xb90ae871	-0.00013247297
61	0x3a170b8e	0.00057619147
62	0x3981f8a7	0.00024790058
63	0x395c051e	0.00020982741
64	0xb9106ce8	-0.00013773481
65	0x388c6da4	6.6961424e-05
66	0xb88620f6	-6.3957574e-05
67	0xb9948639	-0.00028328763
68	0xb7272072	-9.96153e-06
69	0xbac4f1d7	-0.0015025687
70	0xba1c58bb	-0.00059641496
71	0xb7cb2d23	-2.4220504e-05
72	0x38907739	6.888662e-05
73	0x397aacc6	0.00023906221
74	0x38b0351d	8.402227e-05
75	0xb9593a6f	-0.00020716501
76	0x3a328f1c	0.0006811486
77	0xb7dac39e	-2.6078716e-05
78	0xb885f095	-6.386746e-05
79	0xb8bb740c	-8.93847e-05
80	0xb8b715d7	-8.730188e-05
81	0x3957c154	0.00020576018
82	0x38313702	4.225132e-05
83	0x395638ad	0.00020429744
84	0x3918ebf4	0.00014583749
85	0x3819c29b	3.6659283e-05
86	0x398a63c8	0.00026395754
87	0xb8d14a38	-9.979721e-05
88	0x37b6539f	2.173503e-05
89	0x3929804a	0.00016164887
90	0x39048170	0.0001263672
91	0x3932e5ae	0.00017060965
92	0x39e27cd1	0.00043199075
93	0xba5506cf	-0.000812632
94	0x390c6636	0.00013389517
95	0x368bfbd6	4.1718404e-06
96	0xb8907990	-6.889098e-05
97	0xb957db1c	-0.00020585622
98	0x38d3955e	0.00010089086
99	0x36916747	4.33336e-06
100	0xb9076065	-0.00012910513
101	0x393a2b00	0.00017754361
102	0xb81b4f96	-3.7029e-05
103	0xba1622d6	-0.0005727237
104	0x392fb79f	0.00016757705
105	0x3a3f262b	0.0007291759
106	0xba349abb	-0.0006889512
107	0xb68544c7	-3.9717156e-06
108	0xb9101a23	-0.00013742647
109	0xba3b9446	-0.00071555784
110	0xb7cd008f	-2.4438164e-05
111	0x39ae81c9	0.00033284564
112	0xb9625d0d	-0.00021587704
113	0xb91aa153	-0.00014746682
114	0x3a85999f	0.0010192877
115	0x39982d15	0.00029025288
116	0xb990ef28	-0.00027644006
117	0xb8edc92e	-0.00011338513
118	0x374fb522	1.2380335e-05
119	0xb9886a43	-0.00026019113
120	0xb9007645	-0.0001225109
121	0x3982ea41	0.00024970065
122	0xb8315e75	-4.228806e-05
123	0x39905ed1	0.00027536464
124	0xb9ab5f4c	-0.00032686663
125	0x38d6cd84	0.000102425955
126	0x39f9f1cb	0.0004767313
127	0x372af3c0	1.0189542e-05
128	0x39f46ab1	0.00046618798
129	0x37fcc53d	3.0132587e-05
130	0xb85e7509	-5.3037922e-05
131	0x397f3a75	0.00024340472
132	0x398a101c	0.00026333414
133	0x392e3e41	0.00016617124
134	0xb9184cd7	-0.00014524475
135	0x3863a413	5.4273823e-05
136	0xb8a3252d	-7.77937e-05
137	0xb931ad53	-0.00016944604
138	0xb99c567e	-0.0002981908
139	0xba6c1fd5	-0.0009007429
140	0x37664d6e	1.3727096e-05
141	0xb8004788	-3.0584197e-05
142	0x37c446c2	2.339797e-05
143	0xba2d8e13	-0.0006620597
144	0xb72f5245	-1.0449968e-05
145	0xb8155dd6	-3.561176e-05
146	0xb8fc780a	-0.000120386554
147	0xb79fbd94	-1.9042556e-05
148	0x38a96c95	8.078773e-05
149	0x38927676	6.9838876e-05
150	0x39dc93d1	0.00042071802
151	0x3a1acc73	0.0005905099
152	0xb6075123	-2.0163795e-06
153	0x39c32473	0.00037220455
154	0x39e80796	0.0004425614
155	0xb8064b01	-3.2017942e-05
156	0x394cf4ff	0.00019546224
157	0x3906185a	0.00012788308
158	0xb696bc25	-4.4922513e-06
159	0xb9e197c2	-0.00043028413
160	0xb906203a	-0.00012791241
161	0x39ab7174	0.0003270019
162	0xb7f10b8c	-2.8734816e-05
163	0xb9d62bbd	-0.00040849848
164	0xb90bff71	-0.00013351232
165	0xb80f96bc	-3.423424e-05
166	0xba3fd84e	-0.00073183037
167	0xba0e8e95	-0.00054381165
168	0xb85fc4cf	-5.3350635e-05
169	0x3750c9e3	1.24447715e-05
170	0xb9df8396	-0.00042631914
171	0x3a0fe618	0.0005489304
172	0xb9820062	-0.00024795817
173	0xb8d324db	-0.00010068129
174	0x3a2bd6bc	0.000655513
175	0xb92647ae	-0.00015857696
176	0x3920bf61	0.00015330083
177	0x37415eb2	1.1525744e-05
178	0x3890fa60	6.913091e-05
179	0x39322bb8	0.0001699169
180	0x38f91006	0.0001187623
181	0x3850c6b8	4.9776136e-05
182	0xb9a47c1c	-0.00031372986
183	0xb99a814d	-0.00029469506
184	0x39b44a89	0.00034387808
185	0x397ea705	0.00024285547
186	0xb99bb1a1	-0.00029696248
187	0xb98f4fa3	-0.0002733442
188	0x35da35c1	1.625791e-06
189	0x3a3d81e9	0.0007229136
190	0xb90729fd	-0.00012890245
191	0x3931a15e	0.0001694015
192	0x397fe6e9	0.00024404716
193	0x39821756	0.0002481292
194	0x39107e33	0.00013779923
195	0x38882392	6.491611e-05
196	0x3a0ec3de	0.00054460566
197	0x36fddd37	7.5657404e-06
198	0x3a32d1fd	0.0006821452
199	0xb9753176	-0.00023383446
200	0x393e6269	0.00018156473
201	0x3a6b50fe	0.00089766074
202	0x3a19b93e	0.000586409
203	0xb9233420	-0.0001556431
204	0xb92a99c0	-0.0001626974
205	0x39f7c496	0.0004725798
206	0x38eacdf7	0.000111963534
207	0x3820c880	3.8333703e-05
208	0xba139d7a	-0.0005631071
209	0x38c4f7d4	9.39217e-05
210	0xb9fb6b2f	-0.0004795431
211	0x371ac917	9.225935e-06
212	0xb8a343d4	-7.78508e-05
213	0x3aa01f0c	0.0012216284
214	0x38863e66	6.4012405e-05
215	0xb9172d8c	-0.0001441745
216	0x3a105ef6	0.00055073143
217	0x3824bb5d	3.9275143e-05
218	0xb94d3e17	-0.00019573454
219	0xb8f28315	-0.00011563875
220	0xba350f81	-0.00069069123
221	0xba481840	-0.0007633008
222	0x36b5d7c0	5.419337e-06
223	0xb9c62e5b	-0.0003780004
224	0xba31b5e8	-0.00067791203
225	0x389a437c	7.355862e-05
226	0xb95806c2	-0.00020601883
227	0xb9906451	-0.00027540562
228	0x373d363c	1.1277905e-05
229	0x3a61ab3d	0.00086085853
230	0x39834bea	0.00025042827
231	0xb9e5f2c1	-0.0004385915
232	0x398dc99a	0.0002704382
233	0x3a1108d6	0.00055326277
234	0x39af0bcc	0.0003338739
235	0x3879677b	5.94626e-05
236	0x3a845981	0.0010097475
237	0x3a47464a	0.00076017214
238	0x38b06370	8.410856e-05
239	0xb854076b	-5.0551647e-05
240	0x3a1ad020	0.0005905647
241	0xb9d27720	-0.00040143076
242	0x398d600d	0.0002696518
243	0xb9aac48e	-0.0003257137
244	0xba82ff11	-0.0009994229
245	0x3a0ef861	0.00054538815
246	0xba2e0d34	-0.00066395407
247	0xb7e11eb8	-2.6836395e-05
248	0xb9555bb7	-0.0002034743
249	0xba164cab	-0.00057334703
250	0xb9229b2c	-0.0001550733
251	0x38998825	7.3209674e-05
252	0x3a58c45a	0.0008269005
253	0x39e73e10	0.00044105994
254	0x38f7001b	0.000117778975
255	0xb9aefaf7	-0.0003337485
