models/training_new_loss_pico_soustraction/model_1/space_buffer_8_date_buffer_1/train_pfts_11/MLP.pth (torch, 57374 bytes, 18 tensors)

layers.0.weight f4 [70, 6]
-0.037733305 -0.28795984 0.054891504 0.14245884 -0.14894046 0.22356465 -0.012012279 -0.0018026889
0.0053121075 0.049795408 0.04425991 0.031421643 0.021062756 -0.011505534 -0.0060320315 -0.057127748
-0.093883544 -0.090602994 -0.00088494195 -0.00052113435 0.0015197836 0.0031082693 -0.00075299095 -0.00060981134
0.07268309 0.19997478 0.014954851 -0.1716308 0.022805141 -0.08977536 0.009069299 0.022888804
-0.013013258 -0.03390798 -0.016857399 -0.005333567 -0.4803259 0.28680673 -0.016757179 0.8198061
-0.26782948 -0.16196948 0.032559954 0.022325851 0.031617973 -0.014319517 0.032565527 -0.003952394
-0.020510517 -0.24306756 0.071620286 0.049697723 0.050575297 0.051896397 0.086750135 0.2168978
0.07674837 -0.23709175 0.06937158 -0.110009186 0.010583399 -0.019709073 0.004476483 -0.012697442
0.020554464 0.011816302 0.015669143 -0.014535649 0.013167729 -0.028754804 -0.020034846 -0.004805516
-0.038642254 -0.24156316 0.017907081 0.087457545 0.021458268 0.09126552 -0.56529415 0.19000778
-0.22931162 1.1594115 -0.61181897 -0.22950509 -0.103092946 0.2730765 -0.38854188 0.16055554
0.1864286 -0.8094829 -0.011462162 -0.011634978 -0.022454703 -0.058822066 -0.014468616 0.0039573126
-0.019651012 -0.22811702 0.030997066 0.0062469686 0.1331702 0.018788492 -0.1667402 -0.08422542
0.33515558 0.13513628 -0.1946933 0.13038711 0.029009173 0.058085624 0.014234835 0.10078895
0.018212225 0.0069693616 -0.084489934 -0.21684325 -0.053472076 0.15879762 0.015937114 0.07580877
0.03892536 0.26580057 -0.0070745214 -0.15987808 0.06193348 -0.18771616 -0.0052950387 0.008355641
-0.005476606 0.010064561 0.0065345787 0.0024495197 0.01407978 0.22045068 -0.12329452 0.047225498
-0.15506159 0.023339981 0.029161165 -0.012061894 0.004867772 -0.082524285 -0.05718006 -0.02487881
0.019580208 0.28650698 -0.121127464 0.0602834 -0.0927015 -0.0156208975 -0.030518265 0.028007934
-0.0056223534 -0.017463611 0.0005677005 -0.038464718 -0.015310549 -0.030298568 0.006321009 0.036203053
-0.0004940579 0.04141155 -0.04954942 -0.17076865 -0.030287303 0.10767688 0.05811075 0.012742107
-0.020482996 -0.34121704 0.0808062 0.15364361 -0.19460998 0.3417779 0.01809797 0.01960258
-0.0035806305 0.09146257 0.0427174 0.043359075 0.0039320737 -0.008280213 0.006107615 -0.040281728
0.02527834 -0.029811213 -0.0938774 -0.15937904 -0.07444463 0.1820259 0.028745187 0.020062042
-0.0037350878 -0.03540715 0.01239358 0.062163893 -0.0014930315 0.03038167 -0.15698807 -0.073749535
0.3087536 0.16693579 -0.19643511 0.11793197 0.010084027 -0.01883418 0.003915924 -0.004057563
-0.023697196 0.017747229 0.0052187303 -0.27319524 0.10486885 -0.042686373 0.1461182 -0.000482851
-0.090478435 -0.18070497 -0.079587825 0.18910035 -0.04779968 0.10236468 -0.033452567 0.026905045
-0.0350772 0.08286668 0.0029780727 -0.010182494 -0.003089163 0.0074791843 -0.012623361 0.008448747
-0.008279439 -0.0047298153 -0.0470448 -0.34404632 0.19843194 0.1132645 -0.31471032 0.43054613
0.02034676 -0.02601719 0.02481226 -0.0041436413 -0.00948128 0.030949602 0.021970656 -0.24090792
0.07096217 0.0018054114 0.09395763 -0.012961469 0.013064994 0.0046488266 -0.0066960435 -0.00043994503
00000000: 3d8e 1abd 796f 93be ead5 603d bbe0 113e
00000010: d983 18be 22ee 643e 26cf 44bc 3448 ecba
00000020: 3011 ae3b 45f6 4b3d e149 353d fbb3 003d
00000030: cd8b ac3c b581 3cbc 59a8 c5bb c9fe 69bd
00000040: 0446 c0bd 108e b9bd 73fb 67ba bc9c 08ba
00000050: 7a33 c73a 1bb4 4b3b 5e64 45ba bfdb 1fba
00000060: dfda 943d 30c6 4c3e 3105 753c fcbf 2fbe
00000070: d9d1 ba3c 25dc b7bd 6697 143c 4d81 bb3c
00000080: 8f35 55bc 18e3 0abd 8718 8abc 34c5 aebb
00000090: 47ed f5be 55d8 923e 5a46 89bc d0de 513f
000000a0: f220 89be 54db 25be 965d 053d b4e4 b63c
000000b0: d981 013d 689c 6abc 6e63 053d 1583 81bb
000000c0: ac05 a8bc b4e6 78be a8ad 923d d78f 4b3d
000000d0: 0b28 4f3d 5191 543d 0eaa b13d 751a 5e3e
000000e0: 402e 9d3d 2ec8 72be b012 8e3d 7f4c e1bd
000000f0: fe65 2d3c ec74 a1bc 76af 923b ef08 50bc
00000100: d661 a83c 2a99 413c 935c 803c ee26 6ebc
00000110: 75bd 573c 328f ebbc 1e20 a4bc 9777 9dbb
00000120: 5747 1ebd 555c 77be dfb1 923c f11c b33d
00000130: 40c9 af3c 6be9 ba3d 1eb7 10bf 6691 423e
00000140: aad0 6abe 9967 943f 2ba0 1cbf 6203 6bbe
00000150: 6522 d3bd afd0 8b3e f6ee c6be ac68 243e
00000160: 24e7 3e3e 453a 4fbf cbcb 3bbc a2a0 3ebc
00000170: edf2 b7bc 68ef 70bd c60d 6dbc 58ac 813b
00000180: 29fb a0bc 8297 69be 8fed fd3c 5fb3 cc3b
00000190: c55d 083e 53ea 993c f1bd 2abe 617e acbd
000001a0: 8399 ab3e 2a61 0a3e ae5d 47be 3384 053e
000001b0: a5a4 ed3c 31eb 6d3d 3a39 693c 706a ce3d
000001c0: ce31 953c 3e5f e43b 0f09 adbd 280c 5ebe
000001d0: 8905 5bbd d89b 223e 8d8e 823c a141 9b3d
000001e0: 3370 1f3d 0317 883e 63d1 e7bb 14b7 23be
000001f0: f6ad 7d3d aa38 40be 0182 adbb 19e6 083c
00000200: 1a75 b3bb d4e5 243c 0520 d63b 1f88 203b
00000210: e1ae 663c d3bd 613e d681 fcbd 866f 413d
00000220: 77c8 1ebe 7d33 bf3c 65e3 ee3c 409f 45bc
00000230: d581 9f3b 7e02 a9bd a335 6abd a5ce cbbc
00000240: ac66 a03c 0bb1 923e ad11 f8bd baeb 763d
00000250: 49da bdbd cbee 7fbc 7101 fabc e570 e53c
00000260: b83b b8bb d90f 8fbc bcd1 143a 2e8d 1dbd
00000270: 19d9 7abc b434 f8bc 7720 cf3b a749 143d
00000280: aa83 01ba 289f 293d 55f4 4abd fadd 2ebe
00000290: 141d f8bc b285 dc3d 8a05 6e3d 45c4 503c
000002a0: f5cb a7bc 00b4 aebe b97d a53d c054 1d3e
000002b0: d747 47be 83fd ae3e 3242 943c 9795 a03c
000002c0: 03a9 6abb ba50 bb3d 71f8 2e3d 4999 313d
000002d0: a0d8 803b bba9 07bc 6322 c83b 74fe 24bd
000002e0: 8514 cf3c a536 f4bc cb42 c0bd 4234 23be
000002f0: 6d76 98bd ff64 3a3e 077b eb3c 2759 a43c
00000300: 60c8 74bb 1607 11bd 710e 4b3c 919f 7e3d
00000310: d3b1 c3ba fbe2 f83c 7bc1 20be ff09 97bd
00000320: f414 9e3e 37f1 2a3e 4926 49be 5186 f13d
00000330: 7a37 253c 234a 9abc 2751 803b 4ef5 84bb
00000340: 9f20 c2bc a362 913c e201 ab3b 3fe0 8bbe
00000350: 7bc5 d63d e8d7 2ebd 02a0 153e 2a27 fdb9
00000360: c24c b9bd b90a 39be f1fe a2bd 86a3 413e
00000370: 99c9 43bd 93a4 d13d 8f05 09bd f867 dc3c
00000380: 1cad 0fbd 02b6 a93d c52b 433b 7ad4 26bc
00000390: 8e73 4abb f213 f53b 37d2 4ebc 9d6c 0a3c
000003a0: 7ca6 07bc 91fc 9abb 0cb2 40bd d726 b0be
000003b0: be31 4b3e 38f7 e73d b621 a1be 8b70 dc3e
000003c0: 40ae a63c 0122 d5bc 1543 cb3c 62c7 87bb
000003d0: 5f57 1bbc 058a fd3c cefb b33c 91b0 76be
000003e0: 9d54 913d 8ea3 ec3a dc6c c03d 575c 54bc
000003f0: 8e0e 563c 2f55 983b 7c6a dbbb 6ca8 e6b9

layers.0.bias f4 [70]
-0.04331536 0.004398701 -0.020469006 0.0012228873 -0.0033146983 0.00037121517 -0.07553795 -0.014497251
-0.091368586 -0.019806966 0.016815597 -0.001091157 -0.0425068 -0.11261605 0.32648546 0.02300898
-0.026972555 0.055716243 -0.024269594 0.018121459 0.023302564 0.0009402861 0.051828485 -0.023823924
0.07273022 -0.026948765 0.02684295 0.00034453868 -0.098146334 0.04878427 -0.018831858 0.03888032
0.0455224 0.07717625 -0.0009585016 -0.06640406 -0.01062816 0.008843549 -0.0014327671 -0.17398383
0.011731615 0.019012246 0.00894116 0.10415741 -0.018120185 0.014483975 0.008092938 -0.014029019
0.01863152 0.011663737 -0.04794146 -0.05507247 0.037986573 0.062789835 -0.011889773 0.009361438
-0.010032747 -0.02212423 0.0072610793 0.02527439 -0.0020434535 0.0054060365 -0.0031646374 -0.0039389743
-0.06562832 0.002798255 -0.0023519325 0.0529818 -0.12508257 0.046915255
00000000: 726b 31bd fa22 903b 9eae a7bc 4a49 a03a
00000010: 693b 59bb a89f c239 a4b3 9abd e185 6dbc
00000020: 741f bbbd 3842 a2bc ddc0 893c 2705 8fba
00000030: 9c1b 2ebd 3ea3 e6bd 1a29 a73e 547d bc3c
00000040: 8cf5 dcbc b736 643d 07d1 c6bc 7473 943c
00000050: 05e5 be3c 887d 763a 1b4a 543d 642a c3bc
00000060: 95f3 943d a8c3 dcbc bfe5 db3c 33a3 b439
00000070: f200 c9bd 04d2 473d 4545 9abc f840 1f3d
00000080: b275 3a3d 950e 9e3d f443 7bba dafe 87bd
00000090: bc21 2ebc 88e4 103c b0cb bbba d128 32be
000000a0: f635 403c 92bf 9b3c f17d 123c 7b50 d53d
000000b0: c870 94bc 324e 6d3c 3e98 043c f8d9 65bc
000000c0: 21a1 983c 4219 3f3c 445e 44bd ac93 61bd
000000d0: cf97 1b3d f597 803d 53cd 42bc b860 193c
000000e0: 6460 24bc e03d b5bc 59ee ed3b 3d0c cf3c
000000f0: 76eb 05bb 1f25 b13b ce65 4fbb 8312 81bb
00000100: 2468 86bd ee62 373b e122 1abb 7203 593d
00000110: a515 00be 362a 403d

layers.1.weight f4 [50, 70]
-0.116695695 -0.010905527 0.05722142 0.0007215338 0.090236574 -0.00072612497 -0.056871504 -0.010796431
-0.10200168 0.08337457 0.0064933696 -0.004432873 -0.113909304 -0.10951291 0.3070587 0.041064072
-0.11122885 0.03141544 -0.06729917 -0.0852462 0.11479848 0.0023797178 0.10216817 0.02302281
0.14258264 0.012745114 -0.015908185 -0.046306394 -0.14792804 -0.05978761 0.0054367566 -0.036723632
-0.0031729646 0.04642127 0.004839996 -0.13589117 -0.08085993 0.008218977 0.010852872 -0.16447504
-0.020737799 -0.073204525 -0.01121532 0.027779914 0.00023617808 -0.05529169 0.0065145264 0.0011822083
0.08924487 0.006536693 -0.027114233 -0.03418783 -0.027027402 0.033982646 -0.0055027856 0.0038573698
0.033802416 0.0891017 0.015867688 0.08939211 0.009400064 0.0042423736 -0.06205725 -0.0058252937
-0.020546028 0.014043989 -0.005813423 0.009422767 -0.068967715 -0.005665737 -0.0025758906 -0.010864924
0.0077469023 -0.0002066009 0.025697034 0.004135225 -0.048223533 0.0037606168 -0.06541599 0.025513627
-0.0065121036 0.0029518383 -0.039703645 -0.050398927 -0.0017167295 -0.002105572 -0.07734865 0.015312784
0.002698666 -0.047293965 0.022572407 -5.281738e-05 0.079377204 0.020103829 0.0650578 0.007204551
-0.020953225 -0.049375188 -0.024549272 -0.011848176 0.01358279 -0.035898555 -0.028618157 0.01060987
0.0028690486 -0.0882434 -0.0058956905 -0.013962088 0.00087491266 0.0027371112 -0.0031046 -0.056940835
-0.0016912335 0.05351876 0.001644112 -0.058825117 -0.01356276 -0.00433091 0.005249903 0.004150195
-0.012864743 -0.029565206 -0.02844154 0.018277086 0.013980067 -0.0012746495 0.018039351 0.0058791065
0.010545888 0.033840165 -0.0011158001 0.0025391472 -0.06143361 -0.00129659 -0.050882038 0.007835289
0.0023205662 0.0064156847 -0.046722353 0.051054843 0.22320984 0.01657136 0.04369459 0.0012308476
-0.14764068 -0.00548598 0.06781152 -0.010342114 0.092564456 -0.17730114 0.018554686 0.0041809166
0.15793365 0.20964311 -0.2652337 0.0053114584 0.08435245 0.02351238 -0.008200299 0.16199242
-0.20557351 -0.00045048023 -0.002927012 0.001441701 -0.06469355 -0.0069800084 0.014558542 0.10962564
0.2797833 -0.0032709383 -0.033028692 0.1488949 0.018293587 0.030094936 0.007258796 0.054255657
0.16655038 0.009327746 0.0054115714 0.2848712 0.002054965 0.03385157 0.0061614327 -0.055663586
0.010771811 0.108762905 0.0328623 0.016988412 -0.20067994 0.0011858562 0.0023294645 -0.06372638
-0.016943986 0.006221306 -0.016377438 0.0073359436 0.0117747355 -0.17973569 -0.1438248 -0.05677873
-0.012128434 0.003046819 -0.02143028 -0.00297541 -0.017973194 -0.013458492 0.0018905821 0.021162849
0.008428315 0.06132923 0.049200296 0.014776794 0.016731165 0.00088347116 -0.044173516 0.0022801661
0.13421041 -0.026926761 0.015548271 -0.0024856497 0.009806852 -0.007407386 0.027538337 0.09452727
-0.1369766 0.046915766 -0.018211786 0.12699702 -0.056987002 0.004015676 -0.027600419 0.0040259445
-0.028953915 -0.02033129 -0.006271434 -0.0016114557 0.03338012 0.0034933793 0.0044872942 -0.041879088
-0.003989935 -0.005632566 0.0131491115 0.13927294 0.006725097 -0.020361861 -0.013248909 -0.0068645664
0.00240304 0.06682861 -0.0041049034 0.028944723 0.00070039456 -0.10097908 -0.02861221 -0.021410469
00000000: 27fe eebd 18ad 32bc 0261 6a3d 5025 3d3a
00000010: f4cd b83d 6c59 3eba 18f2 68bd 84e3 30bc
00000020: 42e6 d0bd 49c0 aa3d 55c6 d43b a241 91bb
00000030: 4849 e9bd 4e48 e0bd cc36 9d3e cd32 283d
00000040: f4cb e3bd 7aad 003d 26d4 89bd 8f95 aebd
00000050: 771b eb3d 0af5 1b3b 8c3d d13d 559a bc3c
00000060: 2f01 123e e2d0 503c e251 82bc c6ab 3dbd
00000070: 737a 17be dae3 74bd d226 b23b 856b 16bd
00000080: 83f1 4fbb 3b24 3e3d d498 9e3b 0e27 0bbe
00000090: e499 a5bd e3a8 063c 3fd0 313c 256c 28be
000000a0: 51e2 a9bc 41ec 95bd 76c0 37bc b492 e33c
000000b0: 92a6 7739 8a79 62bd cf77 d53b 54f4 9a3a
000000c0: 04c6 b63d c131 d63b ab1e debc 8a08 0cbd
000000d0: 9268 ddbc 6331 0b3d b650 b4bb edcb 7c3b
000000e0: 6774 0a3d f47a b63d f4fc 813c 3613 b73d
000000f0: ba02 1a3c 9c03 8b3b be2f 7ebd 1be2 bebb
00000100: 2550 a8bc c218 663c 877e bebb f361 1a3c
00000110: f23e 8dbd a6a7 b9bb 46d0 28bb cb02 32bc
00000120: bad9 fd3b 02a3 58b9 9682 d23c c880 873b
00000130: 0a86 45bd ae74 763b d2f8 85bd f401 d13c
00000140: 7c63 d5bb a173 413b 4aa0 22bd 1b6f 4ebd
00000150: e203 e1ba a3fd 09bb f868 9ebd 79e2 7a3c
00000160: 1adc 303b 51b7 41bd c5e9 b83c 3b88 5db8
00000170: 8490 a23d c9b0 a43c 063d 853d 2714 ec3b
00000180: 19a6 abbc a33d 4abd 8e1b c9bc da1e 42bc
00000190: 5a8a 5e3c 5d0a 13bd a070 eabc 05d5 2d3c
000001a0: a606 3c3b f5b8 b4bd a330 c1bb 3ec1 64bc
000001b0: 655a 653a 1b61 333b 8b76 4bbb cb3a 69bd
000001c0: 61ac ddba 7d36 5b3d 3f7f d73a 9bf2 70bd
000001d0: 5736 5ebc 4eea 8dbb 6107 ac3b 5cfe 873b
000001e0: a5c6 52bc bb32 f2bc 3cfe e8bc d4b9 953c
000001f0: a70c 653c 2412 a7ba 43c7 933c 85a5 c03b
00000200: a9c8 2c3c fc9b 0a3d 0a40 92ba d267 263b
00000210: cfa1 7bbd 57f2 a9ba af69 50bd 965f 003c
00000220: a414 183b aa3a d23b f05f 3fbd e21e 513d
00000230: 1f91 643e a9c0 873c 19f9 323d 6454 a13a
00000240: 1e2f 17be bcc3 b3bb c4e0 8a3d f871 29bc
00000250: 6f92 bd3d 6e8e 35be ffff 973c 1200 893b
00000260: 5cb9 213e afac 563e b6cc 87be be0b ae3b
00000270: fac0 ac3d 099d c03c 8c5a 06bc 57e1 253e
00000280: dd81 52be 6f2e ecb9 1dd3 3fbb 75f7 bc3a
00000290: 0d7e 84bd 8eb8 e4bb f386 6e3c 6883 e03d
000002a0: c23f 8f3e 3d5d 56bb 1849 07bd e877 183e
000002b0: 6fdc 953c a889 f63c 32db ed3b 2e3b 5e3d
000002c0: 2f8c 2a3e 67d3 183c 8d53 b13b a3da 913e
000002d0: 97ac 063b f2a7 0a3d d8e5 c93b 80ff 63bd
000002e0: 407c 303c 16bf de3d 9e9a 063d 482b 8b3c
000002f0: 0b7f 4dbe bb6e 9b3a eea9 183b fa82 82bd
00000300: 1dce 8abc 19dc cb3b fa29 86bc 5b62 f03b
00000310: d2ea 403c a20c 38be cf46 13be d090 68bd
00000320: 57b6 46bc 24ad 473b 8e8e afbc 19ff 42bb
00000330: 853c 93bc 0281 5cbc 69cd f73a b65d ad3c
00000340: ea16 0a3c 5c34 7b3d 4086 493d 5e1a 723c
00000350: cc0f 893c bf98 673a 4aef 34bd d76e 153b
00000360: 746e 093e 8395 dcbc 2dbe 7e3c 48e6 22bb
00000370: ebac 203c a8b9 f2bb 1498 e13c 8397 c13d
00000380: 9843 0cbe bf2a 403d e230 95bc 820b 023e
00000390: 346b 69bd ef95 833b 461a e2bc 12ec 833b
000003a0: c330 edbc ce8d a6bc 9a80 cdbb 7b37 d3ba
000003b0: 98b9 083d 2ef1 643b 270a 933b 6889 2bbd
000003c0: 00be 82bb 6391 b8bb 5f6f 573c 919d 0e3e
000003d0: 345e dc3b ebcd a6bc f411 59bc 28f0 e0bb
000003e0: 527c 1d3b 70dd 883d 6d82 86bb 7c1d ed3c
000003f0: af9a 373a 1fce cebd 2764 eabc 0265 afbc

layers.1.bias f4 [50]
0.26513037 -0.008496689 0.07046645 0.042223237 0.062346462 -0.0024057264 -0.26545328 -0.24539807
-0.0007920424 -0.2665564 0.0005626865 0.00027337164 -0.0051743365 -0.12805101 -0.026376948 -0.0008355763
0.0017517008 0.022406638 -0.31582993 0.14868808 0.0279081 -0.0052922135 0.024196612 -0.0350512
0.003476488 -0.019290673 -0.049283165 0.037417147 -0.06469761 0.0029520122 -0.18755347 -0.009772131
-0.012548968 -0.011806352 0.065336704 0.5860622 0.065000884 0.028903862 -0.09544596 0.13257138
0.07345515 0.012198094 -0.09998277 -0.06257588 0.0011346848 0.10058162 0.18090415 0.00672117
-0.038451508 0.07175605
00000000: 2bbf 873e b235 0bbc b750 903d 46f2 2c3d
00000010: 015f 7f3d 64a9 1dbb 7ee9 87be a249 7bbe
00000020: 11a1 4fba 157a 88be 4081 133a 5253 8f39
00000030: 7b8d a9bb ce1f 03be 7814 d8bc 940a 5bba
00000040: 5399 e53a 208e b73c 76b4 a1be b041 183e
00000050: 879f e43c 4e6a adbb f937 c63c d991 0fbd
00000060: cad5 633b 7907 9ebc 25dd 49bd b942 193d
00000070: 2e80 84bd 8c76 413b 040e 40be 4a1b 20bc
00000080: 309a 4dbc 6e6f 41bc 40cf 853d 2c08 163f
00000090: 2f1f 853d cbc7 ec3c 2c79 c3bd cbc0 073e
000000a0: a76f 963d 84da 473c c4c3 ccbd c827 80bd
000000b0: b4b9 943a bdfd cd3d f03e 393e 433d dc3b
000000c0: 547f 1dbd d6f4 923d

output.weight f4 [3, 50]
-0.148296 -0.09269804 0.072222374 -0.09923698 -0.06391284 0.002396649 -0.043203395 -0.02782034
-0.0038207367 -0.017323961 0.0008023447 -0.0024192007 -0.004354716 0.16440822 0.13679563 0.0003928344
-0.0016775166 -0.044742532 0.18120757 -0.13323936 0.019147433 0.0059845042 -0.0036452597 0.045494094
-0.00071645854 -0.02918313 0.14490375 -0.040745728 0.03695396 -0.022384757 -0.04489491 0.113515235
0.03934666 -0.13436311 -0.14565276 -0.07661117 0.028068488 0.1359629 0.15462008 -0.1711497
-0.07484028 0.016013976 0.024500117 -0.0187688 0.000940782 -0.032703068 -0.14477246 -0.085735716
-0.08361442 -0.060473148 -0.046691053 0.0038693857 0.18281302 -0.16514501 -0.13117371 -0.0074219103
-0.13528585 -0.21576945 0.0013030911 -0.25101545 -0.00021498001 -0.0008051844 -0.0072274776 0.02373264
0.021838848 -0.00015884328 -0.0027010802 -0.036166992 0.04508971 -0.042709734 0.011110412 -0.015164443
0.0033243976 0.1035528 -0.00051733776 -0.01451051 0.0070746825 -0.16506906 0.02277299 0.0038208272
-0.21770126 0.031991277 -0.010689111 -0.024087256 -0.009671822 0.17449163 0.030934952 0.0037016987
0.056289475 -0.045377463 0.00047663852 0.11864519 0.09659369 -0.0016096428 -0.0040355995 -0.16676158
-0.02012599 -0.00068702514 -0.017510418 0.022500522 0.07261459 0.024650227 0.014205626 -0.10064629
-0.064089 -0.020598542 -0.23014474 0.05531908 -0.0024134854 0.09609315 -6.6734224e-06 -0.0007096917
0.00047387238 -0.015672667 -0.0059412094 0.0008668687 -0.004030156 -0.035070725 -0.046547618 0.069477305
-0.007189809 -0.0021907645 0.0075798663 0.08984566 -0.0037764043 -0.016942391 0.000541394 -0.10812187
0.023772174 0.0014088346 0.06069512 0.026571998 -0.04931377 0.0044404604 0.047364026 0.21447161
-0.07249796 -0.019838851 0.0015197776 0.03624445 0.20157239 0.14865243 0.22514091 0.0075109825
-0.0113245165 -0.12700309 0.016077673 0.009356573 0.031765357 -0.04257385
00000000: e8da 17be 78d8 bdbd 53e9 933d c23c cbbd
00000010: bce4 82bd 1911 1d3b 0bf6 30bd 7be7 e3bc
00000020: 5365 7abb fbea 8dbc 7154 523a 748b 1ebb
00000030: 01b2 8ebb a15a 283e 2714 0c3e 57f5 cd39
00000040: 1ee0 dbba f243 37bd 7a8e 393e e66f 08be
00000050: 14db 9c3c a919 c43b 4fe5 6ebb 0458 3a3d
00000060: b8d0 3bba 7611 efbc a661 143e fee4 26bd
00000070: 095d 173d 3d60 b7bc bae3 37bd ad7a e83d
00000080: f729 213d 7c96 09be ff25 15be 51e6 9cbd
00000090: e3ef e53c dc39 0b3e ba54 1e3e de41 2fbe
000000a0: dc45 99bd be2f 833c 78b4 c83c 07c1 99bc
000000b0: d09e 763a a7f3 05bd 3b3f 14be 3596 afbd
000000c0: 093e abbd b1b2 77bd 1e3f 3fbd 8595 7d3b
000000d0: 5633 3b3e c61b 29be 6752 06be 7f33 f3bb
000000e0: 6088 0abe abf2 5cbe 7bcc aa3a 1985 80be
000000f0: 426c 61b9 0313 53ba 7ad4 ecbb f46a c23c
00000100: 62e7 b23c 2b8f 26b9 9b04 31bb d723 14bd
00000110: fdaf 383d 67f0 2ebd 7208 363c 4974 78bc
00000120: 23de 593b 7e13 d43d f39d 07ba 7dbd 6dbc
00000130: bdd2 e73b dd07 29be 6c8e ba3c d866 7a3b
00000140: 14ed 5ebe 4909 033d 6221 2fbc a352 c5bc
00000150: 9076 1ebc efad 323e 4c6b fd3c 3398 723b
00000160: cb8f 663d b8dd 39bd 57e5 f939 40fc f23d
00000170: ead2 c53d a6fa d2ba 103d 84bb 8cc3 2abe
00000180: 43df a4bc 7a19 34ba 0272 8fbc 0453 b83c
00000190: f5b6 943d 46ef c93c b7be 683c a41f cebd
000001a0: 1841 83bd 46be a8bc 10ab 6bbe 4296 623d
000001b0: 912b 1ebb 7ccc c43d 43ec dfb6 9b0a 3aba
000001c0: 1372 f839 f763 80bc 7aae c2bb 933e 633a
000001d0: 660f 84bb 52a6 0fbd b7a8 3ebd 1e4a 8e3d
000001e0: 7d98 ebbb ee92 0fbb 8760 f83b 0001 b83d
000001f0: 8d7d 77bb c5ca 8abc 56ec 0d3a 006f ddbd
00000200: ddbd c23c a5a8 b83a 729b 783d 85ad d93c
00000210: 3cfd 49bd 4881 913b c800 423d 729e 5b3e
00000220: cf79 94bd 1685 a2bc 4633 c73a 0f75 143d
00000230: fe68 4e3e 5838 183e 578b 663e b01e f63b
00000240: 778a 39bc 190d 02be 53b5 833c 504c 193c
00000250: 641c 023d eb61 2ebd

output.bias f4 [3]
0.39581656 0.031116895 -0.12731294
00000000: 78a8 ca3e dce8 fe3c 535e 02be

exp_avg f4 [70, 6]
0.0024396088 0.0029162134 0.0018971134 -0.00033438252 -0.0048903627 -0.0058786236 0.00029351024 0.00012316254
0.0002540372 -1.984947e-05 0.0002600696 0.0007858749 -4.711048e-05 -3.4237662e-05 2.2789782e-05 0.00013582454
0.00028783057 0.00017780131 0.0001091487 8.246997e-05 0.00013495427 9.905455e-05 0.00031424512 0.00014360822
-0.0030102795 -0.0036040004 -0.002741363 -0.0013770285 -0.0008359401 0.00555085 0.002023274 0.0025927776
0.0028274532 0.0028341485 0.0021186613 -0.0029281296 0.0043292176 0.004868279 0.005785497 0.0035539623
0.007822966 -0.004372706 -0.0006237546 -0.00059363095 -0.00057350413 -0.0001982556 -2.477304e-05 0.00033489443
0.0035253018 0.0044385022 0.004716281 0.004675377 0.0041541406 -0.0048619728 -0.0029769077 -0.0038970846
-0.0037935819 -0.0030751268 -0.0023478772 0.0055636023 -0.00017257033 -0.00018724236 -0.00017258557 -7.9038815e-05
5.7855214e-06 0.00018527864 -0.0006403441 -0.00058286195 -0.00047080955 0.00011572335 0.00084469846 0.00054853
0.0037233906 0.004264458 0.003796335 0.0023808854 0.00095028494 -0.0048262076 0.007562179 0.009320484
0.00979289 0.008763619 0.013378372 -0.007874292 -0.0058574784 -0.007301459 -0.0081802355 -0.008243813
-0.011604587 0.0058272826 -0.00064705504 -0.00089208526 -0.0005974976 -0.00057453406 -0.00017965974 0.0012214596
0.0056346036 0.0065907002 0.0067704567 0.005154406 0.0044150343 -0.0056502256 -0.001704215 -0.0016751973
2.8564627e-05 0.0013731038 0.0063065263 0.0058013713 0.00024725025 0.0002213411 0.00012403922 -0.00015631123
-0.00043492354 -0.00033010598 0.0041273795 0.0048258305 0.0047303657 0.0037139785 0.0030869697 -0.00684805
-0.0030910305 -0.0037737475 -0.0032577834 -0.002159308 -0.00048419385 0.005415103 0.0005341752 0.00057469273
0.0005088837 0.00022709307 0.00026075845 -0.00043906466 -0.003101807 -0.0036911124 -0.0029812534 -0.0016507214
-0.0010078725 0.005057792 -4.8809467e-05 -5.654835e-06 1.9238454e-05 0.00017359488 0.00024226519 0.00023469052
-0.0020221407 -0.0024964924 -0.002482303 -0.0021471027 -0.00024673127 0.0038055524 0.00011597519 0.0001532878
0.00015854918 0.00018568707 0.0002621975 -8.193916e-05 -0.003169998 -0.0037216984 -0.0029976459 -0.0013162757
0.0024228068 0.0046276283 0.0029146431 0.0036950223 0.0034548673 0.0033320237 0.0030042552 -0.0036976582
0.0023393133 0.0029179077 0.0025297548 0.0017822237 0.00057654205 -0.00601937 -0.00045056205 -0.00051347923
-0.00043483145 -0.00028219153 -0.00021625025 -7.034136e-05 -0.0002856736 -9.5490555e-05 -0.0001934603 0.00020264839
0.00022295683 -0.00037429316 0.0030393284 0.003938046 0.004482809 0.0047804876 0.0056039877 -0.0048678056
1.8541296e-05 2.091687e-05 1.7348966e-05 -1.2591847e-05 -6.107569e-05 -4.4699864e-05 0.00119165 0.001071446
0.001709919 0.0014432757 0.005094007 0.0023380383 0.0006464829 0.0006819867 0.00075689476 0.000721687
0.0010489316 -0.00027685438 0.004543378 0.005136635 0.0045870375 0.0029567392 0.0002892657 -0.0056917835
0.0035817442 0.004171899 0.003454791 0.0021754322 0.0022584295 -0.0059599685 -0.0008227841 -0.00092805683
-0.0006217371 -0.00027283398 -0.00038350213 0.00088513613 -0.00036982688 -0.00035336905 -0.00013926944 0.00020827678
0.0005595137 0.0004292775 0.0026379805 0.0031743103 0.0025494003 0.0014301286 0.0014542326 -0.0051856358
0.00057306775 0.00068801874 0.0005957243 0.00046131705 0.0002717082 -0.00063267234 0.0023257013 0.0029388848
0.0025808 0.0021840176 0.0032580749 -0.004337228 -0.00076751446 -0.0006394382 -0.0008038815 -0.00041499568
00000000: d8e1 1f3b f11d 3f3b 90a8 f83a 1050 afb9
00000010: 563f a0bb 78a1 c0bb 47e2 9939 3125 0139
00000020: 4c30 8539 6a82 a6b7 f359 8839 2c03 4e3a
00000030: 7e98 45b8 699a 0fb8 af2c bf37 1f6c 0e39
00000040: f7e7 9639 2d70 3a39 c3e6 e438 baf3 ac38
00000050: 8382 0d39 82bb cf38 44c1 a439 8a95 1639
00000060: 1c48 45bb 1831 6cbb 70a8 33bb 697d b4ba
00000070: fe22 5bba e8e3 b53b e898 043b 97eb 293b
00000080: cb4c 393b 1fbd 393b 3dd9 0a3b dde5 3fbb
00000090: 1cdc 8d3b 1686 9f3b 4494 bd3b 98e9 683b
000000a0: e62b 003c eb48 8fbb 7683 23ba e69d 1bba
000000b0: 3657 16ba d5e2 4fb9 b3cf cfb7 c594 af39
000000c0: c008 673b db70 913b 088b 9a3b e833 993b
000000d0: 751f 883b 2f51 9fbb 3918 43bb 3b66 7fbb
000000e0: be9d 78bb 1188 49bb d8de 19bb e14e b63b
000000f0: fff3 34b9 7d56 44b9 16f8 34b9 a4c1 a5b8
00000100: 4021 c236 5b47 4239 c4dc 27ba 34cb 18ba
00000110: fdd6 f6b9 80b0 f238 c16e 5d3a 3acb 0f3a
00000120: 2104 743b debc 8b3b efcb 783b a108 1c3b
00000130: 8b1c 793a 2a25 9ebb 28cc f73b f1b4 183c
00000140: 5c72 203c 4895 0f3c f630 5b3c 2d03 01bc
00000150: 17f0 bfbb 1441 efbb 6506 06bc 0f11 07bc
00000160: 2a21 3ebc caf2 be3b 219f 29ba d4da 69ba
00000170: 63a1 1cba 549c 16ba 0b63 3cb9 6219 a03a
00000180: 7ba2 b83b cdf6 d73b b5da dd3b 4be6 a83b
00000190: feab 903b 8725 b9bb f75f dfba 4b92 dbba
000001a0: 129e ef37 b8f9 b33a faa6 ce3b 6e19 be3b
000001b0: 5ea1 8139 cd17 6839 8610 0239 7ae7 23b9
000001c0: 7306 e4b9 1312 adb9 f83e 873b 0022 9e3b
000001d0: 2f01 9b3b 3866 733b c24e 4a3b 9b65 e0bb
000001e0: e392 4abb fa50 77bb 8980 55bb 2d83 0dbb
000001f0: 66db fdb9 2d71 b13b e407 0c3a faa6 163a
00000200: 9b66 053a d51f 6e39 68b6 8839 4332 e6b9
00000210: b047 4bbb 97e6 71bb 2261 43bb 055d d8ba
00000220: 971a 84ba d6bb a53b c4b8 4cb8 aabe bdb6
00000230: 4462 a137 0507 3639 9108 7e39 4217 7639
00000240: e485 04bb 319c 23bb 22ae 22bb 68b6 0cbb
00000250: b65b 81b9 9366 793b b537 f338 e1bb 2039
00000260: 3940 2639 feb4 4239 8e77 8939 c0d6 abb8
00000270: bebf 4fbb bde7 73bb 2774 44bb e286 acba
00000280: f4c7 1e3b 5ca3 973b 9903 3f3b 3028 723b
00000290: 0e6b 623b 155e 5a3b 0ae3 443b 6954 72bb
000002a0: 2a4f 193b 5e3a 3f3b 3eca 253b 8199 e93a
000002b0: 1523 173a 233e c5bb 6a39 ecb9 029b 06ba
000002c0: 17fa e3b9 1bf3 93b9 3cc1 62b9 3b84 93b8
000002d0: 76c6 95b9 1a42 c8b8 9bdb 4ab9 037e 5439
000002e0: 85c9 6939 c73c c4b9 782f 473b b90a 813b
000002f0: 87e4 923b a3a5 9c3b a8a1 b73b 1d82 9fbb
00000300: 2189 9b37 a376 af37 9f88 9137 9241 53b7
00000310: c315 80b8 1d7c 3bb8 2431 9c3a c36f 8c3a
00000320: 5c1f e03a 4c2c bd3a a1eb a63b c639 193b
00000330: bc78 293a 5ac7 323a 596a 463a 982f 3d3a
00000340: 4e7c 893a c426 91b9 9ee0 943b 3851 a83b
00000350: dc4e 963b dac5 413b 96a8 9739 2482 babb
00000360: b2bb 6a3b 6db4 883b c669 623b b291 0e3b
00000370: 2902 143b d74b c3bb 1bb0 57ba d748 73ba
00000380: 12fc 22ba 280b 8fb9 c910 c9b9 7b08 683a
00000390: 53e5 c1b9 6444 b9b9 db08 12b9 df64 5a39
000003a0: 54ac 123a a710 e139 f8e1 2c3b 1708 503b
000003b0: d713 273b 2773 bb3a f39b be3a 44ec a9bb
000003c0: ed39 163a 285c 343a 622a 1c3a eddc f139
000003d0: 0f74 8e39 ecd9 25ba cb6a 183b 4e9a 403b
000003e0: a422 293b bc21 0f3b 6d85 553b 4e1f 8ebb
000003f0: 0633 49ba f99f 27ba 93bb 52ba c793 d9b9

exp_avg_sq f4 [70, 6]
0.00015967125 0.0001628271 0.00018371665 0.00017910694 0.00014139038 0.0001130839 5.3339204e-06 5.531909e-06
5.599568e-06 5.4670218e-06 5.3242725e-06 5.0273275e-06 5.5827304e-06 5.7639418e-06 5.880559e-06 5.0607932e-06
3.9491115e-06 4.140542e-06 5.9384806e-06 6.0375687e-06 5.878077e-06 4.6655045e-06 4.899428e-06 4.690556e-06
0.0001467693 0.00015488434 0.00018302177 0.00019160761 0.00013386222 9.73029e-05 0.00014941113 0.00015576421
0.00018354048 0.00018542468 0.00013868866 9.6895696e-05 0.00040439033 0.00039527853 0.0002631001 0.00020859447
0.00061492174 0.0006627753 5.430485e-06 5.639065e-06 5.5705705e-06 4.9829773e-06 4.8791494e-06 4.8875445e-06
0.00011979855 0.00012226602 0.00013370752 0.0001286978 0.00010235477 8.869792e-05 0.0001612458 0.00016820416
0.00019683261 0.00019939296 0.0001362736 9.667466e-05 6.3035905e-06 6.497281e-06 6.3842335e-06 5.2567307e-06
5.015129e-06 4.8050906e-06 5.8263954e-06 5.9964777e-06 6.059933e-06 5.3729573e-06 4.9745845e-06 4.8619277e-06
8.797923e-05 8.974552e-05 9.544396e-05 9.094845e-05 7.659003e-05 7.426526e-05 0.00046371846 0.00046675935
0.0004007633 0.00040915588 0.0007091622 0.0006203057 0.00028468933 0.00030143166 0.00027932215 0.0002836817
0.0003577172 0.00031458138 5.3950575e-06 5.54306e-06 5.3084127e-06 4.386048e-06 4.4254257e-06 4.364884e-06
0.00012797378 0.00013227375 0.00015350478 0.00015398099 0.00011471521 8.6752785e-05 0.00035272565 0.00035136452
0.0002898097 0.00024823064 0.0004451751 0.0004309636 4.6230557e-06 4.6738014e-06 4.5463685e-06 4.050391e-06
4.374321e-06 3.8305343e-06 0.00014653937 0.00015158101 0.0001777395 0.0001813979 0.00013711558 0.00010795799
0.00018113047 0.00018807247 0.00021105888 0.00020172099 0.00015606964 0.00013163411 7.824883e-06 7.976192e-06
7.6058473e-06 6.383687e-06 6.7661485e-06 7.0696397e-06 0.00013346969 0.00013550944 0.00015166368 0.00014700598
0.00012240834 0.00010375485 9.455329e-06 9.781043e-06 9.180282e-06 7.0495043e-06 7.5479848e-06 7.4073096e-06
0.00018268834 0.00018645379 0.00020625001 0.00019268539 0.0001273842 0.0001279908 7.268177e-06 7.400152e-06
7.4138934e-06 6.1337882e-06 6.9803577e-06 6.603631e-06 8.82221e-06 9.124486e-06 8.903251e-06 8.220279e-06
9.224269e-06 1.0054767e-05 0.00012979118 0.00013505423 0.00015642746 0.00015892414 0.00011903035 9.2879345e-05
0.00018414353 0.00019249615 0.00023499563 0.00024153263 0.00017023298 0.000118495314 7.2094676e-06 7.1400964e-06
6.9612133e-06 5.6737904e-06 6.320324e-06 5.4638394e-06 5.308777e-06 5.355881e-06 5.2047576e-06 4.229983e-06
4.540515e-06 4.262207e-06 0.00016255274 0.00017187044 0.0002011759 0.00020213661 0.00014206908 9.926382e-05
6.3381517e-06 6.512664e-06 6.595147e-06 6.4649785e-06 6.0209327e-06 5.492062e-06 0.00028277427 0.000283222
0.00023302811 0.0002045275 0.00036124417 0.00034902204 6.129387e-06 6.312736e-06 5.9974286e-06 4.8161805e-06
5.090255e-06 5.3722747e-06 0.00017082816 0.0001738508 0.00018758563 0.00017501102 0.00013370124 0.00012551162
0.00016409716 0.0001682286 0.00018962138 0.00018829815 0.00014591505 0.00011988493 6.265868e-06 6.4091832e-06
5.9515196e-06 4.8357006e-06 5.618099e-06 5.4857214e-06 5.692714e-06 5.7595403e-06 5.971583e-06 5.237928e-06
4.8427455e-06 4.3740747e-06 0.0001603522 0.00016959282 0.00020666335 0.00022989228 0.00017633196 0.00012668251
4.37227e-06 4.4578906e-06 4.289189e-06 4.444084e-06 5.2941086e-06 3.8948774e-06 0.00014072543 0.00014637262
0.00017357347 0.00017503511 0.0001223828 9.1475544e-05 6.0260595e-06 6.222663e-06 6.070348e-06 4.702372e-06
00000000: 6d6d 2739 91bc 2a39 10a4 4039 a7ce 3b39
00000010: 3142 1439 7527 ed38 07fa b236 bd9e b936
00000020: ece3 bb36 5c71 b736 27a7 b236 6ab0 a836
00000030: 4a53 bb36 e267 c136 9e51 c536 e2cf a936
00000040: 9c82 8436 fcee 8a36 2943 c736 5296 ca36
00000050: 4c3c c536 618c 9c36 c465 a436 9263 9d36
00000060: 15e6 1939 7368 2239 88e9 3f39 47ea 4839
00000070: 5e5d 0c39 190f cc38 3fab 1c39 a354 2339
00000080: c674 4039 8f6e 4239 f46c 1139 7b34 cb38
00000090: 5a04 d439 633d cf39 b3f0 8939 27ba 5a39
000000a0: b332 213a 19be 2d3a 8337 b636 3337 bd36
000000b0: d6ea ba36 7333 a736 93b7 a336 b0ff a336
000000c0: 5b3c fb38 8934 0039 d733 0c39 0df3 0639
000000d0: 4ca7 d638 5503 ba38 1714 2939 f65f 3039
000000e0: da64 4e39 2414 5139 aae4 0e39 d0bd ca38
000000f0: 6e83 d336 3803 da36 2638 d636 f962 b036
00000100: a147 a836 6a3b a136 5b80 c336 5a35 c936
00000110: 6e56 cb36 5a49 b436 5beb a636 a423 a336
00000120: 7d81 b838 c235 bc38 1629 c838 94bb be38
00000130: f69e a038 dcbe 9b38 3d1f f339 61b7 f439
00000140: 8a1d d239 f983 d639 12e7 393a 039c 223a
00000150: 5b42 9539 7909 9e39 fc71 9239 1dbb 9439
00000160: fd8b bb39 66ee a439 3107 b536 86fe b936
00000170: eb1e b236 de2b 9336 1e7e 9436 1176 9236
00000180: b330 0639 f7b2 0a39 20f6 2039 f575 2139
00000190: 4293 f038 0cef b538 09ee b839 5937 b839
000001a0: 99f1 9739 f424 8239 6466 e939 f5f2 e139
000001b0: bf1f 9b36 a6d3 9c36 028d 9836 98e8 8736
000001c0: 22c7 9236 0a88 8036 5da8 1939 b8f1 1e39
000001d0: 955f 3a39 a135 3e39 afc6 0f39 8167 e238
000001e0: d7ed 3d39 5235 4539 b04f 5d39 1185 5339
000001f0: a0a6 2339 4307 0a39 9e47 0337 7cd1 0537
00000200: bb35 ff36 7433 d636 c608 e336 be37 ed36
00000210: fff3 0b39 8a17 0e39 e907 1f39 9e25 1a39
00000220: bd5a 0039 f696 d938 54a2 1e37 4319 2437
00000230: 0305 1a37 c88a ec36 b244 fd36 4e8c f836
00000240: 0790 3f39 cf82 4339 d144 5839 970b 4a39
00000250: 7092 0539 4535 0639 2ae1 f336 d24e f836
00000260: dcc4 f836 d7d0 cd36 d138 ea36 c294 dd36
00000270: 1a03 1437 5e15 1937 2c5f 1537 d4e9 0937
00000280: efc1 1a37 e5b0 2837 8e18 0839 589d 0d39
00000290: ad06 2439 e0a4 2639 ef9f f938 38c8 c238
000002a0: a716 4139 cbd8 4939 2969 7639 ec43 7d39
000002b0: 9180 3239 b080 f838 dbe8 f136 f694 ef36
000002c0: 5e94 e936 7d61 be36 2b13 d436 0656 b736
000002d0: 0c22 b236 abb6 b336 87a4 ae36 47ef 8d36
000002e0: ba5a 9836 1404 8f36 eb72 2a39 1f38 3439
000002f0: bff2 5239 a2f4 5339 61f8 1439 dc2b d038
00000300: 4fac d436 5c87 da36 e24b dd36 beed d836
00000310: 6b07 ca36 7448 b836 5241 9439 6a7d 9439
00000320: 0259 7439 6f76 5639 5f65 bd39 f2fc b639
00000330: 09ab cd36 fdd1 d336 853d c936 ad9a a136
00000340: f5cc aa36 7d43 b436 5620 3339 b84b 3639
00000350: a2b2 4439 2a83 3739 2732 0c39 c59b 0339
00000360: 7f11 2c39 8566 3039 1ad5 4639 e671 4539
00000370: c600 1939 bb6a fb38 653f d236 770e d736
00000380: 2ab3 c736 5a42 a236 1a83 bc36 fd11 b836
00000390: 0a04 bf36 1342 c136 825f c836 75c1 af36
000003a0: de7e a236 04c5 9236 3724 2839 bad4 3139
000003b0: c5b3 5839 3d0f 7139 c0e5 3839 14d6 0439
000003c0: 83b5 9236 fd94 9536 daeb 8f36 641e 9536
000003d0: 0ca4 b136 beb0 8236 b28f 1339 9a7b 1939
000003e0: 4601 3639 a189 3739 e253 0039 8fd6 bf38
000003f0: 7533 ca36 45cc d036 e4af cb36 11c9 9d36

exp_avg f4 [70]
0.008542912 -0.0016593429 -0.00025092886 -0.0003537645 -0.0030223583 0.0030337237 -0.01288625 0.0004291841
0.0018207835 -0.0036425088 -6.244847e-05 -0.00046620384 0.003810549 -0.005192872 0.006322737 -0.0016574339
0.004368541 -0.011407266 0.00036426162 0.0028128969 -0.0054836646 -3.679648e-05 -0.003053825 0.00015223742
-0.001905411 1.4627252e-05 -0.0059954235 0.0026385728 0.0024186014 -0.00022352957 0.001247065 0.0011233723
6.196161e-05 -0.009713942 -0.00096664845 0.0028268655 0.0024787688 -0.0004052403 -0.00033526396 0.0010869678
0.0002592262 0.0027437923 0.0014818296 0.0035868296 0.0011307207 0.0039479104 0.0014210914 -0.0005312259
-0.0054326244 -2.484612e-05 0.00014063391 0.0070722033 0.0024953 -0.009868888 -0.00028700056 -3.605974e-05
2.8956063e-05 -0.0020566164 -0.0024093895 -0.0040422967 0.00013462511 -0.0005544623 0.00014730265 -9.282146e-05
0.008181694 0.00023098318 0.00023574774 -0.008685808 0.008479097 -0.0002077792
00000000: 92f7 0b3c 4f7e d9ba 1a8f 83b9 7879 b9b9
00000010: c212 46bb 70d1 463b da20 53bc 1d04 e139
00000020: 5ba7 ee3a 28b7 6ebb c4f6 82b8 d26c f4b9
00000030: 67ba 793b f828 aabb f62e cf3b 413e d9ba
00000040: fa25 8f3b 8be5 3abc 5efa be39 9458 383b
00000050: 50b0 b3bb eb55 1ab8 af22 48bb eca1 1f39
00000060: fcbe f9ba 9267 7537 4275 c4bb e8eb 2c3b
00000070: 6681 1e3b 4363 6ab9 8f74 a33a 1f3e 933a
00000080: 63f1 8138 3a27 1fbc ae66 7dba ef42 393b
00000090: d772 223b 6f76 d4b9 5ec6 afb9 9678 8e3a
000000a0: c0e8 8739 32d1 333b f339 c23a 0411 6b3b
000000b0: b134 943a 795d 813b ea43 ba3a f741 0bba
000000c0: 2804 b2bb a36c d0b7 2177 1339 f1bd e73b
000000d0: 3088 233b 1eb1 21bc 9078 96b9 da3e 17b8
000000e0: ace6 f237 4cc8 06bb d9e6 1dbb 3e75 84bb
000000f0: 272a 0d39 5659 11ba 4175 1a39 24a9 c2b8
00000100: 830c 063c 1334 7239 0d33 7739 eb4e 0ebc
00000110: e9eb 0a3c 4edf 59b9

exp_avg_sq f4 [70]
0.00015124927 5.372762e-06 3.0231236e-06 3.8785233e-06 0.00013548316 0.00014699539 0.00036917086 3.255348e-06
9.295328e-05 0.00014262235 4.453412e-06 3.9833412e-06 7.540226e-05 0.0005069366 0.00020861987 3.5183764e-06
0.00011139728 0.00025109874 3.5599253e-06 0.00013762063 0.00015816606 4.4968237e-06 0.00011698203 5.340862e-06
0.00012660031 4.8755924e-06 9.017342e-06 0.00011366508 0.00018116558 4.4268895e-06 3.3021086e-06 0.0001442688
4.753955e-06 0.00019589422 4.0409204e-06 0.0001267513 0.00013644678 3.8753865e-06 3.6809301e-06 0.00015688808
4.2874153e-06 0.0001263481 4.291494e-06 0.00013960086 2.5971199e-06 0.00013525812 5.6094514e-06 3.0522458e-06
9.350879e-05 3.513113e-06 4.109958e-06 0.00019764346 0.00013292731 0.00018655026 4.4767294e-06 3.2526275e-06
4.0775667e-06 0.00014345489 0.000102454185 0.000100109166 3.2971648e-06 4.7073872e-06 5.1871707e-06 3.14884e-06
0.00018242156 4.0171285e-06 4.998533e-06 0.00011277254 0.00023648067 4.102899e-06
00000000: ab98 1e39 ad47 b436 dee0 4a36 4324 8236
00000010: 7c10 0e39 c622 1a39 468d c139 7476 5a36
00000020: eaef c238 e58c 1539 856e 9536 a4a8 8536
00000030: 4821 9e38 f0e3 043a f8c0 5a39 3f1d 6c36
00000040: f69d e938 e7a5 8339 0de7 6e36 424e 1039
00000050: 61d9 2539 6ce3 9636 4054 f538 a835 b336
00000060: 03c0 0439 0599 a336 3049 1737 7a5f ee38
00000070: 44f7 3d39 b18a 9436 cb99 5d36 dc46 1739
00000080: 2a84 9f36 f468 4d39 3e97 8736 8be8 0439
00000090: 2713 0f39 5109 8236 e605 7736 5382 2439
000000a0: 9edc 8f36 4f7c 0439 a7ff 8f36 d261 1239
000000b0: 2e4a 2e36 13d4 0d39 d238 bc36 2fd5 4c36
000000c0: 261a c438 d2c2 6b36 45e8 8936 833e 4f39
000000d0: 6762 0b39 b49c 4339 d036 9636 b747 5a36
000000e0: 08d2 8836 616c 1639 acdc d638 b3f1 d138
000000f0: dc44 5d36 26f4 9d36 750d ae36 a950 5336
00000100: 6a48 3f39 dfca 8636 12b9 a736 4c80 ec38
00000110: ccf7 7739 a2ab 8936

exp_avg f4 [50, 70]
0.0009022513 -0.0004181269 1.9361718e-05 1.0765194e-05 -0.0010670713 0.00088385586 -0.0006835392 4.6935562e-05
0.0004372178 -0.0011690048 3.1802323e-05 0.00026075737 0.0006425441 0.00013513803 -0.0018809439 -0.0005324414
0.0010628399 -0.00033795275 5.1083596e-05 0.0008865911 -0.0008571817 6.0955932e-05 -0.00068652723 1.702096e-05
-0.00047546005 7.191985e-06 -0.00032347243 0.0008612599 0.0010804826 -7.861929e-05 0.0005464271 0.0004961314
1.5184923e-05 -0.0006921888 0.00019799382 0.00068700186 0.0008043434 3.4755714e-05 -3.3581033e-05 0.002057462
5.069248e-05 0.00103284 0.0003334139 1.9974752e-05 0.00020022613 0.00054987636 0.00048604308 -0.0001938118
-0.0005884615 -1.6786864e-05 2.7883367e-05 0.0002963435 0.0010900714 -0.00035181845 -0.0001710815 2.0694742e-05
2.2438371e-05 -0.0011264405 -0.0007182803 -0.00045427136 -3.339842e-05 -0.00013044805 6.7844167e-06 -1.33354915e-05
0.0006039998 5.372385e-05 7.416393e-05 -0.00015058786 0.0005000599 -8.231258e-05 0.00030002173 -0.00026696018
1.7693854e-05 5.266391e-05 -0.00046993737 4.322666e-05 -0.0003116444 0.0001117596 0.00058621727 -0.0001849586
5.104151e-05 0.00033870526 0.0007622505 0.00028343918 -0.002767204 -0.00062752614 0.0006619828 -0.00034055725
-2.0946543e-05 0.00066551234 0.0002493106 1.9082312e-05 -0.0005226073 8.3445164e-05 -0.0010310477 1.384068e-05
0.00020753729 0.0004398721 0.0024120857 -3.00853e-05 0.000530123 -0.00010373866 7.2392027e-06 -0.00020905865
-3.6937152e-05 0.0007249294 0.0005294124 -2.4424392e-07 0.00016222958 0.0026542891 6.232083e-05 0.0007940662
0.0006014331 -0.0019360932 3.6915426e-05 0.00031400597 0.00017907986 -0.00019201978 0.00023022547 9.807868e-06
1.4051904e-05 0.0006191817 0.0007930541 -0.00020147694 -0.00012969672 -1.1961225e-05 4.181753e-05 -0.0006613911
0.00033550814 -3.11171e-05 -4.0348685e-05 -7.4244796e-05 2.3203766e-05 -1.655648e-05 2.8638906e-05 1.0024304e-06
5.0983035e-05 -8.639532e-05 0.00068931136 -1.5437977e-06 -0.0012218702 0.00081343047 2.8184444e-05 9.0107686e-05
0.0017150372 -0.0018165753 0.0018768022 -4.716315e-05 -0.00027672076 0.002004587 -5.325214e-06 -0.00034194742
-0.00063233054 -0.00053873274 0.0029428913 0.0010750933 -0.0016312937 0.0007592148 -7.456392e-05 -0.0018632569
0.0017884225 -0.00018441158 0.00082910666 -2.3677061e-05 -0.00021924362 -4.2339256e-05 0.0011630716 -0.0013535402
-0.0026742995 0.000104567574 -0.0010126354 -0.000992819 -3.0946758e-05 0.0008044064 -0.00029961753 -0.0003119208
-0.0012408865 0.00015870729 6.6805136e-05 -0.0039435057 -0.00016796746 -0.0018316776 -0.00057839026 -0.0014560247
-0.00060487806 -0.00071342394 -0.00096057734 0.00034018187 0.0011846594 9.66392e-05 -6.5732114e-05 -0.00024465693
-0.0019098998 0.0003282526 0.00030523728 -2.9607585e-05 -4.2464613e-05 0.0014865819 0.0015122544 0.0009347678
4.433808e-05 0.00022803899 2.9693703e-05 3.9911323e-05 -0.0007024739 -8.6122076e-05 -0.00019472903 -0.00049142353
-0.00010585104 0.0001199462 0.00031317715 -0.0002940135 2.2565055e-06 1.4255669e-05 -0.0006224168 0.00025087042
-0.0016515254 0.000107768785 0.00049340155 -0.00037132116 4.879514e-05 0.00032067797 0.0008759747 -0.0009433302
-0.0042299516 -0.00068338023 0.0009494133 -3.0528874e-05 -2.3049002e-05 0.0010632676 3.0306095e-05 5.9771835e-05
-0.0005223441 0.00013917196 -0.0007963243 4.360278e-05 0.0001638758 0.00050996937 0.0035463271 -8.9914756e-05
0.00070233276 -5.6850815e-05 1.0453747e-05 -0.0003723076 -1.8036513e-05 0.0006314404 0.0007968124 -0.00011831932
0.00015151426 0.0033037579 9.996316e-05 0.0008766238 0.0007159661 -0.0015792241 0.00015310028 0.00018320268
00000000: 0f85 6c3a 0b38 dbb9 f96a a237 289c 3437
00000010: f9dc 8bba 90b2 673a 8a2f 33ba addc 4438
00000020: 613a e539 4b39 99ba 7c63 0538 43b6 8839
00000030: 6870 283a d7b3 0d39 018a f6ba 8a93 0bba
00000040: fd4e 8b3a 402f b1b9 9842 5638 1f6a 683a
00000050: 7db4 60ba efaa 7f38 10f8 33ba 3cc8 8e37
00000060: 2b47 f9b9 ae52 f136 bc97 a9b9 2cc6 613a
00000070: fb9e 8d3a 69e0 a4b8 1a3e 0f3a d10e 023a
00000080: bfc2 7e37 0174 35ba 909c 4f39 ea17 343a
00000090: 92da 523a aac6 1138 5cd9 0cb8 7cd6 063b
000000a0: a39e 5438 5c60 873a 0ece ae39 748f a737
000000b0: cbf3 5139 9425 103a 99d3 fe39 f539 4bb9
000000c0: fc42 1aba 84d1 8cb7 13e7 e937 8d5e 9b39
000000d0: bae0 8e3a 4674 b8b9 5764 33b9 9f99 ad37
000000e0: 093a bc37 12a5 93ba fa4a 3cba 452b eeb9
000000f0: 4815 0cb8 e2c8 08b9 b2a5 e336 80bb 5fb7
00000100: be55 1e3a 8b55 6138 7588 9b38 1fe7 1db9
00000110: 7416 033a 3b9f acb8 3c4c 9d39 caf6 8bb9
00000120: 436d 9437 71e3 5c38 ed61 f6b9 464e 3538
00000130: 3464 a3b9 7a60 ea38 60ac 193a 72f1 41b9
00000140: 6715 5638 4094 b139 c4d1 473a 909a 9439
00000150: fb59 35bb 9180 24ba ea88 2d3a d28c b2b9
00000160: 5cb6 afb7 c775 2e3a e7b5 8239 f412 a037
00000170: 95ff 08ba 48ff ae38 3824 87ba 4535 6837
00000180: 5e9e 5939 a29e e639 1514 1e3b b15f fcb7
00000190: f4f7 0a3a 458e d9b8 47e8 f236 c136 5bb9
000001a0: f7ec 1ab8 3009 3e3a 44c8 0a3a a120 83b4
000001b0: 2c1c 2a39 95f3 2d3b 3eb2 8238 e128 503a
000001c0: 7ea9 1d3a 82c4 fdba a3d5 1a38 2ba1 a439
000001d0: 62c7 3b39 eb58 49b9 ae68 7139 798c 2437
000001e0: 78c0 6b37 9550 223a f6e4 4f3a 8e43 53b9
000001f0: 33ff 07b9 12ad 48b7 3b65 2f38 3561 2dba
00000200: 24e7 af39 bb83 02b8 123c 29b8 dfb3 9bb8
00000210: b5a5 c237 c5e2 8ab7 953d f037 3f8b 8635
00000220: 9ed6 5538 222f b5b8 e7b2 343a 7c34 cfb5
00000230: 2927 a0ba 653c 553a a26d ec37 32f8 bc38
00000240: 19cb e03a 271a eeba 08ff f53a 0cd1 45b8
00000250: d514 91b9 645f 033b 3daf b2b6 6847 b3b9
00000260: fcc2 25ba be39 0dba 86dd 403b 25ea 8c3a
00000270: 22d1 d5ba 0b06 473a 335f 9cb8 8738 f4ba
00000280: 8069 ea3a 9b5e 41b9 6858 593a 1a9e c6b7
00000290: c3e4 65b9 6e95 31b8 3572 983a 4669 b1ba
000002a0: 4d43 2fbb 4a4b db38 68ba 84ba 7a21 82ba
000002b0: d4cc 01b8 cdde 523a fc15 9db9 4d89 a3b9
000002c0: 3ea5 a2ba aa6a 2639 bc19 8c38 8638 81bb
000002d0: 6c20 30b9 e714 f0ba 1d9f 17ba 15d8 beba
000002e0: ae90 1eba 1205 3bba 41cf 7bba 705a b239
000002f0: 9346 9b3a c7aa ca38 a9d9 89b8 4c45 80b9
00000300: 9a55 faba 5119 ac39 4108 a039 ce5d f8b7
00000310: 081c 32b8 69d9 c23a d636 c63a 350b 753a
00000320: a7f7 3938 c01d 6f39 be16 f937 7566 2738
00000330: 3a26 38ba 709c b4b8 2d30 4cb9 e0d2 00ba
00000340: 58fc ddb8 a08b fb38 ed31 a439 d325 9ab9
00000350: 786e 1736 a22b 6f37 af29 23ba 4287 8339
00000360: ff77 d8ba ed01 e238 9e57 013a e2ad c2b9
00000370: 62a9 4c38 ab20 a839 aba1 653a d149 77ba
00000380: 689b 8abb df24 33ba 0ce2 783a 210c 00b8
00000390: 5b59 c1b7 575d 8b3a d839 fe37 85b3 7a38
000003a0: ebed 08ba b0ee 1139 6bc0 50ba 21e2 3638
000003b0: 13d6 2b39 77af 053a 7f69 683b 9e90 bcb8
000003c0: c11c 383a 1973 6eb8 8062 2f37 4832 c3b9
000003d0: 1e4d 97b7 3f87 253a 2de1 503a 3422 f8b8
000003e0: cddf 1e39 dc83 583b 50a3 d138 3acd 653a
000003f0: acaf 3b3a f8fd ceba 8b89 2039 181a 4039

exp_avg_sq f4 [50, 70]
4.401603e-06 2.4804538e-07 2.272939e-07 2.3689755e-07 5.7441e-06 6.046393e-06 1.3444881e-05 3.2212935e-07
2.149417e-06 6.4205115e-06 4.2158996e-07 3.951201e-07 1.4915104e-06 9.714541e-06 1.2937549e-05 2.5534024e-07
3.7782654e-06 5.8736605e-06 3.138835e-07 4.368257e-06 4.256876e-06 2.5789382e-07 2.598366e-06 2.987008e-07
4.0972236e-06 3.3504168e-07 3.7581725e-07 3.7747575e-06 1.0967272e-05 2.6790912e-07 2.645494e-07 7.296426e-06
1.9471791e-07 5.458462e-06 2.882533e-07 2.6828702e-06 3.5433418e-06 2.3372681e-07 2.0796172e-07 1.18825565e-05
3.0030296e-07 5.0668496e-06 2.4785513e-07 2.3049124e-05 4.4115822e-07 3.699752e-06 3.2365622e-07 2.448231e-07
3.1870543e-06 2.4649475e-07 1.9258167e-07 5.91652e-06 4.541648e-06 4.689435e-06 2.2407697e-07 1.8963075e-07
2.7673846e-07 4.3381374e-06 6.3307366e-06 2.148332e-06 2.1544587e-07 2.5081158e-07 2.3083635e-07 2.100202e-07
4.673652e-06 2.4774133e-07 3.578876e-07 3.4718523e-06 5.3981676e-06 2.4829967e-07 1.4742196e-05 6.5438974e-07
5.887331e-07 7.061623e-07 2.0205403e-05 2.2449203e-05 2.7900658e-05 7.9484084e-07 7.0136516e-06 2.335258e-05
8.8443517e-07 9.322237e-07 4.991191e-06 2.3060602e-05 3.4785473e-05 5.934408e-07 1.2744563e-05 1.0230055e-05
6.2254037e-07 1.4727241e-05 1.580386e-05 6.9743857e-07 8.862272e-06 7.8422516e-07 1.3234411e-05 7.505322e-07
8.247459e-07 1.36265e-05 3.4246088e-05 6.614688e-07 6.2296886e-07 2.637119e-05 6.894257e-07 9.547457e-06
6.7448303e-07 8.582288e-06 1.209837e-05 5.8737146e-07 4.324691e-07 3.4887933e-05 4.5568495e-07 1.7481398e-05
5.997217e-07 4.3806427e-05 6.795444e-07 1.2654336e-05 6.427487e-07 7.476516e-07 1.0930711e-05 7.0011123e-07
6.450863e-07 9.522475e-06 1.533268e-05 8.023875e-06 5.473954e-07 8.7404754e-07 1.0836906e-06 1.5626758e-05
2.1966733e-05 7.18321e-06 5.4025617e-07 6.892608e-07 8.0334826e-07 7.882854e-07 7.6101387e-06 8.255626e-07
9.143793e-07 5.9557865e-06 8.7513545e-06 6.5038734e-07 7.642188e-06 4.7261202e-07 3.984444e-07 4.771334e-07
9.625238e-06 1.0405662e-05 2.4844523e-05 6.1571006e-07 4.042816e-06 1.0829695e-05 6.555707e-07 6.6872724e-07
2.7562346e-06 1.7510993e-05 2.5382371e-05 4.7417026e-07 6.555555e-06 1.0941799e-05 4.951987e-07 7.579592e-06
7.598451e-06 4.852747e-07 4.486198e-06 6.038908e-07 7.4792556e-06 5.2248623e-07 7.3940083e-07 6.5474756e-06
1.9645428e-05 5.230276e-07 4.9179675e-07 1.1887033e-05 3.7127182e-07 9.750374e-06 4.8584786e-07 4.636696e-06
6.248089e-06 4.089351e-07 3.7127305e-07 2.1675338e-05 4.803381e-07 8.956197e-06 4.6826756e-07 4.3088836e-05
6.9654624e-07 6.5340837e-06 5.884874e-07 4.107736e-07 5.3588624e-06 4.922958e-07 3.4035423e-07 1.0093067e-05
8.09586e-06 8.236484e-06 4.2526963e-07 4.839964e-07 6.5672884e-07 7.990923e-06 1.0180854e-05 3.8108142e-06
4.16758e-07 4.0199592e-07 5.486208e-07 5.089681e-07 8.331316e-06 5.2854836e-07 6.086642e-07 5.9932545e-06
9.3548115e-06 4.1433194e-07 1.5595575e-05 7.7221887e-07 6.798045e-07 8.436996e-07 2.134225e-05 2.3118037e-05
3.096948e-05 8.8545653e-07 7.5530393e-06 2.3983917e-05 7.721309e-07 1.054428e-06 5.2470937e-06 2.6058879e-05
3.7458354e-05 6.8571e-07 1.3649684e-05 1.17278305e-05 6.800943e-07 1.5679621e-05 1.6566413e-05 7.8105455e-07
9.395635e-06 7.8766476e-07 1.4046152e-05 8.362332e-07 9.871075e-07 1.3953353e-05 3.7005924e-05 7.694207e-07
6.6657674e-07 2.7651398e-05 7.471655e-07 1.0749702e-05 7.3419096e-07 9.167696e-06 1.2576217e-05 6.5353817e-07
5.233885e-07 3.896635e-05 5.275603e-07 1.8453906e-05 6.7305024e-07 4.9371247e-05 9.4105116e-07 1.3178774e-05
00000000: 7bb1 9336 192b 8534 120e 7434 e75d 7e34
00000010: 71bd c036 1fe2 ca36 5391 6137 1ff1 ac34
00000020: b43e 1036 c66f d736 e256 e234 e520 d434
00000030: e82f c835 a3fb 2237 5a0e 5937 b215 8934
00000040: 1b8e 7d36 5c16 c536 d283 a834 0b93 9236
00000050: 49d6 8e36 a874 8a34 975f 2e36 205d a034
00000060: e27a 8936 c7df b334 eec3 c934 d751 7d36
00000070: 1300 3837 26d5 8f34 6507 8e34 d2d3 f436
00000080: a713 5134 d527 b736 3bc1 9a34 5c0b 3436
00000090: 26ca 6d36 56f6 7a34 154c 5f34 315b 4737
000000a0: 5339 a134 e803 aa36 f310 8534 9e59 c137
000000b0: 53d8 ec34 4149 7836 f9c2 ad34 3b70 8334
000000c0: 2de1 5536 fb55 8434 72c8 4e34 8586 c636
000000d0: 7664 9836 f159 9d36 cf99 7034 4e9d 4b34
000000e0: a592 9434 5190 9136 9d6c d436 102c 1036
000000f0: 4f55 6734 48a7 8634 d0db 7734 ea81 6134
00000100: 5dd2 9c36 4f01 8534 b223 c034 f8fd 6836
00000110: e821 b536 0c4e 8534 4055 7737 52a9 2f35
00000120: 6e09 1e35 1b8f 3d35 c67e a937 4c51 bc37
00000130: 350c ea37 0c5d 5535 cf56 eb36 49e5 c337
00000140: ec69 6d35 ed3d 7a35 017a a736 4472 c137
00000150: 9ee6 1138 f14c 1f35 7bd1 5537 c0a1 2b37
00000160: a61c 2735 0515 7737 8892 8437 9d37 3b35
00000170: 2baf 1437 8b83 5235 5d09 5e37 2e78 4935
00000180: 1b64 5d35 5f9d 6437 75a3 0f38 ca8f 3135
00000190: 183a 2735 b337 dd37 f910 3935 042e 2037
000001a0: 1f0e 3535 a5fc 0f37 1afa 4a37 dcab 1d35
000001b0: 1a2e e834 a254 1238 dda4 f434 04a5 9237
000001c0: 90fc 2035 cbbc 3738 f069 3635 f64d 5437
000001d0: 5b89 2c35 3ab2 4835 0c63 3737 47ef 3b35
000001e0: fe29 2d35 b8c2 1f37 ae9e 8037 489e 0637
000001f0: baf0 1235 17a0 6a35 5373 9135 3516 8337
00000200: 3345 b837 4e07 f136 1f06 1135 a405 3935
00000210: aca5 5735 8f9a 5335 985a ff36 3b9c 5d35
00000220: ab73 7535 d1d7 c736 c8d2 1237 4796 2e35
00000230: f336 0037 4dbb fd34 c8e9 d534 5c14 0035
00000240: 157c 2137 fa93 2e37 3569 d037 4647 2535
00000250: 86a7 8736 30b1 3537 7afa 2f35 9682 3335
00000260: c0f7 3836 92e4 9237 3aec d437 7791 fe34
00000270: caf7 db36 ab92 3737 cced 0435 3354 fe36
00000280: 32f6 fe36 d343 0235 2688 9636 0f1b 2235
00000290: 51f6 fa36 fb40 0c35 3d7b 4635 63b2 db36
000002a0: 3ccc a437 2f66 0c35 0404 0435 6b6e 4737
000002b0: 3653 c734 8a95 2337 366b 0235 ea94 9b36
000002c0: ada6 d136 9d8b db34 6153 c734 6fd3 b537
000002d0: 95f0 0035 9342 1637 3466 fb34 49ba 3438
000002e0: 4bfa 3a35 5a3f db36 8cf8 1d35 4b88 dc34
000002f0: 47d0 b336 4f26 0435 eeb9 b634 6555 2937
00000300: 74d3 0737 6e2f 0a37 9d50 e434 fbeb 0135
00000310: 104a 3035 c110 0637 6fce 2a37 4abd 7f36
00000320: c9be df34 e6d1 d734 ef44 1335 06a0 0835
00000330: bbc6 0b37 91e1 0d35 1663 2335 aa19 c936
00000340: 9cf2 1c37 5971 de34 3ed3 8237 7a4a 4f35
00000350: cf7b 3635 987a 6235 2208 b337 9bed c137
00000360: 3ae5 0138 1cb0 6d35 1d70 fd36 1231 c937
00000370: 6e44 4f35 df85 8d35 3110 b036 0499 da37
00000380: 9a1c 1d38 a211 3835 f200 6537 a6c2 4437
00000390: b98f 3635 bb87 8337 1af8 8a37 a9a9 5135
000003a0: f2a1 1d37 e96f 5335 c3a7 6b37 8279 6035
000003b0: c17c 8435 3219 6a37 cf36 1b38 308a 4e35
000003c0: ceee 3235 edf4 e737 d290 4835 9e59 3437
000003d0: 3815 4535 f4ce 1937 71fe 5237 cd6e 2f35
000003e0: fc7e 0c35 cd6f 2338 ab9d 0d35 76cd 9a37
000003f0: a9ab 3435 f913 4f38 8b9c 7c35 671a 5d37
