models/training_new_loss_pico_soustraction/model_1/space_buffer_8_date_buffer_1/train_pfts_3/MLP.pth (torch, 56798 bytes, 18 tensors)

layers.0.weight f4 [70, 6]
000000 56 2f 21 3f b8 4d 00 40 c1 ce 66 40 22 9a c5 c0
       0.62962854 2.0047436 3.6063693 -6.175065
000010 2c 0f 07 40 12 97 ad 3f e9 ba 8a 40 51 09 5d 3f
       2.110301 1.3561728 4.335316 0.8634234
000020 30 6f c8 bf 25 6e 88 c0 cf 99 e0 be a4 ac 8a 40
       -1.5658932 -4.2634454 -0.43867347 4.3335743
000030 a3 33 9c bf 98 4c 6f 3f 08 77 3e 40 f3 ea 46 40
       -1.2203258 0.9347625 2.976015 3.1080902
000040 af 8e 72 3e 9a 05 82 3f cd fb 1a c0 84 1e 30 3e
       0.23687242 1.015796 -2.4216187 0.17199141
000050 c3 ee 11 c0 b2 0f b6 40 a7 4c c6 c0 e6 28 bc 3f
       -2.2801979 5.689416 -6.196857 1.4699981
000060 26 ab 61 40 17 5d 43 c0 79 82 cc be b6 e6 18 3e
       3.526071 -3.0525568 -0.39943293 0.14931759
000070 85 f3 c2 be 96 cd 07 be 2e 9b a9 3f 85 58 47 bf
       -0.38076416 -0.13262019 1.3250482 -0.77869445
000080 8b 69 ce c0 00 c1 9d 40 3b fb cd bf 0e ea 43 c0
       -6.4503837 4.9298096 -1.6092294 -3.0611606
000090 3f 4e 37 c0 72 ef c9 3f e5 95 81 bf db 7e 84 3f
       -2.8641508 1.5776198 -1.0123869 1.0351213
0000a0 03 a0 2e 3d 92 af d9 bf 72 fa c0 bf 9f ed 80 40
       0.042633068 -1.7006705 -1.507643 4.0290065
0000b0 80 2f a1 c0 7e ab 35 40 14 b3 91 bf af dd 7c be
       -5.0370483 2.838592 -1.1382775 -0.2469394
0000c0 08 6d 08 40 3d 27 33 c0 0b b8 4a 40 78 91 36 be
       2.1316547 -2.79927 3.167483 -0.1782893
0000d0 25 bc 6a bf a3 32 a3 40 3f 13 f0 40 8e 5f 2e 40
       -0.91693336 5.0999312 7.5023494 2.7245822
0000e0 37 f6 83 3f f9 cd 31 c0 70 5b 47 40 38 32 96 40
       1.0309514 -2.7781966 3.114956 4.69363
0000f0 d6 04 b5 bf 25 cf 50 bf 59 9f 67 c0 dc 23 b9 40
       -1.4142101 -0.8156608 -3.6191008 5.7856274
000100 0e 1d e9 3f 7c 5d 88 3e 54 f5 8a c0 62 66 58 3f
       1.8211992 0.26633823 -4.3424473 0.84531224
000110 d3 34 2e c1 a8 40 3b c1 05 4f 20 c0 bb 66 4c 40
       -10.887897 -11.703285 -2.504823 3.1937702
000120 f3 17 57 c0 0b 98 cb 3f 53 ae 22 3f c9 d4 77 3f
       -3.3608367 1.5905775 0.6354725 0.9680906
000130 99 cb 05 3e 00 10 ac bf 26 e3 82 c0 a6 aa e0 be
       0.13065948 -1.3442383 -4.090228 -0.43880194
000140 ff f6 14 40 3e 42 ce 3f 93 cb 79 40 e6 31 8f c0
       2.3275754 1.6113966 3.9030502 -4.474841
000150 05 76 80 40 97 77 3b c0 55 96 5e bf a5 9f 6a 3d
       4.0144067 -2.9291742 -0.8694814 0.057281155
000160 74 51 16 3f e6 12 83 be 64 1b 51 c0 1b 73 4a 40
       0.5871804 -0.25600356 -3.2672968 3.1632755
000170 81 50 1b bf 7d 49 3c 3f e3 e6 a3 bf 68 44 35 3f
       -0.60669714 0.73549634 -1.2804836 0.70807505
000180 22 33 e4 bf 90 49 38 3e ee 92 4e bf c3 0d 50 be
       -1.7828104 0.17996812 -0.80692947 -0.2031775
000190 aa 84 cd 40 9a f7 11 c0 b4 14 85 bf 08 dc 86 40
       6.4224443 -2.2807374 -1.0396943 4.2143593
0001a0 de 44 83 c0 2a cb ae be 4d 34 ca 3f 9f f7 db be
       -4.1021566 -0.34139377 1.5797211 -0.42962357
0001b0 64 f1 05 3f a5 7d 55 40 c1 75 50 3f 0b dd 27 3f
       0.5232146 3.3357937 0.8142968 0.6557166
0001c0 bb 7f 87 c0 eb 87 01 40 9e c6 af 3d be 98 2c c0
       -4.234342 2.0239208 0.08582805 -2.6968226
0001d0 33 76 c7 3e aa 8c 8c 3e 9a ed 5b 40 72 87 a9 c0
       0.38957366 0.27451068 3.436377 -5.297784
0001e0 0c f9 a5 bf 60 54 a6 c0 73 6f 0e 40 99 e3 8c 3f
       -1.2966628 -5.1977997 2.2255523 1.1006957
0001f0 48 2c 94 3f d3 13 93 3f 75 13 b3 bf c7 64 28 c0
       1.1576014 1.1490425 -1.3990313 -2.631151
000200 f3 e1 75 40 da e1 85 be e2 65 de bf 04 04 f2 3f
       3.8419158 -0.26148874 -1.7374842 1.8907475
000210 93 f2 b9 bf 62 6e 26 40 96 b9 b0 be 70 2d 85 be
       -1.4527153 2.6004872 -0.3451659 -0.2601123
000220 94 b6 dc 3f bd 6f 3b c0 a3 41 5f 40 72 5a 10 3e
       1.7243218 -2.928695 3.4883811 0.14097002
000230 5d 9e 4e c0 19 2b 8e be c9 e8 98 bf 6a 6f a1 40
       -3.2284157 -0.27767256 -1.194604 5.0448503
000240 32 9d 2e be 31 b0 2e c0 e8 ee 81 40 cf 25 2a c0
       -0.17052153 -2.7295039 4.0604134 -2.6585577
000250 3b 7d dd 3f c5 94 61 bf 40 f9 60 bd 1e 89 0d c0
       1.7303842 -0.8811763 -0.054925203 -2.211494
000260 ae de 99 40 7f 21 11 c0 e7 1a bc 3e 4e 6d b0 bf
       4.8084326 -2.2676694 0.36739275 -1.3783357
000270 68 83 85 40 22 d0 76 c0 bd e3 6a bf b2 56 89 3f
       4.172291 -3.8564534 -0.9175375 1.0729582
000280 79 56 75 be b2 f7 1c be d6 29 dc be c7 52 38 40
       -0.23958768 -0.15328863 -0.43000668 2.8800523
000290 b9 e9 6d c0 a9 a3 0e 40 8d b3 22 bf a0 c1 1e be
       -3.7173903 2.228739 -0.6355522 -0.1550355
0002a0 f3 93 0c c0 e6 4b 19 40 fe 9e a5 be 3c f1 86 c0
       -2.19653 2.3952575 -0.32347864 -4.2169476
0002b0 dd e0 62 40 1b 30 75 bf ad 19 a0 40 35 9a 2d 40
       3.5449746 -0.9577653 5.0031343 2.712537
0002c0 64 8f 34 c0 4f 29 94 c0 80 65 d5 3f aa e1 a2 40
       -2.8212519 -4.6300426 1.66716 5.090047
0002d0 fd 8c b8 bf ba 70 00 40 45 ae d0 c0 f0 30 38 40
       -1.4418026 2.0068803 -6.521273 2.877987
0002e0 f4 7c 98 be b5 7e 15 bf ff df b6 40 a9 45 17 3e
       -0.29782832 -0.58396465 5.7148433 0.14772667
0002f0 1f 55 73 3f 1d fa d3 c0 d3 71 3f 40 bb 06 bf 3f
       0.9505176 -6.6242814 2.9913223 1.4923929
000300 8e 95 23 c0 7e bb a5 40 49 c3 99 bf 3b ae b4 bf
       -2.556003 5.179137 -1.2012721 -1.4115671
000310 a0 86 cb 3f 2e c5 a2 3d 54 05 2b 40 4c ad 5e c0
       1.5900459 0.07947765 2.6722002 -3.4793272
000320 fb a0 ef 3f 7f 4a 22 bf b5 22 40 3e bf 52 1a 3f
       1.8721002 -0.6339492 0.1876324 0.6028251
000330 c8 a0 4a bf b3 58 5e 3e b6 d1 fc 3e 0a 77 32 bf
       -0.7915158 0.21713524 0.49378747 -0.6971289
000340 e5 af 37 3e b2 61 00 bd 50 a3 5f bf b7 44 53 40
       0.17938192 -0.03134317 -0.8735857 3.301069
000350 1c f4 40 c0 ce dd cb 3f 91 0d 13 be dd 84 1e 3e
       -3.0148993 1.5927064 -0.14360644 0.15480371
000360 19 1d d4 3f af 2b 5b 40 51 81 1a c0 b6 77 2b c1
       1.657138 3.4245412 -2.4141428 -10.716726
000370 51 39 a6 40 27 ea d8 3f 92 48 1e 40 d1 14 8b c0
       5.1944966 1.6946458 2.4731793 -4.346291
000380 99 8e b6 3f 35 05 05 bd 91 3f b5 3e 98 f0 2b bf
       1.4262267 -0.03247567 0.3540006 -0.6716399
000390 76 c5 24 c0 00 dd be bf c5 e7 1f bf 8e ba 27 40
       -2.574552 -1.4911194 -0.6246303 2.6207614
0003a0 ad be 8e 40 a0 52 b0 c0 0c 08 55 40 30 0c f4 bf
       4.460776 -5.510086 3.3286161 -1.9066219
0003b0 b9 6c 88 bf 9b ef d3 be 33 70 2a be b3 3f 02 3f
       -1.065818 -0.41393742 -0.16644363 0.5087845
0003c0 99 4c d8 3f 08 d1 78 c0 fe c8 12 40 cd b7 b6 be
       1.6898376 -3.8877583 2.2935176 -0.35687104
0003d0 b5 30 81 3c c4 3d 3e be 04 5f 3e 40 ef 67 22 bf
       0.015770296 -0.18578249 2.9745493 -0.6343984
0003e0 05 e4 69 c0 95 05 18 40 68 07 4a be 15 ed 52 bf
       -3.6545422 2.3753407 -0.19729388 -0.8239301
0003f0 85 92 08 bf d3 26 42 bf 5c 6e 5d bf 97 2f aa 3f
       -0.5334857 -0.7584049 -0.8649652 1.3295773

layers.0.bias f4 [70]
000000 7c 09 86 3f c7 e1 0c bf 7c 20 14 c0 38 22 6f 3f
       1.0471644 -0.5503201 -2.3144827 0.9341159
000010 69 c1 3a 3e 51 ff 18 3f ff 71 56 3f 55 f0 5d be
       0.18237843 0.5976458 0.83767694 -0.2167371
000020 19 13 d7 bf 1c c3 84 40 6b 16 57 40 98 e4 90 40
       -1.6802703 4.148817 3.3607433 4.5279045
000030 97 2d b9 3e 6d a3 b3 3f 67 ee 48 be c6 b3 e6 bb
       0.36167595 1.4034249 -0.19622193 -0.0070404736
000040 c3 8d 7f c0 f1 cb 3f bd 48 6f b6 40 16 d1 21 3f
       -3.9930274 -0.046825353 5.701084 0.63209665
000050 db 7b a3 c0 19 85 b4 bf 9d a7 6f 40 98 6f 70 be
       -5.108869 -1.4103118 3.7446053 -0.2348007
000060 64 8b 0b 3e 88 25 c6 bf ba e3 4a bd bd 64 31 be
       0.13627392 -1.5480204 -0.049533583 -0.17323585
000070 08 b9 58 40 5f d1 ed bf 28 81 20 c0 99 1b 53 be
       3.3862934 -1.857952 -2.507883 -0.20615996
000080 62 97 7e 3d 96 d3 13 bf e2 c0 a3 bd 77 9e d2 bd
       0.06215609 -0.5774473 -0.07995774 -0.10284131
000090 ba 78 1a 40 af 5a 96 be a2 3f f8 bf 90 4d e3 bc
       2.4136186 -0.2936606 -1.9394419 -0.027746946
0000a0 bc 3f 5a be 64 db b6 3d 39 0c 89 40 c3 99 04 c0
       -0.21313375 0.08928564 4.282742 -2.0718849
0000b0 e6 de a1 3f 5c bf 03 bf fe cf 70 bf 55 8a 76 bf
       1.2646148 -0.51463866 -0.9406737 -0.9630483
0000c0 99 96 91 c0 80 01 c5 be e4 51 f9 bd 6a f0 41 be
       -4.5496335 -0.38477707 -0.121738225 -0.18939367
0000d0 86 61 b3 c0 58 62 60 c0 a3 59 65 3d 7c 9b 7e c0
       -5.6056547 -3.5060024 0.055993687 -3.97824
0000e0 c8 6f 85 be 06 42 6e 3e 83 a6 5f 3f c8 98 9f 3f
       -0.26061845 0.23267373 0.8736345 1.24685
0000f0 bd ec 16 3f d8 88 f1 bd 21 e6 63 40 51 3b 78 bd
       0.58954984 -0.11793679 3.560921 -0.060603444
000100 9a fc 30 bd 87 22 6f bc 8f 43 81 3e 9e 20 14 40
       -0.04320965 -0.014595634 0.25246856 2.3144908
000110 4b 1a a6 be 0d 7d 40 bf
       -0.32441935 -0.7519081

layers.1.weight f4 [50, 70]
000000 36 01 e9 bf 0f 9f 6f bf 0f 5d 72 3f 99 55 04 bf
       -1.8203495 -0.9360208 0.94673246 -0.5169311
000010 f3 3d d1 3f 64 32 05 3f 4b 81 f2 bf 56 47 6d be
       1.634703 0.52030015 -1.8945707 -0.23171744
000020 82 5a f7 3e 42 df 22 40 f2 33 96 bf c6 ea 7c 3f
       0.4831124 2.5448766 -1.1734602 0.98795736
000030 37 e6 4f bf ae 94 97 bf d1 4e 31 40 66 5a 24 c0
       -0.81210655 -1.1842248 2.7704356 -2.5680175
000040 9a 52 0a 40 92 81 58 bf f3 38 7f c0 4d 81 a0 3f
       2.1612916 -0.8457271 -3.987851 1.253946
000050 5f 8f 5d 40 74 89 34 bf 74 d1 b1 3e 08 c3 d9 3d
       3.4618757 -0.70522237 0.34730113 0.106329024
000060 bd 63 82 3e d4 a8 f1 3e 22 be 6e 40 48 47 8f be
       0.2546672 0.47199118 3.7303548 -0.2798407
000070 1d 94 60 bf ba 15 3b c0 e6 c2 51 be 3f de 14 be
       -0.87726 -2.923201 -0.20484504 -0.14537905
000080 e0 f4 49 c0 42 2b 7e 40 76 bc 29 be 75 2e 18 3f
       -3.155571 3.9713902 -0.16575798 0.5944589
000090 98 1b 9f bf 3d 69 38 40 47 91 a4 3e 79 4a 9a 3f
       -1.2430296 2.8814232 0.32142088 1.2053977
0000a0 4a b3 26 40 d9 60 01 3f ac c0 f6 bf 5b 13 b4 3f
       2.604693 0.505384 -1.9277549 1.4068407
0000b0 1a 9b 55 bf 3a 88 bd 3e d8 63 f4 bc bf 03 64 3f
       -0.8343979 0.37017995 -0.029832765 0.89068216
0000c0 03 3c 96 3e 47 ab c9 3f 20 06 87 3f c6 64 c5 3e
       0.2934266 1.5755395 1.0548744 0.38553447
0000d0 21 78 0b 40 9b 11 cb 3d 0c 35 ff be 5b 49 c0 be
       2.179207 0.09915467 -0.4984516 -0.37555966
0000e0 d2 5e ee 3f 89 11 cf 3e d8 18 05 bf 96 42 aa bf
       1.8622687 0.40443066 -0.51991034 -1.330157
0000f0 fe 5f 33 bf 10 b0 30 40 62 1a 4b 40 48 be 00 be
       -0.7006835 2.760746 3.1734853 -0.12572587
000100 f9 23 ac 3f 5a 58 f0 bf 53 3b 05 3f 20 ef 0b c0
       1.3448478 -1.8776963 0.52043647 -2.18647
000110 99 bf db 3e a6 d2 c4 be 51 c7 f1 be 4f f9 29 40
       0.42919615 -0.38441962 -0.4722238 2.6558416
000120 45 10 40 bd a2 b1 29 c0 7a 6f 86 3f 6b 46 82 bf
       -0.046890516 -2.6514668 1.050277 -1.017774
000130 7a 25 8f bf d0 ba 23 40 87 2c e1 3e 8f ca e3 3f
       -1.1183312 2.5582771 0.43979284 1.7796191
000140 f4 2b bc bf e5 23 fc be a7 ec 81 bf fd e6 ff bf
       -1.4700913 -0.49246135 -1.0150346 -1.9992367
000150 0c 6f 4e bf 97 26 5b 40 78 f2 92 3f 80 54 c7 3d
       -0.80638194 3.4242303 1.1480246 0.09732914
000160 78 f8 20 bf 14 4a 75 c0 6b f9 06 3f d2 8b 90 be
       -0.62879133 -3.8326464 0.5272433 -0.28231674
000170 ca 73 8e bf 50 52 c6 be 88 14 b2 3f 10 61 bf 3f
       -1.1129086 -0.38734674 1.3912516 1.4951496
000180 76 e6 07 c0 d6 37 fd be 85 0f bc 3f 0a 1a 91 3f
       -2.1234412 -0.49456662 1.4692236 1.1336071
000190 bd bb 98 be f5 c8 10 bf c1 d7 45 40 8f 02 cc bf
       -0.29830733 -0.56556636 3.0912936 -1.5938281
0001a0 76 a3 b6 bc 87 40 45 3f d4 cc 8b 3f 13 c0 52 c0
       -0.022294741 0.77051586 1.0921884 -3.2929733
0001b0 95 3b 95 be 94 d6 81 3f 73 dc 37 c0 17 8c 2f be
       -0.2914702 1.0143609 -2.8728302 -0.17143284
0001c0 73 2a 98 be 98 2f c7 bf 88 43 82 3f 14 66 58 bf
       -0.29719886 -1.55614 1.0176859 -0.8453076
0001d0 92 58 f4 bf a5 d7 b8 3f d2 37 9d 3f 7d 8b 3a 40
       -1.908953 1.444081 1.228266 2.9147637
0001e0 b0 37 10 3f 49 6c 0f be 03 f9 5e 3f 90 35 67 bf
       0.5633497 -0.14006151 0.8709871 -0.90316105
0001f0 dc 20 90 be 42 64 88 3f 53 0d bb 3f 9d 25 6c 3e
       -0.2815007 1.0655596 1.4613441 0.23061223
000200 75 ee 8a c0 16 90 d8 3e 00 81 ca bf d9 39 15 c0
       -4.3416085 0.4229743 -1.5820618 -2.3316557
000210 48 4d b6 bc 61 70 2f 3f c4 32 b8 3f 88 f9 c1 3f
       -0.022253647 0.6853085 1.4390492 1.5154276
000220 95 90 4d c0 eb 0e e6 bd 29 a7 6b 3e ae 46 2f 40
       -3.2119496 -0.11233314 0.23012985 2.738689
000230 31 2b 0b 40 13 a4 50 3f 39 9b 2e bf eb b6 95 bf
       2.1745112 0.8150036 -0.682056 -1.1696447
000240 df 62 6c 3f c5 b9 50 3f a6 75 f3 3f 41 7c 0d 40
       0.92338365 0.8153346 1.9020278 2.2107089
000250 c9 7e 87 c0 38 32 24 c0 f3 1a 69 bf 4a 5a 29 3e
       -4.2342267 -2.565565 -0.91056746 0.16538349
000260 db c9 87 3d e4 6c f7 3e 8c 01 90 bf 55 3e 98 be
       0.06630298 0.48325264 -1.1250472 -0.29735056
000270 a7 ea 64 3e 84 8f 67 3f f5 0e 0f bf dc 30 3e 40
       0.22355138 0.9045336 -0.558822 2.9717321
000280 17 dd c7 bf ec 99 80 c0 dd 99 92 3f 55 c5 9e 3f
       -1.5614346 -4.0187893 1.1453205 1.2403971
000290 2c ab b2 3e 31 85 0d bf e9 34 89 bf e4 d4 f5 be
       0.3489622 -0.5528136 -1.0719272 -0.48013985
0002a0 14 28 ff 3e 0b 1c a6 3e c0 32 b4 bf 4d 89 4a 40
       0.49835265 0.3244327 -1.4077988 3.1646302
0002b0 2d 21 eb 3f a9 a8 77 c0 16 a1 4e 3f ae 1f 5e bf
       1.83695 -3.8696692 0.8071455 -0.8676709
0002c0 19 5c e3 3e 7e fe 09 c0 f9 a9 a2 3e e6 78 82 3f
       0.44406202 -2.156158 0.31770304 1.0193145
0002d0 65 2d 6b c0 f1 e3 59 3f 79 e8 bc 3f 49 ec 04 c0
       -3.6746457 0.85113436 1.4758445 -2.0769217
0002e0 1a f6 0a 40 81 29 eb bf f7 41 75 3e da 9c 3b bf
       2.1712708 -1.8372041 0.23950945 -0.7328621
0002f0 fc 3b e0 3d f7 d2 57 bf c7 77 e4 3d 1f df e3 3e
       0.10948941 -0.8430628 0.11155658 0.44506165
000300 01 8c 39 3f ea 29 98 bf 88 5d 73 3f 28 c0 5c bf
       0.72479254 -1.1887791 0.9506459 -0.8623071
000310 83 ae f1 bf e9 00 93 3d 90 e6 4b bf c1 4e ba 3f
       -1.8881382 0.07177908 -0.79648685 1.4555284
000320 f4 cf 71 c0 95 d5 8b 3f ad 37 01 c0 56 b9 a4 be
       -3.7783175 1.0924555 -2.0190232 -0.3217265
000330 f5 4e 1f c0 70 9a 71 3f 70 d3 cb bf 0c 99 0c 40
       -2.4891942 0.9437628 -1.5923901 2.1968412
000340 d8 f6 4d 3e f3 f6 e8 bf 61 8e 82 3f ac a6 ac be
       0.20113695 -1.8200363 1.01997 -0.3372091
000350 d1 8f 0d 40 55 f6 e6 3f 88 bf 58 bf 47 4b a6 be
       2.2119029 1.8043925 -0.84667253 -0.32479307
000360 fb e7 09 3f 12 77 b3 bf 5c 61 10 c0 32 6b 52 be
       0.538696 -1.4020712 -2.2559423 -0.20548704
000370 89 68 91 3f 7b 8f 9e c0 ed f7 ad 3d ae 63 8c 3e
       1.1360027 -4.9550147 0.08494554 0.274198
000380 2f b8 e4 bf 07 f7 ae bd f0 dc eb 3e 26 c7 f9 3d
       -1.7868708 -0.085432105 0.46067 0.12196188
000390 ec df 96 3f 89 2c ba bf d6 b8 4f bf 84 08 8e 3e
       1.1787086 -1.4544841 -0.8114141 0.27740872
0003a0 02 95 07 bf a4 db a9 bf be 0c ca 3f eb 32 bb bf
       -0.5296174 -1.3270154 1.5785139 -1.4624914
0003b0 6a 80 df bf ef 5b 0d c0 9b a1 8f 3f 6d dd 29 c0
       -1.7461064 -2.2087362 1.1221193 -2.6541398
0003c0 32 81 65 bf 64 36 62 3d be 75 c7 3f e0 a4 3f bf
       -0.8965026 0.055227652 1.5582807 -0.74860954
0003d0 5f a9 e3 3f 9c 38 84 bf a6 41 0b c0 bc 19 0a 3f
       1.7786063 -1.0329776 -2.1758819 0.5394552
0003e0 fe cd 8e bf e2 f6 27 bf ec f3 e7 3f 3c 5d 21 c0
       -1.1156614 -0.6561109 1.8121314 -2.5213156
0003f0 39 25 81 be 44 29 47 c0 b0 1c ee bf 64 a8 61 bf
       -0.2522371 -3.1118937 -1.8602505 -0.8814757

layers.1.bias f4 [50]
000000 31 47 cf c0 48 97 af be 76 6c 6d 40 4a df bf bf
       -6.4774404 -0.34295106 3.709745 -1.4990017
000010 6c ec 1a c0 3f 49 21 c0 5b 83 95 c0 ee ad 39 c0
       -2.42068 -2.5200956 -4.6722846 -2.9012408
000020 ba 95 c9 c0 b1 e0 73 c0 fd 89 84 bf e0 30 0a 40
       -6.299527 -3.810589 -1.0354611 2.159233
000030 ae d6 57 c0 38 76 9e c0 2a ba 88 3f 4a 68 22 3f
       -3.372478 -4.951931 1.0681813 0.6344038
000040 58 be 9c c0 f3 7b 8c 3f cb 29 be 40 e7 1a 26 40
       -4.8982353 1.0975326 5.9426017 2.595392
000050 b5 c1 99 c0 4b 5b a7 3f 3e b8 e1 3f fa 2a 33 40
       -4.804896 1.3074735 1.7634351 2.799498
000060 1a 4a 02 be c3 26 1a c0 83 70 be 3d 84 e8 0a c0
       -0.1272358 -2.4086158 0.09298804 -2.1704416
000070 38 3c 88 40 4d ce 50 40 70 ef ac bf 75 2f c7 bf
       4.257351 3.2625916 -1.351057 -1.5561358
000080 51 34 e4 3e 68 1e ce 3f f9 8c 64 bf 25 22 4a 40
       0.44571164 1.6103029 -0.8927761 3.158334
000090 b2 dd 83 bf 5d dc 4d 40 88 9d 65 40 eb 83 3c c0
       -1.0302031 3.216575 3.58774 -2.9455516
0000a0 df 9d b8 be 28 86 10 3f d4 b1 e1 bf 8e 8f 38 c0
       -0.36057946 0.56454706 -1.7632394 -2.883762
0000b0 ec 00 c1 c0 e7 0a 8d 3f 0c 57 81 bf 72 63 45 c0
       -6.0313625 1.1018952 -1.010469 -3.0841947
0000c0 3b d4 11 40 da 81 cb c0
       2.2785785 -6.359601

output.weight f4 [2, 50]
000000 64 96 b8 3d 29 7d bd bd 87 07 6e bd ba ed 0b 3d
       0.0901306 -0.09252388 -0.058112647 0.03416226
000010 d0 1b b5 3c 6b b1 46 3d 9e bf 06 3d 77 2f 8c 3d
       0.022107989 0.048509043 0.032897584 0.06844991
000020 fb 41 ab 3d a4 23 a2 bd 71 20 e9 bd ca f3 84 3d
       0.08362194 -0.07916954 -0.11383141 0.064918116
000030 de 55 81 3d 94 4b a5 3d 19 3e 2b bb 61 70 4a 3d
       0.06315206 0.08071056 -0.0026129542 0.04942358
000040 2a 2c 03 3b 40 2a 54 3c c9 80 ce bc e9 eb a5 3c
       0.0020015338 0.012949526 -0.025207894 0.020254092
000050 64 b9 ff 3c 83 b5 55 3d 8a ec b9 bd e5 6a ae ba
       0.03121633 0.052175056 -0.09078319 -0.0013307004
000060 fd a3 a1 3b d5 2f 5a 3d f2 ae 60 3d f8 6c 0b bd
       0.004932879 0.053268272 0.05485434 -0.034039468
000070 a3 76 cd bc 65 14 fd 3c e8 3d a6 3d 93 36 60 3d
       -0.025080984 0.030893514 0.081172764 0.054739546
000080 a6 18 57 bc 89 5e 80 bd 42 b5 3d 3d 77 0c 5b 3d
       -0.013128435 -0.06268031 0.04631544 0.053478684
000090 7f c1 ab bb 6f 4a 7b bd f5 3f 4a bd bf 97 7a 3d
       -0.0052415724 -0.061350282 -0.0493774 0.061179873
0000a0 9e c2 91 bd 97 c0 ca bd 0d c9 0f bd e8 dc 9f 3d
       -0.071171984 -0.09900015 -0.035103846 0.078058064
0000b0 ee 6a f6 3c cc 65 72 bd b1 84 43 bd 2d 1b 28 bd
       0.030080285 -0.059179112 -0.047733966 -0.04104154
0000c0 50 80 19 3d 48 dd 17 3d 60 a3 8d 3d e6 8a 9f 3c
       0.037475884 0.037076265 0.06915927 0.019475412
0000d0 27 45 91 bd 62 c4 49 3d de 9a 63 bd 59 e1 21 3c
       -0.07093268 0.04925955 -0.055567615 0.009880387
0000e0 02 79 5e 3d 0d dc 9a 3c b6 d1 19 3d cb ec 5b 3d
       0.05431462 0.018903757 0.03755351 0.05369262
0000f0 60 59 47 bc 54 a0 aa bd 6d 4e 37 3d 06 19 ab 3d
       -0.012167305 -0.083313614 0.044752527 0.08354382
000100 e7 f2 a4 3d 92 da 8b 3d e2 78 c4 bd 54 37 3c bd
       0.080541424 0.06828798 -0.09593369 -0.045951203
000110 be 28 ee bc a0 6d 43 3d 9d cb f5 3c a6 5e a4 bd
       -0.029072162 0.04771197 0.030004317 -0.08025865
000120 99 48 2d bd bf 58 64 bd 07 36 f1 3c a5 c8 08 3d
       -0.042305563 -0.055748697 0.029444708 0.033394475
000130 da 5f de bb fa f2 8a bd 8b e7 c3 bc d4 70 91 bd
       -0.0067863287 -0.06784625 -0.02391412 -0.071015984
000140 5a c7 06 bd 27 a6 68 bc 81 c8 24 bd 0b 7b 17 bd
       -0.03290496 -0.01419977 -0.040230278 -0.036982577
000150 1f 0a 0b 3d 4c 2e 3b 3d 7d b1 52 3d 87 2f ca bb
       0.0339452 0.04569845 0.051438797 -0.0061702165
000160 5d 30 8d 3c 7d 5e b3 bc e8 5b 8c bc 38 71 f1 3c
       0.017234975 -0.021895641 -0.017133668 0.029472932
000170 cc 67 69 3b 90 b7 d6 3b 18 b2 fb 3c f7 70 18 bd
       0.0035614846 0.006552644 0.03072457 -0.037217107
000180 49 13 a2 bd 91 af 93 bc 81 2e 00 3d 2c e2 8e 3d
       -0.079138346 -0.018028053 0.03129435 0.069767326

output.bias f4 [2]
000000 8b 04 1b 3f f6 33 d2 3e
       0.6055381 0.41055268

exp_avg f4 [70, 6]
000000 b7 2b b7 3a bc 3e c7 3a 5c 12 e4 3a f0 68 e9 3a
       0.001397482 0.0015201191 0.0017400491 0.0017807763
000010 03 c1 2b 3a 14 12 b8 b9 6b dd 5c b9 97 a8 8d b9
       0.00065518933 -0.00035108684 -0.0002106332 -0.00027019225
000020 44 f1 9a b8 93 66 f4 39 84 42 82 3a b4 e6 56 3a
       -7.3882315e-05 0.0004661573 0.0009938036 0.00081978296
000030 79 22 8f 39 51 e0 93 39 84 bd 6a 39 1a 99 9c 38
       0.0002730077 0.00028205154 0.00022386579 7.467177e-05
000040 bf 69 13 b9 dd d4 a5 b9 d3 1d dd 39 60 13 b7 39
       -0.00014058406 -0.00031629848 0.00042174626 0.00034918915
000050 74 c9 ff 39 d2 9d d2 39 87 76 b5 38 53 0d 68 39
       0.00048787484 0.00040171907 8.65283e-05 0.00022130208
000060 40 da 8f b9 84 51 cd b8 0f 65 61 b9 13 df 50 ba
       -0.00027437694 -9.790345e-05 -0.0002149532 -0.0007967811
000070 20 bb 04 b9 f4 ce 94 38 f7 36 b0 ba eb 07 b7 ba
       -0.0001265821 7.095738e-05 -0.0013444115 -0.0013964152
000080 13 97 6b ba e6 0d 9c 3a 90 40 36 3b bd 06 27 3b
       -0.00089870504 0.0011905998 0.0027809478 0.0025486194
000090 8c 38 9f 38 59 92 fe 37 a8 40 94 38 31 3a 44 39
       7.5922435e-05 3.0347308e-05 7.069233e-05 0.00018713695
0000a0 20 ab c4 b7 1a 4e 1f 39 79 0f 1e bb c9 51 2c bb
       -2.3444707e-05 0.00015192517 -0.002411811 -0.0026293865
0000b0 2f 5a 1a bb 25 96 c3 38 38 8c 70 3b e3 8f 71 3b
       -0.0023552289 9.326291e-05 0.003670467 0.0036859445
0000c0 bd d2 e1 b8 a1 35 54 b9 7a 05 8b b9 69 ac e3 b9
       -0.00010768089 -0.00020237874 -0.00026516226 -0.0004342527
0000d0 0e a3 8a b9 3e bc 13 39 f9 c3 82 3a 5d f8 82 3a
       -0.00026442896 0.00014089138 0.0009976617 0.0009992231
0000e0 70 2b 8b 3a 96 61 a0 39 84 ba 1b ba d0 6d 0e ba
       0.0010617804 0.00030590285 -0.0005940574 -0.00054332335
0000f0 4c 99 f5 38 0a c3 26 39 d7 40 17 39 ce ea cd 38
       0.00011711064 0.00015903651 0.00014424637 9.8188975e-05
000100 fa f1 a4 b7 c5 c4 79 b7 51 a5 11 38 bf d9 da 37
       -1.9663003e-05 -1.48873705e-05 3.4724657e-05 2.6089021e-05
000110 5b 00 a3 37 14 bb af b7 5d e1 95 b8 a9 7d 43 b8
       1.943128e-05 -2.094874e-05 -7.146851e-05 -4.6608653e-05
000120 9d b4 04 3b a6 b5 06 3b 2a 32 1a 3b 90 eb 13 3b
       0.0020249255 0.0020555048 0.0023528435 0.0022570826
000130 20 b4 77 38 1e 0e 0b ba 1e c0 14 37 ef 8e b4 37
       5.9057144e-05 -0.0005304533 8.866218e-06 2.152423e-05
000140 43 ac 53 38 6a b9 3d 39 65 69 73 b8 e2 c1 87 b8
       5.046675e-05 0.00018093517 -5.803387e-05 -6.473415e-05
000150 90 aa ac ba 85 b0 a2 ba fa 81 8c ba eb a9 eb b9
       -0.001317339 -0.0012412226 -0.0010719888 -0.00044949292
000160 4a 70 cc 3a 8c 05 07 3b 5f 3b 42 ba d6 dc 71 ba
       0.001559743 0.0020602671 -0.00074093597 -0.00092263275
000170 cf 10 a0 ba e4 89 9c ba 5a cb a2 b9 f6 3d b3 b9
       -0.0012212041 -0.001194295 -0.00031050557 -0.00034187705
000180 24 9d 8c b8 94 e6 ef b8 46 03 3c b9 f0 98 04 ba
       -6.70499e-05 -0.000114393566 -0.00017930297 -0.000505819
000190 c8 75 b0 b9 8f db a0 b9 d6 b9 31 39 4d 1a b3 38
       -0.0003365709 -0.00030681162 0.00016949265 8.540284e-05
0001a0 4c 6a 7e b8 db b7 c4 b9 7c d5 fd b9 6a 32 83 b9
       -6.0657316e-05 -0.00037521016 -0.0004841498 -0.00025023828
0001b0 a2 1c c8 b9 08 33 c9 b9 a9 54 5f b9 97 9d 68 3a
       -0.00038168306 -0.0003837573 -0.00021298476 0.00088735804
0001c0 b7 00 c6 3a a4 10 a0 3a 4f 93 11 bb 1d c3 11 bb
       0.0015106414 0.001221199 -0.0022213047 -0.002224154
0001d0 4e 6d 12 bb e5 bc 86 ba 8a 8d 9e 3a 08 25 f3 3a
       -0.0022342983 -0.0010279684 0.0012096625 0.0018550465
0001e0 1d 8b 99 38 70 a3 0f b8 de 0b 92 b8 a2 a4 cd b9
       7.3215204e-05 -3.424607e-05 -6.964033e-05 -0.00039223308
0001f0 96 98 ed b9 da f9 e6 b9 87 e7 12 3a 81 2b cd 39
       -0.00045317848 -0.00044055172 0.0005603958 0.0003913306
000200 04 23 69 38 a4 a7 74 ba 2a 8b 96 ba 07 64 3c ba
       5.558414e-05 -0.0009332842 -0.0011485566 -0.0007186536
000210 ce 6e 5a 3a 86 a9 6c 3a d2 5b 6f 3a 21 b1 bf 39
       0.0008332551 0.00090279465 0.0009130809 0.0003656233
000220 81 86 5e ba 09 5c 68 ba 44 8b 38 b8 9a cc b1 b8
       -0.00084886706 -0.0008863812 -4.399872e-05 -8.478128e-05
000230 f1 1d b7 b8 ad 08 b5 b9 dc d7 38 b9 6b 7e f4 b8
       -8.731697e-05 -0.00034529474 -0.00017628021 -0.00011658374
000240 9e 32 d5 b8 5e fa 64 b9 a9 c5 02 ba 6f c3 b0 ba
       -0.0001016606 -0.00021837043 -0.000498856 -0.0013485978
000250 c3 7a 9d ba 75 ad 8f b8 f4 5f 0d b7 98 e4 25 b7
       -0.0012014735 -6.85108e-05 -8.426596e-06 -9.88799e-06
000260 95 e1 25 38 87 e4 2b 39 4d c9 19 39 51 84 d5 b8
       3.9549155e-05 0.00016392964 0.00014666207 -0.00010181277
000270 3b fd f4 ba 68 86 fb ba c7 9d 05 bb 85 c7 aa ba
       -0.0018691191 -0.0019189836 -0.0020388232 -0.0013029432
000280 d3 30 8c 3a 21 e3 04 3b a0 bb 17 ba 2e 53 f6 b9
       0.0010695703 0.002027698 -0.0005788151 -0.0004698275
000290 5d d1 d1 b9 2b 7f 03 39 42 f2 43 3a 11 73 8a b8
       -0.00040019574 0.00012540507 0.0007474759 -6.6017856e-05
0002a0 18 84 12 b9 a1 d2 12 b9 6f bd 39 b9 33 5b 1a b9
       -0.00013972854 -0.0001400211 -0.00017713544 -0.00014720559
0002b0 97 66 d6 b7 8c f4 c2 39 d7 35 45 bb 05 cd 44 bb
       -2.555856e-05 0.00037184765 -0.0030091906 -0.0030029428
0002c0 13 ed 49 bb a8 54 af ba 69 08 c5 3a e6 63 1c 3b
       -0.0030811473 -0.001337667 0.0015032414 0.0023863255
0002d0 f7 97 e6 b5 86 8b 1c b9 7e 04 30 b9 a8 50 f3 b9
       -1.7180563e-06 -0.00014929296 -0.00016786341 -0.00046408665
0002e0 44 9a ad 37 0f f0 06 3a c1 83 e2 38 86 3e 07 39
       2.0695043e-05 0.0005147466 0.00010801061 0.00012897895
0002f0 76 c7 2b 39 b9 fc e3 38 20 15 0b b9 10 e0 9d b8
       0.00016382136 0.00010871277 -0.00013263943 -7.528078e-05
000300 6a 32 af 39 4a 7d 80 39 77 9d 26 3a cd b8 9e 3a
       0.00033416162 0.0002450741 0.00063558616 0.0012109518
000310 68 4d 7e 3a 6d c3 3e b8 d4 7b e1 ba d2 5f e5 ba
       0.00097008655 -4.5481534e-05 -0.0017203041 -0.001749987
000320 05 eb ff ba f8 e4 05 bb d2 d7 5e 3a 74 cb b6 3a
       -0.0019524997 -0.0020430665 0.00085007877 0.0013946132
000330 5a 87 83 b7 c4 76 c2 b8 a4 0e 6d b9 98 12 1f ba
       -1.5679445e-05 -9.272763e-05 -0.00022607535 -0.00060681393
000340 55 a0 c2 b9 53 4a 30 39 66 d5 28 ba 27 86 33 ba
       -0.0003712202 0.00016812356 -0.000644049 -0.00068482984
000350 41 9e b9 b9 60 a8 67 3a 4c 1d 0b 3b e4 88 94 3a
       -0.00035403858 0.00088370405 0.002122718 0.00113323
000360 3f c2 4c 3a 3e bf 17 3a ef c7 1b 3a 0d a3 5e 3a
       0.00078109273 0.000578869 0.0005942573 0.00084929244
000370 e3 02 d9 39 45 e9 f0 39 01 aa d2 b9 a3 86 ce b9
       0.00041391616 0.00045950167 -0.00040180984 -0.00039391694
000380 7f 7d 6c b9 d9 8d bb 39 6d f1 f1 39 c1 98 ad 3a
       -0.00022553465 0.00035773104 0.00046146978 0.0013244377
000390 7a 15 ad b9 8a 88 b3 b9 84 93 dd b9 e3 30 13 ba
       -0.00033013133 -0.0003424327 -0.00042262312 -0.00056148897
0003a0 ee f6 1c b9 ce 46 42 38 f1 39 f7 ba 93 4c ec ba
       -0.00014969308 4.6319146e-05 -0.0018861872 -0.0018028192
0003b0 e5 73 fb ba a8 52 df ba d2 72 72 39 86 de 97 39
       -0.001918432 -0.0017038183 0.00023121692 0.00028966757
0003c0 5d 67 89 3a ad 65 9d 3a e5 f4 a4 3a d1 cc d2 b8
       0.0010483075 0.0012008451 0.0012585191 -0.0001005173
0003d0 35 b7 cc ba 68 8b 17 ba b8 6f 24 b9 f1 71 1d b8
       -0.0015618565 -0.0005780966 -0.00015681877 -3.7537833e-05
0003e0 0f 83 47 39 3c 1c f8 39 f1 70 d7 39 3f 99 9b 37
       0.00019026942 0.00047323282 0.00041092144 1.85488e-05
0003f0 97 23 f0 b9 18 19 ca b9 b5 16 aa b9 e5 51 54 35
       -0.00045802884 -0.0003854714 -0.00032441845 7.9095327e-07

exp_avg_sq f4 [70, 6]
000000 af e7 a4 37 a0 3d ae 37 52 cd d4 37 2d 1d ca 37
       1.965821e-05 2.0771113e-05 2.536798e-05 2.4093863e-05
000010 18 91 a3 37 0d 90 d2 37 f2 41 45 37 10 c4 48 37
       1.9498679e-05 2.510103e-05 1.1757469e-05 1.1966578e-05
000020 f9 3f 58 37 91 2c cf 36 e2 bb 0e 37 26 11 04 37
       1.2889498e-05 6.174269e-06 8.507604e-06 7.871806e-06
000030 6f 62 19 36 16 1f 08 36 60 e5 b4 35 90 91 ab 34
       2.2856073e-06 2.0283674e-06 1.3477802e-06 3.1957143e-07
000040 99 38 ba 35 1f 86 d4 35 bd c2 04 38 4c 72 fc 37
       1.3874552e-06 1.5834265e-06 3.1652617e-05 3.0093965e-05
000050 08 4f af 37 d0 61 91 37 5a fe 45 38 8d 8b 2c 38
       2.0898427e-05 1.7330894e-05 4.7205343e-05 4.1137962e-05
000060 04 59 4e 38 46 54 5f 38 64 2c 6d 38 3b 02 5a 38
       4.919713e-05 5.324583e-05 5.6546545e-05 5.1977328e-05
000070 c8 42 28 38 23 e7 80 38 17 04 29 38 dd 98 29 38
       4.0116516e-05 6.146568e-05 4.029655e-05 4.0435105e-05
000080 5d 5b 04 38 65 53 15 38 72 ae 74 38 cc 3b 5f 38
       3.155634e-05 3.5602035e-05 5.8336598e-05 5.3223033e-05
000090 8b 77 01 37 05 b5 07 37 f1 45 10 37 00 87 6f 37
       7.716832e-06 8.088774e-06 8.599353e-06 1.4276942e-05
0000a0 05 c0 4b 37 78 44 63 37 ac 29 db 38 28 9d d4 38
       1.2144451e-05 1.3546196e-05 0.00010450496 0.000101382204
0000b0 81 48 a7 38 79 02 27 39 99 46 7b 39 56 ed 48 39
       7.9766854e-05 0.00015927282 0.00023963525 0.00019161901
0000c0 3f dc 8e 37 44 5a 8c 37 5c 41 79 37 df f7 3a 37
       1.703028e-05 1.6731334e-05 1.4856774e-05 1.1144176e-05
0000d0 bb 43 25 37 b4 e8 18 37 47 1a 4c 37 87 3e 53 37
       9.850536e-06 9.114086e-06 1.2165466e-05 1.2591138e-05
0000e0 b2 69 44 37 c7 bb d3 36 76 af 0d 37 00 63 2f 37
       1.17071195e-05 6.31015e-06 8.445108e-06 1.0453863e-05
0000f0 ae dc db 35 ea 16 e4 35 a4 ee e8 35 0f 5e a2 35
       1.6380998e-06 1.6993993e-06 1.73548e-06 1.2097315e-06
000100 08 f3 91 35 2b 5d b2 35 2e 04 1c 35 6e 38 17 35
       1.0874073e-06 1.3289149e-06 5.812061e-07 5.6334e-07
000110 28 d2 39 34 fd f6 3f 35 fe 72 e9 35 14 ec 05 36
       1.7305922e-07 7.151246e-07 1.739332e-06 1.995596e-06
000120 78 02 23 38 e7 6c 25 38 59 5a 0f 38 ec ba bf 37
       3.8864528e-05 3.944049e-05 3.4178e-05 2.2856017e-05
000130 c5 7e 29 38 09 10 34 38 c5 27 03 37 4e 94 06 37
       4.0410803e-05 4.2930278e-05 7.817468e-06 8.021552e-06
000140 be 9a 03 37 6b 85 ae 36 10 d5 16 36 92 3e 93 36
       7.844237e-06 5.201136e-06 2.247576e-06 4.3882255e-06
000150 f4 44 16 39 53 7c 10 39 37 1d e4 38 b1 68 81 38
       0.00014330802 0.00013779225 0.00010877329 6.1706996e-05
000160 55 77 07 39 3f 06 14 39 10 33 c1 38 b3 b7 bd 38
       0.00012919058 0.00014116707 9.212468e-05 9.046439e-05
000170 a0 9b 9f 38 53 34 be 38 87 af 1f 39 95 f9 16 39
       7.610698e-05 9.069652e-05 0.0001522881 0.00014398091
000180 20 47 a2 36 57 7c b0 36 92 f6 e6 36 37 ae 21 37
       4.8362563e-06 5.259684e-06 6.8832387e-06 9.63691e-06
000190 6f b7 04 37 ad 9d 22 37 f2 33 37 37 d5 ac 41 37
       7.910522e-06 9.692664e-06 1.0919744e-05 1.1543937e-05
0001a0 da f8 17 37 9f b1 c4 37 32 50 d9 37 9d 21 cc 37
       9.058242e-06 2.3447732e-05 2.590576e-05 2.4334347e-05
0001b0 d4 10 da 36 16 8d de 36 16 19 ab 36 c6 ad 4e 37
       6.4988653e-06 6.63254e-06 5.0991175e-06 1.2319017e-05
0001c0 35 b6 68 37 1c 20 41 37 bc 4c 95 38 5d 48 95 38
       1.3870701e-05 1.15111725e-05 7.1191665e-05 7.1183524e-05
0001d0 56 13 83 38 7a f5 43 38 b3 0d 8c 38 be 69 a7 38
       6.2501684e-05 4.672024e-05 6.678272e-05 7.9828766e-05
0001e0 18 76 82 37 27 ea 91 37 a2 ae a0 37 fa db 91 37
       1.55522e-05 1.7394383e-05 1.9154806e-05 1.7387782e-05
0001f0 3b 98 2e 37 85 68 4f 37 d8 e2 b0 38 49 ae b0 38
       1.0406652e-05 1.2362497e-05 8.434587e-05 8.424797e-05
000200 f6 6b 90 38 93 e2 c3 38 f1 ed 19 39 75 04 12 39
       6.8865644e-05 9.340527e-05 0.00014679857 0.00013925305
000210 a6 22 33 39 5b 63 36 39 d1 ed 22 39 a5 8f bd 38
       0.00017083678 0.00017393885 0.00015538117 9.038978e-05
000220 66 02 08 39 0c d2 3d 39 cf 2d 3e 36 49 92 42 36
       0.00012970864 0.00018102693 2.833887e-06 2.8993402e-06
000230 68 3a 84 36 18 01 a3 36 90 f5 4e 36 40 45 94 35
       3.940706e-06 4.857906e-06 3.0839328e-06 1.1047014e-06
000240 13 ed 3b 38 61 6d 32 38 24 98 0c 38 bc 37 b8 38
       4.4805067e-05 4.2540374e-05 3.3520293e-05 8.784185e-05
000250 d5 69 08 39 ba 83 cc 38 ec 35 18 37 37 c1 07 37
       0.00013009396 9.752014e-05 9.072461e-06 8.091613e-06
000260 81 1a d8 36 3f e4 3b 36 7a f2 75 36 26 81 94 36
       6.440387e-06 2.7998028e-06 3.6648985e-06 4.4257786e-06
000270 f1 29 36 39 9f 3d 2e 39 68 e1 0f 39 92 65 08 39
       0.00017372497 0.00016616889 0.00013721513 0.00013007809
000280 85 ca 81 39 ed cb 77 39 b0 7e db 37 c2 31 d1 37
       0.00024755686 0.00023631724 2.6165828e-05 2.4937912e-05
000290 d6 b4 bb 37 c8 98 bc 37 01 fa 04 38 e4 e2 00 38
       2.2376345e-05 2.248249e-05 3.1704087e-05 3.0728886e-05
0002a0 67 d8 0c 38 4a 2c 00 38 fe 28 c1 37 c2 59 e9 36
       3.358014e-05 3.0558826e-05 2.3026481e-05 6.9543903e-06
0002b0 20 fe 12 37 be a4 84 36 23 f6 a2 37 6a c6 a7 37
       8.761446e-06 3.953085e-06 1.9426521e-05 2.0000345e-05
0002c0 cd 72 8f 37 80 2b 8a 37 0d a0 db 37 40 1a c0 37
       1.7100387e-05 1.6471138e-05 2.6181364e-05 2.2900407e-05
0002d0 e0 08 bd 36 12 4a d9 36 d8 74 9b 36 13 74 2a 37
       5.633672e-06 6.475727e-06 4.6329624e-06 1.0159815e-05
0002e0 6c 06 57 37 79 dc 5a 37 cc 3f 25 37 18 87 2e 37
       1.2816494e-05 1.3045145e-05 9.84962e-06 1.0402662e-05
0002f0 1c d4 3a 37 74 a7 f3 36 cb f9 34 37 49 00 ff 36
       1.11358495e-05 7.2614584e-06 1.07869955e-05 7.5996254e-06
000300 2d c6 d2 38 67 cb c3 38 e1 cb 93 38 68 9a 98 38
       0.000100504934 9.336211e-05 7.0474816e-05 7.276685e-05
000310 95 c9 27 39 a9 e0 25 39 d2 65 63 39 d7 4b 60 39
       0.00016001456 0.00015819319 0.00021686338 0.00021390557
000320 70 ca 2a 39 04 fe 07 39 cf a6 9a 39 f8 1a 97 39
       0.00016287877 0.00012969231 0.0002949745 0.00028821058
000330 19 5e a6 37 9c 60 a6 37 0c f7 90 37 15 82 30 37
       1.983256e-05 1.983373e-05 1.7281178e-05 1.0520705e-05
000340 cc 7b bc 37 b9 f1 ab 37 23 31 83 38 26 da 7d 38
       2.2468994e-05 2.049735e-05 6.255719e-05 6.0523067e-05
000350 c6 8b 6f 38 71 92 0f 38 29 05 7d 38 51 2e 7d 38
       5.7112215e-05 3.423024e-05 6.0324706e-05 6.0363036e-05
000360 61 97 81 37 a8 0b 70 37 ae 6a 10 37 5f 40 fb 36
       1.544849e-05 1.4307829e-05 8.607907e-06 7.4878767e-06
000370 56 6f a5 37 0c 32 ac 37 d6 84 11 39 5a f8 0b 39
       1.9721378e-05 2.0527303e-05 0.00013877763 0.00013348591
000380 3b 7b e4 38 65 fb ea 38 04 d1 54 39 7c ca 4a 39
       0.00010894841 0.000112048154 0.0002029576 0.00019339652
000390 81 de 30 37 49 08 39 37 55 dc 52 37 ae 52 29 37
       1.0542223e-05 1.1028788e-05 1.2568275e-05 1.0092435e-05
0003a0 d1 45 f9 36 9d f7 25 37 9e 60 34 38 82 c5 32 38
       7.428906e-06 9.892418e-06 4.3005326e-05 4.262245e-05
0003b0 4e 8e 15 38 c4 1f a7 37 43 2d 32 38 20 09 3a 38
       3.56569e-05 1.9922743e-05 4.248066e-05 4.4354354e-05
0003c0 b4 99 51 39 f9 14 48 39 be e2 1c 39 f7 72 4a 39
       0.00019989052 0.00019081299 0.00014961787 0.00019307049
0003d0 56 15 ba 39 5e 9f ad 39 17 aa 16 38 14 90 15 38
       0.0003549258 0.0003311587 3.5921195e-05 3.565855e-05
0003e0 eb d7 07 38 9e e1 29 38 17 e0 57 38 d2 b2 2e 38
       3.2387597e-05 4.0502862e-05 5.1468694e-05 4.1651372e-05
0003f0 e0 63 a9 37 32 eb 9a 37 32 74 82 37 67 06 1a 37
       2.0192878e-05 1.8467752e-05 1.5551315e-05 9.180606e-06

exp_avg f4 [70]
000000 63 08 be b9 07 ef d3 39 98 86 86 39 25 34 a4 b9
       -0.00036245873 0.00040423145 0.00025658752 -0.00031319368
000010 e6 e2 ca ba 31 6d 2e 3b 6c 2f 40 b7 36 0b 78 3b
       -0.0015478998 0.0026615376 -1.1455133e-05 0.003784848
000020 ec 84 ca 39 e6 52 af ba 46 b3 ca 38 ee 02 b0 b7
       0.00038627477 -0.0013376146 9.665503e-05 -2.09822e-05
000030 40 c0 65 ba 03 90 0a ba 93 16 3e ba d2 51 fd 3a
       -0.0008764304 -0.00052857416 -0.00072512886 0.0019326753
000040 bc ef 73 b9 2d 41 6b 3a b1 8d 72 3a 40 33 e2 3a
       -0.00023263594 0.00089742505 0.0009252681 0.0017257705
000050 f5 41 45 b9 c0 d3 08 ba ce 86 fd b9 e6 44 f4 b6
       -0.00018811955 -0.00052195415 -0.00048356358 -7.2797875e-06
000060 61 92 4d ba a8 1d f4 38 b6 a0 94 3a b7 b4 98 b8
       -0.00078419416 0.000116403506 0.00113394 -7.2815856e-05
000070 87 56 4e b9 5a f3 38 3b f5 7b 14 ba 8f 60 37 ba
       -0.00019677925 0.002822122 -0.0005664223 -0.00069952843
000080 72 1c 22 39 73 1c da 3a 65 bb 9e ba 57 fe 36 3a
       0.0001546012 0.0016640559 -0.0012110291 0.00069806486
000090 d0 2a 9c 3a 41 1f 6a b9 b3 2a 92 b9 92 da 67 39
       0.0011914615 -0.00022327622 -0.00027879103 0.000221113
0000a0 70 75 ff ba df a0 e8 39 d0 fe 33 ba da 06 23 3a
       -0.0019489955 0.00044370347 -0.0006866278 0.00062189775
0000b0 c1 2c bd b9 ea 34 1e 3a f2 c4 d4 39 ea b6 ef 39
       -0.00036082233 0.00060351065 0.00040582527 0.00045721914
0000c0 e2 af 7b 3b 52 19 3d 3b d4 87 45 3a 8a ee 8a 39
       0.0038404395 0.0028854203 0.00075351936 0.00026499137
0000d0 25 9c ce 3a 74 98 30 3a 52 37 98 37 1e 20 67 3a
       0.0015763087 0.00067365845 1.8145573e-05 0.00088167365
0000e0 dc 8b ba ba d1 94 0a 34 cc c2 4b bb e2 3d 2d ba
       -0.0014232355 1.290639e-07 -0.003109145 -0.00066086475
0000f0 2c f7 45 38 0a 28 f9 b8 67 a0 c2 ba c7 28 14 3b
       4.7198657e-05 -0.00011880703 -0.0014848829 0.0022607313
000100 37 b9 19 3a f3 0d e6 ba fe c8 07 ba 8f 98 6a ba
       0.0005864086 -0.0017551765 -0.00051797915 -0.00089491246
000110 3a 33 76 b8 60 bd 11 3b
       -5.869868e-05 0.002223812

exp_avg_sq f4 [70]
000000 7e f5 33 38 7d 24 97 37 0e a1 1d 36 6c 3d c4 37
       4.2905558e-05 1.8017594e-05 2.348857e-06 2.3393623e-05
000010 c8 3f b5 38 d8 17 10 38 84 8f 59 37 b4 5e fb 38
       8.642633e-05 3.435448e-05 1.2967623e-05 0.000119862525
000020 13 fa 50 37 26 01 17 37 e9 c8 23 36 73 2a d3 35
       1.2455991e-05 9.000569e-06 2.4405838e-06 1.5733079e-06
000030 88 52 0b 38 ef 8c bc 36 04 7b c2 38 b6 16 b4 38
       3.3217046e-05 5.6192434e-06 9.273554e-05 8.587299e-05
000040 22 98 43 37 5a e0 ea 37 f0 5d 0c 37 4b bd 20 38
       1.1658327e-05 2.7999446e-05 8.366522e-06 3.8323265e-05
000050 68 f4 a8 37 57 d9 b3 38 dd b5 88 38 93 2d 79 36
       2.0140971e-05 8.575868e-05 6.51886e-05 3.713042e-06
000060 5f 2a 6d 38 3a a5 13 37 f7 4a 29 39 21 2c 1b 38
       5.6544664e-05 8.800353e-06 0.00016145023 3.6995978e-05
000070 44 4d 87 37 66 8c b5 37 5c 2b 57 37 bd 73 77 37
       1.6129234e-05 2.164226e-05 1.2825094e-05 1.4749295e-05
000080 a8 16 d0 38 dc 90 11 39 83 37 b3 37 1a ab 7a 38
       9.922433e-05 0.00013882242 2.1364312e-05 5.9763996e-05
000090 7a a9 91 37 e7 8c fe 38 3b 25 36 37 d8 30 24 38
       1.7364266e-05 0.00012137909 1.0856714e-05 3.9146136e-05
0000a0 55 ae 46 39 6f 85 2d 38 14 79 10 37 0e d5 11 37
       0.00018947695 4.1370684e-05 8.61126e-06 8.692279e-06
0000b0 64 df e3 36 1a f0 74 37 49 71 d1 37 25 38 c6 37
       6.7911333e-06 1.4599436e-05 2.4967494e-05 2.3629584e-05
0000c0 d6 28 7d 37 fc 64 e8 38 73 dd 0e 38 b7 ad 0b 38
       1.5089483e-05 0.00011081432 3.406168e-05 3.3301967e-05
0000d0 58 e2 08 37 40 96 ad 37 6c 1b 58 38 1d f3 3d 38
       8.158931e-06 2.0693173e-05 5.152395e-05 4.528753e-05
0000e0 2f 64 ee 38 e9 a0 bf 37 06 ba 24 38 d9 22 90 37
       0.00011367385 2.2843904e-05 3.9273895e-05 1.7182365e-05
0000f0 3d 55 31 36 e5 32 87 38 88 30 aa 37 19 8f e7 37
       2.642467e-06 6.4467815e-05 2.0288178e-05 2.7603981e-05
000100 7c ec 23 38 72 b3 14 38 c1 e3 c6 37 93 ac d2 38
       3.908247e-05 3.545307e-05 2.3709496e-05 0.00010045725
000110 5d 48 cb 36 1d 42 66 38
       6.0582956e-06 5.4897846e-05

exp_avg f4 [50, 70]
000000 0f b5 3f 38 a1 c7 10 39 47 78 18 b9 3c 3c 09 b9
       4.5706573e-05 0.00013807278 -0.00014540656 -0.00013087777
000010 1b 2b e3 b8 c7 d9 8d b9 ca 7c 8e 38 75 dd 9f b8
       -0.000108322325 -0.00027055872 6.7943314e-05 -7.6229604e-05
000020 28 95 29 39 19 f4 a6 b7 a4 e0 e8 b8 77 57 b5 38
       0.00016172661 -1.9902409e-05 -0.00011104465 8.647044e-05
000030 3f 2e cc b8 8c f5 4d b9 b0 8d ce b7 05 67 a1 38
       -9.736092e-05 -0.00019641797 -2.4623092e-05 7.696267e-05
000040 b0 50 b3 b8 a7 86 43 b9 37 92 14 b9 2d 03 1f b9
       -8.550414e-05 -0.00018646811 -0.00014168849 -0.00015164605
000050 b7 55 b7 b7 6f 21 40 39 92 a0 4d b9 74 a1 a5 b8
       -2.1855214e-05 0.00018323002 -0.0001961014 -7.897886e-05
000060 a6 30 05 39 44 89 8f 38 48 58 40 b8 b8 ee c7 b8
       0.00012701991 6.844339e-05 -4.5858586e-05 -9.533524e-05
000070 bc 1e 73 b8 bc 01 41 39 76 03 19 37 34 9c 70 b8
       -5.796434e-05 0.0001840656 9.1203165e-06 -5.7365934e-05
000080 45 fd e0 38 32 2e 90 38 b2 60 16 39 cd 4e be b8
       0.000107283275 6.8750596e-05 0.00014341137 -9.074584e-05
000090 b0 28 0d 39 fd ee 21 b6 83 03 e4 b8 56 c5 19 38
       0.00013461965 -2.412998e-06 -0.00010872541 3.6661826e-05
0000a0 27 15 8b 38 b3 52 60 b9 1f 78 7b b8 4c 48 0a b8
       6.6319764e-05 -0.00021393113 -5.9954935e-05 -3.2969096e-05
0000b0 04 49 e4 37 4f e8 d0 38 40 37 9a 38 be 1b 02 39
       2.7213719e-05 9.961484e-05 7.353583e-05 0.00012408101
0000c0 f3 fb a9 38 46 74 78 38 bb 98 66 b8 4a d7 b1 38
       8.105477e-05 5.9236096e-05 -5.4978515e-05 8.4801184e-05
0000d0 30 61 86 39 00 4f 81 b8 cd a6 b7 38 1b 53 1b 39
       0.00025630882 -6.165914e-05 8.757189e-05 0.00014812911
0000e0 58 47 5a 39 a0 67 29 38 fd 41 75 b8 cd 95 b7 38
       0.00020816678 4.0389248e-05 -5.847401e-05 8.7540226e-05
0000f0 8a 4a 35 b9 ca e9 7c b8 95 0b 7f b9 56 07 6c b8
       -0.00017289273 -6.0299215e-05 -0.0002432301 -5.6273617e-05
000100 b3 48 d5 37 a1 b6 71 39 e7 96 65 b9 ed a1 9d b9
       2.5425432e-05 0.00023051586 -0.00021895357 -0.00030066018
000110 59 fc e2 38 59 e0 60 38 8a de ff 38 0c 3d 04 39
       0.00010823523 5.36147e-05 0.00012200799 0.00012611243
000120 48 6c 22 b8 12 9c 21 b9 b2 cb 78 b8 dd 9c 9a b8
       -3.8724655e-05 -0.00015412297 -5.9317514e-05 -7.37251e-05
000130 cf 2f bf 38 a1 4f 9d b8 17 71 58 b8 4e 06 9f 36
       9.116495e-05 -7.5011754e-05 -5.1603736e-05 4.739303e-06
000140 d3 fd a8 38 43 07 90 37 a5 29 32 b8 80 f2 6c 38
       8.058143e-05 1.716952e-05 -4.247729e-05 5.649263e-05
000150 0d 98 6f 37 5f ab 91 b8 bb dc f8 38 b8 24 6f 36
       1.4280912e-05 -6.946059e-05 0.00011866676 3.5635148e-06
000160 5b fd 05 b9 75 e4 59 38 45 be a3 38 93 79 cb b8
       -0.0001277825 5.19496e-05 7.807886e-05 -9.702439e-05
000170 5e 44 41 38 91 df fc 38 36 b2 7f 38 c9 e9 df b8
       4.6078458e-05 0.00012057939 6.096271e-05 -0.000106770145
000180 2c af 23 b8 2f bf 13 b9 e7 5d 27 37 25 1a 3a 39
       -3.902537e-05 -0.00014090234 9.975839e-06 0.00017748082
000190 63 54 4e 38 0b 89 d4 37 5a a2 fd 38 d8 8d 85 b8
       4.919282e-05 2.5336185e-05 0.000120942204 -6.368355e-05
0001a0 e0 93 1a 38 18 9d 56 b8 d7 76 51 38 70 ff 07 b8
       3.685418e-05 -5.116788e-05 4.994016e-05 -3.2424403e-05
0001b0 bb 37 a6 38 55 17 72 38 b3 c2 3e 36 62 c4 0a b9
       7.9258774e-05 5.7719026e-05 2.8425536e-06 -0.00013233864
0001c0 00 fa 80 38 0d e6 fd 38 ec 18 db b8 d4 21 3d b8
       6.150082e-05 0.000121068304 -0.00010447376 -4.5092616e-05
0001d0 ed ab 63 b7 ee c8 81 37 84 c9 5d b9 b4 1a d5 b8
       -1.3570284e-05 1.5471564e-05 -0.00021151273 -0.00010161605
0001e0 a5 12 a7 b8 f3 10 fa 38 26 6d d0 38 82 d2 29 38
       -7.966653e-05 0.00011924086 9.9385434e-05 4.048879e-05
0001f0 83 b3 0f b7 b9 15 eb b8 29 58 d7 38 1b bb 65 38
       -8.56526e-06 -0.000112097194 0.0001026842 5.477211e-05
000200 53 77 8c 38 38 bb d2 b8 fd 97 b0 38 60 0d 40 38
       6.697946e-05 -0.000100484525 8.420644e-05 4.5788824e-05
000210 a9 85 2f b8 a3 3f c6 36 29 f0 55 39 a5 89 cf 38
       -4.1847732e-05 5.908268e-06 0.0002040273 9.8961675e-05
000220 ef 9a 3d b8 e3 b7 06 39 0c 38 cf b6 9d 8f 50 b8
       -4.5205405e-05 0.00012847739 -6.1756054e-06 -4.9724815e-05
000230 54 3a 36 b8 a5 ea f7 b7 a5 6e 14 39 ae 66 10 38
       -4.3446504e-05 -2.955396e-05 0.00014155598 3.4427903e-05
000240 6a 34 70 b7 f8 a6 8a b6 71 a3 8b b8 87 11 0a b8
       -1.4317318e-05 -4.132158e-06 -6.65848e-05 -3.2918088e-05
000250 7f f5 87 b8 31 e2 af b8 60 4c 10 38 1a 9b e8 b8
       -6.483029e-05 -8.386782e-05 3.4403405e-05 -0.00011091512
000260 30 7d 76 38 04 04 2b 38 7b 65 79 37 02 f5 f8 b7
       5.876756e-05 4.0773317e-05 1.4865184e-05 -2.9677994e-05
000270 6a cb 04 b8 d6 57 3d b8 5c b9 52 38 bb e1 a1 38
       -3.1660697e-05 -4.5142915e-05 5.024053e-05 7.719124e-05
000280 c1 5f 8b b8 6c a3 58 37 ed c0 33 b8 8d 48 4b b9
       -6.645872e-05 1.2912653e-05 -4.28566e-05 -0.00019386616
000290 b9 aa f0 37 35 ef ef 38 a2 69 8f b6 03 60 fd 38
       2.8689728e-05 0.00011440964 -4.2740294e-06 0.00012081864
0002a0 19 1b c5 b8 c4 a6 71 b8 78 65 5a b8 f6 95 f2 37
       -9.398739e-05 -5.761419e-05 -5.206975e-05 2.8918479e-05
0002b0 8f e3 04 b8 56 cb d6 b7 21 9e 31 b6 b0 e8 97 37
       -3.1683183e-05 -2.5605474e-05 -2.6467098e-06 1.8108956e-05
0002c0 77 63 ea b8 bc 41 69 38 a4 72 0f 39 19 7c 4a 37
       -0.00011176516 5.561275e-05 0.0001368025 1.2069032e-05
0002d0 7b 87 e5 b5 ab dc bb 38 9a 41 8c b6 51 95 8a b7
       -1.710126e-06 8.9579575e-05 -4.179962e-06 -1.6520413e-05
0002e0 5a 1a 92 b8 4c a8 b4 38 72 bc bc 38 23 2a b7 36
       -6.966731e-05 8.6144166e-05 8.999639e-05 5.4587304e-06
0002f0 2b c2 04 37 21 3b 7f b8 5d fa de 37 09 ca 3a b8
       7.913021e-06 -6.0851806e-05 2.6581047e-05 -4.4534016e-05
000300 df 08 9c 38 7c 65 19 b8 b1 3a 8c b5 50 e3 8c 38
       7.440312e-05 -3.6572557e-05 -1.0447894e-06 6.7180605e-05
000310 bc 61 5d b8 19 92 bc b8 89 d4 97 b7 7d 98 c2 b8
       -5.278153e-05 -8.9917514e-05 -1.8099572e-05 -9.279044e-05
000320 f2 f1 0a b9 8a 91 4c 38 8d b8 48 b8 ff 58 ba 37
       -0.00013250837 4.8772934e-05 -4.7855592e-05 2.221437e-05
000330 aa 9c f6 b8 17 f0 db b7 da 6b 58 38 f9 d9 9b b8
       -0.00011759375 -2.6218635e-05 5.1598858e-05 -7.4315765e-05
000340 f5 b6 90 38 08 14 e0 b7 e4 d6 76 b9 53 03 67 b9
       6.9005335e-05 -2.6712209e-05 -0.00023540441 -0.00022031115
000350 1a 35 7c 38 1c 40 61 39 57 b9 3d 38 af 24 45 39
       6.0130937e-05 0.00021481555 4.5233723e-05 0.0001880105
000360 b0 7d 78 b8 60 f5 67 39 28 89 0f b8 be e4 ae b8
       -5.9244863e-05 0.00022121286 -3.4221594e-05 -8.339573e-05
000370 e4 14 4c b8 6d ef 87 36 21 ca a2 38 a6 29 a3 b8
       -4.8656846e-05 4.0511864e-06 7.7624114e-05 -7.780203e-05
000380 e2 31 8d b8 3b 70 49 39 ec c8 2d b9 d4 8d e1 38
       -6.732695e-05 0.00019210663 -0.00016573415 0.000107552536
000390 64 95 27 39 9e 7c 43 b9 4e d2 40 b9 1a 61 fa 38
       0.00015982013 -0.00018643073 -0.00018388891 0.000119390155
0003a0 06 74 c6 b8 ad f0 1a b9 8b 0d 28 b9 9d 88 7b 38
       -9.462987e-05 -0.00014776243 -0.00016026774 5.9970294e-05
0003b0 ab 9b 77 37 9d b3 4d 39 19 7d 0e b9 4b af 7d b9
       1.47585915e-05 0.00019617235 -0.00013588778 -0.00024193262
0003c0 d1 a5 4b b8 7f 11 a3 b9 b1 ad e1 b8 4a d5 da 36
       -4.85534e-05 -0.00031102818 -0.000107611886 6.5217364e-06
0003d0 ef c5 87 b8 80 b7 18 39 73 08 c6 b8 8f 78 4b b8
       -6.47417e-05 0.00014564209 -9.4429495e-05 -4.851125e-05
0003e0 be 51 1e b9 ff 3c 3d b8 c9 5b 38 b8 9d 8d 4f 39
       -0.00015098506 -4.511792e-05 -4.39545e-05 0.00019793813
0003f0 c3 af e5 b8 ab ac 64 b9 b6 2d 36 39 9e 54 1f 38
       -0.00010952309 -0.00021808098 0.00017373901 3.798736e-05
