models/training_all_threshold_0.99_boxcox/model_2_MSE_loss/space_buffer_8_date_buffer_1/tchla/train_1/MLP_2.pth (torch, 24510 bytes, 9 tensors)

layers.0.weight f4 [100, 14]
000000 69 8c 1e bd f5 4f c2 3d 13 a2 41 bc 9c 16 59 3c
       -0.038708124 0.09487907 -0.011818427 0.013250019
000010 a1 81 22 3d f7 ce b6 3d 6d 2b f4 bc bf d1 2b 3d
       0.039674405 0.08926194 -0.029805863 0.041948076
000020 91 fe 9e 3e d5 77 15 bf 0f c5 23 3d c0 c0 f3 ba
       0.31053594 -0.58385974 0.03998285 -0.0018596873
000030 30 7a e2 3d 55 18 75 bd 19 78 23 bf 31 90 b9 3f
       0.11058462 -0.059837658 -0.6385513 1.4497129
000040 ad bb 73 bd 67 22 97 bc 09 bf a2 3e bf 44 45 3f
       -0.059505153 -0.018449022 0.31786373 0.77058023
000050 a9 f1 1c 40 30 47 73 bf d0 ba 66 bf f2 e4 af bf
       2.4522498 -0.950305 -0.90128803 -1.3741744
000060 ab 01 04 bf b0 af 24 3f 92 11 17 3f 78 1f 48 be
       -0.51565045 0.6433058 0.59011185 -0.19543254
000070 54 30 ab 3f 4c 39 92 bb 22 5b b4 be a5 0a 10 bf
       1.3374124 -0.0044623967 -0.3522578 -0.5626624
000080 9f 27 ba be e9 39 d8 be 9d 7a 4b bf 8e ff 08 bf
       -0.36358353 -0.42231682 -0.7948397 -0.53514946
000090 03 68 7e 3e c0 ac e2 be 66 01 e9 be ce 88 64 be
       0.24844365 -0.44272423 -0.4550888 -0.22317812
0000a0 6b 08 68 3e 91 5b 62 3e 6a 4a 14 bd a3 ee 94 bf
       0.22659461 0.22105242 -0.03620378 -1.1635326
0000b0 f1 16 eb 3e af a4 35 bd 49 71 52 3d ec dc a0 3f
       0.4591594 -0.044346508 0.05137757 1.256742
0000c0 f3 45 de 3d 13 50 52 be 51 31 93 bd e5 b7 3f 3f
       0.108531855 -0.20538358 -0.07187141 0.74889976
0000d0 c9 50 de 3e 7c 11 17 bf 0a 16 ab 3e f5 3f 5c bd
       0.4342101 -0.59011054 0.33415252 -0.05377193
0000e0 b5 b5 0a 3f d5 fd 88 bf 28 11 fc 3e ed f7 c1 be
       0.5418351 -1.0702463 0.4923184 -0.37884465
0000f0 00 7e cf 3e 1d 21 0c c0 93 0a 93 be c9 70 fa 3e
       0.40525818 -2.189521 -0.28719005 0.48914173
000100 09 ec 21 bf c8 50 51 3f e5 5c 72 3f fa cd 85 3f
       -0.63250786 0.8176389 0.94672996 1.0453484
000110 d5 2c 8c 3f ae 34 73 bf b3 02 48 bc 4e 4d 21 be
       1.0951182 -0.9500226 -0.012207675 -0.15752146
000120 08 2f bb 3d 45 71 4f bd e6 07 3a 3d d9 40 65 3d
       0.0913983 -0.05064513 0.04541769 0.055970047
000130 e1 7a 03 be bb fc ca bc d0 ac 50 3f fe 68 07 be
       -0.12839843 -0.024778714 0.8151369 -0.13223645
000140 86 88 68 bf 72 22 0f be 6c 06 8c 3e 26 4e 19 be
       -0.9083332 -0.13977984 0.2734865 -0.14971218
000150 41 46 74 3d f6 22 86 bd db 94 32 3b 36 30 c1 3d
       0.05963731 -0.06549637 0.002724937 0.09433024
000160 80 ce bb 3d bf 74 a6 bd 3e 7e cb 3d 6d d9 59 bd
       0.09170246 -0.08127736 0.09936188 -0.05318587
000170 b4 1a 94 be 51 5f 05 3f 07 c8 40 3c 41 d1 27 bd
       -0.28926623 0.52098566 0.01176644 -0.040971044
000180 ea 14 55 be 6f 5f 1b 3c 28 3b 31 bd 8a e7 eb bf
       -0.2080876 0.009483202 -0.043269306 -1.8430035
000190 ec 31 2f 3f 8f 29 74 3c 8c 98 8c be 39 6c 82 3f
       0.6843555 0.0149024865 -0.27460134 1.0189277
0001a0 a4 14 cd bd 1f f2 b4 3f 2d b5 e2 bd af fe 93 be
       -0.100137025 1.413639 -0.11069713 -0.28905246
0001b0 bb 21 97 bf ce 3c 6e bc e2 5d 98 3e 9d 0f ae bf
       -1.1807169 -0.014540864 0.29759127 -1.3598515
0001c0 75 72 d1 bc fc 67 25 3f c1 57 2b bf 64 f5 0a bf
       -0.025567273 0.6461179 -0.66930777 -0.54280686
0001d0 e5 00 55 bf e9 0f c6 be 86 45 7f 3f 81 90 b0 bd
       -0.8320449 -0.38684013 0.9971546 -0.08621312
0001e0 70 aa bc bf 25 c7 c0 3d d0 d8 af 3f 3a a5 3d 3f
       -1.4739513 0.09412984 1.3738041 0.7408024
0001f0 67 2b fd be 45 22 96 be d4 b5 27 3d c4 ca 89 ba
       -0.49447176 -0.2932302 0.04094489 -0.0010512699
000200 be 6e 45 bc aa b0 8e bd ec b0 2a bd c8 b5 39 3d
       -0.012050329 -0.0696729 -0.041672632 0.045339376
000210 2f 7a 60 3d 8d cc 9b bc 58 27 94 bd 9f 3a d5 3d
       0.054804023 -0.019018436 -0.07234067 0.10411572
000220 32 e6 0c be 88 b2 5f bc 77 27 b5 3c 4d 5c 1b 3d
       -0.13759688 -0.013653405 0.022113545 0.03792982
000230 66 55 45 bf 87 35 1d 3d 3e 6f 18 bf 66 01 ce be
       -0.7708343 0.038381126 -0.5954474 -0.40235442
000240 92 ac be 3d c5 97 a0 be 46 c1 68 bf 69 c2 65 3f
       0.09310259 -0.3136579 -0.9091991 0.8974977
000250 69 48 14 bc 16 5f 61 3e 7d 04 9c 3e fd fb 42 3c
       -0.009050467 0.22008929 0.30472174 0.011900899
000260 29 57 f3 be 4b b5 71 bc 7a 13 07 bf 56 49 50 bf
       -0.47527435 -0.014752696 -0.52764094 -0.813619
000270 79 26 c9 bd dd a9 59 3f d0 64 8e 3f e7 07 93 be
       -0.09821791 0.85024816 1.1124516 -0.28716967
000280 d6 67 f3 3d 95 d7 f9 be 71 fa 9c 3e e4 1e f1 be
       0.118850395 -0.4879729 0.30659822 -0.4709388
000290 6c 4e 0d 3f f8 16 08 3f d6 45 e8 3f 53 e2 65 bf
       0.5519779 0.5316005 1.8146312 -0.8979847
0002a0 32 f1 90 3e 0c 6e b5 bf d1 ac 2c bf 07 e4 38 3f
       0.28309017 -1.4174209 -0.67451197 0.7222294
0002b0 ad 31 01 be 9b 29 2d 3f 3a 7e d6 bd 39 64 bf bf
       -0.12616606 0.6764161 -0.104732946 -1.495246
0002c0 e3 6f e9 bc 16 10 55 3f af 0c 24 3e 8b dd 22 bf
       -0.028495735 0.8322767 0.16020463 -0.636193
0002d0 a2 12 c5 be df e4 31 3e 6f 29 93 3d b8 b7 16 be
       -0.38490778 0.17372464 0.07185637 -0.1471852
0002e0 b1 db c6 bd 5a 27 9a 3d 02 d1 9a 3d 6c 0e 06 3e
       -0.097098716 0.07527037 0.07559396 0.13091439
0002f0 ac b4 c4 3c ca 06 dd 3d f7 d1 a3 be 89 c9 0a 3f
       0.024011932 0.107923105 -0.31996128 0.5421377
000300 27 1a e9 3d b9 23 97 bd 3b 5e c1 bd 64 ee 04 3e
       0.11381941 -0.073798604 -0.09441801 0.12981564
000310 93 79 88 3c cd ad c8 3d ff 79 0c 3d 78 2f 77 3d
       0.016659534 0.09798775 0.034296032 0.060348004
000320 c3 a7 09 bc 73 1b 17 bd 10 7b f0 bd 2f 54 08 be
       -0.008401814 -0.036891412 -0.11742222 -0.13313363
000330 b6 2f c4 3e 5d 79 4a bf 9e 0d 1a 3c f4 a3 39 3d
       0.3831765 -0.79091436 0.009402661 0.045322374
000340 3c ed 0c 3e e5 f7 5c bc b3 41 8a 3d e9 b2 4c 3c
       0.13762373 -0.013486837 0.067508124 0.012493827
000350 26 c2 81 bd 22 bd 8d 3d 55 51 3c 3b 69 6a 9c bc
       -0.06335859 0.0692084 0.0028735 -0.019093709
000360 c7 c4 9e bd fa 99 19 3d 89 19 1d 3f 1e ac 2a bf
       -0.07752376 0.03750036 0.6136709 -0.6666888
000370 84 2a 62 be 69 15 5f bb 63 d0 0a 3e 3b 0b db bd
       -0.22086531 -0.003403986 0.13556056 -0.106955014
000380 0a 35 b5 3b a6 2a ec 3d 44 13 22 3d ce c8 c3 3d
       0.0055300044 0.11531572 0.039569154 0.09559785
000390 5b 49 1b 3d 4c 3a 11 3e 4b c5 64 3d ba 12 4a bc
       0.037911754 0.14182395 0.055852216 -0.012333566
0003a0 f9 30 96 3e 68 fa 56 bf 27 9e c3 3d 07 cf 02 3e
       0.29334238 -0.8397584 0.095516495 0.12774287
0003b0 c0 40 67 bc 7f e6 2f 3d bc cc 65 3a 68 a5 44 bc
       -0.014114559 0.042944428 0.00087661645 -0.012002327
0003c0 42 ec 40 3d 46 4b f9 3c 17 3d 1b bd 2d 48 b5 bd
       0.047100313 0.030431401 -0.037900057 -0.08851657
0003d0 89 ca c8 bb 43 3e 8d 3c b2 af d9 be 8d e5 29 3f
       -0.0061276597 0.017241603 -0.42516857 0.6636589
0003e0 02 4c 07 bd 60 9b 26 3d f5 3f 01 be 99 66 9e 3c
       -0.03303147 0.04067552 -0.12622054 0.019336032
0003f0 8d d0 30 3b e7 ae 70 bd e8 13 74 3d 17 f9 a4 3b
       0.0026979775 -0.05876055 0.059589297 0.0050345766

layers.0.bias f4 [100]
000000 de c4 48 3d c7 83 55 3f 71 d8 81 bd 4a d3 d4 be
       0.049015872 0.834042 -0.06340111 -0.4156745
000010 71 80 bd 3f 43 7e 24 bd 9a 64 23 be b0 72 df 3f
       1.4804822 -0.040159475 -0.15956345 1.7456875
000020 b0 59 3f 3f ca 7c 26 3b e5 ad 34 3f 50 b5 26 c0
       0.7474623 0.002540397 0.7057784 -2.6048164
000030 e9 cd 2a bf 3e 36 81 bd 81 e3 37 3e 43 93 48 bc
       -0.66720444 -0.06309174 0.1795788 -0.012242141
000040 c7 ef 94 3d dc f1 82 bb 4f 34 c9 3c 90 41 f7 3f
       0.072722964 -0.003996117 0.024561075 1.9316883
000050 d3 df 22 c0 68 dc 8d 3c e7 5b 44 3d e1 75 23 3c
       -2.5449111 0.017317012 0.047939207 0.009976835
000060 13 9e f1 3d 24 13 8d 3a a4 4b 9e 3f 65 42 c0 bf
       0.117977284 0.0010763151 1.2366834 -1.5020262
000070 20 bd a6 3d e9 04 4e 3e 81 3e 86 3f 3f 69 91 3b
       0.081415415 0.2011906 1.0487825 0.004437595
000080 2f a4 fc bf 9a 14 14 3d b6 c9 f2 bd 96 e8 7e bf
       -1.9737605 0.03615246 -0.118548796 -0.9957365
000090 a2 1a 85 3f cb a2 55 be 9f 63 48 3e 95 0b a8 3d
       1.0398753 -0.20862882 0.19569252 0.08205334
0000a0 13 ef 69 bd 2b 19 ad 3d 48 0f 8c be 0e c8 f1 bf
       -0.057112765 0.08452066 -0.2735541 -1.8889177
0000b0 51 76 d8 bc 5a 60 b8 3d a3 54 3e 3d 1f 4d 09 c0
       -0.026423605 0.090027526 0.046467435 -2.145332
0000c0 0b d2 6e 3f f8 3f b4 bf d9 36 27 bd 1d 88 ac bd
       0.9328925 -1.4082022 -0.04082379 -0.08424399
0000d0 7a 76 be bd 62 c9 83 3e b1 36 67 bd 2e ad 6f be
       -0.09299941 0.2573958 -0.056448642 -0.23405907
0000e0 99 e8 49 bf ba f8 38 bd c8 f0 9f bf 81 31 9a 3f
       -0.7887054 -0.04515908 -1.2495356 1.2046357
0000f0 97 fa 3c be 52 30 af 3f 16 74 8c 3f 7c cf 17 3f
       -0.18454967 1.3686621 1.0972927 0.5930097
000100 ce ad 12 be 2c 26 0e bc 2c 0c 2c 3e bc af 04 3e
       -0.14324114 -0.008676093 0.16801518 0.12957662
000110 34 c7 8f 3f 19 22 67 3e 61 72 f0 bb 79 63 8c be
       1.1232667 0.22571601 -0.007337854 -0.27419642
000120 ab 1d 7d be 45 1c b8 bf 67 9c bb be 9d f6 31 3f
       -0.24718349 -1.4383627 -0.36642763 0.69516927
000130 f2 94 de 3f 57 15 53 3d 26 6e 2f 3f 29 2e 89 be
       1.7389205 0.051534023 0.6852745 -0.2679303
000140 53 f1 ca 3f ad bf 64 bc 33 cb d3 bf 0d 5f 3d 3f
       1.5854896 -0.013961715 -1.6546386 0.7397316
000150 e4 a5 4d 3e d4 b2 e8 bf 98 39 d2 3f 37 d3 cc 3b
       0.20082814 -1.8179574 1.6423826 0.0062507647
000160 42 fb 86 bf 1e 63 e4 bc c1 a6 59 3b ce 30 be bf
       -1.0545428 -0.027879294 0.0033210965 -1.4858644
000170 25 c3 e3 3d ca 00 2c bf d8 e7 a7 3f 8b 96 15 be
       0.11121205 -0.67188704 1.3117628 -0.14608209
000180 bd 49 3b 40 c4 6b 84 3d de 83 44 3e d5 de 44 bd
       2.9263756 0.06465867 0.19190928 -0.04806407

output.weight f4 [1, 100]
000000 3a 7f 9d 3c d7 91 1d 3d 28 51 2d bb b7 26 40 bd
       0.019225705 0.03846916 -0.0026446078 -0.04691192
000010 a8 1e 1c bd 3a 5e 46 3d 95 ff 32 bd 72 2d 26 3d
       -0.038115174 0.048429705 -0.043700773 0.040570684
000020 f0 82 56 bd 40 af 64 3c 6a fc 3e bd 43 ad f9 3c
       -0.052370965 0.0139577985 -0.04662744 0.030478125
000030 46 0a 00 bd 9f 13 82 bc 78 85 89 3d 25 6e 0e 3d
       -0.031259798 -0.015878497 0.0671491 0.03477301
000040 f9 72 07 3c db 5e d5 ba ef cb f6 bc 79 d4 52 bd
       0.008267158 -0.001627888 -0.03012654 -0.05147216
000050 91 10 0b 3d ae 7c b3 bb 4e 21 33 bd 1b 17 52 3d
       0.033951346 -0.0054775095 -0.043732934 0.051291566
000060 ea cd 66 bd ff 54 2c bc 21 33 09 3d 23 b3 3a bd
       -0.05634872 -0.0105183115 0.033496026 -0.045580994
000070 4f a2 3d 3b e5 b9 0c bd fa 14 52 3d 31 12 b8 3b
       0.0028935855 -0.03435697 0.051289536 0.005617403
000080 b2 bc f2 3c 35 0e 94 bc 72 4f 3e 3c 3d 4a 57 3d
       0.029630993 -0.01807318 0.011615621 0.052561034
000090 2f bc c2 3c e4 11 f8 bc 31 42 04 3d e9 5c 5d bc
       0.023771374 -0.030281968 0.032289688 -0.013510921
0000a0 c9 6b 45 bd d0 54 65 bc 0b 4a fc 3c c8 77 c6 3c
       -0.048198495 -0.013997272 0.030797025 0.024227038
0000b0 65 bc 05 bc fb a2 c7 3c 61 b5 10 3d e4 07 c7 3c
       -0.008162593 0.024369707 0.035329226 0.024295755
0000c0 36 6e 16 bd 44 50 67 bd 3e 51 4b bd 1c bf 2d bd
       -0.0367262 -0.05647303 -0.049638025 -0.042418584
0000d0 7c 42 e7 3c 0a a1 41 3d e6 0d 0d bb a0 cb 5e 3a
       0.028229944 0.04727272 -0.0021523177 0.00084989704
0000e0 cb a1 59 3d f2 e6 2d bc 9a a9 46 3d 65 fa 33 3d
       0.053132813 -0.010614144 0.04850159 0.043939967
0000f0 5f 25 de bc af 5c 31 3d cc dd 2d 3d bf 21 91 3c
       -0.02711743 0.04330128 0.04244785 0.017716287
000100 7d 8d 12 3c 7d d3 25 3d ed f9 31 3d 10 f8 de 3c
       0.008944866 0.040484894 0.04345124 0.027217895
000110 28 77 23 bd d6 58 92 3c e0 17 18 3d 57 df a2 3c
       -0.039908558 0.017864626 0.037132144 0.019881887
000120 f9 33 22 bd 75 2e 9a 3c f7 2d 1b 3d 4d f0 ff bc
       -0.039600346 0.01882098 0.037885632 -0.031242514
000130 10 b3 4d bd 77 5b da bb c2 76 10 bd 93 ff 43 3d
       -0.050219595 -0.0066637355 -0.035269506 0.047851156
000140 60 20 64 3d 0b d4 42 3b 85 bd 55 3d 57 10 0a bd
       0.055694938 0.0029728438 0.052182693 -0.03370699
000150 05 b7 4d 3b a7 05 9e bc 20 dd 2f bd 69 13 14 3d
       0.0031389606 -0.019289805 -0.04293549 0.036151323
000160 26 fb 4a 3d a9 fc c0 bc 9e ff 6e bc f8 e2 bd 3c
       0.04955592 -0.023557978 -0.014587311 0.023179516
000170 8a e2 2c bd 30 fd 8d bb 35 6d 95 3c 20 26 a8 bc
       -0.042208232 -0.004333161 0.01824055 -0.020525992
000180 f6 0e a5 bc 2a a7 4b 3d a6 1a 52 bd b9 0c a5 bc
       -0.020148735 0.049719967 -0.051294945 -0.020147668

exp_avg f4 [100, 14]
000000 22 d0 c2 39 e2 00 f6 ba fd 52 1b 3a 42 8b 30 ba
       0.00037157635 -0.0018768574 0.0005925147 -0.0006734618
000010 a8 ab 17 38 bc b6 a6 ba 7c 81 13 3b ed 68 2f ba
       3.6161073e-05 -0.0012719254 0.0022507599 -0.00066913554
000020 05 b5 27 bb e2 e9 18 bb 80 cc 11 bb 75 15 3a ba
       -0.0025590074 -0.0023332764 -0.0022247136 -0.0007098534
000030 a7 d9 41 3a 94 ef 78 b7 71 dd 58 38 a8 c7 7f b8
       0.00073947984 -1.4837733e-05 5.1704646e-05 -6.0982682e-05
000040 85 8d 18 39 6d e4 0f 39 56 da 1f 38 a5 14 2a b8
       0.0001454857 0.00013722638 3.8111895e-05 -4.0550385e-05
000050 51 69 3c 38 f8 63 90 b8 c1 e0 05 38 03 60 3f 38
       4.4920776e-05 -6.885076e-05 3.191899e-05 4.5627366e-05
000060 7a 3c 38 38 1a 61 99 38 63 eb f6 38 9e c5 92 38
       4.392534e-05 7.313695e-05 0.00011774038 6.9986316e-05
000070 38 4d 9a 37 10 0c 84 b8 af 41 b2 b6 71 14 a3 38
       1.8394188e-05 -6.296497e-05 -5.31246e-06 7.776253e-05
000080 28 ef b2 37 9b a2 84 b7 88 71 5f b8 4c b0 8b b7
       2.133062e-05 -1.5811345e-05 -5.3273077e-05 -1.6652186e-05
000090 f1 62 42 38 93 81 8a 38 6d cf 87 38 85 3c fe 37
       4.634535e-05 6.604488e-05 6.475938e-05 3.0307341e-05
0000a0 ed 70 fc b7 75 d0 af b8 06 59 05 39 96 5e 8d 39
       -3.0093326e-05 -8.3834784e-05 0.00012717032 0.00026964088
0000b0 68 29 5a 39 6f f6 62 b8 71 36 c5 38 e8 3a a0 38
       0.00020805525 -5.4112108e-05 9.4038325e-05 7.640367e-05
0000c0 ef 2e 79 b8 e1 25 66 b8 b8 9b 50 38 2e e6 04 38
       -5.9409937e-05 -5.487155e-05 4.973609e-05 3.1685624e-05
0000d0 52 2b c7 36 5f b0 d1 b8 b5 89 de b8 f3 2a 2d b7
       5.9357053e-06 -9.998748e-05 -0.00010611435 -1.0321603e-05
0000e0 17 7b 94 b7 02 22 3b b8 1e 17 ee b6 40 d8 59 38
       -1.7700293e-05 -4.4615947e-05 -7.095644e-06 5.193823e-05
0000f0 ee d5 e4 37 af f8 90 b8 3c ca ed b8 5e 7a 9b 38
       2.7279337e-05 -6.912776e-05 -0.0001133871 7.4137686e-05
000100 37 80 c2 b7 8d f9 06 b8 36 7d 2b b8 f8 9a f1 b7
       -2.3186307e-05 -3.2180502e-05 -4.088619e-05 -2.8801602e-05
000110 9e 3f c7 b7 c5 8d 87 38 84 92 67 3a 58 d4 c4 b9
       -2.3752273e-05 6.463708e-05 0.0008833783 -0.00037542242
000120 bb 5d 05 b9 1a 79 3f ba 7c 17 d2 39 68 52 e0 b8
       -0.00012718786 -0.00073041173 0.00040071819 -0.00010696502
000130 29 14 89 3a 2e ed f2 b9 b4 70 29 ba 0a cb fb b9
       0.0010458279 -0.0004633455 -0.00064636325 -0.00048025727
000140 38 f7 95 b9 ad 33 a6 39 db 16 60 3a 82 50 7c b9
       -0.00028603687 0.0003170049 0.00085483276 -0.00024062584
000150 20 f8 e7 ba 31 10 66 3b fa 93 58 bb 59 a3 ca 39
       -0.0017697848 0.0035104866 -0.0033047185 0.00038650146
000160 96 68 fb 3a 9f dc 2e 3b 2d 98 d8 ba a8 8c 7d b7
       0.0019180949 0.0026681793 -0.0016524844 -1.5112724e-05
000170 4a cb 6a 3b 02 6c 5f 3b cb db 56 3b 3a c6 b8 38
       0.0035826736 0.0034091477 0.0032784815 8.810726e-05
000180 c8 9b 12 bb e2 c1 0b bb 85 62 1e b9 a6 fd 75 37
       -0.0022370685 -0.002132528 -0.00015104756 1.4662195e-05
000190 06 47 f6 b8 4d 9e fe 38 9c f7 06 b7 1c 78 d8 38
       -0.00011743423 0.0001214115 -8.044673e-06 0.00010322055
0001a0 32 4f 39 39 56 07 a8 b8 41 96 34 38 a3 01 38 38
       0.00017672477 -8.012231e-05 4.305528e-05 4.3870543e-05
0001b0 8a 1d 9d 38 89 4b 84 39 96 3a a9 38 f7 9a 31 37
       7.4918455e-05 0.0002523328 8.0694605e-05 1.0586103e-05
0001c0 54 ee 3d 39 8d 0d 65 b8 c5 eb f1 b8 3b 0c 24 b8
       0.00018113229 -5.4610475e-05 -0.00011535691 -3.9112037e-05
0001d0 a3 45 0a 39 50 f6 d4 b5 4b b1 d0 b8 40 b6 91 38
       0.00013186647 -1.5866917e-06 -9.951236e-05 6.9480855e-05
0001e0 81 41 5f 38 f8 d8 23 38 0f 71 b3 38 fe ab 83 38
       5.322835e-05 3.9064296e-05 8.556444e-05 6.278603e-05
0001f0 d0 91 62 b8 59 b5 91 b8 f0 c0 bc 3a 83 23 38 bb
       -5.4018397e-05 -6.9479174e-05 0.0014400762 -0.0028097339
000200 14 ce 78 3a 87 1a 85 ba 39 b7 71 ba bb 13 1b bb
       0.0009491157 -0.0010155 -0.0009220723 -0.0023662883
000210 d9 4c e0 3a e7 c5 c7 b9 ec 62 59 bb 70 26 47 bb
       0.0017112746 -0.00038103687 -0.0033170534 -0.00303879
000220 62 5f 2c bb 44 f5 c9 39 2a 36 33 3b 81 0c dc 3a
       -0.002630197 0.00038520445 0.0027345517 0.0016788394
000230 8d 9c 60 b8 72 49 89 35 85 52 ac 38 14 fc b9 b6
       -5.355156e-05 1.0228671e-06 8.2169696e-05 -5.5427754e-06
000240 37 db 24 39 c7 23 3a b9 45 fd 2b 39 31 d4 72 36
       0.00015721923 -0.0001775167 0.00016402181 3.6184322e-06
000250 d0 91 4a 38 d8 91 24 38 99 58 76 38 aa 9d 2d 37
       4.829635e-05 3.9236475e-05 5.8733483e-05 1.0348313e-05
000260 c7 b7 27 36 fa 14 56 38 f5 df d3 b7 ec 5c 21 38
       2.4991912e-06 5.1041112e-05 -2.5257448e-05 3.847193e-05
000270 36 5c a2 38 6c a1 7d b8 b9 42 89 b7 05 58 47 38
       7.7419376e-05 -6.0470236e-05 -1.6362743e-05 4.752727e-05
000280 0a d3 1b 39 dd d6 d9 b8 96 b0 bc 38 60 74 d5 38
       0.0001486057 -0.00010387388 8.99743e-05 0.00010178308
000290 9d 44 4d 38 23 9a cf b8 1b ab 61 b9 21 30 5e b9
       4.893971e-05 -9.8992394e-05 -0.00021521414 -0.00021189499
0002a0 a8 2d 9b 38 b5 9a 37 3a 11 eb 4e ba 43 f1 34 b9
       7.39948e-05 0.0007003949 -0.0007893304 -0.00017256015
0002b0 81 8f 4d 39 e4 72 15 3a 1b 6d e9 b9 7d 18 15 39
       0.00019603783 0.0005701019 -0.00044522513 0.0001421887
0002c0 e4 b4 58 3a f1 e9 3f 3a 3b 48 3d 3a 94 5c a3 39
       0.0008266701 0.0007320932 0.0007220541 0.0003115876
0002d0 74 ae 4a 37 a2 7e 09 39 eb 15 60 ba 97 4b b4 3a
       1.2080756e-05 0.00013112513 -0.0008548188 0.0013755438
0002e0 cd b1 86 ba 4c 8a 97 39 ac 21 f8 38 a6 49 5d 3a
       -0.0010276377 0.00028904004 0.000118318334 0.00084414554
0002f0 7c 53 a4 ba 39 33 e3 38 5a 2f ec 3a 34 96 d6 3a
       -0.0012537087 0.000108337445 0.0018019483 0.0016371668
000300 d8 0c b8 3a b1 9c 46 b9 05 18 a9 ba 05 5d 0c ba
       0.0014041914 -0.00018941124 -0.0012900835 -0.0005354437
000310 53 2f 80 3a bb 0c 99 ba 6a b3 ce 3a 8a 9c 20 ba
       0.0009779729 -0.0011676768 0.0015770022 -0.0006126842
000320 c6 7f 75 ba b8 87 4a ba a4 a0 91 3a 23 ea 4d b9
       -0.0009365048 -0.0007725912 0.0011110497 -0.00019637546
000330 93 dd 7d ba 6d bf 75 ba dc d9 75 ba fc 50 8f 39
       -0.0009684201 -0.0009374533 -0.0009378472 0.00027335424
000340 1a b6 87 3a 53 5d 80 3a 77 b5 da 38 79 cb ab b9
       0.0010353953 0.0009793438 0.000104288505 -0.0003276726
000350 1a 48 88 39 1b d3 15 39 ae 8b c0 b8 c8 26 9a b9
       0.0002599366 0.0001428839 -9.181291e-05 -0.00029402063
000360 3c 60 be 38 eb d2 df b6 de 52 8d b9 b1 10 5c b9
       9.077831e-05 -6.670472e-06 -0.00026955357 -0.00020987053
000370 2b 01 11 b9 96 ca 05 39 c1 bd b3 39 11 99 a6 39
       -0.00013828713 0.00012759338 0.00034282918 0.0003177603
000380 52 d3 78 3a 05 43 2e bb 2b 53 11 3b 5f 05 8f b9
       0.00094919384 -0.002659024 0.0022174816 -0.00027279087
000390 88 36 87 ba 29 37 05 bb 22 36 d1 3a b3 6f 80 b9
       -0.0010315934 -0.0020327067 0.0015961567 -0.00024497285
0003a0 d7 95 58 bb ae f6 4b bb 7e e7 37 bb fd af 04 b9
       -0.0033048296 -0.0031122374 -0.0028061564 -0.00012654062
0003b0 a8 6c 08 3b 8a fd bd 3a 47 e3 ec b9 dc b2 87 3a
       0.0020816717 0.0014495116 -0.00045182763 0.0010352987
0003c0 1b 55 b4 ba de 46 41 39 70 40 12 3a 81 68 3e 3a
       -0.0013758274 0.00018432314 0.000557906 0.0007263497
0003d0 a7 1c 5c ba c7 9d 5d 39 28 92 a0 3a 2b 90 95 3a
       -0.00083966035 0.00021134979 0.0012250589 0.0011410763
0003e0 cd 3f 9f 3a 22 c3 ff 39 a7 7c 5c b9 09 df 92 b9
       0.0012149751 0.00048782775 -0.00021027272 -0.00028013464
0003f0 98 39 a7 39 08 d2 2d ba c2 1e 19 3a 9d 51 62 38
       0.00031895633 -0.00066307234 0.000584107 5.3958607e-05

exp_avg_sq f4 [100, 14]
000000 35 ba ef 36 2f 2e 39 37 db 14 ff 36 3d 9c 1c 37
       7.1444324e-06 1.1037612e-05 7.60202e-06 9.334702e-06
000010 2b 69 d7 36 7b 65 57 37 88 47 12 37 59 96 6d 36
       6.4197425e-06 1.2838626e-05 8.718933e-06 3.5403266e-06
000020 a1 b5 3f 37 77 f9 3d 37 af 71 3b 37 7b b5 28 37
       1.1426776e-05 1.1323361e-05 1.1172538e-05 1.00558345e-05
000030 55 cc 2a 37 92 5d 1b 37 eb f8 be 34 80 8d b6 34
       1.0180364e-05 9.260506e-06 3.557137e-07 3.4003097e-07
000040 25 0a a7 34 b0 32 9f 34 cd a3 62 34 e5 52 ae 34
       3.1113555e-07 2.9652938e-07 2.110748e-07 3.247034e-07
000050 3b f7 22 34 12 70 a4 33 c4 8c 9a 34 7a b5 9e 34
       1.5177368e-07 7.6572306e-08 2.8787156e-07 2.9561835e-07
000060 9e 99 a5 34 13 6a 9c 34 46 61 81 34 1c 2c 8b 34
       3.0845416e-07 2.9134443e-07 2.4098898e-07 2.592286e-07
000070 96 d1 b4 33 f3 f0 b9 33 89 6f 02 34 d6 38 09 34
       8.4200266e-08 8.658562e-08 1.214777e-07 1.2779796e-07
000080 83 a0 cb 34 fe 5b 0c 34 d9 c6 8b 33 df 62 53 33
       3.7928484e-07 1.3071983e-07 6.508862e-08 4.921719e-08
000090 89 11 bf 33 29 6f cd 33 7b 45 d0 33 f1 d6 c4 33
       8.89732e-08 9.566276e-08 9.698393e-08 9.166059e-08
0000a0 9a b1 b7 33 56 5f c5 33 74 b0 05 35 2d d9 7d 35
       8.553907e-08 9.190869e-08 4.9803134e-07 9.4565877e-07
0000b0 d1 b4 5d 35 15 a7 2d 35 1e 08 a0 35 af 84 39 35
       8.259204e-07 6.469066e-07 1.1923291e-06 6.911095e-07
0000c0 35 18 70 35 ff bd 8a 34 27 ff f0 34 dc cb d4 34
       8.9442193e-07 2.5842743e-07 4.488913e-07 3.9636404e-07
0000d0 ef c9 e0 34 24 0b 06 35 86 ea 6f 35 b5 a7 2d 35
       4.1870177e-07 4.99351e-07 8.9375715e-07 6.469157e-07
0000e0 e7 90 af 34 43 c5 82 34 4c f6 e3 34 9c 2e 16 35
       3.270172e-07 2.4357914e-07 4.246125e-07 5.594718e-07
0000f0 a0 3b 40 34 72 43 52 34 8e f3 ef 34 2f 75 14 34
       1.7903085e-07 1.958231e-07 4.4694428e-07 1.3826205e-07
000100 1c e8 eb 34 20 dd d7 34 31 c9 c4 34 e8 de 15 34
       4.3941043e-07 4.020776e-07 3.665423e-07 1.3957799e-07
000110 03 33 55 34 76 d7 81 34 8f be 07 36 28 13 5d 36
       1.9855729e-07 2.418489e-07 2.0227487e-06 3.2942717e-06
000120 c1 46 39 36 29 76 4f 36 84 e7 91 35 65 c2 3e 36
       2.7608332e-06 3.0914182e-06 1.0870722e-06 2.8425359e-06
000130 06 c8 2c 36 35 1f 7a 35 fd 28 88 36 67 d0 81 36
       2.5746426e-06 9.317767e-07 4.0578875e-06 3.868761e-06
000140 9a 55 4c 36 f4 73 16 36 6d b9 71 36 ce 8c 6e 36
       3.0448196e-06 2.2419235e-06 3.601973e-06 3.5546723e-06
000150 3e 85 07 37 af 92 62 37 f3 37 31 37 61 67 20 37
       8.07765e-06 1.3504802e-05 1.0563049e-05 9.560813e-06
000160 b5 31 f8 36 c0 c6 6e 37 5a 0b 21 37 84 89 8c 36
       7.3967626e-06 1.4232181e-05 9.598991e-06 4.188334e-06
000170 72 84 59 37 e6 4d 53 37 71 71 4b 37 99 36 26 37
       1.2965045e-05 1.2594717e-05 1.21261555e-05 9.907083e-06
000180 c2 ec 38 37 18 ca 39 37 59 6c 65 35 7d 7c 19 35
       1.1022379e-05 1.1073913e-05 8.5466814e-07 5.7178096e-07
000190 74 fb 2b 35 70 b8 6d 35 99 17 61 35 a6 a9 15 35
       6.4068377e-07 8.855777e-07 8.385337e-07 5.5753696e-07
0001a0 2e ea 45 35 a5 f1 9a 34 2b db 75 35 39 12 5d 35
       7.3728995e-07 2.8860555e-07 9.1588544e-07 8.2355433e-07
0001b0 11 78 2d 35 56 90 cf 34 b9 b4 22 35 b3 c3 ea 34
       6.462224e-07 3.8661773e-07 6.061269e-07 4.3728286e-07
0001c0 dd ae 24 35 95 55 a0 35 7d 28 81 35 60 bd 84 35
       6.134922e-07 1.1945837e-06 9.623033e-07 9.889882e-07
0001d0 6b 2c 0a 35 f8 60 a9 35 f7 ce 07 35 3b 04 d2 34
       5.147364e-07 1.2619703e-06 5.059259e-07 3.9118626e-07
0001e0 13 5b 00 36 a0 36 ef 35 78 1d b4 35 6f bc 34 35
       1.9126499e-06 1.7822786e-06 1.3419622e-06 6.732943e-07
0001f0 05 1a 70 35 dc b9 6e 35 2a f9 20 37 32 3f 84 37
       8.944483e-07 8.893237e-07 9.594756e-06 1.5765054e-05
000200 b5 07 2e 37 65 c5 52 37 07 d0 2f 37 0a 76 9b 37
       1.0373003e-05 1.2562935e-05 1.0479248e-05 1.8532406e-05
000210 32 7a 37 37 72 5d b9 36 ed b8 81 37 1c 7d 80 37
       1.0936101e-05 5.524308e-06 1.5464111e-05 1.5317048e-05
000220 b9 bd 71 37 bb 2d 68 37 8b 0a 75 37 12 f6 69 37
       1.4408893e-05 1.3838925e-05 1.4605593e-05 1.3945175e-05
000230 09 f8 5f 34 39 45 07 35 a9 4c 17 35 cf dc 0d 35
       2.0858728e-07 5.039215e-07 5.636344e-07 5.284791e-07
000240 50 00 9a 34 6d 53 ed 34 c5 6f b8 34 58 28 32 34
       2.8684963e-07 4.420539e-07 3.4353994e-07 1.6592219e-07
000250 dd 75 f3 34 ff 7f fd 34 dd 41 f1 34 94 6b e5 34
       4.5348034e-07 4.7218052e-07 4.493767e-07 4.2732847e-07
000260 d6 eb b3 34 58 a6 43 35 ac 07 a4 34 6a a3 82 35
       3.351294e-07 7.288522e-07 3.0552962e-07 9.733315e-07
000270 ff 47 ee 34 d1 2c 05 35 e1 29 4e 34 8d 43 9c 35
       4.438334e-07 4.961158e-07 1.920048e-07 1.1642566e-06
000280 e6 15 d9 34 4e 96 48 34 70 f2 0b 35 fd 66 15 35
       4.0435333e-07 1.8681132e-07 5.213433e-07 5.5656693e-07
000290 dd b7 14 35 11 a1 04 35 9e fa 18 35 a2 3d 23 35
       5.540185e-07 4.9408214e-07 5.698911e-07 6.081192e-07
0002a0 64 f9 9d 34 29 3d e4 34 46 6c e8 34 25 64 92 34
       2.9424984e-07 4.251281e-07 4.3292147e-07 2.7267484e-07
0002b0 9e df 22 34 d0 df f6 34 d5 63 a7 34 f4 14 aa 33
       1.5168777e-07 4.5983916e-07 3.117881e-07 7.920053e-08
0002c0 56 df cd 34 ff 13 c9 34 b3 a3 bb 34 26 63 64 34
       3.8346724e-07 3.7453717e-07 3.495057e-07 2.1270225e-07
0002d0 1d c0 58 34 7c 1e 96 34 dd 21 a5 36 77 0d 16 37
       2.0186458e-07 2.7961858e-07 4.9213254e-06 8.943832e-06
0002e0 17 ff d2 36 0b 8d fe 36 8c 99 95 36 1d 8c 27 37
       6.288184e-06 7.5862094e-06 4.4584212e-06 9.986598e-06
0002f0 29 f2 ba 36 e5 1e 32 36 2f d5 15 37 00 bd 14 37
       5.571423e-06 2.654205e-06 8.930728e-06 8.865492e-06
000300 4c ef 15 37 ef 64 09 37 b8 b4 f2 36 a7 90 e7 36
       8.936808e-06 8.189337e-06 7.2332004e-06 6.901176e-06
000310 32 6d 31 37 86 07 73 37 7e 84 38 37 e5 9e 33 37
       1.0575446e-05 1.448568e-05 1.0998103e-05 1.0706227e-05
000320 16 5e 0e 37 17 0e 83 37 e9 54 29 37 64 7b 9a 36
       8.485766e-06 1.5622978e-05 1.0092955e-05 4.603922e-06
000330 f5 86 65 37 22 cc 65 37 c9 78 66 37 28 2a 50 37
       1.3680886e-05 1.3696992e-05 1.3737191e-05 1.2407581e-05
000340 5f 50 58 37 3c b8 37 37 cf 9a b2 35 1d dc 00 36
       1.2893316e-05 1.0950545e-05 1.3307089e-06 1.920161e-06
000350 d0 48 dc 35 83 26 dc 35 08 47 84 35 3a cb 03 36
       1.6412469e-06 1.6402486e-06 9.855439e-07 1.9638815e-06
000360 27 2f bc 35 a7 e0 de 34 4f 57 3f 36 cb 04 3a 36
       1.4020815e-06 4.1514178e-07 2.8512038e-06 2.771895e-06
000370 7f 0f 2a 36 ac e3 1c 36 f7 62 c7 35 02 57 e4 35
       2.5340994e-06 2.3378334e-06 1.4855458e-06 1.7012646e-06
000380 1a 73 39 37 49 23 82 37 3a da 32 37 54 50 48 37
       1.1053658e-05 1.5513639e-05 1.0660437e-05 1.1939632e-05
000390 80 03 0c 37 d4 0e 8b 37 8d a4 30 37 2f 6a ad 36
       8.345465e-06 1.6576996e-05 1.052873e-05 5.168163e-06
0003a0 61 60 85 37 25 17 85 37 ca 71 85 37 64 d6 66 37
       1.5899715e-05 1.5865613e-05 1.5907823e-05 1.3758985e-05
0003b0 ab d8 75 37 5a 2e 51 37 22 4e 04 37 bb e7 33 37
       1.4653585e-05 1.2468163e-05 7.886005e-06 1.0723185e-05
0003c0 04 a5 11 37 54 1f 20 37 b1 a5 f6 36 a8 60 3b 37
       8.681094e-06 9.544037e-06 7.3506603e-06 1.1168573e-05
0003d0 c5 2a 1a 37 1d 33 83 36 44 9c 46 37 33 9b 45 37
       9.189073e-06 3.9100546e-06 1.1838103e-05 1.177825e-05
0003e0 1a 3b 43 37 da 2b 2d 37 9a 2f 3c 37 8a 76 23 37
       1.1636666e-05 1.03218135e-05 1.1216756e-05 9.743157e-06
0003f0 a7 16 80 36 ee 65 d4 36 6f 11 8c 36 ac 40 aa 36
       3.8173343e-06 6.3299585e-06 4.1743547e-06 5.0739236e-06

exp_avg f4 [100]
000000 de 46 e0 ba e5 0d f2 b8 90 1b 48 b8 31 f2 30 b9
       -0.0017110964 -0.00011542047 -4.7709385e-05 -0.00016874891
000010 da e3 4c b8 2a 21 24 ba a0 2e 01 3b 51 56 d4 37
       -4.8849593e-05 -0.00062610453 0.0019711629 2.5312564e-05
000020 78 9c 51 b8 62 e6 83 ba 4c de 42 37 5c de ea b8
       -4.9975206e-05 -0.0010063166 1.1615059e-05 -0.00011199407
000030 9a 31 23 3a 1f 9a 22 3a 04 82 7c 38 de 9e 35 37
       0.0006225348 0.00062027754 6.020257e-05 1.082543e-05
000040 01 b7 9a ba b7 d1 57 3a ca 44 85 38 d2 54 8f 39
       -0.0011803807 0.0008232849 6.354747e-05 0.00027338282
000050 46 80 d5 b7 92 45 cf 39 ed c2 43 3a aa 65 7c b7
       -2.545131e-05 0.0003953395 0.0007467706 -1.5044041e-05
000060 4e a1 7a b9 71 aa 47 3a 35 10 c8 38 4e a5 e3 3a
       -0.00023901949 0.00076166453 9.539762e-05 0.001736799
000070 36 56 2f bb ff 21 c1 37 94 db b7 b9 c6 1b 5c b8
       -0.0026754267 2.3023224e-05 -0.00035068078 -5.2477953e-05
000080 9f 2f ec 38 68 c1 a5 ba 7a 1b 86 39 6d e5 66 b8
       0.00011262227 -0.001264614 0.00025578943 -5.5049943e-05
000090 6f 74 7e 39 98 93 77 38 6d c8 42 ba eb a6 05 ba
       0.00024266703 5.9026846e-05 -0.00074303785 -0.000509842
0000a0 04 61 8b b9 2d 3e 1d 39 86 9d 08 39 b2 4d 3b 39
       -0.00026584428 0.00014995849 0.00013028653 0.00017862653
0000b0 d8 69 52 ba 02 e8 b9 3a ce 82 f7 b8 1a 7c 15 38
       -0.0008026636 0.0014183524 -0.00011802242 3.5639947e-05
0000c0 4a c5 11 3a c8 64 ec b8 a0 00 8c b8 6c dd 68 ba
       0.00055607094 -0.00011272129 -6.6758366e-05 -0.0008883092
0000d0 fa 6d ac ba 5f a5 cf 39 f3 0e 4b ba 8f 55 ec b9
       -0.0013155334 0.00039605328 -0.0007746063 -0.00045077174
0000e0 c3 01 cd b7 21 30 ab 3a f9 5c 14 b9 b2 42 df 37
       -2.4438725e-05 0.0013060608 -0.00014149015 2.6614729e-05
0000f0 0f f6 6e 3a 81 bc da b8 ed 0c 1f b9 52 6d 10 b8
       0.0009115645 -0.00010430162 -0.00015168237 -3.4434088e-05
000100 c4 57 e6 38 9a 93 2b b9 fa b8 6f b8 38 aa ec 39
       0.00010983602 -0.00016362817 -5.7154313e-05 0.0004514025
000110 f3 4a 95 b7 25 5b 07 ba 77 d8 17 bb 4a 90 db 38
       -1.7797085e-05 -0.0005163423 -0.0023169795 0.0001046961
000120 6d f4 96 b7 e5 9c 3a b6 72 94 f5 38 a0 7a 84 b8
       -1.7995213e-05 -2.7807484e-06 0.000117101605 -6.317091e-05
000130 da 32 0b b9 c9 4e 5a 3b b5 68 91 38 ec 9e 3b 3a
       -0.00013275017 0.003331112 6.933642e-05 0.0007157165
000140 54 f2 de b8 6e d1 f2 39 c9 cd e1 38 75 07 b6 b8
       -0.00010630922 0.00046313874 0.000107671665 -8.679825e-05
000150 de f9 13 ba 50 9b b5 39 1d 82 16 b9 29 89 82 ba
       -0.0005644838 0.00034638727 -0.00014353586 -0.000995909
000160 88 e1 e4 38 74 8e 0b 3b 10 d8 69 39 cc 6a ed b7
       0.00010913896 0.0021294625 0.00022301101 -2.8302333e-05
000170 9f 85 2d ba a0 15 34 39 84 5f dc b8 c4 20 61 3a
       -0.00066193374 0.00017174194 -0.00010508209 0.00085879513
000180 b6 96 6a 37 20 a6 0b ba 07 3d 1e 3a 07 e6 a3 b8
       1.3982577e-05 -0.0005327184 0.00060363155 -7.8152916e-05

exp_avg_sq f4 [100]
000000 05 59 27 37 f2 72 a5 34 60 27 1c 34 f6 10 69 35
       9.974702e-06 3.081728e-07 1.4542957e-07 8.6823945e-07
000010 c0 21 09 35 19 b6 67 36 a2 dc 3c 37 e9 27 4f 35
       5.108559e-07 3.4527677e-06 1.1257043e-05 7.7171586e-07
000020 03 e4 8f 35 36 51 66 37 6a c2 18 35 3b 7c 05 35
       1.072069e-06 1.3727977e-05 5.690732e-07 4.972714e-07
000030 72 bf ce 34 f6 35 0d 37 71 a4 4c 37 ba e4 f7 35
       3.8509785e-07 8.416819e-06 1.21976345e-05 1.8469502e-06
000040 d1 14 5b 37 97 92 32 37 78 47 bc 36 6b 8b c4 34
       1.3058264e-05 1.0643757e-05 5.6111567e-06 3.6609285e-07
000050 6e ff 00 35 ca fb 06 36 be 67 7b 35 16 0b f5 34
       4.8055415e-07 2.0114117e-06 9.365575e-07 4.5642872e-07
000060 34 5d 8a 35 3c b6 20 37 55 92 26 35 7d cd 7c 35
       1.0308927e-06 9.579173e-06 6.205276e-07 9.417634e-07
000070 a4 0c 6f 37 fe 21 99 35 25 8d 8b 35 f7 bb 91 36
       1.4248453e-05 1.1409281e-06 1.0397385e-06 4.3432187e-06
000080 c7 bf e6 34 22 c0 0c 37 5c 42 d6 35 5c 1b 83 35
       4.2980375e-07 8.389385e-06 1.5963556e-06 9.768223e-07
000090 36 44 dc 34 24 8a 27 35 fa 15 4a 37 01 ed f3 36
       4.1027823e-07 6.241337e-07 1.2045255e-05 7.269555e-06
0000a0 6c 51 81 35 f4 30 26 37 cb cd 97 34 d0 7c d8 34
       9.634946e-07 9.905769e-06 2.8275676e-07 4.0323948e-07
0000b0 6e d8 3b 37 ae 81 84 37 b2 18 93 36 37 e6 a5 34
       1.119646e-05 1.5796013e-05 4.3838163e-06 3.0901148e-07
0000c0 15 a8 6f 35 67 fe 22 35 98 a2 10 35 4a b9 88 36
       8.927903e-07 6.0719907e-07 5.3880785e-07 4.0746863e-06
0000d0 a2 b6 4d 37 fd 33 09 37 48 1a 4d 37 b6 04 20 37
       1.2261475e-05 8.177941e-06 1.2225071e-05 9.53784e-06
0000e0 be c5 c9 34 9a 84 c0 36 63 b9 42 34 70 49 6b 35
       3.7583044e-07 5.7374828e-06 1.8135101e-07 8.765119e-07
0000f0 54 c2 78 37 a9 ea 1d 35 54 39 86 35 82 61 d7 34
       1.4827197e-05 5.8828533e-07 1.0000463e-06 4.0117817e-07
000100 ed 86 9b 34 33 72 02 37 9e 13 af 34 e2 cc 02 35
       2.896917e-07 7.775193e-06 3.2610563e-07 4.872692e-07
000110 eb 0b e9 34 b0 97 04 37 b8 78 13 37 0b 71 1f 35
       4.3408303e-07 7.903131e-06 8.78999e-06 5.9396615e-07
000120 a4 14 67 37 31 dc 49 34 76 92 65 35 e2 f0 1f 35
       1.3773479e-05 1.8799689e-07 8.5522277e-07 5.9582646e-07
000130 c2 7f ec 34 f7 25 59 37 81 47 d8 34 cb da f5 35
       4.4051382e-07 1.2943047e-05 4.028516e-07 1.83176e-06
000140 a9 0c 69 35 00 4a ba 36 11 9c 87 34 85 4c 28 35
       8.6817687e-07 5.5518467e-06 2.5259263e-07 6.269623e-07
000150 b3 82 5e 37 33 2e 02 35 68 50 bb 34 38 e9 42 37
       1.3262662e-05 4.8496e-07 3.4889968e-07 1.1617602e-05
000160 7e af f1 34 bb fc 4a 37 40 ab 24 36 37 10 3f 35
       4.5017435e-07 1.2098982e-05 2.4537585e-06 7.117664e-07
000170 fa ce a3 35 86 66 95 35 2f dd 34 35 72 6e 2a 37
       1.2204684e-06 1.1131203e-06 6.737709e-07 1.0158505e-05
000180 b6 57 c2 34 91 42 51 37 39 7e 4e 35 82 f0 e7 36
       3.6199134e-07 1.24728695e-05 7.692466e-07 6.9123353e-06

exp_avg f4 [1, 100]
000000 9d 34 27 3a 93 76 58 3d ee 57 9c 3d 69 81 0e 3d
       0.00063783844 0.052847456 0.07633959 0.034791384
000010 0f 12 91 3d 57 f6 a5 3d 78 ce df bc ed aa 7c 3d
       0.070835225 0.08103626 -0.027320132 0.061686445
000020 d9 fb 1a bd 92 c5 5e 3b e7 5f 11 be 08 50 a9 3d
       -0.037837837 0.0033992273 -0.1419674 0.08267218
000030 9a a0 d5 bc 04 e3 43 bc 6c 7e ff 3c db f3 d4 bc
       -0.026077557 -0.01195598 0.031188212 -0.025995186
000040 68 d4 d0 3c da 4f 08 bb 34 2a de ba 89 ad 10 bb
       0.025491908 -0.0020799548 -0.0016949833 -0.0022076091
000050 96 e6 81 bd bf b6 7e bc ad 6c 61 bd bb ff 60 bb
       -0.06342809 -0.0155465 -0.055035282 -0.0034332115
000060 0f 3d a7 bd df f8 3c bd b6 9d 7b 3d 75 98 43 3c
       -0.08165943 -0.04613578 0.0614297 0.011938204
000070 2d 6d ab 3c 27 73 19 3d 67 e1 8e 3d da 13 f0 3b
       0.020926083 0.037463333 0.06976586 0.0073265852
000080 c3 fe b5 3d 22 fe 3b 3c 30 3e 99 bd af d2 5e 3c
       0.088864826 0.011474164 -0.074825644 0.013600036
000090 c2 43 92 3d 53 e7 ac ba 3d c3 cf 3c ba 8f 32 3c
       0.0714183 -0.0013191499 0.025361652 0.010898525
0000a0 18 3b 89 3d 2e 8e 05 bd 50 84 46 3d fc cf 80 3d
       0.06700724 -0.032606296 0.048466027 0.0628967
0000b0 b2 e9 de 3c 51 67 1a bd fe 41 62 bc e8 0b ef 3d
       0.027211044 -0.037696186 -0.013809679 0.11672193
0000c0 4a f1 b0 bd 4e 48 24 3d ed cf 41 bd 9b fb f9 3c
       -0.08639772 0.040108018 -0.047317434 0.030515483
0000d0 82 ff ca 3c b1 84 65 bd a0 58 f5 3b ea ac 5f 3d
       0.024780039 -0.056034748 0.0074873716 0.054608263
0000e0 41 0c 85 3d b2 88 41 ba 81 a5 a7 3d f9 f3 24 bd
       0.06496478 -0.0007382735 0.08185864 -0.040271733
0000f0 2c 64 e1 bc 89 66 84 3d 77 21 f3 ba f2 4b 77 3a
       -0.027513586 0.064648695 -0.0018549402 0.0009433619
000100 5f 3a 12 3d ec 2c e6 3c 72 c0 b2 bb 16 05 b9 3c
       0.0357002 0.028097592 -0.00545507 0.022585433
000110 4e 76 ae bd c1 b4 4f 3c 44 79 14 3d 86 b3 e6 3d
       -0.085186586 0.012677372 0.03624846 0.1126471
000120 49 21 80 bc a3 0e 38 3d 6a 8a 9b 3d c1 2c 08 bb
       -0.015640872 0.044935834 0.0759476 -0.0020778629
000130 44 e2 d3 bd 11 3c d8 bc 77 ab 80 bd 91 04 a2 3c
       -0.10345891 -0.02639583 -0.06282704 0.019777568
000140 07 9c dc 3c d8 78 f6 3b a2 fc fd 3d da da aa 3c
       0.026929868 0.00752173 0.124017015 0.02085631
000150 bc 28 9b 3c 4d ff 63 3d 6f ca b2 bd 45 2a 95 3c
       0.018940322 0.055663396 -0.087300174 0.018208632
000160 0b e0 b1 3d 26 d0 ca bc 94 86 1e ba cd 70 48 3d
       0.08685311 -0.024757456 -0.00060472754 0.0489357
000170 21 17 25 bd 4f 44 eb 3c e6 4c ba bc 0c 8d 0a bd
       -0.04030526 0.028719096 -0.022741746 -0.03382592
000180 3f fc a0 3d 72 19 d2 3c a5 f1 bd bd cc 84 0c 3b
       0.07860612 0.025646899 -0.09274606 0.0021441458

exp_avg_sq f4 [1, 100]
000000 38 1d d5 3a 97 7b 76 3c dd 80 89 3c 47 78 86 3c
       0.0016259318 0.015044115 0.01678508 0.016414775
000010 d7 33 86 3c 84 2b 66 3c a0 34 05 3b ba c0 71 3c
       0.016382141 0.014048461 0.0020325556 0.014755422
000020 6c bb 76 3c 06 db 03 3b f7 f7 83 3c 66 e8 90 3c
       0.015059333 0.0020119562 0.01610945 0.017688941
000030 2f 27 83 3c b2 c0 cc 3a f3 72 25 3b a6 58 65 3c
       0.016009895 0.0015621393 0.0025245517 0.013998186
000040 26 02 2f 3b ce 6f f6 3a ec 18 fc 3a 41 61 9b 3c
       0.0026704161 0.0018801631 0.0019233502 0.018967273
000050 b7 28 8f 3c ab 9b 5d 3a 31 df 6b 3c b4 94 71 3c
       0.017475469 0.00084536773 0.014396475 0.014744926
000060 a0 c5 82 3c 64 a7 0a 3b 08 08 80 3c 83 a8 77 3c
       0.015963376 0.0021156901 0.01562883 0.01511586
000070 ab a3 10 3b c2 51 80 3c 04 33 62 3c e1 05 ac 3a
       0.002207021 0.015663985 0.013806108 0.0013124311
000080 7d f0 a1 3c 32 ef e8 3a 46 9c 5f 3c a9 0c 7c 3c
       0.019767994 0.0017771481 0.013648098 0.015383878
000090 9b 4c 6d 3c 8d 19 85 3c 6c f8 15 3b 62 8f dc 3a
       0.014483596 0.016247535 0.0022883667 0.0016827399
0000a0 c9 bf 7d 3c 0a 25 32 3b 24 29 a5 3c 4e cb a1 3c
       0.01548762 0.0027182722 0.020161219 0.019750264
0000b0 d3 db 27 3b 1e 05 3e 3b 52 f2 99 3a e2 fd a4 3c
       0.0025613203 0.002899475 0.0011745191 0.020140592
0000c0 02 6f 8d 3c ee db 72 3c 74 88 80 3c 54 10 94 3a
       0.017264847 0.014822943 0.015690066 0.001129637
0000d0 e5 40 12 3b 9f 72 2d 3b 3d d3 fa 3a f8 03 4d 3b
       0.0022316512 0.0026466025 0.001913644 0.0031282883
0000e0 e5 f1 90 3c 91 68 92 3a 05 ee af 3c 19 48 82 3c
       0.01769347 0.0011170079 0.021475801 0.01590352
0000f0 d3 f6 32 3b 49 d3 6d 3c 96 4d 81 3c 0b b8 55 3c
       0.0027307763 0.014515706 0.015784066 0.013044368
000100 2c 31 93 3c d5 57 ee 3a 92 9e 91 3c 9a 52 79 3c
       0.017967783 0.0018184135 0.017775808 0.015217448
000110 de c1 9e 3c ae 1b bf 3a 85 ba dc 3a 2b b1 80 3c
       0.019379552 0.0014580393 0.0016840255 0.01570948
000120 1f 0d 04 3b 8f 05 a6 3c 00 83 73 3c 42 c4 81 3c
       0.0020149422 0.020266322 0.014862776 0.015840653
000130 76 52 98 3c 32 64 18 3b 1e ce 93 3c 91 e4 7e 3c
       0.018594008 0.002325308 0.01804262 0.015557424
000140 1a 5a 78 3c 6a 15 c5 3a a6 5a 9d 3c 3d ca 79 3c
       0.015158201 0.0015036289 0.019208264 0.015245971
000150 f3 6d 02 3b f4 1c 82 3c 1c 57 9c 3c 43 33 0c 3b
       0.001990196 0.015882947 0.019084506 0.002139286
000160 62 05 87 3c b9 2c 1e 3b a3 3b 2c 3a 96 83 86 3c
       0.016482059 0.0024135543 0.0006570166 0.016420167
000170 48 71 66 3c 23 da 75 3c f1 71 85 3c 2d ab 07 3b
       0.014065094 0.015005621 0.016289683 0.0020701394
000180 a0 1e 88 3c 6e 5d 01 3b 5b b8 80 3c e4 bd a9 3a
       0.016616166 0.0019739526 0.015712908 0.0012950269
