models/training_new_loss_pico_soustraction/model_1/space_buffer_8_date_buffer_1/train_pfts_1/MLP.pth (torch, 56798 bytes, 18 tensors)

layers.0.weight f4 [70, 6]
0.041807547 -3.4860983 6.7007217 -2.0664442 -0.16458459 0.44879696 3.1872408 -5.739184
1.8340197 0.45279577 -0.948221 -0.14642441 5.3743973 -4.0723066 2.2061298 -4.6620116
5.0107894 -0.8664731 1.5857695 -0.86990476 -0.11373836 -0.46740922 -1.3764228 1.7953357
-1.8929949 -3.0818446 5.133484 -1.2604762 -1.8226054 2.2132158 2.7220755 -0.1267879
5.991909 -4.4026694 -0.52821434 5.6383977 3.9787486 2.5111814 -0.034144264 -5.8885736
5.1986704 3.6033592 -1.5385536 -2.739403 -3.8963153 2.7923772 -0.26640585 -0.3366954
-1.191084 2.3268397 -0.75501466 -0.14272386 1.9960072 -4.253357 1.2260311 1.9488033
-0.9975107 -9.751538 6.00067 -0.34422177 -3.1332662 3.3764946 0.018273734 0.47009298
0.7924813 0.18605542 -0.9109491 3.9312232 -5.736405 2.9941363 -0.92656195 -0.47411937
0.3472398 3.7083838 -6.069428 3.0656843 -0.9403302 -0.15064935 5.567163 6.3445983
2.730106 -8.546602 -4.313927 4.3102913 -2.2216082 5.5408616 -3.1888344 -0.025930956
0.19008312 0.540113 0.6319798 -3.504402 4.2582655 -2.41044 0.78134495 -0.03488386
3.480058 -3.2268882 -2.3368745 2.1278286 2.1031213 -3.6013799 2.0239866 3.5158892
0.8442693 -10.204313 -4.6262736 6.8776298 0.1387963 3.3910391 1.6656255 -3.1548233
1.9075505 -3.8680577 5.4023147 -4.2746267 -1.1474441 0.51956236 -0.6284895 -0.11929643
-4.84565 3.9374387 0.68327767 0.21977152 -0.88839376 0.39223295 3.6703367 4.171197
-10.412075 -8.891681 0.92108583 3.9069 2.523569 4.8594904 -4.621576 -1.3320515
4.267612 -1.2655691 -3.6417103 1.5560313 -0.17193308 -1.2529669 -1.8952931 -0.007503608
1.4110274 0.61862487 -2.0090668 -0.26840818 0.8075819 0.0051972764 4.075238 1.1976082
0.5018862 -7.133136 2.6215913 -3.8280144 5.1424694 4.772998 0.30389282 -3.7258582
4.1160207 2.683068 -3.1671703 -0.07226227 7.897979 -6.6598735 2.3682725 2.202124
-4.5050254 -1.1130254 8.700638 1.3397019 -2.0290308 -3.2854948 2.4203632 -3.5092013
0.25273964 0.51350915 -2.498491 3.327683 1.9983333 0.011828514 0.56169987 -0.3905758
-5.928169 7.3690596 5.25626 -2.8494282 0.14063686 -1.3549422 -2.632031 4.1414084
-3.3282192 4.408846 -0.51027566 -0.46515 -0.3383907 1.0406338 1.8023207 -6.4795356
2.56419 -0.7132324 4.537861 -1.0696162 -3.522526 5.3717775 -1.2726626 -0.40918586
0.19066133 0.5128037 -5.7403183 2.5701258 1.9522749 1.1244851 1.6844292 -1.3161973
0.6055084 5.8624268 1.1030418 -9.834744 0.46487638 -8.6854315 -4.6594357 2.4801872
3.1298704 -2.106304 0.27159312 0.1388256 -0.42112955 -4.8699174 4.169574 -1.7428433
2.28632 -0.6732185 -2.134467 0.5406336 0.8778535 0.55368215 0.7467787 -1.0466729
3.6776881 -1.8994619 -3.9081614 3.2373214 -1.056582 -0.08804877 -2.2481508 -0.95512176
-2.3062074 2.16122 -2.178183 -6.137323 2.358843 3.8593154 -1.4517674 -4.0864058
00000000: 643e 2b3d 3c1c 5fc0 506c d640 9f40 04c0
00000010: dd88 28be b7c8 e53e c1fb 4b40 65a7 b7c0
00000020: 28c1 ea3f d9d4 e73e 9dbe 72bf 48f0 15be
00000030: 10fb ab40 5650 82c0 3b31 0d40 332f 95c0
00000040: 6358 a040 2ed1 5dbf 7ffa ca3f 14b2 5ebf
00000050: a8ef e8bd 4350 efbe 9f2e b0bf 8fcd e53f
00000060: a84d f2bf f13c 45c0 8045 a440 4957 a1bf
00000070: 224b e9bf 54a5 0d40 7c36 2e40 b0d4 01be
00000080: b8bd bf40 abe2 8cc0 0e39 07bf c16d b440
00000090: d1a3 7e40 32b7 2040 dbda 0bbd 326f bcc0
000000a0: 825b a640 709d 6640 53ef c4bf 6152 2fc0
000000b0: 3b5d 79c0 4fb6 3240 5966 88be 5763 acbe
000000c0: 7175 98bf f1ea 1440 a448 41bf 3426 12be
000000d0: 2a7d ff3f 801b 88c0 96ee 9c3f 6372 f93f
000000e0: dc5c 7fbf 4d06 1cc1 7d05 c040 d63d b0be
000000f0: 6f87 48c0 7d18 5840 ccb2 953c 07b0 f03e
00000100: 0ee0 4a3f 5085 3e3e f633 69bf 2999 7b40
00000110: a190 b7c0 ee9f 3f40 2a33 6dbf c6bf f2be
00000120: 6ac9 b13e 2956 6d40 c138 c2c0 2c34 4440
00000130: 7bb9 70bf d343 1abe 3326 b240 f306 cb40
00000140: 0fba 2e40 e2be 08c1 b10b 8ac0 e8ed 8940
00000150: d42e 0ec0 bd4e b140 dd15 4cc0 286d d4bc
00000160: 26a5 423e d844 0a3f 6ec9 213f 1f48 60c0
00000170: b643 8840 a644 1ac0 3906 483f 61e2 0ebd
00000180: 45b9 5e40 5685 4ec0 5a8f 15c0 582e 0840
00000190: 8a99 0640 027d 66c0 ff88 0140 5404 6140
000001a0: 0822 583f de44 23c1 6f0a 94c0 8b15 dc40
000001b0: 9e20 0e3e c906 5940 3733 d53f a0e8 49c0
000001c0: 9d2a f43f 428e 77c0 c3df ac40 bec9 88c0
000001d0: 73df 92bf 0a02 053f b0e4 20bf b051 f4bd
000001e0: 910f 9bc0 fffe 7b40 49eb 2e3f c90b 613e
000001f0: c66d 63bf c2d2 c83e cce6 6a40 727a 8540
00000200: dc97 26c1 5344 0ec1 48cc 6b3f a60a 7a40
00000210: 2882 2140 f280 9b40 f3e3 93c0 aa80 aabf
00000220: 4790 8840 2bfe a1bf c811 69c0 092c c73f
00000230: 3a0f 30be 3861 a0bf f798 f2bf d3e0 f5bb
00000240: 8c9c b43f 335e 1e3f 8d94 00c0 cc6c 89be
00000250: b0bd 4e3f ea4d aa3b 5a68 8240 3a4b 993f
00000260: 9d7b 003f a642 e4c0 27c8 2740 30fe 74c0
00000270: 1c8f a440 66bc 9840 d797 9b3e 7674 6ec0
00000280: 71b6 8340 63b7 2b40 ebb2 4ac0 3efe 93bd
00000290: 3ebc fc40 af1d d5c0 c791 1740 9aef 0c40
000002a0: 2b29 90c0 9e77 8ebf d035 0b41 5a7b ab3f
000002b0: a4db 01c0 8c45 52c0 3be7 1a40 c196 60c0
000002c0: 1767 813e 5675 033f 47e7 1fc0 c2f8 5440
000002d0: 63c9 ff3f 62cc 413c 90cb 0f3f 8df9 c7be
000002e0: 8fb3 bdc0 56cf eb40 4833 a840 085d 36c0
000002f0: 1c03 103e bf6e adbf 3273 28c0 6b86 8440
00000300: 8b01 55c0 4415 8d40 6da1 02bf 2428 eebe
00000310: 8c41 adbe 7d33 853f 72b2 e63f 5b58 cfc0
00000320: b01b 2440 6696 36bf 2836 9140 2fe9 88bf
00000330: 1171 61c0 9ae5 ab40 9ce6 a2bf cf80 d1be
00000340: b93c 433e 1a47 033f b0b0 b7c0 f17c 2440
00000350: 25e4 f93f 21ef 8f3f 609b d73f 2779 a8bf
00000360: 9902 1b3f 0099 bb40 7930 8d3f 1d5b 1dc1
00000370: 4704 ee3e 87f7 0ac1 191a 95c0 63bb 1e40
00000380: cc4f 4840 afcd 06c0 410e 8b3e 4c28 0e3e
00000390: 4b9e d7be 5dd6 9bc0 266d 8540 7d15 dfbf
000003a0: 1153 1240 0c58 2cbf 1b9b 08c0 f766 0a3f
000003b0: 02bb 603f 1dbe 0d3f e42c 3f3f 61f9 85bf
000003c0: 3e5f 6b40 9121 f3bf 511f 7ac0 4630 4f40
000003d0: 143e 87bf ea52 b4bd b4e1 0fc0 dc82 74bf
000003e0: e798 13c0 6e51 0a40 5a67 0bc0 f364 c4c0
000003f0: 49f7 1640 06ff 7640 84d3 b9bf d6c3 82c0

layers.0.bias f4 [70]
1.0886881 0.09008652 -1.3616048 -0.80273783 -1.2256389 3.2716153 -1.4623469 -5.9734488
5.7346454 2.9801934 -0.7183938 -0.2620081 0.05557352 2.6654367 -0.01005099 -0.012568249
0.37579617 -2.303498 2.7943342 0.09967255 0.11077259 3.023257 0.37282214 3.7262552
-0.12102546 2.4172683 3.8139892 -0.26671648 -2.9709773 -3.433397 1.1971003 -0.72236544
-0.10926563 -5.4720473 0.16612686 -0.509382 -1.0723281 0.19520612 -3.2787466 0.029045338
0.061980795 8.324944 -2.0936115 4.530386 -12.505245 5.4843454 2.9350471 -5.881321
0.2217824 1.4265084 -0.20617361 2.6428766 0.5140174 3.315791 0.25889808 3.1568594
-0.70670736 0.2250212 4.433987 0.33512095 -0.33443412 0.019104134 0.0192951 0.41386127
-0.40416104 6.5622807 -2.5422142 -0.25879514 2.109714 -4.478967
00000000: 225a 8b3f 487f b83d 1149 aebf 3a80 4dbf
00000010: bce1 9cbf 2562 5140 2f2e bbbf 7e26 bfc0
00000020: 3782 b740 7dbb 3e40 a8e8 37bf ed25 86be
00000030: 0fa1 633d 8496 2a40 e8ac 24bc 0feb 4dbc
00000040: 5b68 c03e 836c 13c0 5fd6 3240 1f21 cc3d
00000050: bddc e23d 0b7d 4140 8be2 be3e f77a 6e40
00000060: 32dc f7bd 86b4 1a40 6618 7440 108f 88be
00000070: 7e24 3ec0 c7bc 5bc0 953a 993f f1ec 38bf
00000080: a9c6 dfbd 031b afc0 291d 2a3e dc66 02bf
00000090: 0c42 89bf 1de4 473e fcd6 51c0 7df0 ed3c
000000a0: 93df 7d3d f832 0541 bbfd 05c0 ecf8 9040
000000b0: 7c15 48c1 c27f af40 d0d7 3b40 c833 bcc0
000000c0: ed1a 633e d497 b63f 2d1f 53be e424 2940
000000d0: a596 033f eb35 5440 4a8e 843e fc09 4a40
000000e0: c6ea 34bf f56b 663e 39e3 8d40 f994 ab3e
000000f0: f33a abbe 4680 9c3c c210 9e3c a0e5 d33e
00000100: 32ee cebe 34fe d140 a3b3 22c0 cc80 84be
00000110: 8e05 0740 b353 8fc0

layers.1.weight f4 [50, 70]
-0.035883937 0.1598042 0.9030752 0.40689456 2.3448539 0.38185722 -0.7206485 0.28863624
1.2704016 -2.298334 -1.5245612 -2.9126747 -3.7165394 1.7988715 -1.9198867 2.1640217
-2.4954493 -2.543128 -1.9282216 2.2406554 0.24311177 -0.4204697 -0.06186761 0.04506259
-0.786636 -0.22008955 -0.49536073 0.55579305 -0.4395116 0.9586511 -0.37325773 2.6021242
0.91361827 3.0618246 -0.11981921 -1.3307434 -2.302516 0.78078383 -0.26497832 -1.1048229
-0.7608149 3.0287228 2.047514 -1.8191901 2.3247366 -1.9554361 0.2345544 -0.25825116
-0.95557714 -0.26523128 -0.35121927 -0.763666 -0.06790102 0.755989 0.14384648 -1.6384968
-2.0541754 0.5037825 0.491328 -0.79797703 0.19440846 -0.6542756 -0.5336648 -1.4834985
1.3655025 -0.8634381 -0.40010294 -3.677309 0.20186816 -0.14276849 4.273735 1.3693128
-1.8742381 0.06948457 2.365744 2.6421835 -3.114609 -1.8921275 1.4012172 -1.9813507
0.3306204 -2.3821049 -1.469285 0.8002781 -3.7537649 0.8250671 -1.4330827 -2.6538885
1.5599406 3.65183 -1.102302 0.93581754 -1.6566545 -0.22814438 -1.7569873 1.5671469
7.141503 3.142623 0.81173694 1.3749121 -1.7125928 0.36639705 -0.5763521 1.1906992
-3.5459375 0.45306715 1.2494435 0.1854317 -2.3607128 0.4747536 -0.1442647 -0.0956706
-0.018290631 -0.9953862 0.716422 1.1967374 2.9716568 -0.84981585 0.28761595 3.159936
2.169315 0.8258608 1.2195673 0.27552512 -0.58413655 -2.251846 1.7757096 2.6551578
1.0761232 2.3099535 -2.1915522 1.7025579 0.38842374 -2.6679242 -0.9333537 -1.47259
-1.2172894 -2.2553854 -1.3033096 -5.6246853 0.40998715 1.2495158 0.42273775 -0.58477306
-2.2530296 -1.0492525 -2.2849126 -0.99588513 -0.12199743 -0.9529177 -1.0277883 0.053367507
-1.0436928 -0.52074194 -1.3183786 1.2276824 1.0192698 -3.5169683 2.0017495 0.14120695
-0.9124356 -1.2256756 -1.3651551 2.5657246 -0.3482671 -1.7694275 0.5184525 -0.8656707
2.084138 -0.015199165 -4.5200486 -0.35922554 -2.0690198 1.0305895 -2.1234891 0.21833594
-2.2176836 2.506009 1.2633791 0.9089716 -2.1344006 2.6290162 -3.9162815 -0.5408668
0.3008928 0.6986515 0.39441615 -0.9670583 -3.6583219 -0.20952058 2.0124462 1.0021709
0.095997825 -0.20843063 -0.7645196 1.8887925 -2.8731894 0.64036405 -1.6645905 0.6913206
-3.2329068 -0.51798743 1.5813313 0.089364976 -2.1524389 -0.9491681 0.29062077 0.037628863
0.8571267 0.23964788 -1.81282 -2.060558 -0.718955 -0.061344877 1.0180174 -0.091245525
1.4462812 1.0520644 -0.6810446 0.7356452 1.1887094 -1.0280361 -1.1645132 1.2960749
1.5172758 0.25284737 -1.2604464 1.1964138 2.066548 -3.6541083 5.106133 -0.22670664
0.34452024 1.2183824 0.59307075 -0.9630484 -0.2865039 5.7344494 0.2135788 0.68273556
-0.79802185 0.5310394 1.0514477 0.8624169 3.1124775 1.3775637 -3.4914498 4.1616225
1.4395818 1.1510304 -2.3031857 1.4496374 -1.3960978 0.23217814 1.4274943 0.53913426
00000000: 09fb 12bd b6a3 233e f02f 673f 7c54 d03e
00000010: 1612 1640 ca82 c33e 6c7c 38bf 21c8 933e
00000020: 859c a23f e717 13c0 d224 c3bf 4369 3ac0
00000030: c8db 6dc0 6c41 e63f d9be f5bf 557f 0a40
00000040: 71b5 1fc0 9cc2 22c0 f7cf f6bf e666 0f40
00000050: 4bf2 783e ce47 d7be e468 7dbd 8d93 383d
00000060: fa60 49bf 285f 61be ec9f fdbe 7448 0e3f
00000070: aa07 e1be 296a 753f a31b bfbe 3489 2640
00000080: e3e2 693f eff4 4340 c663 f5bd cd55 aabf
00000090: 6c5c 13c0 73e1 473f 3dab 87be d66a 8dbf
000000a0: c4c4 42bf 98d6 4140 780a 0340 39db e8bf
000000b0: 7cc8 1440 bb4b fabf 072f 703e 7f39 84be
000000c0: b4a0 74bf 65cc 87be 03d3 b3be 9d7f 43bf
000000d0: b10f 8bbd 7f88 413f 7e4c 133e 43ba d1bf
000000e0: 9c77 03c0 e4f7 003f 588f fb3e 3948 4cbf
000000f0: 0313 473e 9b7e 27bf 429e 08bf 47e3 bdbf
00000100: c9c8 ae3f 480a 5dbf 4bda ccbe 0859 6bc0
00000110: 87b6 4e3e e731 12be 70c2 8840 a445 af3f
00000120: 09e7 efbf ed4d 8e3d 5a68 1740 8919 2940
00000130: c155 47c0 3c31 f2bf 165b b33f e69c fdbf
00000140: 1447 a93e 6874 18c0 8811 bcbf 07df 4c3f
00000150: af3d 70c0 9937 533f 416f b7bf 4fd9 29c0
00000160: 22ac c73f 95b7 6940 3b18 8dbf bd91 6f3f
00000170: 410d d4bf ae9e 69be f6e4 e0bf 4598 c83f
00000180: 3187 e440 bc20 4940 fecd 4f3f 1ffd af3f
00000190: 3e36 dbbf 6598 bb3e d08b 13bf d568 983f
000001a0: a4f0 62c0 6bf8 e73e c4ed 9f3f cfe1 3d3e
000001b0: eb15 17c0 e712 f33e 20ba 13be f3ee c3bd
000001c0: 3cd6 95bc a1d1 7ebf 6f67 373f b12e 993f
000001d0: a02f 3e40 888d 59bf 6642 933e 643c 4a40
000001e0: 0fd6 0a40 9d6b 533f c81a 9c3f a111 8d3e
000001f0: f989 15bf 3f1e 10c0 744a e33f 1bee 2940
00000200: 68be 893f 47d6 1340 6442 0cc0 6bed d93f
00000210: 7adf c63e 45bf 2ac0 45f0 6ebf d47d bcbf
00000220: 24d0 9bbf 3c58 10c0 d9d2 a6bf 6cfd b3c0
00000230: d6e9 d13e 22f0 9f3f 1571 d83e b0b3 15bf
00000240: a331 10c0 e84d 86bf 023c 12c0 54f2 7ebf
00000250: cad9 f9bd 6af2 73bf 918e 83bf e397 5a3d
00000260: ba97 85bf 584f 05bf a1c0 a8bf b224 9d3f
00000270: 6f77 823f 0216 61c0 aa1c 0040 8e98 103e
00000280: 6195 69bf f0e2 9cbf 67bd aebf d534 2440
00000290: 1150 b2be 9a7c e2bf 4eb9 043f 989c 5dbf
000002a0: 8462 0540 eb05 79bc 3da4 90c0 69ec b7be
000002b0: d26a 04c0 5bea 833f 3fe7 07c0 7593 5f3e
000002c0: 87ee 0dc0 7462 2040 68b6 a13f 5db2 683f
000002d0: 059a 08c0 cd41 2840 5ba4 7ac0 3f76 0abf
000002e0: 9f0e 9a3e d3da 323f eaf0 c93e 2291 77bf
000002f0: f221 6ac0 908c 56be ebcb 0040 2347 803f
00000300: 829a c43d d76e 55be 8eb7 43bf f4c3 f13f
00000310: 56e2 37c0 e6ee 233f 4d11 d5bf 63fa 303f
00000320: f2e7 4ec0 d39a 04bf 1069 ca3f fc04 b73d
00000330: 8fc1 09c0 aefc 72bf 3fcc 943e b920 1a3d
00000340: a86c 5b3f 4166 753e 7c0a e8bf 2fe0 03c0
00000350: 6f0d 38bf c444 7bbd 654e 823f efde babd
00000360: be1f b93f 0caa 863f f058 2ebf 3e53 3c3f
00000370: a127 983f b096 83bf c50e 95bf c8e5 a53f
00000380: 1836 c23f 3675 813e 4f56 a1bf 1624 993f
00000390: 5342 0440 e9dc 69c0 7165 a340 c925 68be
000003a0: f564 b03e f4f3 9b3f 7cd3 173f 578a 76bf
000003b0: a4b0 92be 9c80 b740 67b4 5a3e c2c7 2e3f
000003c0: 294b 4cbf 33f2 073f d795 863f 5bc7 5c3f
000003d0: d532 4740 0254 b03f ea73 5fc0 032c 8540
000003e0: 3744 b83f f754 933f 6567 13c0 b88d b93f
000003f0: 55b3 b2bf 1bc0 6d3e 22b8 b63f b404 0a3f

layers.1.bias f4 [50]
-6.828638 3.697701 2.5376425 0.3125867 -0.5603068 1.7779619 8.897791 -3.6683388
-2.6681166 -1.4101969 3.4641883 7.0298524 -0.53809357 6.353633 4.7927475 -4.822057
3.032345 0.34914076 -0.48984757 -0.49044225 2.7447503 -4.2989206 3.1619365 0.28265914
4.2970667 0.8466841 3.860208 -6.2466297 -5.9267745 -3.5372643 4.458503 -2.7704802
2.7832632 -1.1123616 5.5011387 3.9412365 5.6919003 5.755402 6.145574 5.8472133
-5.292569 3.7439122 -2.1025286 -1.9702088 -4.1234665 -5.3055487 1.6826785 -2.705083
-7.176378 -6.26364
00000000: 3484 dac0 22a7 6c40 bc68 2240 5d0b a03e
00000010: 4470 0fbf 4194 e33f 5a5d 0e41 10c6 6ac0
00000020: 6cc2 2ac0 5581 b4bf 43b5 5d40 8df4 e040
00000030: 80c0 09bf f650 cb40 305e 9940 4a4e 9ac0
00000040: f111 4240 94c2 b23e 4dcd fabe 3f1b fbbe
00000050: fda9 2f40 c290 89c0 2b5d 4a40 b3b8 903e
00000060: 9281 8940 4ac0 583f a60d 7740 64e4 c7c0
00000070: 23a8 bdc0 8a62 62c0 0eac 8e40 8c4f 31c0
00000080: fc20 3240 dd61 8ebf 5409 b040 383d 7c40
00000090: 0c24 b640 412c b840 8ba8 c440 5f1c bb40
000000a0: ba5c a9c0 429c 6f40 d48f 06c0 cd2f fcbf
000000b0: 70f3 83c0 0ec7 a9c0 0262 d73f 1420 2dc0
000000c0: e3a4 e5c0 bd6f c8c0

output.weight f4 [2, 50]
0.060776804 -0.06905627 0.024737982 0.034433294 -0.03581117 -0.044575896 -0.1223088 0.104760006
0.07287735 0.0003353174 0.027019732 0.09309953 -0.019868843 -0.045883585 0.045199815 0.028182324
-0.058509093 -0.057574995 -0.010445672 0.0784917 -0.10154728 0.021198623 -0.058040455 -0.088353164
0.093136564 0.0046033454 -0.013883645 -0.06398591 0.062069643 0.054142296 -0.055489454 0.058100246
0.036649447 -0.01180236 -0.06140142 -0.07905973 0.027441798 -0.024239235 -0.010264827 0.028787939
0.05299308 0.0007322338 -0.0009731751 -0.017770361 0.06723829 0.032204423 -0.06894411 0.060931783
0.0748532 -0.042572424 0.049522705 -0.028076839 -0.0818942 0.047539063 -0.05545819 -0.025035685
-0.015982814 0.06958399 -0.02229222 0.050512943 0.027890572 -0.06633688 -0.007637734 -0.04262471
-0.0725279 0.050366137 -0.041110683 0.061846357 0.078044355 -0.017422665 -0.03706404 0.06798603
-0.040088117 0.022440137 -0.0071206815 -0.06824983 -0.049188558 -0.008447384 0.00908232 -0.07948694
-0.006793086 0.014739429 0.027645685 0.06905663 -0.06180671 0.0065986956 -0.050861336 -0.069599815
-0.06458199 0.03452617 0.03747828 0.05870459 -0.05188847 -0.031387318 -0.054660466 0.051357035
-0.077156335 0.027310284 0.046450764 -0.037458133
00000000: 19f1 783d 606d 8dbd 4fa7 ca3c ed09 0d3d
00000010: bcae 12bd 3795 36bd 097d fabd 6a8c d63d
00000020: b840 953d 8acd af39 7c58 dd3c f7aa be3d
00000030: fcc3 a2bc 6df0 3bbd 7123 393d 9ede e63c
00000040: 3ba7 6fbd c2d3 6bbd 5324 2bbc 42c0 a03d
00000050: 05f8 cfbd bca8 ad3c d4bb 6dbd 81f2 b4bd
00000060: 62be be3d a9d7 963b 3a78 63bc 0b0b 83bd
00000070: bd3c 7e3d 50c4 5d3d e948 63bd 86fa 6d3d
00000080: bb1d 163d b05e 41bc 0e80 7bbd 11ea a1bd
00000090: 9fcd e03c 5c91 c6bc ce2d 28bc afd4 eb3c
000000a0: 460f 593d 61f3 3f3a ad1c 7fba 2693 91bc
000000b0: 3bb4 893d c9e8 033d 9232 8dbd 9b93 793d
000000c0: a24c 993d 6c60 2ebd 52d8 4a3d 6601 e6bc
000000d0: 25b8 a7bd 52b8 423d 2128 63bd a317 cdbc
000000e0: 64ee 82bc 0d82 8e3d 2c9e b6bc a9e6 4e3d
000000f0: c57a e43c a1db 87bd f545 fabb 3f97 2ebd
00000100: 8289 94bd b94c 4e3d ad63 28bd 9b52 7d3d
00000110: b8d5 9f3d fab9 8ebc 76d0 17bd 423c 8b3d
00000120: 7033 24bd 61d4 b73c 9b54 e9bb 91c6 8bbd
00000130: f179 49bd e666 0abc 03ce 143c 0cca a2bd
00000140: 8998 debb a57d 713c 3479 e23c 906d 8d3d
00000150: 0829 7dbd df39 d83b fa53 50bd 598a 8ebd
00000160: 9043 84bd 506b 0d3d d382 193d 3974 703d
00000170: 0189 54bd fd8f 00bd a7e3 5fbd c15b 523d
00000180: 2404 9ebd d1b9 df3c 2843 3e3d b36d 19bd

output.bias f4 [2]
0.5845788 0.3910346
00000000: f5a6 153f b035 c83e

exp_avg f4 [70, 6]
4.999121e-05 6.304265e-05 0.00011083488 0.0003095727 0.0004234716 0.00015099416 -0.0003383552 -0.00050016644
-0.0005065094 0.001067826 0.0016342746 0.0014051565 -0.0014502759 -0.0014831412 -0.001337235 -0.00041682247
0.0009656032 0.0011399046 1.5479485e-06 2.1960115e-05 -5.0649223e-06 -0.00036573634 -0.00025747746 -0.00019962277
2.9338618e-05 -0.00026309316 -0.00074213144 -0.0018980178 -0.0032899764 -0.0021369122 -0.0023025987 -0.002257076
-0.0020750863 -0.00041945613 0.0017141378 0.0018973795 -0.0011486799 -0.0011857339 -0.0012273175 -0.00090308767
0.00016357932 0.00017746915 -0.0011782664 -0.0012258006 -0.0010756887 -0.00022914672 0.00020071806 0.000532718
0.0005157285 0.0005242918 0.00043359524 -4.8609134e-05 -0.0003397487 -0.0005191913 -0.00020157288 -8.082901e-05
-3.0312143e-05 0.00047885012 0.00061602454 0.00016860754 -0.00015433683 -0.00017504168 -0.00030534106 -0.00059537933
-0.00065876264 -0.0003429551 -0.00050451444 -0.00040713564 -0.00027794615 -0.00032088291 0.0007417891 0.0012921441
-0.00092508964 -0.0006970787 -0.00092151825 -0.0013653926 -1.9737088e-05 -0.0004756988 0.000102534235 0.00012902005
9.794921e-05 2.4495639e-05 -7.27267e-05 -0.0005091851 -0.00040367854 -0.00028110962 -0.00039971064 -0.0013630076
-0.00090857176 -5.21912e-05 -0.00045637353 -0.0005200878 -0.000385951 0.0005478522 0.000363599 0.0006712342
0.00014079579 0.00017403736 0.00011472605 4.094103e-05 -2.1925838e-05 -0.00015040983 2.361654e-06 6.6622188e-06
6.1420535e-05 -3.574012e-05 0.00010513992 -2.9020945e-05 0.00015543835 0.00019052158 0.0002694976 0.00022246169
0.00036220046 6.88755e-05 -0.0017241072 -0.0016915511 -0.0014636733 -0.00017466732 0.0021008572 0.0009906682
0.0004538163 0.00042981032 0.0011116713 0.0022035553 0.002398997 0.002486821 0.00013198711 0.000109719556
0.00011108457 -0.000104001876 -7.9082354e-05 0.00026292578 -0.000117742136 -0.00015342874 -0.00045472925 -0.0016053221
-0.00095268764 -0.0013428127 0.0004574771 0.00046878643 0.00061184797 0.00094232976 0.0006721686 0.00045117963
-0.00020868916 -0.0001858413 -0.00044067137 -0.0010436644 -0.0011119653 -0.0011787827 0.00042294734 0.0003851205
0.00026531675 -2.7394373e-05 -0.00068126357 -0.00026507745 -0.0013783183 -0.0012360392 -0.00090889115 0.0004341015
0.0019217356 0.0011186992 -0.00066656363 -0.0005902779 -0.00058580365 -8.973635e-05 0.00043534016 0.00020265137
5.3334927e-05 0.000112936745 9.4183175e-05 6.470017e-05 -0.00011840371 -0.00033629333 -0.0011995074 -0.0011764907
-0.0010935502 -0.00058628374 0.00044399183 0.0007153622 0.0006583902 0.00063266273 0.0007218874 0.0006303635
-0.00016469372 -0.00050530856 -0.00020499872 -0.00030774047 -0.00027191013 -0.00017683329 -0.00017938124 -7.173078e-05
-0.0006271328 -0.0006779769 -0.0008797434 -0.0016780458 -0.0008070995 -1.7281693e-05 0.00027120623 0.00031236428
0.0003891738 0.00044331278 6.6902336e-05 -7.5408357e-06 0.00029432846 0.00029265904 0.000283878 -0.0003048691
-0.00096040836 0.0010092169 0.0018379339 0.0017449914 0.0018586718 0.0011911697 -0.00079606415 -0.00023060093
0.00062906166 0.0006722929 0.00068856496 0.0005884381 -2.9036586e-05 -7.6901415e-05 -0.00012163721 -6.8073954e-05
0.00013393797 0.001269526 0.0018065912 0.001911079 0.00021163073 9.502814e-05 -1.4657047e-06 -0.0005224248
-0.0007803974 -0.000315737 0.0007733214 0.0007588667 0.00086096284 0.00091795844 0.00020376228 0.00042636838
-0.0005866094 -0.00048851 -0.00031033263 8.368317e-05 0.0005511095 0.00059596973 0.00031279383 0.00030011983
0.00034641556 0.00019287271 -0.00022926097 -0.0003474518 -0.0009220352 -0.00087814877 -0.0007553592 -0.0002373895
00000000: a7ad 5138 c435 8438 0670 e838 254e a239
00000010: 6505 de39 3054 1e39 4465 b1b9 9a1d 03ba
00000020: 45c7 04ba 4bf6 8b3a 2835 d63a 3a2d b83a
00000030: 2f17 beba f665 c2ba 2946 afba f788 dab9
00000040: 8920 7d3a da68 953a 1bc3 cf35 fd36 b837
00000050: 5af3 a9b6 4dc0 bfb9 0afe 86b9 d451 51b9
00000060: 341c f637 c4ef 89b9 998b 42ba e9c6 f8ba
00000070: a59c 57bb 700b 0cbb 32e7 16bb 74eb 13bb
00000080: 2cfe 07bb 73ea dbb9 ecac e03a 7eb1 f83a
00000090: 4d8f 96ba a16a 9bba f1dd a0ba 30bd 6cba
000000a0: 7d86 2b39 0317 3a39 0f70 9aba 0bab a0ba
000000b0: 20fe 8cba 1b47 70b9 d877 5239 1aa6 0b3a
000000c0: f431 073a a170 093a 2b54 e339 a9e1 4bb8
000000d0: 4c20 b2b9 571a 08ba 4f5d 53b9 bf82 a9b8
000000e0: d546 feb7 2d0e fb39 b57c 213a 3ecc 3039
000000f0: 7ad5 21b9 658b 37b9 2f16 a0b9 3b13 1cba
00000100: d0b0 2cba a8ce b3b9 6441 04ba d274 d5b9
00000110: 4db9 91b9 2d3c a8b9 a074 423a 295d a93a
00000120: b781 72ba 29bc 36ba 0b92 71ba f9f6 b2ba
00000130: 1391 a5b7 3667 f9b9 a607 d738 8e49 0739
00000140: 156a cd38 fc7b cd37 da84 98b8 d57a 05ba
00000150: d1a4 d3b9 e561 93b9 4190 d1b9 f2a6 b2ba
00000160: 382d 6eba e0e7 5ab8 6b45 efb9 8056 08ba
00000170: 7759 cab9 bd9d 0f3a 6fa1 be39 c4f5 2f3a
00000180: 95a2 1339 cc7d 3639 1499 f038 19b8 2b38
00000190: 61ed b7b7 55b7 1db9 e87c 1e36 068c df36
000001a0: e6ce 8038 a9e7 15b8 917e dc38 0172 f3b7
000001b0: 2afd 2239 bfc6 4739 5b4b 8d39 9b44 6939
000001c0: b9e5 bd39 4171 9038 70fb e1ba 09b7 ddba
000001d0: bad8 bfba e726 37b9 89ae 093b 4fd9 813a
000001e0: 31ee ed39 2a58 e139 80b5 913a 8669 103b
000001f0: 7e38 1d3b eff9 223b 0566 0a39 3d19 e638
00000200: 13f6 e838 951b dab8 04d9 a5b8 4dd9 8939
00000210: 54ec f6b8 b7e1 20b9 ba68 eeb9 ac69 d2ba
00000220: c9bd 79ba 5101 b0ba 89d9 ef39 73c7 f539
00000230: 6c64 203a ae06 773a 7934 303a 4e8c ec39
00000240: 92d3 5ab9 65de 42b9 e909 e7b9 91cb 88ba
00000250: 5dbf 91ba 6281 9aba 08bf dd39 00ea c939
00000260: 361a 8b39 f8cc e5b7 d396 32ba 18fa 8ab9
00000270: b0a8 b4ba 9802 a2ba a742 6eba 1e98 e339
00000280: bfe2 fb3a 51a1 923a 54bc 2eba e1bc 1aba
00000290: 9e90 19ba d630 bcb8 5e3e e439 d07e 5439
000002a0: f1b3 5f38 74d8 ec38 3584 c538 a4af 8738
000002b0: 824f f8b8 8750 b0b9 ca38 9dba 7a34 9aba
000002c0: 7555 8fba d6b0 19ba 93c7 e839 2587 3b3a
000002d0: d297 2c3a 47d9 253a 0b3d 3d3a fa3e 253a
000002e0: a2b1 2cb9 af76 04ba edf4 56b9 3a58 a1b9
000002f0: 298f 8eb9 536c 39b9 4918 3cb9 2b6e 96b8
00000300: 2b66 24ba 42ba 31ba 959e 66ba e0f1 dbba
00000310: 8893 53ba 27f8 90b7 af30 8e39 d3c4 a339
00000320: 060a cc39 6f6c e839 eb4d 8c38 4907 fdb6
00000330: 1950 9a39 0870 9939 76d5 9439 d7d6 9fb9
00000340: eac3 7bba b347 843a d4e6 f03a 32b8 e43a
00000350: ad9e f33a 0621 9c3a f6ae 50ba 77cd 71b9
00000360: 9de7 243a d03c 303a d080 343a 6a41 1a3a
00000370: 9893 f3b7 2246 a1b8 7b17 ffb8 edc2 8eb8
00000380: b371 0c39 3966 a63a 24cb ec3a 2c7d fa3a
00000390: 31e9 5d39 d849 c738 3bb9 c4b5 56f3 08ba
000003a0: 9593 4cba 8189 a5b9 b8b8 4a3a afee 463a
000003b0: 3db2 613a 26a3 703a 05a9 5539 328a df39
000003c0: b1c6 19ba 5a0f 00ba 24b4 a2b9 0f7f af38
000003d0: 5578 103a da3a 1c3a 7afe a339 6759 9d39
000003e0: 1c9f b539 e03d 4a39 c665 70b9 312a b6b9
000003f0: bcb4 71ba 9133 66ba 4c03 46ba c2eb 78b9

exp_avg_sq f4 [70, 6]
2.2758642e-05 2.379738e-05 1.758428e-05 3.622719e-05 4.3800454e-05 4.115173e-05 0.00013843537 0.0001357235
0.000118364565 8.660392e-05 0.00014661708 0.00015699568 3.511708e-05 3.6015063e-05 2.7776534e-05 1.4418934e-05
4.3788423e-05 4.457807e-05 2.2932634e-05 2.2617493e-05 2.1031847e-05 9.588366e-06 1.2654335e-05 1.6850448e-05
0.00010348535 0.00010554364 8.5404376e-05 7.407708e-05 0.00015559744 0.00015544152 4.2657746e-05 4.3860815e-05
3.555722e-05 1.7588342e-05 4.1094776e-05 4.402797e-05 1.6230038e-05 1.5792313e-05 1.4767986e-05 1.5081555e-05
1.774732e-05 1.481469e-05 8.981265e-06 1.0001394e-05 1.0650492e-05 1.0260187e-05 9.671331e-06 7.422249e-06
7.3663075e-05 7.5146345e-05 6.769414e-05 3.567414e-05 5.8554673e-05 8.205218e-05 9.13541e-06 8.818343e-06
5.3564668e-06 7.443666e-06 1.5108962e-05 1.3244521e-05 1.1380597e-05 1.1149505e-05 9.23071e-06 4.281209e-06
9.146345e-06 1.0788894e-05 6.792658e-05 6.6826135e-05 5.7251895e-05 4.9185088e-05 9.2411385e-05 7.641545e-05
7.589515e-05 7.5255004e-05 6.606875e-05 4.6957197e-05 8.0054946e-05 7.249232e-05 3.9175256e-06 5.153414e-06
6.2934196e-06 7.2445455e-06 1.1499908e-06 2.6307662e-06 0.00015854691 0.00015806843 0.0001234164 6.0641392e-05
0.0001680295 0.00018815676 5.632818e-05 5.5645713e-05 4.7624555e-05 2.8647552e-05 6.1570354e-05 5.8239068e-05
2.955369e-05 2.8884788e-05 2.505804e-05 1.0813262e-05 2.7748063e-05 3.1864372e-05 1.2138344e-05 1.2431481e-05
1.3076081e-05 5.119823e-06 2.7813057e-06 5.1223105e-06 5.4073175e-06 5.734025e-06 9.307278e-06 1.3285648e-05
4.279033e-06 4.956994e-06 7.643665e-05 8.233503e-05 8.416169e-05 6.005833e-05 4.6853304e-05 6.8477464e-05
0.0002309798 0.0002323763 0.00018838418 9.521645e-05 0.00023056273 0.0002574439 9.134764e-06 7.710249e-06
3.4445575e-06 5.017663e-06 1.4514679e-05 1.4897217e-05 0.00011287878 0.00011250756 9.9470664e-05 9.704662e-05
0.00015198432 0.0001516913 5.563639e-06 5.6411095e-06 4.0512045e-06 3.857767e-06 5.9001522e-06 5.884206e-06
1.7789574e-05 1.7019023e-05 1.3233854e-05 7.909772e-06 1.5796379e-05 1.5562497e-05 2.6169944e-05 2.643957e-05
2.7899458e-05 1.4504014e-05 9.533013e-06 1.3613654e-05 2.9334933e-05 2.9395605e-05 2.464685e-05 1.2447492e-05
2.8368006e-05 3.4112254e-05 3.710259e-05 3.7698203e-05 3.170949e-05 3.4127195e-05 4.897639e-05 4.259028e-05
4.146015e-06 3.5823462e-06 3.322335e-06 3.4055226e-06 3.531318e-06 2.1594685e-06 0.0001504192 0.00015518359
0.00013938153 7.0681046e-05 0.000104185245 0.00015224156 2.3506303e-05 2.291879e-05 1.5601756e-05 1.878084e-05
4.0245806e-05 3.814385e-05 1.2355179e-05 1.2953657e-05 1.3818643e-05 9.459576e-06 7.2382877e-06 1.0065022e-05
6.571148e-05 6.478215e-05 5.7184876e-05 3.9335126e-05 7.200908e-05 6.853575e-05 1.03492175e-05 1.11888085e-05
1.2428782e-05 1.2890514e-05 8.569485e-06 7.864609e-06 0.00017258202 0.00017319978 0.00013643118 8.827304e-05
0.00023700568 0.0002429937 4.6436962e-05 4.6483117e-05 4.7253372e-05 2.5998917e-05 1.4242523e-05 2.9467044e-05
2.6615753e-06 2.9698026e-06 3.4416632e-06 3.17292e-06 1.1427597e-06 4.4934097e-07 5.323272e-05 5.5164848e-05
5.060123e-05 3.8454822e-05 5.092316e-05 4.947788e-05 1.4432215e-05 1.4885825e-05 1.3472477e-05 2.7942893e-05
3.506097e-05 2.7707261e-05 2.2792221e-05 2.296248e-05 2.2887722e-05 1.1367268e-05 1.0571824e-05 1.5129691e-05
4.4962737e-05 4.4400917e-05 4.00631e-05 1.8306515e-05 3.7095866e-05 3.3746528e-05 1.250118e-05 1.2126172e-05
9.354671e-06 1.545522e-05 2.5932412e-05 2.267071e-05 9.4279885e-06 8.67458e-06 9.569205e-06 1.08813665e-05
00000000: d0e9 be37 7ca0 c737 f481 9337 a6f2 1738
00000010: 61b6 3738 559a 2c38 f628 1139 0051 0e39
00000020: 7e3a f838 209f b538 39bd 1939 359f 2439
00000030: ad4a 1338 e10e 1738 a701 e937 dae8 7137
00000040: 76a9 3738 57f9 3a38 755f c037 b2ba bd37
00000050: 8c6d b037 b8dd 2037 f44d 5437 105a 8d37
00000060: 4606 d938 4f57 dd38 201b b338 d459 9b38
00000070: df27 2339 04fe 2239 68eb 3238 31f7 3738
00000080: 4623 1538 ad8a 9337 2e5d 2c38 acaa 3838
00000090: be25 8837 bc79 8437 04c4 7737 c906 7d37
000000a0: 14e0 9437 9c8c 7837 3dae 1637 a9cb 2737
000000b0: 84af 3237 2b23 2c37 0d42 2237 a20c f936
000000c0: 907b 9a38 e397 9d38 04f7 8d38 d1a0 1538
000000d0: 9a98 7538 6e13 ac38 4a44 1937 7ff2 1337
000000e0: b3bb b336 9bc4 f936 7f7c 7d37 c934 5e37
000000f0: 4bef 3e37 c20e 3b37 99dd 1a37 4ea7 8f36
00000100: 4173 1937 f201 3537 ce73 8e38 0225 8c38
00000110: c121 7038 164c 4e38 fccc c138 3b41 a038
00000120: e629 9f38 39d2 9d38 648e 8a38 e8f3 4438
00000130: 2ce3 a738 0507 9838 4a73 8336 7deb ac36
00000140: 102c d336 2c16 f336 6259 9a35 388c 3036
00000150: 9d3f 2639 2cbf 2539 5669 0139 3359 7e38
00000160: 1331 3039 f24b 4539 ec41 6c38 2165 6938
00000170: 7ac0 4738 2650 f037 551f 8138 b945 7438
00000180: 11ea f737 9c4d f237 bb33 d237 9b6a 3537
00000190: 83c4 e837 1ca6 0538 caa5 4b37 ce90 5037
000001a0: 5761 5b37 f2ca ab36 78a6 3a36 50e0 ab36
000001b0: 8170 b536 e666 c036 7426 1c37 6ce5 5e37
000001c0: 9d94 8f36 4154 a636 9d4c a038 48ab ac38
000001d0: f77f b038 24e7 7b38 5a84 4438 8f9b 8f38
000001e0: 2b33 7239 0aaa 7339 fe88 4539 f1ae c738
000001f0: 36c3 7139 89f9 8639 8341 1937 445b 0137
00000200: 0c29 6736 665d a836 1284 7337 0fef 7937
00000210: 55b9 ec38 09f2 eb38 e89a d038 8285 cb38
00000220: fb5d 1f39 530f 1f39 4caf ba36 c348 bd36
00000230: 95ef 8736 f771 8136 ecf9 c536 f270 c536
00000240: d23a 9537 13c4 8e37 f806 5e37 36b4 0437
00000250: 7782 8437 358c 8237 8787 db37 8bca dd37
00000260: a109 ea37 4456 7337 fbef 1f37 3366 6437
00000270: 4a14 f637 9596 f637 b5c0 ce37 92d5 5037
00000280: d4f7 ed37 c113 0f38 9a9e 1b38 231e 1e38
00000290: ceff 0438 cc23 0f38 006c 4d38 f7a2 3238
000002a0: ff1d 8b36 3d68 7036 48f5 5e36 6f8a 6436
000002b0: 95fb 6c36 63eb 1036 d9b9 1d39 c7b8 2239
000002c0: f226 1239 993a 9438 077e da38 08a3 1f39
000002d0: 672f c537 ba41 c037 84e0 8237 8c8b 9d37
000002e0: 9bcd 2838 a6fc 1f38 1749 4f37 8853 5937
000002f0: 9fd6 6737 92b4 1e37 6be0 f236 f1dc 2837
00000300: 95ce 8938 a7db 8738 cbd9 6f38 c5fb 2438
00000310: 9503 9738 daba 8f38 8da1 2d37 91b7 3b37
00000320: 3685 5037 5644 5837 a8c5 0f37 3df2 0337
00000330: 22f7 3439 f69c 3539 f70e 0f39 3a1f b938
00000340: ba84 7839 20cc 7e39 4fc5 4238 def6 4238
00000350: ec31 4638 4018 da37 2cf3 6e37 ff2f f737
00000360: 849d 3236 d24c 4736 53f7 6636 5aee 5436
00000370: ed60 9935 f43c f134 3346 5f38 ce60 6738
00000380: a83c 5438 8d4a 2138 5496 5538 7886 4f38
00000390: e421 7237 22be 7937 d907 6237 e866 ea37
000003a0: 6e0e 1338 e46c e837 ec31 bf37 8d9f c037
000003b0: 02ff bf37 0bb6 3e37 a35d 3137 87d5 7d37
000003c0: 5f96 3c38 1f3b 3a38 6d09 2838 f190 9937
000003d0: 6297 1b38 0f8b 0d38 29bc 5137 8371 4b37
000003e0: 02f2 1c37 d5a5 8137 6e89 d937 fb2c be37
000003f0: e72c 1e37 0a89 1137 6c8b 2037 1d8f 3637

exp_avg f4 [70]
9.4943105e-05 0.0044217096 0.0013255759 4.4643097e-05 9.928874e-05 0.0019397028 0.00025822924 0.0014603318
-0.0003434237 0.00047382482 -0.0008454727 -0.0024924045 -0.0025419905 -3.408053e-05 -0.0035196624 0.0035669573
-0.00039103537 -0.000100726174 -0.00028628 0.003410799 -0.00048760307 -0.0005645555 -0.00059092493 0.0010545191
-0.0005443876 -0.000744875 0.0010743988 0.0007237807 0.000589055 0.0005898676 0.0007279577 0.00064154103
-0.0026771154 -4.346796e-05 -0.0036482494 -0.0020275842 8.881931e-05 0.00079879636 -0.00033022847 -0.00038551085
-0.00065198896 -0.00015171134 0.00071429095 -6.8098016e-05 0.00055970886 0.00028425513 -0.000118717486 0.0002438676
-0.0018669498 0.00018945751 0.0010027093 -0.0009981294 -0.00039881928 0.00023055015 0.00036773653 0.00015252385
0.00080790377 0.0014124679 -0.00021750343 -0.00012158899 -0.0009008658 0.0017612679 -0.0026487743 -0.00084112707
0.00010871708 3.7377613e-05 -0.000542664 -0.002163003 0.0015985313 0.0001435679
00000000: 311c c738 fde3 903b f2be ad3a 293f 3b38
00000010: 3d39 d038 a03d fe3a f162 8739 9b68 bf3a
00000020: 8c0d b4b9 b16b f839 b6a2 5dba 9c57 23bb
00000030: 8697 26bb b1f1 0eb8 23aa 66bb 9dc3 693b
00000040: e103 cdb9 f43c d3b8 da17 96b9 b687 5f3b
00000050: faa4 ffb9 aefe 13ba 4de8 1aba ca37 8a3a
00000060: 3cb5 0eba b743 43ba d7d2 8c3a 1abc 3d3a
00000070: d06a 1a3a 58a1 1a3a 6ad4 3e3a 172d 283a
00000080: 8b72 2fbb 5e51 36b8 7817 6fbb 38e1 04bb
00000090: 8144 ba38 5166 513a 8422 adb9 641e cab9
000000a0: 3dea 2aba b414 1fb9 413f 3b3a d8cf 8eb8
000000b0: 6db9 123a 1408 9539 f7f7 f8b8 b6b6 7f39
000000c0: 71b4 f4ba 1da9 4639 576d 833a aad3 82ba
000000d0: 9e18 d1b9 d6bf 7139 c3cc c039 cfee 1f39
000000e0: 81c9 533a 8f22 b93a a211 64b9 98fd feb8
000000f0: 1528 6cba 58da e63a 0f97 2dbb 157f 5cba
00000100: 0aff e338 e8c5 1c38 9141 0eba 2bc1 0dbb
00000110: cf85 d13a b78a 1639

exp_avg_sq f4 [70]
4.752548e-05 0.00013911979 2.3279372e-05 1.34899965e-05 0.00013864854 2.6443802e-05 1.9109442e-05 1.2369889e-05
2.4678162e-05 1.259691e-05 9.12594e-06 6.110157e-05 6.7933455e-05 4.969836e-06 0.00012583281 5.3093514e-05
2.0076192e-05 1.0880523e-05 1.64859e-05 0.00010808425 0.00013595483 9.337123e-06 0.00011658592 4.0708896e-06
1.8564864e-05 1.5050207e-05 1.5939782e-05 4.232393e-05 5.6932163e-06 5.7335183e-05 1.3475519e-05 1.122953e-05
5.84171e-05 9.639327e-06 0.00015302227 2.835231e-05 3.0569315e-06 5.098324e-05 2.1091342e-05 2.1076756e-05
4.120248e-05 8.548214e-06 1.1208961e-05 6.8125732e-06 2.7238389e-06 1.2075653e-05 7.777633e-06 2.2993042e-06
5.454654e-05 3.7905884e-05 1.4016365e-05 4.6273497e-05 2.2927527e-05 2.0443601e-06 4.5907207e-05 3.8638045e-06
2.0844824e-05 0.00012683522 1.1235984e-05 1.1043018e-05 3.064753e-05 5.520212e-05 8.9524845e-05 3.7177757e-05
6.207944e-05 2.0097402e-06 1.8757288e-05 6.0151167e-05 1.6507976e-05 7.651615e-06
00000000: 1856 4738 afe0 1139 1248 c337 1853 6237
00000010: 2f62 1139 a2d3 dd37 374d a037 4588 4f37
00000020: f303 cf37 5157 5337 9d1b 1937 a823 8038
00000030: 7f77 8e38 91c2 a636 fdf1 0339 bab0 5e38
00000040: 4b69 a837 7e8b 3637 334b 8a37 4aab e238
00000050: 198f 0e39 a3a6 1c37 977f f438 ad98 8836
00000060: bebb 9b37 2680 7c37 6cb6 8537 f984 3138
00000070: 5b08 bf36 2f7b 7038 ea14 6237 7766 3c37
00000080: e204 7538 98b8 2137 9a74 2039 1fd6 ed37
00000090: af25 4d36 d6d6 5538 50ed b037 fdcd b037
000000a0: d3d0 2c38 4d6a 0f37 1f0e 3c37 8f97 e436
000000b0: 32cb 3636 8998 4a37 ae7c 0237 bf4d 1a36
000000c0: e7c8 6438 22fd 1e38 d427 6b37 ca15 4238
000000d0: 7d54 c037 d731 0936 7d8c 4038 d4a5 8136
000000e0: ebdb ae37 12ff 0439 2f82 3c37 6745 3937
000000f0: 898b 0038 d388 6738 49bf bb38 50ef 1b38
00000100: a530 8238 13df 0636 f858 9d37 d34a 7c38
00000110: 9c7a 8a37 705f 0037

exp_avg f4 [50, 70]
0.000110035435 4.16194e-05 -0.00032495934 -8.619447e-06 -3.618263e-05 0.00039090376 -0.00021148295 -0.00025013363
0.00013924038 -0.0001481819 0.00011170051 -4.8957954e-05 1.8260556e-05 -4.973661e-07 -8.3242885e-05 -8.179996e-05
-3.5341465e-05 -2.8035558e-05 -0.00010152017 -5.1283627e-05 -3.0524694e-05 -0.00015153899 -8.0621365e-05 3.3450258e-06
-0.0001343328 6.342556e-05 0.00029591768 8.401075e-05 -3.1639298e-05 4.411503e-05 0.0001721259 0.00027034082
-2.6361506e-05 -0.00026075193 -2.3555944e-05 -0.00016237563 -0.0003079398 -7.14952e-05 -0.0001892829 -9.952835e-05
0.00022224757 -0.0001213573 8.223193e-05 8.0134145e-05 -0.00014560924 0.00021415288 -6.3083644e-05 -5.0810962e-05
-5.3672e-05 0.00010004075 5.7105648e-05 -0.00013455244 3.629871e-05 0.00019683599 0.00010882266 0.00021684219
-0.00025443395 -0.000113926275 0.00021748572 -0.00022523168 0.00015056181 0.000117500975 -8.107453e-05 -0.00014612165
-5.425928e-05 -0.00014788508 -0.00019008927 -3.5894012e-05 1.4204622e-05 -4.1394043e-05 -3.817046e-05 -2.8144773e-06
1.929957e-05 -7.7651675e-05 -0.00011684149 -7.329873e-05 -4.4789587e-05 -2.3423765e-05 4.907278e-05 7.839168e-05
8.892534e-06 2.8073322e-05 6.580131e-05 -6.4935164e-05 9.2556975e-06 -6.1950785e-05 9.751814e-05 -2.9704572e-05
0.00014705508 2.659599e-07 1.5041101e-05 7.6549026e-05 5.0680293e-05 3.8878192e-05 -1.45371e-06 7.512892e-05
2.1396667e-05 -0.000110086185 -4.270531e-05 -0.0001400535 -6.721228e-05 -0.00010810407 -4.685267e-05 -8.297581e-06
4.3912155e-06 -3.871546e-05 9.526992e-05 8.177752e-06 -6.955274e-05 5.0263112e-05 8.119298e-06 1.9429279e-05
-0.00011389313 4.237366e-05 -8.5597574e-05 -3.0029682e-06 7.664959e-05 -2.0901602e-05 -0.00011581343 -4.981709e-05
0.0001321594 2.8943203e-05 4.1109077e-05 -5.31921e-05 2.7054783e-05 1.5511483e-05 1.5970545e-05 1.5626894e-05
4.153619e-05 2.9809897e-05 -2.9215444e-05 -4.454031e-05 2.746371e-05 2.517695e-05 -2.597658e-05 6.707932e-05
-7.108141e-05 8.249673e-05 -3.8376602e-05 1.4503399e-05 0.0002617164 -1.2404004e-05 0.00013201682 -0.00045515696
-0.00029004115 0.00038714797 0.00060144416 -0.00033430386 0.00053621107 -0.0003054694 0.00028943853 -5.704157e-05
0.00023071471 -0.00010968336 -3.9828825e-05 -0.00018765131 0.00038661534 -0.0005424055 -0.00053173956 -0.00014495547
-9.230667e-06 -0.0004584491 0.00034975426 0.00036832475 -0.00010478482 -0.00041235378 0.0003527553 -0.00014000997
-0.00052854256 -0.0005281169 0.0003322846 -0.0003447095 -8.3474835e-05 -0.00031008036 4.8607493e-05 0.0004571899
-0.0005489745 -0.00026385428 -0.00036282712 0.00029460603 0.00032970353 0.0005330084 4.1304364e-05 0.00049480965
-0.0005061242 0.00030422112 -0.00054541556 -0.00051369774 7.434064e-06 0.000104900835 -0.00030961505 -0.0004160731
-0.00013228142 0.00053843285 0.00019075838 0.00034563267 -0.00043459798 -0.00022208662 4.3883974e-05 -0.00049788726
0.00025887194 -0.00012387738 -5.086068e-05 0.00010457741 3.185208e-05 -0.0004545419 -0.00040391562 3.278317e-05
0.00012242164 -0.00039002873 -4.011009e-05 -5.0018675e-06 4.53173e-05 4.5778033e-05 4.535132e-05 1.5682299e-06
-5.2733398e-05 -2.7814851e-06 7.261447e-05 -9.7410906e-05 6.65467e-05 -7.8194216e-07 -3.3070075e-05 -0.00013171778
4.522883e-06 3.086083e-05 -2.9815128e-05 6.861218e-05 0.00011413062 1.10084975e-05 -3.3903561e-06 -0.000113775655
6.5814675e-05 3.8508384e-05 -2.7162067e-05 3.2080004e-06 3.6991172e-05 1.3615909e-05 -2.7005099e-05 9.006046e-05
5.8417547e-05 0.00012870225 1.13807055e-05 -7.7589335e-05 -2.6419893e-06 4.9117254e-05 -0.00011295084 -2.5821091e-05
-1.5353173e-05 -3.97239e-05 1.4118592e-05 -2.1869084e-05 -8.024397e-05 -9.595918e-07 -7.545117e-06 8.786071e-06
00000000: d3c2 e638 7e90 2e38 4e5f aab9 3e9c 10b7
00000010: cec2 17b8 37f2 cc39 86c1 5db9 5e24 83b9
00000020: 0e01 1239 4761 1bb9 c140 ea38 3458 4db8
00000030: 3f2e 9937 bd82 05b5 af92 aeb8 058c abb8
00000040: 9c3b 14b8 e72d ebb7 3ae7 d4b8 6019 57b8
00000050: a407 00b8 70e6 1eb9 4413 a9b8 1b7b 6036
00000060: b0db 0cb9 5703 8538 6625 9b39 ee2e b038
00000070: 70b4 04b8 2708 3938 b27c 3439 88bc 8d39
00000080: e722 ddb7 88b5 88b9 019a c5b7 6043 2ab9
00000090: fb72 a1b9 b1ef 95b8 3e7a 46b9 e0b9 d0b8
000000a0: 210b 6939 3481 feb8 ee73 ac38 b10d a838
000000b0: afae 18b9 3a8e 6039 c64b 84b8 db1d 55b8
000000c0: df1d 61b8 f8cc d138 b984 6f38 a516 0db9
000000d0: 713f 1838 c265 4e39 b937 e438 2260 6339
000000e0: 8c65 85b9 b4eb eeb8 e10c 6439 2b2c 6cb9
000000f0: 21e0 1d39 db6a f638 8f06 aab8 3b38 19b9
00000100: 7594 63b8 9911 1bb9 b352 47b9 e78c 16b8
00000110: 6350 6e37 849e 2db8 3819 20b8 5ae0 3cb6
00000120: 83e5 a137 edd8 a2b8 cc08 f5b8 f5b7 99b8
00000130: 74dc 3bb8 277e c4b7 7fd3 4d38 3666 a438
00000140: 2531 1537 007f eb37 cffe 8938 cd2d 88b8
00000150: eb48 1b37 93eb 81b8 a782 cc38 152e f9b7
00000160: cc32 1a39 40c9 8e34 0959 7c37 f288 a038
00000170: 8d91 5438 2411 2338 181d c3b5 888e 9d38
00000180: fe7c b337 12de e6b8 7a1e 33b8 53db 12b9
00000190: 51f4 8cb8 eeb5 e2b8 ac83 44b8 d735 0bb7
000001a0: 4158 9336 6962 22b8 a6cb c738 2d33 0937
000001b0: d8dc 91b8 9bd1 5238 1f38 0837 0ffc a237
000001c0: e9d9 eeb8 5fba 3138 d982 b3b8 9a86 49b6
000001d0: efbe a038 d955 afb7 dde0 f2b8 b1f2 50b8
000001e0: 4594 0a39 0ecb f237 896c 2c38 951a 5fb8
000001f0: b4f3 e237 a81e 8237 7cf8 8537 8016 8337
00000200: 2537 2e38 4410 fa37 b013 f5b7 cbd0 3ab8
00000210: de61 e637 1733 d337 48e8 d9b7 f0ac 8c38
00000220: 8b11 95b8 1802 ad38 90f6 20b8 a053 7337
00000230: fb36 8939 cb1a 50b7 ff6d 0a39 22a2 eeb9
00000240: aa10 98b9 1ffa ca39 3caa 1d3a 8145 afb9
00000250: 8490 0c3a 6927 a0b9 c8bf 9739 eb3f 6fb8
00000260: 02ec 7139 ce05 e6b8 e00d 27b8 44c4 44b9
00000270: a2b2 ca39 3830 0eba 7064 0bba 30ff 17b9
00000280: 6add 1ab7 ff5b f0b9 395f b739 b61b c139
00000290: ecbf dbb8 3031 d8b9 04f2 b839 a4cf 12b9
000002a0: e48d 0aba 5371 0aba 7c36 ae39 20ba b4b9
000002b0: 360f afb8 4892 a2b9 e6df 4b38 fdb2 ef39
000002c0: 0ee9 0fba ec55 8ab9 d539 beb9 5a75 9a39
000002d0: 0fdc ac39 97b9 0b3a 393e 2d38 1db6 013a
000002e0: 6cad 04ba de7f 9f39 38fa 0eba aca9 06ba
000002f0: 2072 f936 35fe db38 d453 a2b9 6324 dab9
00000300: 06b5 0ab9 9e25 0d3a 5006 4839 0836 b539
00000310: c1da e3b9 ecdf 68b9 0f10 3838 a684 02ba
00000320: 34b9 8739 15e5 01b9 3d53 55b8 9250 db38
00000330: e998 0538 954f eeb9 a3c4 d3b9 a980 0938
00000340: 4f5e 0039 c57c ccb9 e23b 28b8 b7d5 a7b6
00000350: 1513 3e38 ca01 4038 9c37 3e38 f87b d235
00000360: 0e2e 5db8 8da9 3ab6 9948 9838 1549 ccb8
00000370: fd8e 8b38 a8e6 51b5 b9b4 0ab8 b91d 0ab9
00000380: 45c3 9736 9070 0138 801b fab7 e2e3 8f38
00000390: 6959 ef38 23b1 3837 e085 63b6 d79a eeb8
000003a0: fc05 8a38 1084 2138 18da e3b7 0749 5736
000003b0: f826 1b38 e26f 6437 0289 e2b7 d7de bc38
000003c0: 5d05 7538 3ff4 0639 c2ef 3e37 75b7 a2b8
000003d0: 084d 31b6 4003 4e38 05e0 ecb8 5f9a d8b7
000003e0: b0ca 80b7 369d 26b8 e4de 6c37 8073 b7b7
000003f0: a748 a8b8 53cb 80b5 102c fdb6 e367 1337

exp_avg_sq f4 [50, 70]
8.1429584e-07 3.2661467e-07 9.04626e-07 5.36663e-07 3.3871794e-07 9.701065e-07 6.5184037e-07 9.296395e-07
1.1998675e-06 6.9690975e-07 5.4597064e-07 2.8494e-07 2.1172504e-07 7.791898e-07 2.7087037e-07 2.584859e-07
4.0676176e-07 8.3501334e-07 8.175467e-07 4.028351e-07 2.4426808e-07 7.3895467e-07 5.6138043e-07 9.957037e-07
4.1219116e-07 8.4348443e-07 7.6970116e-07 4.7631255e-07 9.439933e-07 8.1856604e-07 8.1548296e-07 6.0870366e-07
1.5644898e-07 9.210444e-07 2.0882402e-07 5.449043e-07 1.0531382e-06 2.631207e-07 8.4114674e-07 3.534369e-07
4.5660482e-07 1.0052888e-06 6.5132383e-07 7.143925e-07 1.1336672e-06 7.9142336e-07 8.076644e-07 1.1809918e-06
5.744919e-07 5.6342e-07 6.1911516e-07 6.9986663e-07 3.8140112e-07 1.2428563e-06 6.975909e-07 9.4918596e-07
9.583504e-07 2.025836e-07 1.223607e-06 8.6897137e-07 5.214188e-07 5.802505e-07 1.975438e-07 5.0564734e-07
2.9506506e-07 7.3253517e-07 8.268416e-07 3.6639253e-07 8.325038e-07 9.179589e-07 1.0417604e-07 7.380826e-08
2.392321e-07 1.9386539e-07 1.5835593e-07 2.293716e-07 2.3245472e-07 2.2901452e-07 2.7158475e-07 2.2931341e-07
1.547467e-07 6.234766e-08 1.0502431e-07 2.4889127e-07 4.284833e-08 1.0236033e-07 1.6410415e-07 2.5530767e-07
2.472274e-07 6.8996506e-08 4.6462368e-08 2.0471495e-07 1.7704559e-07 2.3249169e-07 4.407469e-08 1.7073181e-07
2.3948797e-07 1.5172573e-07 2.0496877e-07 2.120944e-07 2.4398435e-07 1.8941994e-07 5.885107e-08 2.600059e-07
4.059258e-08 2.123434e-07 2.5815854e-07 9.888151e-08 2.3923184e-07 1.3464636e-07 1.6107074e-07 2.8090187e-07
2.441388e-07 2.7216453e-07 2.7437167e-07 2.5777697e-07 1.6495035e-07 2.8588101e-07 1.242678e-07 1.7504563e-07
1.6608506e-07 2.4473752e-07 7.006339e-08 2.868252e-07 1.574759e-07 2.5557387e-07 2.3376448e-07 5.466475e-08
2.858028e-07 2.1480878e-07 1.6162103e-07 1.0693799e-07 4.938391e-08 7.376001e-08 1.0408831e-07 2.7634024e-07
1.920778e-07 9.861683e-08 1.6705629e-07 2.117221e-07 1.70229e-07 4.6271886e-08 1.7433115e-07 1.6758311e-07
1.257931e-07 2.0258284e-07 2.0722202e-07 2.3775516e-07 2.7134658e-07 2.3501018e-07 1.5158122e-07 7.037875e-08
9.2031335e-08 2.3052189e-07 4.750957e-08 8.3358316e-08 1.1893669e-07 2.2753878e-07 1.9551469e-07 8.339715e-08
3.658927e-08 2.650525e-07 1.2071251e-07 2.371289e-07 7.016953e-08 2.2719261e-07 2.2360754e-07 1.2773336e-07
2.5596174e-07 2.1752894e-07 2.1242492e-07 1.7168914e-07 3.2184793e-08 2.3331823e-07 3.8360565e-08 1.7829684e-07
2.5226495e-07 9.602735e-08 2.3442996e-07 8.916713e-08 1.4485127e-07 2.6875375e-07 2.0747707e-07 2.489952e-07
2.8405663e-07 2.5288264e-07 2.2801166e-07 2.78827e-07 1.1835686e-07 1.713387e-07 1.5701625e-07 2.5367999e-07
8.5659835e-08 2.7745494e-07 1.103106e-07 2.4073483e-07 2.1391993e-07 6.393587e-08 2.3810853e-07 2.4418821e-07
1.4858018e-07 9.899503e-08 4.9243198e-08 1.0082822e-07 6.267705e-08 2.7220958e-07 1.9146778e-07 9.095013e-08
1.3696341e-07 2.411448e-07 5.023213e-07 1.7487919e-07 5.4824585e-07 4.1263092e-07 3.99457e-07 5.536598e-07
5.5033667e-07 6.311726e-07 6.848753e-07 4.879501e-07 4.213718e-07 3.023792e-07 1.9417952e-07 5.690229e-07
1.3447445e-07 1.4997869e-07 3.7869805e-07 5.582552e-07 5.3177627e-07 2.2142243e-07 1.5002783e-07 5.669673e-07
4.2023015e-07 5.700313e-07 1.477044e-07 5.276678e-07 5.4414807e-07 2.929996e-07 5.329771e-07 5.4492506e-07
5.3577054e-07 4.793145e-07 1.06993625e-07 6.4548425e-07 1.3034804e-07 4.2210277e-07 6.8725285e-07 9.603909e-08
6.636226e-07 2.9653066e-07 1.9754624e-07 6.2666004e-07 5.062876e-07 5.3561746e-07 7.0889706e-07 6.8788046e-07
00000000: fc95 5a35 9459 af34 6dd5 7235 330f 1035
00000010: 0ad9 b534 9b34 8235 21fa 2e35 578c 7935
00000020: 220b a135 4613 3b35 d18e 1235 dbf9 9834
00000030: 8956 6334 8429 5135 246c 9134 08c6 8a34
00000040: e960 da34 ae25 6035 6275 5b35 3c45 d834
00000050: f323 8334 945c 4635 c5b1 1635 1ea4 8535
00000060: 1f4b dd34 cf6b 6235 769d 4e35 e6b7 ff34
00000070: ba66 7d35 6ebb 5b35 90e7 5a35 cc65 2335
00000080: 5efc 2734 b03d 7735 1c39 6034 8a45 1235
00000090: 8e59 8d35 0943 8d34 2acb 6135 ffbf bd34
000000a0: 4a23 f534 76ed 8635 a2d6 2e35 aec4 3f35
000000b0: 8228 9835 3372 5435 46ce 5835 9282 9e35
000000c0: c836 1a35 ed3d 1735 4531 2635 78de 3b35
000000d0: 5fc3 cc34 38d0 a635 1542 3b35 90cb 7e35
000000e0: aba0 8035 c285 5934 d13a a435 4243 6935
000000f0: a1f7 0b35 83c2 1b35 6d1c 5434 d2bb 0735
00000100: 6f69 9e34 6fa3 4435 1ff4 5d35 9bb4 c434
00000110: 3a79 5f35 a869 7635 62b7 df33 8580 9e33
00000120: cf6f 8034 5029 5034 8c08 2a34 2f49 7634
00000130: ab98 7934 08e7 7534 53ce 9134 3139 7634
00000140: 7328 2634 fde3 8533 ba89 e133 5b9f 8534
00000150: 3d08 3833 30d1 db33 9b34 3034 3811 8934
00000160: adba 8434 3b2b 9433 ea8d 4733 9ecf 5b34
00000170: ec19 3e34 d4a2 7934 a24c 3d33 6752 3734
00000180: fa92 8034 0dea 2234 6315 5c34 11bc 6334
00000190: f4fc 8234 5b63 4b34 70c3 7c33 f096 8b34
000001a0: 0458 2e33 8200 6434 0a99 8a34 af58 d433
000001b0: c66f 8034 4f93 1034 caf2 2c34 dcce 9634
000001c0: 2e12 8334 021e 9234 5b4d 9334 9964 8a34
000001d0: 351d 3134 307b 9934 796e 0534 2df4 3b34
000001e0: 1d55 3234 7864 8334 c275 9633 f5fc 9934
000001f0: a516 2934 ce35 8934 b100 7b34 87c8 6a33
00000200: 7070 9934 30a6 6634 0d8a 2d34 c8a5 e533
00000210: 2f1a 5433 ff65 9e33 2787 df33 ea5b 9434
00000220: f23d 4e34 2dc7 d333 1560 3334 ba55 6334
00000230: 31c8 3634 7abc 4633 c82f 3b34 e5f0 3334
00000240: be11 0734 8c85 5934 c180 5e34 a449 7f34
00000250: 97ad 9134 1b57 7c34 54c2 2234 2123 9733
00000260: c3a2 c533 6085 7734 530d 4c33 b802 b333
00000270: 236a ff33 6251 7434 abee 5134 1118 b333
00000280: 5426 1d33 8a4c 8e34 349d 0134 7f9d 7e34
00000290: 1bb0 9633 3bf2 7334 c618 7034 1427 0934
000002a0: 1d6b 8934 e691 6934 eb16 6434 8d59 3834
000002b0: 8e3b 0a33 0786 7a34 e3c1 2433 dd71 3f34
000002c0: 086f 8734 9837 ce33 9eb7 7b34 267c bf33
000002d0: 6a88 1b34 3c49 9034 ddc6 5e34 a4ad 8534
000002e0: 7280 9834 edc3 8734 5ed3 7434 b1b1 9534
000002f0: 5f2b fe33 39f9 3734 4c98 2834 8331 8834
00000300: fef3 b733 1ef5 9434 e5e3 ec33 583e 8134
00000310: ddb1 6534 1e4d 8933 c6aa 7f34 f918 8334
00000320: 6989 1f34 1897 d433 787f 5333 e686 d833
00000330: 1399 8633 3324 9234 4396 4d34 5d50 c333
00000340: 3710 1334 b076 8134 42d7 0635 6dc6 3b34
00000350: 2b2b 1335 9087 dd34 f474 d634 369f 1435
00000360: d9ba 1335 da6d 2935 46d8 3735 adfb 0235
00000370: e638 e234 ae56 a234 a97f 5034 f5be 1835
00000380: 0e64 1034 d409 2134 dd4f cb34 01db 1535
00000390: 63bf 0e35 22c0 6d34 5617 2134 b231 1835
000003a0: fe9b e134 4104 1935 ad98 1e34 0ea5 0d35
000003b0: 9211 1235 8f4d 9d34 e811 0f35 f746 1235
000003c0: dfd1 0f35 3eaa 0035 5ec4 e533 5745 2d35
000003d0: ccf5 0b34 5d9d e234 a87b 3835 0c3e ce33
000003e0: cc23 3235 dd32 9f34 191d 5434 c037 2835
000003f0: d2e7 0735 5ac7 0f35 094b 3e35 c9a6 3835

exp_avg f4 [50]
0.00018913594 2.7183534e-05 0.00047457786 -3.4512017e-05 0.0002178156 5.833104e-05 -3.3393473e-05 -6.690942e-05
1.2356401e-05 -0.00037185874 -6.176963e-05 7.155593e-05 0.00018442153 -0.00017380103 7.122722e-05 6.620593e-05
-0.00012107883 1.5561147e-05 -0.00017505111 0.00012258523 7.5556754e-06 0.0001290314 -2.7884944e-05 0.00014124528
-3.6507005e-05 4.7228757e-05 -2.3216377e-05 7.7133125e-05 -1.1281537e-06 0.00010398673 0.00011095616 4.1357423e-05
-3.048217e-05 -0.00014409749 -0.00028055737 2.5609727e-06 -6.1919054e-05 -0.0001736024 1.6321705e-05 -6.633455e-05
6.5482964e-05 -0.00026183523 0.00019608755 -2.108474e-05 -0.00011434295 2.2942038e-05 -3.3222554e-05 -4.17795e-06
-6.6591e-05 0.00013041373
00000000: cb52 4639 3208 e437 c3d0 f839 ffc0 10b8
00000010: 6e65 6439 7aa8 7438 f80f 0cb8 b951 8cb8
00000020: 574e 4f37 09f6 c2b9 518a 81b8 4c10 9638
00000030: 4761 4139 5c3e 36b9 d35f 9538 0ad8 8a38
00000040: b4eb fdb8 4f89 8237 ed8d 37b9 398a 0039
00000050: c286 fd36 9a4c 0739 76ea e9b7 3e1b 1439
00000060: 191f 19b8 7e17 4638 cac0 c2b7 88c2 a138
00000070: 116b 97b5 7313 da38 23b1 e838 3277 2d38
00000080: f6b3 ffb7 e018 17b9 c617 93b9 2ddd 2b36
00000090: 8ada 81b8 0a09 36b9 98ea 8837 171d 8bb8
000000a0: e653 8938 ee46 89b9 da9c 4d39 22df b0b7
000000b0: 67cb efb8 a773 c037 7258 0bb8 5130 8cb6
000000c0: c5a6 8bb8 abbf 0839
