models/model_save_tchla_best_training/model_1/train_22/MLP_1.pth (torch, 12030 bytes, 9 tensors)

layers.0.weight f4 [70, 6]
000000 96 c9 d2 3e a4 68 c5 be 11 0f 6e 3e 23 01 60 3e
       0.41169423 -0.38556397 0.23247935 0.21875434
000010 a3 65 fc bd 16 e5 d1 be d2 8c ee bd 40 0e 80 3e
       -0.12324073 -0.4099509 -0.11647953 0.25010872
000020 87 09 00 bf f0 6b 11 3d 3c 2d 15 3d 10 78 3a 3d
       -0.5001454 0.035503328 0.036420092 0.045524657
000030 7f 9f 9e 3e 61 f8 3d 3d 53 cf b4 be 94 b7 99 3e
       0.3098106 0.04637945 -0.35314426 0.30022871
000040 77 21 d7 3e 64 20 3a 3e 50 5e 75 3e cf 51 21 3e
       0.4201772 0.18176419 0.23961759 0.15753864
000050 59 27 cc 3d bc 4f 8c be f4 ff f2 bc fe 77 19 3f
       0.099684425 -0.27404583 -0.029663064 0.5994872
000060 65 f2 0f bf 5a 3d af bd 12 43 21 be 5e be 97 3e
       -0.5622924 -0.08556624 -0.15748242 0.29637426
000070 d0 9e 07 3f e2 98 0d 3d d5 90 0b bd b2 c7 ae be
       0.52976704 0.03456963 -0.03407367 -0.3413673
000080 3e d9 e5 3e 65 eb 9c bd a0 87 69 bd db c6 39 3d
       0.44892305 -0.076620854 -0.057014108 0.04535566
000090 84 9e ea bc 3f 8c a4 3e de c7 a3 be 81 e8 9e be
       -0.02864004 0.3213825 -0.31988424 -0.3103676
0000a0 2f ca 67 be d0 41 10 bd 0c 99 16 be c0 f3 2c bd
       -0.2263572 -0.035219014 -0.1470682 -0.042224646
0000b0 a3 06 93 3e 36 89 17 3d 54 01 24 3a 39 74 aa be
       0.28716 0.03699609 0.00062563014 -0.33291796
0000c0 78 ec dc 3e 15 52 e8 3e 88 bc a6 3c 5f 9e 46 bd
       0.4314916 0.45375124 0.02035357 -0.04849088
0000d0 77 b5 8a 3e 80 14 f2 3c 31 32 5c be 5b d8 c4 be
       0.27091572 0.02955079 -0.21503522 -0.38446316
0000e0 14 18 9e 3e ee 8a 22 be 19 aa 1a 3e 24 84 2d 3e
       0.30877745 -0.1587331 0.1510395 0.16944939
0000f0 b9 9f c6 3e 91 d2 a5 be b4 e1 5c bf da ac 96 be
       0.38793734 -0.32387212 -0.86281896 -0.2942875
000100 f9 ee 7e bd b1 7f 8f 3e 63 a9 3d bc dd c4 cf 3e
       -0.06223962 0.28027108 -0.0115760295 0.40579882
000110 c4 9e fb 3a ee 13 06 be 1e 3c 40 3e d2 19 63 be
       0.0019197096 -0.1309354 0.18772933 -0.22177818
000120 95 42 c0 bd 18 d6 30 bd 31 af a1 3e 16 1c 65 3e
       -0.093876995 -0.043172926 0.31578973 0.22373995
000130 1f ef e6 bb fd 87 4e 3e a2 2c 2e 3e b6 1a bf 3e
       -0.0070475484 0.20169063 0.17009214 0.37325066
000140 b7 fc cd bd 0c 5e 0c be 06 a7 86 bb bd 44 99 bc
       -0.10057967 -0.13707751 -0.004109266 -0.018709535
000150 b8 4a 2c 3e df f0 70 be 43 a9 7c be e9 52 a1 bc
       0.16825378 -0.23529385 -0.24673943 -0.019692855
000160 e9 30 40 3e cb ba e4 bd 15 fa 93 be 46 85 08 3e
       0.18768658 -0.111684404 -0.28901735 0.1333209
000170 c0 a2 e7 3e c1 a3 8c 3d 75 66 20 3b ec 49 1a be
       0.45241356 0.06867171 0.0024475132 -0.15067261
000180 eb 46 e8 3d 51 dc a2 3e e7 17 b2 bb 44 24 d5 bd
       0.113416515 0.31808713 -0.0054349783 -0.10407308
000190 72 68 74 bd 90 85 16 bd 77 df 02 3e 5d a2 8b be
       -0.05966992 -0.03674847 0.12780558 -0.2727231
0001a0 e9 04 76 3e 99 2a 89 3e 55 c0 94 3d e4 db b2 be
       0.2402531 0.26790312 0.07263247 -0.34933388
0001b0 1d fb 9d be e6 5c 2d 3e f1 31 52 be e8 60 a6 3e
       -0.30855647 0.16929969 -0.20526864 0.3249581
0001c0 e6 8e 32 3f ac 39 03 bf 42 c6 0b be a7 59 5a 3e
       0.69749296 -0.51259875 -0.13649848 0.21323262
0001d0 97 53 41 be 48 34 64 3e 36 73 92 be 37 c6 b4 3d
       -0.18879543 0.22285569 -0.28603524 0.08826869
0001e0 2c 43 e8 be 60 67 9b 3d 88 38 88 be f7 8e f2 be
       -0.45363748 0.075880766 -0.2660563 -0.473747
0001f0 ba de 2b bf cc ce 97 bd 6f 96 11 3e 91 66 4a 3e
       -0.6713673 -0.0741249 0.14217542 0.19765688
000200 4b 9f 11 3e ac 6d 1b be a0 4f be 3e 57 98 f4 3d
       0.14220922 -0.15178555 0.37170124 0.11943119
000210 6d c5 61 3d 45 c3 e4 3e de d7 7b be c1 c4 4a 3e
       0.05511992 0.4468023 -0.24594066 0.19801618
000220 94 28 49 be da 21 20 be f7 0a a5 3e 66 c9 2d 3e
       -0.19644386 -0.15637913 0.32234928 0.16971359
000230 60 b2 9e be d9 b1 fa 3e 42 72 93 be 9d ab 43 bf
       -0.30995464 0.48963812 -0.2879811 -0.76433736
000240 cc 13 b1 be 82 cd 02 3f e1 40 ba be 14 04 3f be
       -0.34585416 0.5109483 -0.36377624 -0.186539
000250 95 92 55 3d e9 b6 de 3e e7 e9 8e bd d0 07 ae 3e
       0.052141745 0.43498924 -0.06978207 0.33990335
000260 75 7b 04 3f 2d 1e cf 3f ac 66 b2 3e a4 1f 04 3f
       0.5175088 1.6181084 0.34843957 0.5161078
000270 f1 3e d7 3e d6 51 7f bd b9 76 4b be 85 9f 65 3e
       0.42040208 -0.062333904 -0.19869508 0.22424133
000280 07 c4 92 3e fd 90 98 3f 56 0c 40 be ec d3 c9 be
       0.28665182 1.1919247 -0.18754706 -0.39419496
000290 ac ca 44 3e 35 81 2f be fb 8b e6 3c 91 c2 c6 be
       0.19217938 -0.17139132 0.02814292 -0.38820317
0002a0 b6 25 0e 3f 5c 85 38 3d 61 d6 8e be f3 22 27 bf
       0.5552629 0.045049056 -0.27897933 -0.65287703
0002b0 e8 5e 1d bf 15 cc 8d be e8 5c 55 3e ad 64 e0 3e
       -0.6147294 -0.27694765 0.20836222 0.4382681
0002c0 65 9a 32 3e 66 39 fd be 5c 8a 56 3f d7 7a 87 bf
       0.1744171 -0.49457854 0.8380487 -1.0584363
0002d0 5a 86 65 be 5d 67 c2 3e a7 05 9e 3c 60 8a 34 bd
       -0.22414532 0.37969485 0.019289805 -0.044077277
0002e0 6a 0f 7b be 1a d9 c9 bd 09 55 a2 3d a2 fd 1f be
       -0.24517599 -0.09855862 0.079263754 -0.15624097
0002f0 99 ba 85 3d 71 ed 91 3e 1f b6 7b bd 0b 42 a5 3d
       0.06529731 0.28501466 -0.06145298 0.08069237
000300 93 d8 f2 3e 53 29 6e be 91 bc a6 3e f9 c1 b4 3d
       0.47430858 -0.23257951 0.3256574 0.0882606
000310 a0 30 73 be ad 2d b3 be 96 04 55 bc b4 0e db 3d
       -0.23749018 -0.34995785 -0.013001582 0.10696164
000320 a9 97 13 3e fd ee 0c bf e3 57 02 be e8 03 7e 3d
       0.14413323 -0.5505217 -0.12728839 0.062015444
000330 9d d2 38 be 01 7f 8b 3c dd bc f2 3e 85 1d 65 3c
       -0.18049093 0.017028334 0.47409716 0.013984089
000340 e9 02 cd 3d 1b a8 46 be 57 dd 0e be 39 f7 4b be
       0.10010321 -0.19400065 -0.13951622 -0.19918527
000350 28 91 a8 3e 1a ee d2 3e 41 6c 21 3e 27 b9 d3 3b
       0.32923245 0.41197282 0.15763952 0.006461281
000360 63 b4 1a 3e 15 d1 4f 3d 13 1f dd bb 62 6b 2d 3d
       0.15107875 0.050736506 -0.006748089 0.042338736
000370 c4 84 1a be ab 83 45 bc 6c 82 49 bf 0f db 2d be
       -0.15089709 -0.012055318 -0.78714633 -0.16978095
000380 25 63 55 be 4c 4d 17 be 22 d8 ca bd 74 70 51 3e
       -0.20838602 -0.1477558 -0.09904505 0.20453054
000390 6a 4a 39 be 6c fb 99 3e 90 dc c5 3e e4 28 e7 bd
       -0.18094793 0.30074632 0.38644838 -0.11287096
0003a0 43 18 fc bd 7e 95 8a 3d e0 ea 77 be 25 17 8c bc
       -0.12309315 0.067667946 -0.24210691 -0.01710088
0003b0 32 42 4c be ff 8c d2 3e 54 bd 84 be c4 6a 31 3f
       -0.19947127 0.41123196 -0.25925696 0.69303536
0003c0 39 4c e7 3e a1 f7 16 3e ee db 09 be 04 5d 4d 3e
       0.4517534 0.147429 -0.13462803 0.20055014
0003d0 55 1b e8 3c 9f df fd be 15 53 c9 3e 60 4b b2 3e
       0.028333345 -0.49584672 0.393212 0.34823132
0003e0 61 56 f8 3e 6a 42 28 bf bb 57 38 3e e6 f0 40 bf
       0.48503402 -0.6572634 0.18002217 -0.7536758
0003f0 43 8f 1b 3f 74 d2 da 3d 1c c8 67 3e 50 b6 c4 bc
       0.60765475 0.10684672 0.2263493 -0.024012715

layers.0.bias f4 [70]
000000 d2 a4 a1 be c7 71 38 be 6a b7 06 be 72 3a 69 3d
       -0.3157106 -0.18012153 -0.13155904 0.056940503
000010 6b ae 11 3f c5 51 97 bd 5c a6 a5 be b5 5f 04 3f
       0.56906766 -0.07388643 -0.32353485 0.5170854
000020 b1 07 ab 3e cb b8 19 3f f8 ee d1 be b7 77 7a be
       0.33404306 0.60047597 -0.4100263 -0.2445973
000030 ed 8d c3 be 83 a3 ed bd 9b 23 06 bd df 51 12 3e
       -0.38194218 -0.11603453 -0.0327488 0.14289044
000040 6a 43 b3 be 37 5b 60 bd f6 8e 00 3d 3a ec e9 3d
       -0.3501237 -0.05477449 0.03138634 0.1142201
000050 36 a5 d2 be 7f df ca bb f3 5c 09 bf 9a cb e8 3e
       -0.4114167 -0.0061911936 -0.53657454 0.45467836
000060 76 4e b5 3e e4 2b 15 be 3d 0e 45 bf 3b 60 40 3e
       0.35411423 -0.14567524 -0.7697485 0.18786709
000070 37 db cf 3e 46 a7 de bd 25 8b 9a 3e 36 a5 aa 3e
       0.40596935 -0.108717486 0.30184284 0.3332917
000080 c5 60 8b be ce 02 f1 3e ca 9b e2 3e c3 da dc be
       -0.27222267 0.47072452 0.44259483 -0.43135652
000090 44 8b 83 be 22 26 85 3e 65 fb 3f ba 24 c3 f5 bc
       -0.2569219 0.26005656 -0.00073235325 -0.030000277
0000a0 7b bc 1b 3e b9 02 c8 3e 48 c1 cb bd 76 46 e8 3e
       0.15208618 0.39064577 -0.09948975 0.45366257
0000b0 3a 29 ac be 3f 23 03 bf 1a a6 29 3e 1f 21 8e be
       -0.33625203 -0.51225656 0.16567269 -0.27759644
0000c0 a8 d4 92 3e a6 9d da 3e bc 7d 0b bf 8f 9e 9b 3e
       0.2867787 0.426984 -0.5448873 0.30394408
0000d0 4a d9 07 bf b2 78 b3 be 0d 45 90 3e 87 e6 ac bd
       -0.5306593 -0.3505302 0.28177682 -0.08442407
0000e0 9a e5 a3 bc 85 d2 03 3c 7f 94 9d 3d bc eb 21 bf
       -0.020006943 0.008045797 0.07694339 -0.6325033
0000f0 5d 1d f7 be 38 57 33 3e cb 97 07 be 63 51 3b be
       -0.4826459 0.1751374 -0.13241498 -0.18292765
000100 a2 b7 5e bd e8 b9 88 3e b5 7a 04 3f 90 6f bf be
       -0.054374345 0.26704335 0.51749736 -0.37389803
000110 94 bd d5 3d 69 88 12 bf
       0.1043655 -0.57239395

output.weight f4 [1, 70]
000000 1a 9b 93 3e 07 84 4d 3e 5f bc 83 bd 94 e8 a0 3e
       0.2882927 0.20069896 -0.06432413 0.31427443
000010 af 53 7c be e3 29 a3 bd fa d6 2e 3e 5f 12 65 be
       -0.24641298 -0.07966974 0.17074195 -0.2237029
000020 30 b2 3a 3e 91 d7 8c 3e 92 cd 19 3e 4b 35 04 be
       0.18232036 0.27508214 0.15019825 -0.12910955
000030 77 8f 93 3d a6 96 50 bd 38 73 ac 3e 48 80 4f be
       0.07205098 -0.05092492 0.33681655 -0.20263779
000040 f6 5a 38 be f3 07 04 3e 49 bd 4b be c1 ed 55 bd
       -0.18003449 0.12893657 -0.19896425 -0.052228693
000050 d2 ee 44 be 21 4d e5 3d 90 12 98 be 10 4f 7d 3e
       -0.19231728 0.11196352 -0.29701662 0.24737191
000060 0f 42 d2 be d5 fa 8e be 55 02 bb be 17 c2 40 be
       -0.41066024 -0.27925745 -0.36525217 -0.1882404
000070 e2 e1 9c be 1c 2d 8b be 45 72 d6 3c f1 e7 21 be
       -0.30641085 -0.27182853 0.026177535 -0.15811135
000080 82 49 eb 3d 64 9f 31 be 7a 7c 3e be f9 be 19 3e
       0.1148863 -0.17345959 -0.18602172 0.15014257
000090 36 46 9d bd e2 1f a5 be 70 a1 6c be fa c4 24 3e
       -0.07679407 -0.32250887 -0.23108459 0.16090766
0000a0 e1 6e dc 3d ae 9a a1 be b8 65 d1 3d 80 ed 8a be
       0.10763336 -0.31563324 0.102244794 -0.27134323
0000b0 17 65 c2 3c 51 79 a4 3e 50 79 91 3e 28 33 ff bd
       0.023729844 0.32123807 0.28412867 -0.12460929
0000c0 f8 bb f1 bd dd 46 36 be 05 c5 84 3e c6 cc ae bd
       -0.1180343 -0.1780047 0.25931564 -0.08535151
0000d0 13 97 2f be 80 03 32 3e f9 70 3a 3e 71 e8 f6 bd
       -0.17147474 0.17384148 0.18207158 -0.120560534
0000e0 a0 c2 a8 3e 84 c3 a5 3d a0 0c 3a 3e b3 10 4d be
       0.32960987 0.08093932 0.18168879 -0.20025901
0000f0 91 78 71 be d0 9c 65 3e d4 1f 34 3e 52 90 f9 bd
       -0.23581149 0.224231 0.17590266 -0.1218573
000100 90 2c ac bd b6 cd 96 3e 0a c3 5a 3e 6e db 72 3e
       -0.08406937 0.2945382 0.21363464 0.23716518
000110 20 7a 1d 3e a8 8d a9 be
       0.15378618 -0.33115888

exp_avg f4 [70, 6]
000000 4b f9 00 3c 12 b1 1e 3c b6 d7 1c 3c 4c 59 f9 3b
       0.007871936 0.009685772 0.009572914 0.007609522
000010 e7 86 6c 3b e5 b2 f3 ba 90 6f 4a 3b 21 76 81 3b
       0.003609115 -0.0018592743 0.003088925 0.0039508496
000020 13 b3 8e 3b be be 7c 3b b8 0d 89 3b 8c 36 97 b9
       0.0043548434 0.003856584 0.0041825436 -0.00028841605
000030 4c c3 9d ba 77 b7 bb ba e9 89 c6 ba f3 2b 83 ba
       -0.0012036352 -0.0014321645 -0.0015147302 -0.0010007605
000040 a5 13 86 ba 80 65 f6 39 32 39 b5 3b 14 f7 db 3b
       -0.0010229243 0.000469964 0.0055305 0.0067128036
000050 5a 16 f2 3b 7f 8b c8 3b 02 80 d2 3b ca 00 95 39
       0.0073879184 0.006120145 0.006423951 0.00028420083
000060 78 18 f4 bb ab 59 0c bc 46 88 01 bc c1 4d 93 bb
       -0.007449206 -0.0085663 -0.007906025 -0.004495353
000070 e8 83 c9 b9 57 f9 85 3b e6 5c ec ba c1 8e 0f bb
       -0.00038435985 0.0040885615 -0.0018033057 -0.0021905156
000080 6f ff 19 bb 1a 20 01 bb 41 02 e5 ba 89 53 c8 39
       -0.0023498198 -0.0019702972 -0.0017471985 0.0003820921
000090 18 f1 57 3b 84 cd 81 3b 2d d8 78 3b 62 7d 08 3b
       0.00329501 0.003961267 0.0037970648 0.0020826687
0000a0 2f 3a fc 3a c8 f8 21 bb 4f d3 d0 ba d9 1b 12 bb
       0.0019243414 -0.0024714936 -0.0015932115 -0.002229443
0000b0 b8 3f 4e bb 68 4b 60 bb 18 fa a4 bb 34 77 f8 ba
       -0.0031471085 -0.0034224633 -0.0050346963 -0.0018956424
0000c0 fd 44 e1 39 5a 3d 8f 3a eb f3 cd 3a 23 9b 0c 3b
       0.00042966745 0.0010928318 0.0015712952 0.0021454773
0000d0 25 19 6a 3b 95 99 f4 39 4f ae 08 3c 17 fe 20 3c
       0.0035720554 0.00046653734 0.00834234 0.009826205
0000e0 1f 38 17 3c 6f 9d c4 3b 59 75 05 3b cc b3 ac bb
       0.009229689 0.006000213 0.0020364134 -0.005270457
0000f0 9c e9 9c 39 a9 48 74 3a 7c ee 99 3a 02 08 05 3b
       0.0002992869 0.00093186885 0.0011744048 0.0020298962
000100 82 66 38 3b 9e 4b 6c 3a 44 09 51 bb c6 c9 80 bb
       0.0028137271 0.00090139534 -0.0031896392 -0.0039303033
000110 8e dc 82 bb fb 80 51 bb d4 4a 07 bb 8f bd 78 3a
       -0.0039935773 -0.0031967747 -0.0020643966 0.00094886957
000120 bb 50 ae 3a de 07 d0 3a 5f 6b e4 3a 6c ab b8 3a
       0.0013299206 0.0015871485 0.0017427019 0.0014089174
000130 fd c8 b2 3a 16 f9 81 b9 c5 76 a4 ba 91 3e ca ba
       0.0013640221 -0.0002479038 -0.0012547603 -0.0015430023
000140 7a 65 d2 ba 3d a3 a0 ba 34 f2 60 ba d1 9b ed 39
       -0.0016051971 -0.001225568 -0.0008581013 0.00045320255
000150 f7 61 e7 3b 80 da 0b 3c d6 a0 13 3c 26 08 ea 3b
       0.007061239 0.008535981 0.009010514 0.0071420847
000160 b9 41 d8 3b 90 e5 33 bb b2 f5 46 bb 94 ad 81 bb
       0.0065996316 -0.0027450062 -0.0030358848 -0.0039574597
000170 54 1c 8d bb e4 c7 81 bb 70 46 8c bb 95 60 a6 38
       -0.0043063555 -0.0039605964 -0.0042808577 7.9334866e-05
000180 e3 87 a8 bb 20 4d c9 bb 32 be c6 bb c9 e4 8a bb
       -0.005143152 -0.006143227 -0.0060651535 -0.004238699
000190 50 bf 0f bb 99 05 28 3b 2d 42 34 3b d4 21 66 3b
       -0.00219341 0.0025638102 0.0027505264 0.0035115378
0001a0 03 27 72 3b 11 9c 57 3b 33 8e 34 3b 99 fb 92 b8
       0.0036949522 0.003289942 0.0027550578 -7.008686e-05
0001b0 69 72 a2 bb 54 29 c4 bb 99 89 c9 bb a1 4b 8b bb
       -0.0049574864 -0.005986372 -0.006150436 -0.004250959
0001c0 21 51 53 bb 65 34 f3 3a 69 e4 9d ba 56 40 bd ba
       -0.0032244402 0.0018555043 -0.0012046221 -0.0014438729
0001d0 62 c5 cc ba e2 e2 aa ba ae 50 9b ba 92 61 91 39
       -0.001562279 -0.0013037587 -0.0011849606 0.0002772925
0001e0 12 14 d1 ba 18 f0 0a bb 53 d9 e2 ba dd 90 4d ba
       -0.0015951416 -0.0021200236 -0.0017307199 -0.00078417157
0001f0 12 24 c6 ba 2e d2 2b 3b 49 99 f4 3a 81 ff 11 3b
       -0.0015116951 0.0026217806 0.0018661405 0.0022277536
000200 8e 60 20 3b 4a 75 f8 3a 98 30 00 3b fc 49 81 ba
       0.0024471614 0.0018955853 0.0019560214 -0.0009863968
000210 10 55 16 bc 5f 79 30 bc fc 25 28 bc d1 ca de bb
       -0.009175554 -0.010771125 -0.010262962 -0.00679908
000220 89 28 29 bb 2b aa b3 3b 9a 54 0e 3b 0e b5 43 3b
       -0.0025811514 0.005482932 0.0021717907 0.0029862556
000230 65 1d 84 3b df ab 68 3b e9 01 7c 3b 0c 21 d4 3a
       0.0040318244 0.0035502834 0.0038453287 0.0016184165
000240 e6 de 3b bc 42 b4 66 bc 25 c8 63 bc 94 13 36 bc
       -0.011466717 -0.014081063 -0.013902699 -0.011113066
000250 32 f7 b4 bb 35 3e 29 3b f5 e8 21 bb 19 bf 43 bb
       -0.005522632 0.0025824432 -0.0024705504 -0.0029868542
000260 71 ae 30 bb ea 51 cc ba 62 53 38 ba ee 8f 62 3b
       -0.0026959444 -0.0015588377 -0.0007031468 0.0034570652
000270 be 59 f8 ba 4d e5 2c bb 23 21 5f bb ce 57 74 bb
       -0.0018947644 -0.002638179 -0.003404685 -0.003728378
000280 37 55 b6 bb 90 e0 2d bb f7 2b 48 bb 03 65 75 bb
       -0.0055643576 -0.0026531555 -0.0030543783 -0.003744424
000290 9f f5 88 bb dd cb 4d bb a6 68 53 bb ff b1 5b 3a
       -0.004179671 -0.003140203 -0.003225842 0.00083807105
0002a0 5d 10 38 bb 0d 8d 61 bb 83 12 6e bb dc 79 00 bb
       -0.0028085925 -0.0034416348 -0.0036326952 -0.0019603884
0002b0 d5 9f 70 bb a9 f1 a4 b8 90 4a 2f bb 93 c2 7f bb
       -0.003671636 -7.865142e-05 -0.0026747324 -0.0039025887
0002c0 a4 0e 93 bb 69 11 a0 bb 1c 81 a1 bb 40 77 88 ba
       -0.0044878293 -0.004884888 -0.004928721 -0.0010411516
0002d0 39 ad de 39 0a 24 0a 3a c7 23 22 3a 6a db 14 3a
       0.000424722 0.00052696525 0.0006185141 0.0005678447
0002e0 f2 63 19 3a f1 99 72 38 f8 ab 3c bb 4d a0 66 bb
       0.000585138 5.7840665e-05 -0.0028789025 -0.0035190762
0002f0 d4 3c 6e bb 36 e7 2f bb 4e ca 32 bb 3d 01 a1 3a
       -0.0036352174 -0.0026840693 -0.0027281228 0.0012283694
000300 51 56 2e 3b ce 2f 58 3b e5 56 55 3b da ae 25 3b
       0.0026601742 0.0032987478 0.0032553014 0.0025281222
000310 f8 2a 90 3a 97 d9 30 ba a1 77 52 bb eb cf 78 bb
       0.0010999134 -0.00067462906 -0.0032114761 -0.0037965726
000320 61 59 8c bb 78 3d 63 bb ba 4d 5c bb ed 46 72 3a
       -0.0042831157 -0.003467409 -0.0033615665 0.0009242136
000330 64 11 a2 ba 22 9e fc ba 3d 75 21 bb 18 c0 2c bb
       -0.0012364802 -0.0019273201 -0.002463653 -0.0026359614
000340 0f 38 81 bb a2 ec a9 ba 5d d3 39 3b 96 8e 58 3b
       -0.0039434503 -0.0012964199 0.0028354742 0.0033043972
000350 bb 4e 6e 3b 43 fa 3c 3b 0a 37 33 3b 25 53 79 ba
       0.0036362845 0.002883569 0.0027346038 -0.00095109857
000360 2f 2c 0c bb da f3 27 bb cc 91 2a bb 93 c8 fa ba
       -0.002138864 -0.0025627525 -0.0026026843 -0.0019133262
000370 8f b1 a6 ba df e5 65 3a 17 7a 52 bb 69 be 8a bb
       -0.0012717712 0.000876991 -0.0032116228 -0.0042341244
000380 81 53 82 bb a1 e3 85 bb 31 20 3b bb b6 6d c5 3a
       -0.0039772396 -0.0040859734 -0.0028553123 0.0015062604
000390 cf 7e 97 bb 3d 06 b8 bb 7c 3e bf bb 0c 77 96 bb
       -0.004623271 -0.005615978 -0.005836306 -0.004591828
0003a0 b7 f7 83 bb cc 31 03 3b 49 1e 34 3b 23 de 5b 3b
       -0.0040273326 0.0020018695 0.0027483872 0.0033549152
0003b0 fe 7f 6f 3b 42 7e 37 3b 93 c9 1e 3b 40 0d 2e 38
       0.0036544795 0.002799884 0.0024229034 4.1497173e-05
0003c0 2a 2b b5 3a 23 ed f8 3a 17 23 10 3b d9 4e 09 3b
       0.0013822068 0.0018991571 0.0021993571 0.0020951538
0003d0 8b 34 e8 3a e6 f4 20 3a d7 07 2a bb 50 3b 67 bb
       0.0017715854 0.00061400083 -0.0025944614 -0.0035283156
0003e0 ff f0 9c bb 05 2b 78 bb 32 c9 8b bb 75 12 94 ba
       -0.004789471 -0.0037867439 -0.0042659277 -0.0011297005
0003f0 0d 30 96 3a 66 01 cf 3a 7c 8a d3 3a 22 a7 d9 3a
       0.0011458412 0.0015793263 0.0016139294 0.0016605596

exp_avg_sq f4 [70, 6]
000000 40 46 1d 3a e5 19 1f 3a 08 c9 4c 3a 19 da 4f 3a
       0.0005999543 0.0006069227 0.00078119384 0.00079289224
000010 4f 3d 21 3a 03 d4 e9 39 bf 6c a1 39 54 c0 a1 39
       0.0006150798 0.00044599184 0.00030789335 0.0003085161
000020 98 3a a2 39 9a dc b7 39 cf df d5 39 1c 14 b3 39
       0.00030942704 0.0003506884 0.00040793276 0.00034156523
000030 c8 83 1f 38 57 09 20 38 79 88 1c 38 eb e0 c4 37
       3.8031285e-05 3.815567e-05 3.73204e-05 2.3469756e-05
000040 34 d2 86 37 8b 0a a5 37 50 97 67 3a 5c 4f 6f 3a
       1.6071928e-05 1.9674442e-05 0.0008834498 0.0009128952
000050 76 1e 88 3a 65 a4 87 3a cc f2 7a 3a 09 4d 40 3a
       0.0010385055 0.0010348676 0.0009572923 0.0007335698
000060 23 05 86 39 fa 96 8f 39 ed 6c 9c 39 26 63 82 39
       0.000255623 0.00027387572 0.00029835795 0.00024869404
000070 df 2b 29 39 32 94 51 39 b5 9f a6 38 c3 7a a8 38
       0.00016133439 0.00019987 7.9452446e-05 8.0337304e-05
000080 c7 e8 ba 38 6f 1d b6 38 a8 79 a8 38 94 17 8d 38
       8.912529e-05 8.683919e-05 8.0335245e-05 6.727796e-05
000090 cb ad 86 39 00 7b 82 39 44 22 67 39 d9 cc 13 39
       0.00025687958 0.00024887174 0.00022042642 0.00014095324
0000a0 64 ea 13 39 cf f5 1a 39 54 b0 cd 39 26 d2 ce 39
       0.0001410633 0.00014778155 0.00039232022 0.00039447955
0000b0 ad d3 de 39 91 6c ea 39 38 96 dd 39 94 09 ae 39
       0.0004250085 0.00044712846 0.00042264326 0.00033195002
0000c0 0d e4 bf 38 0b 8d c2 38 06 ed bb 38 22 72 0c 39
       9.1500675e-05 9.276912e-05 8.961004e-05 0.00013393958
0000d0 88 72 6a 39 3b 87 4c 39 d2 8b 14 3a 97 db 12 3a
       0.00022358645 0.00019505333 0.0005666587 0.00056021794
0000e0 87 9a 14 3a cc 54 e6 39 b7 8d f0 39 7e 42 c3 39
       0.00056687783 0.00043932197 0.00045881953 0.0003724284
0000f0 6d c5 32 38 7b 48 27 38 43 39 f9 37 28 34 85 38
       4.2622374e-05 3.9883405e-05 2.9709778e-05 6.351649e-05
000100 ef fc 12 39 2e 36 d8 38 26 a8 12 39 a3 75 13 39
       0.0001401787 0.000103097744 0.00013986285 0.00014062836
000110 cd 7e 39 39 0a be 3c 39 e7 fd 22 39 4a 52 fa 38
       0.00017690212 0.00017999872 0.0001554411 0.000119362565
000120 ea d8 3b 38 b8 17 3b 38 50 4e 2a 38 fc b1 0c 38
       4.478629e-05 4.4606364e-05 4.0604093e-05 3.3544362e-05
000130 ae 67 24 38 4a 3b 12 38 95 d8 a8 37 8a 61 b1 37
       3.9197206e-05 3.486433e-05 2.0128015e-05 2.1145464e-05
000140 fa 01 f1 37 4a 05 01 38 47 4f d0 37 d8 a9 ab 37
       2.873036e-05 3.0760923e-05 2.4832449e-05 2.0463878e-05
000150 90 a2 80 3a 8e 1f 82 3a 38 cb 90 3a 99 13 9d 3a
       0.0009814072 0.0009927617 0.0011046892 0.001198399
000160 98 ff 9b 3a eb 97 86 3a fa 81 a5 39 0e d5 9f 39
       0.0011901734 0.0010268664 0.00031568093 0.0003048558
000170 83 76 93 39 68 ba a4 39 ba 9a da 39 d6 e1 ab 39
       0.00028126323 0.000314194 0.0004169548 0.00032783923
000180 bf 35 87 39 bb 38 8a 39 b6 f1 aa 39 a8 fe a2 39
       0.0002578925 0.0002636368 0.00032605015 0.00031088782
000190 de 4e 8a 39 58 88 5b 39 0a 55 17 39 c2 47 14 39
       0.00026380172 0.0002093626 0.00014432162 0.00014141112
0001a0 cc fa 11 39 3e be 17 39 bd 0a 36 39 92 07 0c 39
       0.00013921707 0.00014471353 0.00017360873 0.0001335426
0001b0 5b 25 9b 39 14 49 a2 39 83 72 bb 39 34 b3 95 39
       0.00029591736 0.00030953495 0.00035752737 0.0002855301
0001c0 23 26 2b 39 54 18 5a 39 a3 92 13 38 e0 cc 16 38
       0.00016322038 0.00020799163 3.5184097e-05 3.595359e-05
0001d0 ea 3f 31 38 09 0f 2d 38 af 4b 0c 38 72 4d fc 37
       4.2259613e-05 4.1260417e-05 3.3449087e-05 3.0076804e-05
0001e0 d8 e9 04 39 45 ef f3 38 fe 56 cf 38 2f 29 54 38
       0.00012675615 0.000116317104 9.886733e-05 5.0583094e-05
0001f0 f9 85 cc 38 e6 92 db 38 c1 8b e2 38 93 d2 df 38
       9.7524324e-05 0.00010470096 0.00010802551 0.00010672691
000200 4b 74 d8 38 2b 56 bf 38 3b bc cd 38 bb 2b cf 38
       0.00010321344 9.12364e-05 9.8102224e-05 9.8786746e-05
000210 11 7b 33 3a dd e0 32 3a b7 d8 43 3a b8 0e 23 3a
       0.00068466464 0.00068236684 0.00074709527 0.000622015
000220 d2 75 18 3a 6c 09 f7 39 4f 79 39 39 18 49 52 39
       0.00058158964 0.0004711853 0.00017688166 0.0002005439
000230 31 03 d3 39 62 79 08 3a 49 6a a3 39 7e 85 56 39
       0.00040247434 0.0005206076 0.0003116897 0.0002045836
000240 62 32 b1 3a 81 1d b2 3a c2 69 da 3a 17 f7 d7 3a
       0.0013519044 0.0013589115 0.0016663598 0.0016476837
000250 25 02 b3 3a 76 50 81 3a 43 0f 3a 39 ee 29 21 39
       0.0013657255 0.0009865898 0.00017744028 0.00015369777
000260 a5 e5 c2 38 43 d8 66 37 dc 23 d9 38 39 a9 0c 39
       9.2934155e-05 1.3759421e-05 0.00010354046 0.00013414481
000270 5a 72 27 3a 4e ad 27 3a b2 cd 29 3a f3 a4 e5 39
       0.0006387584 0.0006396369 0.00064774894 0.0004380118
000280 2e 53 77 39 e6 a0 4d 39 be 6f 8b 39 7b 8c 8c 39
       0.00023586742 0.00019610263 0.000265954 0.00026807547
000290 61 de 8e 39 22 0f 82 39 82 0b 9d 39 18 74 83 39
       0.00027250036 0.00024806807 0.00029953948 0.00025072764
0002a0 34 c8 d3 39 b2 05 e0 39 ef ed e8 39 b6 4f 7e 39
       0.0004039422 0.00042728853 0.00044427763 0.00024253022
0002b0 2a 1d c8 38 fc ee 51 39 6e 37 a0 39 97 eb 9b 39
       9.5421754e-05 0.00020020822 0.00030558876 0.00029739432
0002c0 81 83 e1 39 d1 93 00 3a cb 08 ef 39 6e 0b 77 39
       0.00043013322 0.0004904839 0.00045592184 0.00023560014
0002d0 f4 ac b8 36 86 9a c3 36 73 96 05 37 d5 d2 0a 37
       5.5037617e-06 5.8294418e-06 7.962447e-06 8.274529e-06
0002e0 14 d1 b1 36 44 d7 a1 36 ab 58 7b 39 dd 6c 78 39
       5.299351e-06 4.823234e-06 0.00023970257 0.00023691678
0002f0 4b a2 70 39 68 20 49 39 eb c6 5d 39 a2 6e 41 39
       0.00022948642 0.00019180926 0.00021150305 0.00018447128
000300 60 5b 5a 38 d5 4f 6c 38 a9 45 c6 38 7d b3 e5 38
       5.206035e-05 5.6341134e-05 9.454351e-05 0.00010953003
000310 9d 08 93 38 bb 17 68 38 72 ce 51 39 db 41 5d 39
       7.0111106e-05 5.533521e-05 0.000200087 0.00021100735
000320 1f d8 81 39 ad d7 6b 39 3f 1a 46 39 a1 fd 50 39
       0.0002476582 0.00022491692 0.00018892529 0.0001993091
000330 9c 0b 7e 39 c1 17 7a 39 5a 51 6e 39 08 3a 7b 39
       0.00024227652 0.00023850707 0.00022727755 0.00023958844
000340 6a a5 a0 39 da 15 77 39 db f0 1e 39 e6 be 22 39
       0.0003064082 0.00023563896 0.0001515778 0.00015520639
000350 a0 d8 17 39 b6 b0 e4 38 42 9d f3 38 c4 28 0c 39
       0.00014481181 0.00010904802 0.000116164345 0.00013366627
000360 98 24 7a 38 32 0f 7f 38 50 98 98 38 1d 28 92 38
       5.9638725e-05 6.081089e-05 7.276295e-05 6.969294e-05
000370 27 f5 75 38 51 04 47 38 d7 9f d8 38 5a 5e dc 38
       5.8640868e-05 4.7449317e-05 0.00010329455 0.00010507992
000380 47 d2 09 39 8d e3 b6 39 23 0d 02 3a d5 a7 d5 39
       0.00013143673 0.00034883284 0.0004961064 0.0004075157
000390 06 04 b9 39 c3 03 bb 39 99 d2 d9 39 35 a6 00 3a
       0.00035288947 0.00035670222 0.00041546373 0.0004907579
0003a0 cf a6 fe 39 d9 d5 d8 39 b4 42 34 39 28 85 35 39
       0.00048570937 0.0004135806 0.00017190987 0.0001731111
0003b0 fa bd 4e 39 3e 49 3d 39 c5 3f 02 39 7a 33 91 38
       0.00019716463 0.0001805173 0.00012421522 6.923727e-05
0003c0 2a e4 0c 38 cb 28 1a 38 1d 5d 8c 38 26 69 c5 38
       3.3591095e-05 3.6754453e-05 6.693064e-05 9.4132774e-05
0003d0 8b dc 9d 38 9b 69 5e 38 a3 66 69 39 6d b2 86 39
       7.527423e-05 5.3027277e-05 0.00022258847 0.0002569141
0003e0 26 bb 16 3a 97 a0 38 3a a4 e3 aa 39 a1 8f 4d 39
       0.0005749933 0.0007042973 0.00032594532 0.0001960383
0003f0 ca a6 97 37 3a d8 99 37 9f 46 ca 37 c9 2f 49 38
       1.807827e-05 1.833971e-05 2.4113162e-05 4.7966638e-05

exp_avg f4 [70]
000000 4b 95 f0 3b 04 ab bb 3b f1 e8 02 bb 51 d0 20 3c
       0.007342016 0.0057271738 -0.001997527 0.0098152915
000010 58 9e b2 bb 6d e4 37 bb db e7 90 3b f5 45 a5 bb
       -0.005451005 -0.0028059736 0.0044221706 -0.00504374
000020 62 d3 18 3b 48 2c ff 3b cf 69 77 3a ea 52 83 bb
       0.0023319353 0.007787261 0.0009438069 -0.004007687
000030 f7 50 23 3b 53 84 cd ba 23 66 2f 3c d7 65 ad bb
       0.0024920085 -0.0015679694 0.010705504 -0.0052916813
000040 71 ad b7 bb 50 c2 73 3b 2f d2 d3 bb 78 5e fc ba
       -0.0056053926 0.0037194677 -0.006464265 -0.0019254228
000050 94 90 3e bb be df 7d 3b 39 6a 0c bc b2 a2 b2 3a
       -0.0029077874 0.0038738097 -0.008570247 0.0013628809
000060 94 08 3c bc e0 7b 98 bb 75 c0 9c bb 66 5c ce bb
       -0.011476655 -0.004653439 -0.004783685 -0.006297636
000070 72 d5 af bb 01 99 8d bb e4 61 3f 3a 84 f0 9d bb
       -0.005366021 -0.004321218 0.00073006586 -0.0048199315
000080 8d 70 18 3b d1 9f bc bb 5b af 68 bb f8 39 ab 3b
       0.0023260445 -0.0057563563 -0.003550491 0.0052254163
000090 7c 02 26 bb ee f9 ad bb 02 b3 d9 bb be 15 54 3b
       -0.002533107 -0.005309335 -0.006643654 0.0032361592
0000a0 a3 a5 8e 3a fa e2 05 bb 76 95 dd 3a 24 7d f0 bb
       0.0010883104 -0.0020429478 0.0016905505 -0.0073391367
0000b0 25 9d 61 3a 4e 79 ff 3b 1d 6a 17 3c 34 32 83 bb
       0.0008606485 0.007796443 0.009241608 -0.0040037874
0000c0 be 60 86 bb e8 a4 e0 bb f1 ca de 3b 8f 6b 84 ba
       -0.004100888 -0.006855596 0.006799095 -0.0010102856
0000d0 74 86 cc bb 17 3a 88 3b 96 1e be 3b 5b cb 87 bb
       -0.006241614 0.0041573155 0.005801986 -0.004144115
0000e0 65 bd 1b 3c 95 3c 37 3b fe a0 a1 3a d2 37 b1 bb
       0.009505604 0.0027959694 0.0012331305 -0.0054082656
0000f0 ff e8 ea bb 0c 89 ef 3b 25 49 97 3b b3 ee 34 bb
       -0.0071688886 0.0073100384 0.004616874 -0.0027608096
000100 d7 d9 2d bb 39 04 15 3c 60 35 10 3b c4 c8 c6 3b
       -0.0026527548 0.009095245 0.002200447 0.0060664136
000110 2e 65 b1 3b 97 b5 17 bc
       0.005413673 -0.009259603

exp_avg_sq f4 [70]
000000 ef 18 32 3a c2 91 c7 39 23 fa 06 38 81 17 7a 3a
       0.00067938765 0.00038064836 3.2181048e-05 0.00095402455
000010 3f ab 9a 39 32 18 a1 38 07 51 6e 39 c4 ff c6 39
       0.00029500757 7.681585e-05 0.00022727634 0.00037956063
000020 11 7b 4b 39 21 4f 08 3a f2 39 d5 38 71 c2 24 39
       0.00019405434 0.00051997794 0.000101674246 0.00015712694
000030 6c 2b 35 38 64 e6 d7 37 1c cd 99 3a 67 32 c7 39
       4.3194203e-05 2.5737281e-05 0.0011734101 0.0003799379
000040 ff d7 93 39 9e d1 2a 39 23 c8 96 39 3b 5a 0e 38
       0.00028198955 0.00016290552 0.00028759343 3.3939472e-05
000050 01 63 26 39 2b db f4 38 63 0d 2d 3a 5e 5a a9 39
       0.00015867875 0.0001167565 0.0006601421 0.0003230152
000060 25 61 bb 3a 56 8a 7b 39 87 26 f7 39 a5 b4 a2 39
       0.0014295919 0.0002398876 0.00047140216 0.00031033639
000070 dd ba c5 39 64 e5 d3 39 58 b1 c6 36 91 60 6a 39
       0.00037713992 0.00040415965 5.9215054e-06 0.00022351953
000080 1e c4 b3 38 41 e7 63 39 42 27 89 39 15 1e 21 39
       8.571915e-05 0.00021734556 0.00026159926 0.00015365363
000090 be 44 80 38 6f 85 f6 39 40 f2 00 3a 2c f1 3a 39
       6.11632e-05 0.00047020192 0.00049189106 0.00017828186
0000a0 d5 ff 9b 38 33 15 de 39 16 85 78 38 a2 ed 13 3a
       7.4386284e-05 0.00042358934 5.9251754e-05 0.0005643015
0000b0 8c 40 ac 36 cf f1 1f 3a b5 28 5e 3a d6 54 19 39
       5.1335137e-06 0.0006101401 0.0008474694 0.00014622821
0000c0 c8 f4 13 39 bf 64 95 39 59 0d f3 39 6a 97 2c 38
       0.000141102 0.00028494556 0.00046358517 4.114901e-05
0000d0 9f 36 72 39 6a d0 83 39 21 7e a4 39 e3 24 2b 39
       0.00023099266 0.00025141548 0.0003137449 0.00016321572
0000e0 1e c5 8c 3a 45 0a a2 38 8b 73 a3 38 f5 43 8a 39
       0.0010739898 7.726675e-05 7.793967e-05 0.00026372043
0000f0 8a b6 e5 39 0e 04 08 3a 73 3b 90 39 99 ce 89 38
       0.00043814286 0.00051885925 0.00027510113 6.571151e-05
000100 e5 e0 9b 38 ba da 5e 3a 66 17 50 39 e1 0e f4 39
       7.432866e-05 0.0008501221 0.00019845142 0.00046550392
000110 03 21 8c 39 8a 00 4b 3a
       0.00026727477 0.0007743916

exp_avg f4 [1, 70]
000000 43 9d f8 3a 05 7b 6f bc 51 6e e8 3b ad 77 9a 3b
       0.0018967766 -0.0146167325 0.007093229 0.0047139735
000010 dc 04 9c 3b 38 a2 3e bb 6e de af bc f4 1d a4 3c
       0.0047613215 -0.002908839 -0.021468367 0.020033814
000020 98 61 df 3c 8b d5 f6 3b fa 2d 02 bd 60 06 a8 3b
       0.027268216 0.0075327805 -0.031782128 0.005127713
000030 3f 83 8f bb 45 e9 91 3b d6 30 e1 bb cb 80 89 3c
       -0.0043796594 0.0044528567 -0.006872277 0.016785046
000040 38 4d 2c bb d1 77 24 3c c0 b2 90 3c 56 5b 93 b7
       -0.0026291143 0.010038332 0.01766336 -1.7566297e-05
000050 6d 8d 14 bd d2 bb 73 3c 98 b9 c3 bb 08 ff 52 3c
       -0.036267687 0.014876323 -0.0059730522 0.012878187
000060 14 b2 20 3a df 6f d6 3c 6a db 6d bb 1a b0 0e bb
       0.00061300513 0.026176391 -0.003629411 -0.0021772445
000070 39 0f 6f bb 71 a4 a3 3c d7 e7 16 3c b4 15 80 3c
       -0.003647758 0.019975873 0.009210548 0.015635349
000080 f3 ef f0 3b 76 25 00 3c 19 14 c7 3c 43 8c 24 bb
       0.007352823 0.007821431 0.024301575 -0.0025108017
000090 22 23 bc bb f6 45 af bc e3 39 1f 3c 12 d9 0c bc
       -0.005741493 -0.021395665 0.009718391 -0.0085966755
0000a0 21 83 89 3c f3 d4 a3 3c ed 20 a7 3c 0f b9 90 3c
       0.01678616 0.019999003 0.020401442 0.017666368
0000b0 18 5b 63 bb fb 33 79 bc 62 36 cb 3a 55 35 71 3a
       -0.0034691747 -0.015210147 0.0015503878 0.00092013675
0000c0 6e 55 b9 3b 76 ed 92 3b 05 37 9f ba 92 ae 7b 3c
       0.005655936 0.004483874 -0.0012147134 0.015361445
0000d0 b1 77 25 bb b9 0e 97 bc d9 16 c0 bb b7 a6 59 ba
       -0.0025248344 -0.018439637 -0.0058620987 -0.00083027355
0000e0 13 4a 3e bc 3e 43 a1 bb a4 d9 f4 bc 81 c9 63 bc
       -0.01161434 -0.004921346 -0.029888935 -0.013903023
0000f0 10 82 3e bb 10 37 d7 3a 84 f3 65 bc ac 6c 0d bd
       -0.0029069223 0.0016419608 -0.014035109 -0.034527466
000100 75 e4 00 3c a8 76 ca 3b f5 a6 e7 3c 91 23 98 bb
       0.007866968 0.0061786957 0.028277854 -0.0046429117
000110 d1 86 59 3b 30 00 ca bb
       0.003319193 -0.006164573

exp_avg_sq f4 [1, 70]
000000 9b f2 4f 3b ac ec 05 3b 55 3f 58 3b 7d 08 ea 3a
       0.0031730297 0.0020435257 0.0032996733 0.0017855313
000010 fd 6a c9 3b 46 5d 64 39 1c 53 6a 3b 55 ff 55 3b
       0.006146787 0.00021778521 0.0035755103 0.003265341
000020 52 be ac 3b 04 2f 88 3b 73 8f dc 3b 0b 8d 08 3b
       0.0052717114 0.0041559953 0.0067309677 0.0020836021
000030 e2 d3 36 3b 56 c2 f2 3a bf ef b4 3a ad 9d 10 3b
       0.0027897288 0.0018521051 0.001380436 0.0022066638
000040 72 fe 29 3b 86 f8 f0 3a 63 1e 66 3b 7b fd db 39
       0.0025939015 0.0018384613 0.0035113327 0.00041959793
000050 77 61 ef 3b 3a 1b 0b 3b ec 5c 70 3b c5 7e c4 3b
       0.00730532 0.0021225945 0.003667648 0.0059965574
000060 45 5c 3f 3b 4e 02 1c 3c 47 93 f5 3b 09 8b 20 3b
       0.0029199284 0.009522034 0.0074943635 0.0024496934
000070 b9 e2 f8 3b 3c 76 ba 3b 6f 17 16 3b 0b 7e 19 3b
       0.007595387 0.005690364 0.002290215 0.0023421075
000080 e7 72 97 3b 60 b3 61 3b 3c 4d 62 3b 88 48 81 3b
       0.0046218517 0.0034439191 0.0034530899 0.003945414
000090 7b 14 bb 3a 51 4e e1 3b 4c 36 0d 3b 90 2d 88 3b
       0.0014273071 0.006875791 0.0021547256 0.004155822
0000a0 7a 33 97 3b 0c f5 f3 3b 5e 9f b3 3b 6b 4b 67 3b
       0.004614291 0.0074449833 0.0054816445 0.0035292755
0000b0 de 26 16 3b fb 35 a6 3b 12 31 ac 3a 6b be 09 3b
       0.002291135 0.005072353 0.0013137183 0.002101804
0000c0 93 95 c6 3a b7 b4 1c 3b 39 46 92 3b bf fc b7 3b
       0.0015150778 0.0023911425 0.0044639376 0.0056148465
0000d0 f2 92 53 3b 71 72 39 3b 53 e1 07 3b d9 60 65 3a
       0.003228363 0.0028296972 0.002073367 0.0008750088
0000e0 05 8a e0 3a 55 18 19 3a 46 c0 1e 3c e2 85 8c 3b
       0.0017130977 0.00058401126 0.009689396 0.004288421
0000f0 18 c4 5e 3b ad 56 b9 3a 26 40 21 3b ee 90 eb 3b
       0.0033991393 0.0014140211 0.0024604886 0.007188908
000100 3b 94 ac 3a 6f 23 eb 3a 0b 05 df 3b c5 19 4d 3b
       0.0013166735 0.0017939637 0.006806021 0.0031295877
000110 d3 80 5b 3a db ff 85 3b
       0.00083733833 0.0040893382
