models/training_new_loss_pico_soustraction/model_1/space_buffer_8_date_buffer_1/train_pfts_14/MLP.pth (torch, 57374 bytes, 18 tensors)

layers.0.weight f4 [70, 6]
-0.023331154 -0.021735538 0.010410641 0.01986358 -0.029940926 0.014206045 0.09073187 0.15787092
-0.37989295 -0.10788895 0.21539785 -0.14765625 0.018694086 0.022471778 0.0050815595 -0.014235586
-0.020097906 -0.02237541 0.023075413 0.3721336 -0.13964607 -0.09048011 0.20171458 -0.3167411
-0.023010515 0.011924354 -0.028038245 0.013134037 0.01849179 -0.020558063 -0.21779862 0.1429889
0.28137344 0.66579115 -0.00082318403 0.074599355 -0.277846 0.008100765 -0.2909667 0.36105454
-0.05418755 0.099234134 -0.016413247 -0.3312637 0.06678557 0.095381565 -0.13085541 0.09606974
0.04399555 -0.27143288 0.100808546 -0.01705459 0.14403418 -0.011620181 0.0061571375 -0.2752263
0.011116765 0.08486988 -0.021183394 0.12153287 0.04408258 0.015641944 0.023927394 -0.024606962
0.009340146 0.015094177 0.03637695 0.021429356 0.0086224675 -0.04493373 -0.019560596 0.0041815946
0.006603417 0.0035314872 -0.03555028 0.0457819 0.020153513 -0.04432541 0.06006498 -0.29813254
0.12790677 -0.038560882 0.03959462 0.050555166 0.0013384926 0.20421961 -0.06769609 -0.012535431
-0.0837616 -0.021388015 0.06030676 0.17543401 0.06289629 -0.20902489 0.102939 -0.13356897
-0.018888993 0.024742983 -0.032624718 0.008677871 -0.011324989 -0.023303797 -0.0352049 0.21863279
-0.04497459 0.012159535 -0.07552133 0.032925606 0.10395736 0.4542455 -0.2729805 -0.065518126
0.28430945 -0.49598247 -0.03739238 0.30766442 -0.09767653 -0.022741016 0.0048338515 -0.09102231
-0.00971207 -0.008242038 -0.0031749953 -0.014936284 -0.043360256 0.01952379 -0.023506496 -0.0009475229
-0.012233423 0.01799207 0.017408898 0.0024353764 0.13386296 0.10255934 -0.35403556 -0.14686528
0.17476304 -0.11901797 -0.019168554 -0.16726379 0.0894194 -0.023699308 0.1742433 -0.025297306
-0.0026651444 0.012208986 0.00833507 -0.011026235 0.005862649 0.009168082 -0.0033305553 0.15871602
-0.07438274 0.029618159 -0.20185375 0.057597905 0.03154949 -0.22036237 -0.029113261 0.09035632
-0.0305886 0.03492513 -0.034981024 0.027877124 -0.037090518 0.010742709 -0.032451477 -0.03082961
0.14291506 0.1948108 -0.3903161 -0.115899615 0.22598071 -0.20900379 -0.22765346 0.024941232
-0.26766372 0.35055542 -0.02697759 0.058539007 0.47515523 -0.34259513 0.08298586 -0.7480712
0.24889423 0.09118455 -0.029913377 -0.006644724 -0.014305348 0.014483923 0.0017491734 -0.009842406
0.018243447 -0.24205615 0.035955332 0.17996259 -0.07246398 0.10257838 -0.13066982 -0.14046627
0.35287797 0.14199458 -0.2217476 0.17033282 -0.0011369297 -0.0013754162 -0.013493674 0.0008528676
-0.0037806265 0.0007549962 0.039158247 0.017839475 0.014300225 -0.016928958 0.013170133 0.03272058
0.122401 0.14362346 -0.34867153 -0.119365156 0.2118896 -0.14570749 0.013059438 -0.012049972
0.021256546 -0.013160338 0.020012178 0.001685765 0.019450674 -0.009329723 0.012495734 -0.023522737
-0.034446355 0.022182863 -8.132928e-05 -0.0013005325 0.0029428317 0.0010971222 0.0028094794 -0.0003611017
0.044089366 0.41355827 -0.13198873 -0.06973271 0.24247463 -0.33941633 -0.20447446 0.2781191
-0.4560433 0.097129695 0.1852257 -0.7176149 -0.020085413 -0.0057363617 -0.007509403 0.012546338
00000000: fa20 bfbc ba0e b2bc 6591 2a3c f2b8 a23c
00000010: ac46 f5bc 79c0 683c a1d1 b93d eaa8 213e
00000020: 5481 c2be e2f4 dcbd 4191 5c3e 3333 17be
00000030: 5724 993c bc16 b83c 3683 a63b 603c 69bc
00000040: 5da4 a4bc a34c b7bc a608 bd3c 4c88 be3e
00000050: 61ff 0ebe a34d b9bd 448e 4e3e e42b a2be
00000060: 8c80 bcbc 5e5e 433c 76b0 e5bc 2530 573c
00000070: 187c 973c 6269 a8bc 9a06 5fbe af6b 123e
00000080: 2e10 903e 4a71 2a3f f2ca 57ba 8cc7 983d
00000090: d541 8ebe 12b9 043c 96f9 94be 24dc b83e
000000a0: c4f3 5dbd 443b cb3d 1375 86bc 659b a9be
000000b0: dfc6 883d 6957 c33d f6fe 05be 36c0 c43d
000000c0: ae34 343d 40f9 8abe b674 ce3d 11b6 8bbc
000000d0: b27d 133e 9262 3ebc d0c1 c93b 76ea 8cbe
000000e0: 1823 363c 42d0 ad3d cc88 adbc 3ae6 f83d
000000f0: ef8f 343d 8923 803c 6203 c43c 8a94 c9bc
00000100: 6907 193c 914d 773c ffff 143d 9e8c af3c
00000110: 4045 0d3c 6e0c 38bd 8b3d a0bc c205 893b
00000120: 7a61 d83b 8670 673b 2c9d 11bd cd85 3b3d
00000130: fb18 a53c 908e 35bd b206 763d d4a4 98be
00000140: fef9 023e 04f2 1dbd f82d 223d ef12 4f3d
00000150: 5c70 af3a f21e 513e 3fa4 8abd 6961 4dbc
00000160: 348b abbd eb35 afbc 3904 773d f9a4 333e
00000170: c5cf 803d 9f0a 56be afd1 d23d 4ec6 08be
00000180: 17bd 9abc ccb1 ca3c 7fa1 05bd a12d 0e3c
00000190: 728c 39bc 9be7 bebc 0333 10bd 46e1 5f3e
000001a0: 4737 38bd c938 473c edaa 9abd 00dd 063d
000001b0: 99e7 d43d de92 e83e 1ac4 8bbe 5e2e 86bd
000001c0: 0291 913e 6af1 fdbe c128 19bd 3186 9d3e
000001d0: a20a c8bd 5e4b babc 4965 9e3b e869 babd
000001e0: 601f 1fbc 9d09 07bc 9513 50bb 51b7 74bc
000001f0: 869a 31bd 5bf0 9f3c b290 c0bc 2f63 78ba
00000200: b26e 48bc 1b64 933c 1b9d 8e3c d69a 1f3b
00000210: 5f13 093e a20a d23d 2644 b5be da63 16be
00000220: 15f5 323e b2bf f3bd 5f07 9dbc 3347 2bbe
00000230: 8521 b73d 0d25 c2bc d66c 323e 4c3c cfbc
00000240: b4a9 2ebb 3308 483c d18f 083c 62a7 34bc
00000250: 771b c03b b935 163c 7245 5abb 7486 223e
00000260: fa55 98bd c8a1 f23c c0b2 4ebe c8eb 6b3d
00000270: 0a3a 013d aca6 61be ef7e eebc bc0c b93d
00000280: f294 fabc a70d 0f3d 4348 0fbd 915e e43c
00000290: 3aec 17bd 3002 303c d7eb 04bd 618e fcbc
000002a0: 5358 123e 7b7c 473e 83d7 c7be c75c edbd
000002b0: 7d67 673e 1705 56be fd1d 69be 8e51 cc3c
000002c0: 380b 89be 007c b33e 1b00 ddbc 99c6 6f3d
000002d0: 8c47 f33e a168 afbe 7ef4 a93d 9881 3fbf
000002e0: 21de 7e3e f7be ba3d e60c f5bc fcbb d9bb
000002f0: fa60 6abc fa4d 6d3c 8544 e53a 0b42 21bc
00000300: 4873 953c 91dd 77be e645 133d 1d48 383e
00000310: ff67 94bd 9d14 d23d 4fce 05be 64d6 0fbe
00000320: 6cac b43e 0767 113e ce11 63be ba6b 2e3e
00000330: 0805 95ba 4f47 b4ba 9214 5dbc fa92 5f3a
00000340: 63c4 77bb f0ea 453a 6664 203d 1724 923c
00000350: 7e4b 6a3c 99ae 8abc 8bc7 573c 0406 063d
00000360: 60ad fa3d 0712 133e 1385 b2be b875 f4bd
00000370: 96f9 583e 5834 15be 41f7 553c 3f6d 45bc
00000380: 3522 ae3c 759e 57bc 94f0 a33c e3f4 dc3a
00000390: 0557 9f3c b2db 18bc e8ba 4c3c c1b2 c0bc
000003a0: 9f17 0dbd d6b8 b53c 538f aab8 a176 aaba
000003b0: 86dc 403b 50cd 8f3a 3e1f 383b 4052 bdb9
000003c0: 0d97 343d e9bd d33e 0e28 07be 06d0 8ebd
000003d0: 454b 783e fac7 adbe c161 51be a065 8e3e
000003e0: 827e e9be efeb c63d ceab 3d3e 9cb5 37bf
000003f0: 2a8a a4bc 17f8 bbbb 7011 f6bb 288f 4d3c

layers.0.bias f4 [70]
-0.00031168226 -0.07623021 0.014837311 0.13249883 -0.0008282765 -0.1385169 0.086636975 0.065510444
-0.043802515 -0.01911825 -0.028957188 0.04843256 -0.019588908 -0.02872728 0.022834556 -0.022240216
-0.0047186906 7.496036e-05 0.2891858 0.023792306 -0.07527311 0.008617371 -0.123537645 -0.07912379
-0.008761359 0.020655075 0.038470518 -0.010714736 -0.05258154 0.06420453 0.07491994 -0.03708879
-0.050844073 0.019205296 0.004179274 0.084500484 -0.09006518 -0.010585868 0.009998361 0.0027252117
0.11800265 0.27965692 -0.0012763006 -0.07354863 0.04425761 -0.041927278 0.014418705 -0.0028483304
-0.014227534 0.09032094 0.017142186 -0.023462629 -0.121940225 -0.049274366 0.068905555 -0.036253452
-0.0065511926 0.012170803 0.02659296 -0.16250928 0.019583086 -0.005479774 -0.0035137408 0.022451615
0.0021985543 -0.027783573 0.010410426 0.016499866 0.0074825464 0.0050484855
00000000: 4969 a3b9 961e 9cbd 3118 733c c6ad 073e
00000010: b220 59ba 60d7 0dbe ba6e b13d 572a 863d
00000020: 446a 33bd e09d 9cbc a037 edbc 3861 463d
00000030: eb78 a0bc 7955 ebbc 890f bb3c 1d31 b6bc
00000040: 3f9f 9abb 0934 9d38 2910 943e 15e8 c23c
00000050: ca28 9abd e02f 0d3c 4e01 fdbd a70b a2bd
00000060: ce8b 0fbc d534 a93c 4393 1d3d dc8c 2fbc
00000070: be5f 57bd aa7d 833d a06f 993d 6aea 17bd
00000080: e041 50bd 6d54 9d3c 4bf2 883b 970e ad3d
00000090: 1874 b8bd 5970 2dbc 2ad0 233c 7799 323b
000000a0: 60ab f13d 312f 8f3e 8b49 a7ba aaa0 96bd
000000b0: 7847 353d f0bb 2bbd 6f3c 6c3c 0eab 3abb
000000c0: 9a1a 69bc 2ffa b83d c56d 8c3c b334 c0bc
000000d0: ccbb f9bd ebd3 49bd 5b1e 8d3d 807e 14bd
000000e0: 63ab d6bb 0c68 473c 7bd9 d93c d568 26be
000000f0: b56c a03c ad8f b3bb ca46 66bb 73ec b73c
00000100: 9f15 103b 609a e3bc 7e90 2a3c ba2a 873c
00000110: 2630 f53b c46d a53b

layers.1.weight f4 [50, 70]
0.038064566 -0.34508136 -0.032078117 -0.32839048 -0.019357873 0.18278955 0.12100874 0.40432018
0.14244033 0.2280177 -0.00010547024 -0.016761087 0.0066852234 0.23196757 -0.13461995 -0.21591619
-0.013246422 -0.11445644 -0.43778202 -0.25342727 -0.01923476 0.010912677 -0.31222638 0.005512197
0.001329775 -0.028401474 0.18916069 -0.027445154 -0.4137055 0.06406647 0.00060786057 -0.0017517676
0.24529164 0.2941786 0.009787183 0.019556975 -0.3292436 -0.000892233 0.013546615 0.0011820731
-0.39694446 -0.3160698 0.008388829 -0.19004972 0.019509917 0.14341222 -0.20300995 0.017336447
-0.2503233 0.37189314 0.008766805 -0.022168506 -0.34951484 -0.2595644 -0.0048675407 0.0006620173
-0.01160289 0.0019452 -0.20906894 0.11275263 0.0011078806 0.008603003 -0.012072534 -0.039230607
0.0065484336 0.06364156 0.0036792473 0.0025119432 0.01339292 0.010027173 0.0062032393 0.009893839
-0.023141615 0.0029509435 -0.012416106 -0.03617741 -0.0028117618 0.011697733 0.0023141615 0.008779137
-0.036069687 -0.06809059 0.0007400655 0.017595196 0.021974389 0.0028051937 0.016096283 0.0031163807
-0.008024432 -0.0012227664 0.064209424 0.014632069 0.028253546 -0.0350484 0.011333415 0.032797363
-0.013685321 -0.039272152 0.014373921 -0.010718613 0.03989139 0.029866232 -0.02360014 -0.018249962
-0.018746097 -0.05053442 0.018285923 0.021816842 -0.015608299 0.0038423443 0.0029077302 0.0038211301
-0.001726797 -0.010378503 0.023032878 -0.0067326073 -0.00090524676 0.06101292 0.027443444 -0.03259445
0.042453956 0.035299975 0.017370086 0.013383445 0.012465946 -0.01274357 0.027309977 0.040438276
0.005714725 -0.045932442 0.020629833 -0.0031171595 -0.016646212 -0.042555742 -0.03909208 -0.015474757
-0.00027365476 -0.011039496 0.0017621983 0.030112758 -0.035368536 -0.08106018 -0.048784778 0.04538275
0.031881772 0.30560455 0.22181721 -0.06875546 -0.05887547 -0.08114345 -0.019766688 -0.05922635
0.06455468 -0.13325822 0.0154420845 -0.06059216 0.01850591 0.03964324 0.08358884 0.0607797
-0.053102426 0.01908716 -0.13572769 0.016181085 -0.0025547168 -0.0056137266 -0.05507577 -0.01018591
-0.0619893 0.1915016 -0.5609361 0.018091386 0.056869514 0.089047045 0.008603325 -0.027288506
-0.07224366 -0.0011699769 -0.031487815 0.001263132 0.08194521 0.1628696 0.0047481274 -0.034043342
0.07964201 0.01635635 0.04930455 0.033725996 0.010237031 0.07842511 0.045467816 0.047183122
-0.1656905 0.06339833 -0.008580218 -2.0365442e-05 0.009970888 0.023915622 -0.015062093 0.6822137
0.015486386 -0.0067900284 -0.010832444 0.0065903002 -0.022669502 -0.03260143 0.009115686 -0.007468315
0.0028262304 0.017796103 -0.0010920462 -0.00069611316 0.002502512 -0.00060035527 -0.00040543266 0.0043201516
0.00094793254 -0.0021967373 -0.00090468215 -0.00010077067 0.0037226602 0.0045641297 -0.0028208676 -0.0020267547
-0.0015528328 -0.000113515554 -0.0017396755 9.617929e-06 -0.0037469428 -0.0010095658 0.0050635953 -0.001743957
-0.0033046412 0.0025575762 -0.0012391037 -0.0014754665 0.0002766312 0.005626519 -0.0027470023 -0.0011040432
-0.0030818305 -0.001999565 0.0016102367 0.002071818 0.0011750102 0.0011973388 -0.0021306146 -0.0014672126
0.0030484512 -0.00061600335 -0.0022214989 -0.0040130713 0.00019546106 0.004346635 -0.009500597 -0.0021975879
00000000: 97e9 1b3d 81ae b0be 5864 03bd cc22 a8be
00000010: 6794 9ebc 2f2d 3b3e 6ed3 f73d 0e03 cf3e
00000020: e1db 113e 797d 693e e72f ddb8 8c4e 89bc
00000030: b80f db3b e888 6d3e d0d9 09be 2219 5dbe
00000040: 8507 59bc 2368 eabd f724 e0be 38c1 81be
00000050: 3792 9dbc 16cb 323c 23dc 9fbe a99f b43b
00000060: d84b ae3a 35aa e8bc 57b3 413e a9d4 e0bc
00000070: 35d1 d3be 4835 833d d558 1f3a 919b e5ba
00000080: bb2d 7b3e 949e 963e 6c5a 203c f335 a03c
00000090: 9e92 a8be bee4 69ba 9ff2 5d3c cbef 9a3a
000000a0: 4e3c cbbe e7d3 a1be 4d71 093c 659c 42be
000000b0: 43d3 9f3c a7da 123e d7e1 4fbe 2a05 8e3c
000000c0: 602a 80be c768 be3e a5a2 0f3c ba9a b5bc
000000d0: 9cf3 b2be a0e5 84be e47f 9fbb 3b8b 2d3a
000000e0: 0c1a 3ebc 15f6 fe3a 2b16 56be daea e63d
000000f0: 4e36 913a 9cf3 0c3c e1cb 45bc 46b0 20bd
00000100: 3e94 d63b 8256 823d 871f 713b 6a9f 243b
00000110: fa6d 5b3c 0349 243c 8b44 cb3b c519 223c
00000120: 7c93 bdbc 9e64 413b ec6c 4bbc c42e 14bd
00000130: 8945 38bb d9a7 3f3c 30a9 173b 5fd6 0f3c
00000140: cfbd 13bd 1473 8bbd f400 423a cd23 903c
00000150: a203 b43c 57d7 373b 5adc 833c 313c 4c3b
00000160: e878 03bc 3b45 a0ba 3b80 833d 58bb 6f3c
00000170: fb73 e73c e98e 0fbd caaf 393c 8756 063d
00000180: 6638 60bc d6db 20bd 9880 6b3c 1f9d 2fbc
00000190: 2765 233d 07aa f43c 1555 c1bc f280 95bc
000001a0: 6a91 99bc 2efd 4ebd 5ccc 953c 3cb9 b23c
000001b0: f3b9 7fbc d7cf 7b3b 9e8f 3e3b ed6b 7a3b
000001c0: b155 e2ba 990a 2abc 72af bc3c 349d dcbb
000001d0: 154e 6dba afe8 793d 13d1 e03c c281 05bd
000001e0: 33e4 2d3d b596 103d b64b 8e3c 3d46 5b3c
000001f0: f83d 4c3c 68ca 50bc 2cb9 df3c 9ba2 253d
00000200: 9642 bb3b a823 3cbd e5ff a83c 4249 4cbb
00000210: a35d 88bc ee4e 2ebd 041f 20bd d689 7dbc
00000220: 5279 8fb9 01df 34bc 90f9 e63a 08af f63c
00000230: 99de 10bd e102 a6bd 8cd2 47bd 43e3 393d
00000240: 7696 023d 3378 9c3e 0d24 633e aacf 8cbd
00000250: 6827 71bd 8a2e a6bd c0ed a1bc 5497 72bd
00000260: 3e35 843d d874 08be cc00 7d3c 7c2f 78bd
00000270: b599 973c f360 223d a030 ab3d 22f4 783d
00000280: ee81 59bd ad5c 9c3c 33fc 0abe 328e 843c
00000290: 096d 27bb 5af3 b7bb 2197 61bd cee2 26bc
000002a0: 7ee8 7dbd ff18 443e 8299 0fbf 6334 943c
000002b0: 02f0 683d 4c5e b63d f6f4 0c3c 258c dfbc
000002c0: 7cf4 93bd e959 99ba 5ef9 00bd ad8f a53a
000002d0: e4d2 a73d 4ac7 263e 2e96 9b3b 0871 0bbd
000002e0: 5a1b a33d c1fd 853c 91f3 493d 4524 0a3d
000002f0: 38b9 273c 589d a03d 763c 3a3d 1743 413d
00000300: c5aa 29be fcd6 813d 0b94 0cbc 74d6 aab7
00000310: ef5c 233c b2ea c33c ffc6 76bc 8fa5 2e3f
00000320: 9cba 7d3c e37e debb 907a 31bc 72f3 d73b
00000330: 64b5 b9bc 1489 05bd f559 153c c4b8 f4bb
00000340: 4738 393b 22c9 913c fd22 8fba 5d7b 36ba
00000350: 2f01 243b 2961 1dba 4090 d4b9 0f90 8d3b
00000360: ad7e 783a 23f7 0fbb 3128 6dba d754 d3b8
00000370: e0f7 733b b28e 953b 4ede 38bb 4dd3 04bb
00000380: 6c88 cbba 330f eeb8 d305 e4ba b15c 2137
00000390: 458f 75bb 6853 84ba 84ec a53b 7d95 e4ba
000003a0: ae92 58bb 029d 273b 6c69 a2ba 7164 c1ba
000003b0: d008 9139 aa5e b83b 0d07 34bb 8bb5 90ba
000003c0: 89f8 49bb 220b 03bb 940e d33a 57c7 073b
000003d0: cd02 9a3a 06f0 9c3a c8a1 0bbb 7c4f c0ba
000003e0: 86c8 473b 497b 21ba 9196 11bb 1580 83bb
000003f0: aef4 4c39 386e 8e3b 64a8 1bbc 6805 10bb

layers.1.bias f4 [50]
0.5859934 -0.004622158 -0.031555817 -0.004228689 -0.010119336 0.00025626953 0.2682201 -0.18899572
-0.15204118 0.04388494 -0.0005054705 0.03998307 -0.39762267 -5.858807e-08 -9.516889e-06 0.050587043
0.09997635 0.042784277 -0.04947184 0.0003607946 -0.040777747 -0.11858685 0.009591921 -0.08928684
-0.11980983 0.07606303 -0.022858495 0.011698288 0.011554071 0.034476474 0.050293315 0.14445612
0.02936025 -0.0066563026 0.06122879 0.0014628243 -0.019857017 -0.008481667 0.056849115 -0.026455384
0.020143963 0.044011924 0.01464705 0.03377167 -0.26839662 -0.00907177 -0.0720334 0.026227318
-0.07530983 -0.008650298
00000000: aa03 163f 7975 97bb ac40 01bd d090 8abb
00000010: 92cb 25bc ea5b 8639 2554 893e 1888 41be
00000020: afb0 1bbe b2c0 333d 8d81 04ba 4ac5 233d
00000030: 3395 cbbe 44a2 7bb3 baaa 1fb7 5c34 4f3d
00000040: 67c0 cc3d 913e 2f3d fca2 4abd 0829 bd39
00000050: 9106 27bd aadd f2bd 6f27 1d3c 05dc b6bd
00000060: db5e f5bd efc6 9b3d bd41 bbbc 2daa 3f3c
00000070: 494d 3d3c 3437 0d3d 5d00 4e3d 4eec 133e
00000080: e884 f03c 1d1d dabb 0acb 7a3d 3dbc bf3a
00000090: 2fab a2bc b1f6 0abc 9eda 683d f6b8 d8bc
000000a0: f404 a53c d945 343d 2efa 6f3c 2a54 0a3d
000000b0: 486b 89be c3a1 14bc 3f86 93bd acda d63c
000000c0: 0a3c 9abd fbb9 0dbc

output.weight f4 [3, 50]
-0.055587117 0.025205508 0.036602262 0.00029924224 -0.13168724 0.000113459595 -0.013700532 -0.0471755
0.14521022 -0.020343335 -0.00036807414 0.119906 0.1576544 1.23614545e-05 -8.501909e-06 -0.11420645
-0.12765495 -0.10991854 -0.032551296 0.00078252127 0.13632326 0.13541214 -0.03987028 0.14777473
0.18838349 -0.06911036 0.005074727 -0.0063186195 -0.1482026 0.0018760076 -0.14882505 0.098539114
0.07047308 0.009340083 -0.13314563 0.0013569283 0.048967764 -0.007751363 -0.025102278 0.124780245
0.005585001 0.011656282 0.012059699 0.013943041 -0.037315276 -0.0033063036 0.047480404 -0.12534125
-0.015948046 0.009583034 0.2019599 0.013705982 -0.029975247 -0.0008711397 -0.041391373 0.0013122557
0.211513 -0.225135 0.052870266 -0.199825 0.00050113036 0.06142396 0.06949997 -4.1250405e-06
-2.0595668e-05 -0.014736786 -0.047383964 -0.0069833067 0.035700936 0.0030250675 0.020560889 0.0100432
-0.15712589 0.025508365 0.05023938 -0.122413196 0.002889285 -0.0024286916 0.0015572171 -0.07557778
-0.040531114 0.23471573 0.1704298 0.0074867695 0.025936149 -0.00035179468 0.13080971 -0.0016420766
-0.13142145 -0.046754517 -0.004747578 -0.022930885 0.0037251895 -0.012677064 -0.120363496 0.0026400832
0.15732026 -0.031530216 -0.02116821 0.0019975316 0.26344994 0.0036137053 -0.26483878 0.0016092616
-0.0033379293 0.0026682194 -0.10845113 0.022935774 -0.0046025 -0.075190656 0.00044404808 -0.030727413
-0.09999202 1.63804e-05 -4.9475555e-05 -0.0008479935 -0.015402027 0.020121967 -0.0027765606 -0.0024316744
-0.012801855 -0.03591119 -0.13332415 0.02233278 -0.015058969 -0.08350917 0.001302257 -0.008609923
-0.00037998878 -0.17862825 0.00027722097 -0.094156995 -0.0035573945 0.000246343 0.029553968 -0.0014618998
0.07247599 0.0031003705 -0.064031616 0.020298019 -0.007955732 -0.032763988 -0.021620275 -0.020954885
-0.21137185 0.010571842 0.09690781 0.02698685 0.040227532 0.0019773974
00000000: 51af 63bd c87b ce3c 41ec 153d 9de3 9c39
00000010: 05d9 06be 28f1 ed38 3278 60bc 193b 41bd
00000020: fdb1 143e 11a7 a6bc 13fa c0b9 4791 f53d
00000030: 2870 213e 0b64 4f37 6ca3 0eb7 12e5 e9bd
00000040: fbb7 02be f91c e1bd 8254 05bd 1d22 4d3a
00000050: 5398 0b3e 7ba9 0a3e 054f 23bd 4252 173e
00000060: 9ae7 403e bc89 8dbd e549 a63b 6c0c cfbb
00000070: 6cc2 17be 5fe4 f53a 9865 18be e0ce c93d
00000080: 3154 903d 2607 193c 5457 08be f5da b13a
00000090: 6c92 483d 25ff fdbb 4ba3 cdbc c98c ff3d
000000a0: 6202 b73b fdf9 3e3c 0b96 453c 5a71 643c
000000b0: e7d7 18bd 92ae 58bb d07a 423d 7559 00be
000000c0: 7aa5 82bc 2802 1d3c 93ce 4e3e 0e8f 603c
000000d0: a68e f5bc 325d 64ba 008a 29bd ffff ab3a
000000e0: dd96 583e ca89 66be 7e8e 583d ed9e 4cbe
000000f0: 4a5e 033a b197 7b3d 0056 8e3d d469 8ab6
00000100: dcc4 acb7 8f72 71bc b015 42bd 39d4 e4bb
00000110: 253b 123d 3640 463b 4f6f a83c 3c8c 243c
00000120: 9ce5 20be ebf6 d03c cfc7 4d3d c5b3 fabd
00000130: 295a 3d3b af2a 1fbb 891b cc3a 86c8 9abd
00000140: f403 26bd 5259 703e 2685 2e3e 9353 f53b
00000150: 0c78 d43c 1571 b8b9 fbf2 053e f33a d7ba
00000160: 5893 06be aa81 3fbd 9291 9bbb 8dd9 bbbc
00000170: 4f22 743b 76b3 4fbc 2381 f6bd 3f05 2d3b
00000180: 9018 213e d425 01bd f468 adbc 05e9 023b
00000190: e9e2 863e ead3 6c3b f398 87be dced d23a
000001a0: 29c1 5abb 4bdd 2e3b a01b debd cee3 bb3c
000001b0: 91d0 96bb 8ffd 99bd 20cf e839 0eb8 fbbc
000001c0: 9ec8 ccbd a468 8937 f983 4fb8 e14b 5eba
000001d0: c958 7cbc d3d6 a43c f5f6 35bb ba5c 1fbb
000001e0: dfbe 51bc 9d17 13bd 2086 08be 3cf3 b63c
000001f0: e5b9 76bc db06 abbd 7eb0 aa3a a210 0dbc
00000200: 3b39 c7b9 53ea 36be f857 9139 62d5 c0bd
00000210: 2d23 69bb 9927 8139 2a1b f23c 389d bfba
00000220: 4b6e 943d 962f 4b3b 0223 83bd 0848 a63c
00000230: c258 02bc 8833 06bd 011d b1bc 94a9 abbc
00000240: dd71 58be 8535 2d3c 9a77 c63d 8713 dd3c
00000250: a0c5 243d 3997 013b

output.bias f4 [3]
0.37872323 0.019825654 -0.18285507
00000000: 03e8 c13e 6969 a23c 5c3e 3bbe

exp_avg f4 [70, 6]
0.0012269758 0.0009972531 0.0007983966 -0.00021575451 -0.0013338041 -0.00058208243 -0.0038109117 -0.0034812586
-0.0015116255 0.0041025677 0.0054804273 0.005253826 -0.0016974848 -0.0016618865 -0.0011163482 0.00033609415
0.0014053386 0.0016574119 0.0022835485 0.0021622444 0.0015128822 0.0007184043 0.0012163644 0.00017461122
3.3143075e-05 2.1806312e-05 -3.9494957e-05 2.6886351e-05 0.00014199942 0.00028476285 0.0049860855 0.0034445936
0.0018318578 -0.005435633 -0.009860524 -0.0020906029 -0.001625125 -0.0014868281 -0.00043738875 0.00032349577
-0.0008147957 0.001556249 -0.00456188 -0.004254971 -0.0017538951 0.0023700558 0.0032721008 0.0048049325
-0.003383102 -0.003473628 -0.0020653934 9.500416e-05 0.0009120373 0.0018888167 -0.0012596704 -0.0015290363
-3.003013e-05 0.0010067659 0.00018141542 0.0019042235 -3.28582e-05 6.241821e-05 -2.6488708e-05 -0.0003384006
-0.00046940113 -0.00052083505 -0.00025309474 -0.00028468124 -7.190721e-05 0.00011312855 4.2208863e-05 0.0002587836
-0.0005754667 -0.00046740312 -0.0003178669 2.6633794e-05 0.0004557026 0.00020168444 -0.004195358 -0.0042283493
-0.00229447 0.001450493 0.0027849108 0.003333088 0.0017426505 0.001928105 0.00049436756 -0.0010518047
-0.0005057151 -0.002648875 0.0022689565 0.0022932964 0.00078427896 -0.0014711649 -0.0010105905 -0.0027649775
-0.00018219654 -2.9696754e-05 -0.00012614805 -3.577581e-05 0.00041134856 -0.00021756513 0.00455759 0.0045974157
0.0024194738 -0.0017044492 -0.0029354556 -0.004985191 0.0023746435 0.0021523098 0.00060436607 -9.749369e-05
0.00073442695 -0.00062164286 0.004732232 0.0046398314 0.0024686183 -0.0019399584 -0.003694315 -0.0045230645
-0.00077354163 -0.000651446 -0.00041538075 0.00024656422 0.00068647426 0.00032241447 -8.485923e-05 -0.00010560329
-5.952019e-05 -0.00016412578 -0.0003301061 9.900748e-05 -0.008283456 -0.007954198 -0.004464598 0.006206994
0.010979157 0.009708843 -0.0042334255 -0.0043752617 -0.0026588838 0.00018414816 0.0011790838 0.003413128
-0.00016766103 -0.00012255672 -8.72301e-05 -4.8148417e-05 6.850391e-05 4.1293162e-05 0.003600501 0.0037711961
0.0020482296 -0.00073339423 -0.0012612613 -0.004631155 -0.0041321614 -0.0041249236 -0.0019339247 0.001283888
0.0022430674 0.0046661957 -6.9859496e-05 -8.64665e-05 -5.1132305e-05 2.6734786e-05 8.744192e-05 0.00019279764
-0.005735171 -0.005643114 -0.0023118253 0.0070978324 0.008873444 0.009199007 -0.003744651 -0.0036381502
-0.0024954444 -0.0003253808 0.0014360474 0.0026666417 -0.007076901 -0.0055894735 -0.002849569 0.00745372
0.014283871 0.004766991 5.732549e-06 -9.133233e-06 -3.735292e-05 -0.0001928216 -4.018249e-05 -0.00023317977
-0.0025772285 -0.002639585 -0.0014772103 -0.00019908178 0.0003775518 0.0013015891 0.0015587326 0.0016774388
0.0007434768 -0.0028810943 -0.003570402 -0.004318796 0.00013476388 6.208215e-05 0.00014842521 0.00018026285
5.989836e-05 0.00020056334 -0.00029986398 -0.000110700115 -7.644489e-05 0.000117713025 0.0003276884 -0.0004639119
-0.0052257683 -0.0050589936 -0.0022088126 0.00597815 0.008338994 0.007963823 0.000353004 0.00030433876
0.00016982299 -0.00012897942 -0.00035869336 -0.00020737734 -0.00079919933 -0.00063327857 -0.0003523001 0.0005366707
0.0012010478 0.00035627864 -0.0009559467 -0.0007925023 -0.00037616777 0.0004982728 0.0010527874 0.00058215985
0.0028008388 0.0026721002 0.0010474249 -0.0013996888 -0.0013334977 -0.0018093737 -0.0012737437 -0.001151103
-0.0006894904 0.0029206576 0.0048242006 0.0028467819 -8.414726e-05 -0.00013247304 1.9899984e-05 0.00017736357
00000000: 7ad2 a03a 43b6 823a 7d4b 513a 293c 62b9
00000010: 0ad3 aeba e496 18ba 7dc0 79bb d425 64bb
00000020: bc21 c6ba d56e 863b 2895 b33b 4928 ac3b
00000030: 237e deba a8d3 d9ba 6e52 92ba cb35 b039
00000040: 5733 b83a 843d d93a 96a7 153b 71b4 0d3b
00000050: e74b c63a 4c53 3c3a 6b6e 9f3a d817 3739
00000060: 1b03 0b38 b3ec b637 63a7 25b8 008a e137
00000070: aee5 1439 394c 9539 5162 a33b b1be 613b
00000080: f31a f03a 651d b2bb 098e 21bc 7f02 09bb
00000090: 2502 d5ba ace1 c2ba 5351 e5b9 de9a a939
000000a0: 0498 55ba 0dfb cb3a d37b 95bb 496d 8bbb
000000b0: f4e2 e5ba f052 1b3b be70 563b b272 9d3b
000000c0: 08b7 5dbb cfa5 63bb 8d5b 07bb f83c c738
000000d0: ca15 6f3a 2c92 f73a 861b a5ba f269 c8ba
000000e0: 37e9 fbb7 75f5 833a 553a 3e39 2397 f93a
000000f0: 39d1 09b8 85e6 8238 1134 deb7 5c6b b1b9
00000100: f419 f6b9 a688 08ba cdb1 84b9 4541 95b9
00000110: e4cc 96b8 6e3f ed38 6c09 3138 59ad 8739
00000120: ebda 16ba c90d f5b9 60a7 a6b9 a36b df37
00000130: 5eeb ee39 417b 5339 3779 89bb f78d 8abb
00000140: d25e 16bb 781e be3a 0d83 363b f06f 5a3b
00000150: a669 e43a 78b8 fc3a 7298 013a b6dc 89ba
00000160: f791 04ba bf98 2dbb c6b2 143b 214b 163b
00000170: 1298 4d3a 1ad4 c0ba ca75 84ba a034 35bb
00000180: 030c 3fb9 4b1d f9b7 9c46 04b9 fc0d 16b8
00000190: 45aa d739 3222 64b9 d657 953b eba5 963b
000001a0: 0990 1e3b d367 dfba c660 40bb d05a a3bb
000001b0: e89f 1b3b c40d 0d3b 526e 1e3a 8775 ccb8
000001c0: 8f86 403a bff5 22ba d710 9b3b ba09 983b
000001d0: 8bc8 213b 3446 feba 521c 72bb 3736 94bb
000001e0: 80c7 4aba cdc5 2aba 76c7 d9b9 4a45 8139
000001f0: 82f4 333a bd09 a939 74f6 b1b8 5677 ddb8
00000200: 51a5 79b8 2e19 2cb9 1712 adb9 3ca2 cf38
00000210: 55b7 07bc 5352 02bc c34b 92bb 0a64 cb3b
00000220: ece1 333c d711 1f3c 8cb8 8abb 5b5e 8fbb
00000230: ab40 2ebb e517 4139 7d8b 9a3a c9ae 5f3b
00000240: 2ace 2fb9 9282 00b9 4eef b6b8 f8f2 49b8
00000250: c2a9 8f38 3232 2d38 62f6 6b3b 2c26 773b
00000260: 973b 063b 4141 40ba e850 a5ba f2c0 97bb
00000270: 1567 87bb 5e2a 87bb bf7b fdba 2248 a83a
00000280: 6d00 133b e3e6 983b 8881 92b8 5955 b5b8
00000290: e576 56b8 8444 e037 0661 b738 b929 4a39
000002a0: 1aee bbbb dfe9 b8bb fe81 17bb ef94 e83b
000002b0: ec61 113c 6fb7 163c d268 75bb 086e 6ebb
000002c0: 9c8a 23bb df97 aab9 c139 bc3a d3c2 2e3b
000002d0: 59e5 e7bb e727 b7bb d6bf 3abb 563e f43b
000002e0: e606 6a3c 6b34 9c3b 395a c036 f03a 19b7
000002f0: 64ab 1cb8 2730 4ab9 9f89 28b8 b881 74b9
00000300: b8e6 28bb e3fc 2cbb f49e c1ba 9cc0 50b9
00000310: 25f2 c539 159a aa3a 634e cc3a 82dd db3a
00000320: e2e5 423a bed0 3cbb 68fd 69bb b084 8dbb
00000330: 674f 0d39 1a32 8238 97a2 1b39 f104 3d39
00000340: 603b 7b38 504e 5239 1037 9db9 ac27 e8b8
00000350: 0a51 a0b8 b3dc f638 98cd ab39 3439 f3b9
00000360: ec3c abbb eac5 a5bb bac1 10bb 5be4 c33b
00000370: 47a0 083c b27a 023c 6513 b939 a88f 9f39
00000380: 8312 3239 a63e 07b9 020f bcb9 6e73 59b9
00000390: 5c81 51ba 9b02 26ba ebb4 b8b9 5caf 0c3a
000003a0: 7a6c 9d3a e9ca ba39 7f98 7aba eebf 4fba
000003b0: 6238 c5b9 869e 023a affd 893a 169c 183a
000003c0: 478e 373b 671e 2f3b bf49 893a c375 b7ba
000003d0: c2c8 aeba 8228 edba bff3 a6ba 9be0 96ba
000003e0: ebbe 34ba 8168 3f3b 5414 9e3b 1391 3a3b
000003f0: 3778 b0b8 76e8 0ab9 e4ee a637 acfa 3939

exp_avg_sq f4 [70, 6]
7.793478e-06 8.029981e-06 7.937777e-06 7.0429974e-06 7.0733304e-06 7.307767e-06 0.00034436307 0.0003452118
0.00027194916 0.00020956548 0.00042768117 0.00041798016 1.2097391e-05 1.2230861e-05 1.2009009e-05 1.0460777e-05
1.0989144e-05 1.1615066e-05 0.00015945449 0.00017046121 0.00021365119 0.0002298947 0.00014538076 9.832927e-05
2.8748047e-05 2.9745022e-05 3.0064539e-05 2.3675088e-05 2.2791808e-05 2.1432035e-05 0.0002590813 0.00024899107
0.00015103772 9.5742274e-05 0.0004032181 0.00041525683 0.00013259673 0.00014162945 0.00016114015 0.00015424113
0.00011023636 8.249756e-05 0.00015722206 0.00016452448 0.0001950197 0.00020369678 0.00013553024 0.00011755886
0.00012444453 0.00012838157 0.00014581933 0.00014567799 0.00010641175 0.000115457085 0.00014286237 0.00014959468
0.00017815229 0.00018082811 0.000118168 0.00010438406 7.711251e-06 7.996554e-06 8.26536e-06 8.094601e-06
7.3749566e-06 6.4742403e-06 8.690309e-06 8.8354e-06 8.538694e-06 9.244115e-06 8.989601e-06 9.665261e-06
7.5951807e-06 7.640218e-06 7.35113e-06 6.9216594e-06 9.185358e-06 8.692025e-06 0.00015201583 0.0001551873
0.00017370457 0.00017013075 0.0001307058 0.00013360372 0.000116580355 0.00012200727 0.00014185984 0.00014850033
0.00011104476 9.342632e-05 0.00014224945 0.00014945748 0.0001700691 0.0001679492 0.00011822668 9.8317534e-05
6.3605225e-06 6.47408e-06 6.5072977e-06 5.4903912e-06 5.13721e-06 5.2936234e-06 0.00013979792 0.00014436897
0.00016065083 0.00015625388 0.000111473746 0.00012798507 0.00018951237 0.00020083699 0.00024182691 0.00024790308
0.00018673817 0.0001347786 0.00016009978 0.0001640461 0.00018179709 0.00018357388 0.00014601446 0.0001393788
7.842905e-06 8.0072905e-06 8.200133e-06 8.168888e-06 7.3614847e-06 6.081382e-06 1.2809675e-05 1.3123333e-05
1.3031315e-05 9.993504e-06 1.0167673e-05 1.0404456e-05 0.00040647012 0.00040500335 0.0003212793 0.00024660266
0.00047843246 0.0004813494 0.00015525315 0.00016144045 0.00018703977 0.00019019087 0.00013957791 0.00011400826
1.42982235e-05 1.4720293e-05 1.5167951e-05 1.3510144e-05 1.2035326e-05 1.0917168e-05 0.00014391853 0.00015149005
0.00017748524 0.000181365 0.00012746472 0.0001046553 0.00011113139 0.000116244104 0.00013449264 0.00013510528
9.097716e-05 8.304881e-05 7.9279935e-06 8.147714e-06 7.95134e-06 7.2072753e-06 7.4185523e-06 7.645412e-06
0.00036488814 0.00036197357 0.0002914876 0.00022559709 0.00042731548 0.00044106774 0.0001333116 0.00014199018
0.00016359957 0.00016015166 0.000111803536 8.327683e-05 0.00046563998 0.0004433017 0.0002976016 0.00023862266
0.00070114457 0.00072593155 9.405221e-06 9.4530415e-06 8.418852e-06 9.898395e-06 1.3126938e-05 1.4066789e-05
0.00014377985 0.00014905038 0.00016952507 0.00016250323 0.00011784939 9.667799e-05 0.000200661 0.00020450914
0.00016835258 0.00012153429 0.00021709905 0.00022127599 7.2511743e-06 7.5210132e-06 7.227051e-06 5.5889973e-06
7.0018446e-06 6.46507e-06 1.0602216e-05 1.0357046e-05 9.283783e-06 9.009546e-06 1.235878e-05 1.01815685e-05
0.00038646435 0.000383379 0.00029778547 0.00024019065 0.00049777527 0.0004747337 8.184015e-06 8.135052e-06
7.3807305e-06 4.938196e-06 6.7805804e-06 7.4762015e-06 5.105814e-06 5.1390925e-06 4.6885752e-06 4.394094e-06
5.199771e-06 5.641331e-06 8.027254e-06 8.078377e-06 7.495672e-06 6.836095e-06 8.266885e-06 8.130157e-06
0.00016151191 0.00017026335 0.00020252622 0.00021035955 0.0001383232 0.00010853954 0.00028145264 0.00029744685
0.00027797447 0.00024417846 0.000358323 0.00028043168 6.5028707e-06 6.5346676e-06 6.2575737e-06 6.1170263e-06
00000000: bcc0 0237 81b8 0637 7e2c 0537 e352 ec36
00000010: 7257 ed36 3e35 f536 a18b b439 8bfd b439
00000020: 6694 8e39 cebe 5b39 653a e039 5924 db39
00000030: e6f5 4a37 2633 4d37 4d7a 4937 b280 2f37
00000040: 045e 3837 54de 4237 3d33 2739 d5bd 3239
00000050: 8e07 6039 e30f 7139 5a71 1839 2036 ce38
00000060: f627 f137 f384 f937 1b33 fc37 dd99 c637
00000070: 0931 bf37 f2c8 b337 4ed5 8739 048b 8239
00000080: e15f 1e39 3ec9 c838 0467 d339 d4b6 d939
00000090: aa09 0b39 5e82 1439 bbf7 2839 cabb 2139
000000a0: b22e e738 8a02 ad38 fadb 2439 3484 2c39
000000b0: 347e 4c39 7097 5539 1f1d 0e39 ef89 f638
000000c0: 537d 0239 2a9e 0639 14e7 1839 23c1 1839
000000d0: 6029 df38 8d21 f238 53cd 1539 84dc 1c39
000000e0: 64ce 3a39 ad9c 3d39 f6d0 f738 c4e8 da38
000000f0: 925f 0137 f028 0637 73ab 0a37 0cce 0737
00000100: 6576 f736 4d3d d936 98cc 1137 c13b 1437
00000110: 6941 0f37 2c17 1b37 0bd2 1637 fb27 2237
00000120: 1bda fe36 7d2e 0037 baa9 f636 9a40 e836
00000130: d01a 1a37 f7d3 1137 7066 1f39 c6b9 2239
00000140: 7724 3639 2065 3239 120e 0939 fa17 0c39
00000150: 9a7c f438 28de ff38 36c0 1439 c1b6 1b39
00000160: b4e0 e838 e0ed c338 cc28 1539 b0b7 1c39
00000170: 9454 3239 851b 3039 77f0 f738 d32f ce38
00000180: 796c d536 ec3b d936 4359 da36 1a3a b836
00000190: 4c60 ac36 e19f b136 b896 1239 c061 1739
000001a0: 6174 2839 15d8 2339 03c7 e938 bb33 0639
000001b0: d7b7 4639 c597 5239 eb92 7d39 fdf8 8139
000001c0: 25cf 4339 5b53 0d39 75e0 2739 ca03 2c39
000001d0: c9a0 3e39 bd7d 4039 751b 1939 3626 1239
000001e0: 0595 0337 0d57 0637 4e93 0937 1b0d 0937
000001f0: ac02 f736 ac0e cc36 23e9 5637 492c 5c37
00000200: 12a1 5a37 c6a9 2737 d395 2a37 cc8e 2e37
00000210: 7f1b d539 a156 d439 6171 a839 734a 8139
00000220: 1ed6 fa39 9f5d fc39 73cb 2239 5748 2939
00000230: 1b20 4439 f96d 4739 a95b 1239 b817 ef38
00000240: 67e2 6f37 2df7 7637 da79 7e37 a0a9 6237
00000250: 55eb 4937 e128 3737 d6e8 1639 4dd9 1e39
00000260: 551b 3a39 cc2c 3e39 0da8 0539 637a db38
00000270: 360f e938 14c8 f338 9806 0d39 0cab 0d39
00000280: feca be38 7e2a ae38 7902 0537 2ab2 0837
00000290: bf66 0537 06d6 f136 e1ec f836 cb44 0037
000002a0: 754e bf39 45c7 bd39 ced2 9839 428e 6c39
000002b0: 5009 e039 1c3f e739 8fc9 0b39 33e3 1439
000002c0: ed8b 2b39 62ee 2739 1178 ea38 e8a4 ae38
000002d0: 2421 f439 f26a e839 6907 9c39 c836 7a39
000002e0: 04cd 373a 714c 3e3a 1ecb 1d37 8198 1e37
000002f0: b23e 0d37 4811 2637 c53b 5c37 6600 6c37
00000300: 9cc3 1639 684a 1c39 8ac2 3139 a165 2a39
00000310: e925 f738 9abf ca38 8768 5239 8171 5639
00000320: cd87 3039 3ae0 fe38 15a5 6339 5206 6839
00000330: 1d4f f336 035d fc36 e57f f236 1f89 bb36
00000340: 63f1 ea36 87ee d836 2ce0 3137 2dc3 2d37
00000350: 8bc1 1b37 b527 1737 8e58 4f37 81d1 2a37
00000360: 5e9e ca39 4200 c939 1720 9c39 b0db 7b39
00000370: 227d 023a aee5 f839 144e 0937 c87b 0837
00000380: fea7 f736 c8b2 a536 be84 e336 15dc fa36
00000390: 9c52 ab36 7870 ac36 8e52 9d36 fb70 9336
000003a0: b179 ae36 aa4a bd36 cbac 0637 5d88 0737
000003b0: 5583 fb36 9c61 e536 00b2 0a37 c266 0837
000003c0: 865b 2939 b888 3239 385d 5439 f693 5c39
000003d0: da0a 1139 b99f e338 ef8f 9339 a4f2 9b39
000003e0: 1abd 9139 1405 8039 4ddd bb39 e706 9339
000003f0: 3c33 da36 5e44 db36 26f8 d136 db40 cd36

exp_avg f4 [70]
0.0005974571 -0.0011817222 -0.00084778876 0.00032863006 0.0005919129 0.000324987 -0.004318577 -0.0047064186
-0.0016625371 -0.0014867937 -0.00038622125 -0.00042509337 -0.0005097785 -0.0026577923 0.0019878745 0.0025583038
-0.00046746363 0.001784782 0.0037891415 0.0036779204 -0.0005046589 -0.00043985737 -0.00049307296 -0.0022878493
-0.00029464863 0.0022311178 -0.00081540085 -0.00010515668 -4.0538955e-05 -0.003471538 -0.0018202529 -0.00012962337
-0.0021910574 -0.0022440886 0.00024815236 -0.00078613043 0.0015583938 0.00038570177 -0.00050741073 -0.00093669066
0.003628724 0.0020244336 -6.756726e-05 0.00033817062 0.00031354034 0.00022098229 0.0006390517 0.0004573071
-0.0010317471 -0.0017953808 0.0002715317 -0.0003197607 0.0011744471 0.0034724558 0.0019619039 -0.0005954302
0.00041183285 -0.00034222341 0.001911363 -0.001761593 -0.0006495911 0.00073193863 -0.00017192907 6.195548e-05
-3.8235748e-07 0.00026726187 -0.0007679864 0.0004413725 -0.00023729593 -8.028727e-05
00000000: ab9e 1c3a 04e4 9aba 243e 5eba fb4b ac39
00000010: 9a2a 1b3a 0463 aa39 d982 8dbb 4d38 9abb
00000020: 7de9 d9ba 85e0 c2ba bd7d cab9 11df deb9
00000030: a8a2 05ba 5b2e 2ebb 0047 023b 37a9 273b
00000040: e815 f5b9 59ef e93a 3f53 783b 4409 713b
00000050: 164b 04ba a89c e6b9 9141 01ba beef 15bb
00000060: 127b 9ab9 f237 123b a0c0 55ba 9087 dcb8
00000070: 5f08 2ab8 be82 63bb 8d95 eeba 82eb 07b9
00000080: d897 0fbb 8f11 13bb 721a 8239 5214 4eba
00000090: 0543 cc3a 0438 ca39 c203 05ba 3f8c 75ba
000000a0: e3cf 6d3b 5cac 043b e6b2 8db8 7e4c b139
000000b0: ac62 a439 7bb7 6739 0986 273a b8c2 ef39
000000c0: b03b 87ba fc52 ebba 5e5c 8e39 8ea5 a7b9
000000d0: e8ef 993a 2492 633b 4993 003b a516 1cba
000000e0: 45eb d739 736c b3b9 b386 fa3a 41e5 e6ba
000000f0: 5249 2aba 92df 3f3a dc47 34b9 18ee 8138
00000100: d046 cdb4 481f 8c39 b252 49ba 0468 e739
00000110: a4d2 78b9 e65f a8b8

exp_avg_sq f4 [70]
5.3237177e-06 0.0002332838 6.9073662e-06 0.00013901012 1.9108695e-05 0.00020472365 0.00011051811 0.00013688598
0.00010197783 0.0001230477 4.7350836e-06 6.1721425e-06 5.7603693e-06 0.00013102358 9.775979e-05 0.00012883748
4.078665e-06 0.00011494422 0.00015082138 0.00014748363 5.521662e-06 8.758408e-06 0.00029133726 0.0001310395
9.900582e-06 0.00012105633 9.60849e-05 6.247414e-06 0.00024619585 0.00011967154 0.0003932219 7.811131e-06
0.0001270107 0.00013149624 4.62515e-06 7.83812e-06 0.0002737911 5.629956e-06 3.5579833e-06 5.932421e-06
0.00014758343 0.0001836102 5.2586242e-06 0.00011595055 7.1046134e-06 9.356109e-05 0.00010550277 7.1359473e-06
0.00015194781 0.0001962025 5.776406e-06 7.2676808e-06 0.00023050567 8.5518426e-05 0.00012464628 7.247288e-06
3.9327865e-06 4.934164e-06 0.00012782487 0.000525868 4.614926e-06 8.716356e-06 4.2196916e-06 4.2261227e-06
6.352344e-06 3.6612776e-06 1.6519183e-05 5.0938083e-06 6.786617e-06 4.4666817e-06
00000000: 63a2 b236 a59d 7439 d3c5 e736 3fc3 1139
00000010: 9c4b a037 16ab 5639 f5c5 e738 0d89 0f39
00000020: eedc d538 5e06 0139 0fe2 9e36 4d1a cf36
00000030: 3249 c136 6063 0939 6304 cd38 8c18 0739
00000040: 77db 8836 350e f138 ce25 1e39 d6a5 1a39
00000050: b746 b936 13f1 1237 a0be 9839 a667 0939
00000060: ad1a 2637 9fdf fd38 3081 c938 e1a0 d136
00000070: d913 8139 2bf8 fa38 5a29 ce39 8d0c 0337
00000080: 2d2e 0539 41e2 0939 bc31 9b36 7880 0337
00000090: 9f8b 8f39 f4e8 bc36 b0c5 6e36 1c0f c736
000000a0: a0c0 1a39 7d87 4039 3d73 b036 7a2a f338
000000b0: 2a64 ee36 3a36 c438 5e41 dd38 5271 ef36
000000c0: 2e54 1f39 b5bb 4d39 f3d2 c136 e7dc f336
000000d0: e5b3 7139 5b58 b338 7bb3 0239 bb2d f336
000000e0: 61f6 8336 2590 a536 ba08 0639 67da 093a
000000f0: ead9 9a36 773c 1237 e096 8d36 1ece 8d36
00000100: 3826 d536 45b4 7536 ad92 8a37 7beb aa36
00000110: 99b8 e336 81e0 9536

exp_avg f4 [50, 70]
0.0007463541 0.0012294111 0.0007083381 -0.003129879 -0.00015603568 0.001188307 0.0025782073 0.0024055997
0.0008103054 0.0013460893 -0.00032694326 0.000270622 -2.1980519e-05 0.001089939 -0.0017228855 -0.0017831814
-0.0003978861 -0.0020478412 -0.0028662796 -0.0013608086 -0.00030915605 0.0004266329 0.0015435393 0.0017828965
-7.204292e-05 -0.0016817818 0.0022255273 0.00013208805 0.001296464 0.0026188358 -0.0013895325 0.00015577962
0.00085542805 -0.0014886034 0.0002302325 -0.00010015805 0.0018285352 -4.523009e-05 -0.00028792096 -9.052974e-05
-0.0019251637 -0.0016226568 0.00020969522 -0.0026133948 8.849346e-05 0.002558536 -0.0017168282 -9.156551e-06
-0.0005426594 -0.0015823902 -5.0989936e-05 0.00050336315 0.0014694713 -0.0014008505 -0.0027050374 -0.00026862114
0.0001825621 -0.00026929495 6.996792e-05 0.0021722603 0.0003926946 4.11938e-05 0.0001393015 -0.00014195513
0.00023285346 -1.5499249e-05 0.0002666343 0.0002488355 -0.00010193389 -5.342772e-05 -3.978093e-06 7.096202e-05
1.3213227e-05 -2.0488498e-05 1.0235913e-05 -0.00012466675 -2.9630583e-05 -5.064523e-05 -1.9155283e-05 -5.0082093e-05
-1.12866255e-05 -3.6916738e-06 -2.9082328e-06 -6.045655e-05 2.2278417e-05 7.096453e-05 4.060324e-06 2.387535e-05
6.512115e-05 5.204223e-05 -1.2245023e-05 -1.2846498e-05 5.540475e-05 -4.8959537e-05 8.8402476e-07 5.6002318e-05
-3.9135637e-05 1.497109e-06 7.798894e-05 -8.5203705e-05 2.9508117e-05 -2.2355237e-06 -3.9076825e-05 -5.5052333e-05
3.3625627e-06 -7.796261e-06 9.33486e-05 -1.0087062e-06 2.8497413e-06 6.644445e-06 2.4751846e-05 7.529846e-05
3.694604e-06 2.6300897e-05 3.7653124e-06 4.0009178e-05 2.1465319e-06 9.81288e-06 2.0929758e-06 -7.421406e-05
-6.3660964e-06 3.2682071e-06 5.9626906e-05 2.1047454e-05 2.8569671e-05 -1.5332433e-05 -3.0880672e-06 -2.2563354e-06
4.289698e-06 -5.9131075e-05 2.3010578e-05 1.3509833e-05 4.6296586e-06 -3.2734545e-06 2.0879509e-07 -1.0185925e-06
-5.2957453e-06 -3.8494413e-06 -2.4776925e-06 -5.0203407e-06 -0.0006979464 -0.00063875766 -0.00046069123 0.0020863418
0.00031583942 -0.0028247333 -0.0010103056 -0.0020849789 -0.00049916236 -0.00097021356 0.00021062788 -0.00027555763
2.865291e-06 -0.0006330006 0.0009844259 0.0017622558 0.00035696433 0.0014507816 0.0005266011 0.0011082254
0.00017226652 -0.0004071196 -0.001065142 -0.00073929125 5.6439847e-05 0.0013991419 -0.0016455688 -5.6340326e-05
-0.0011543802 -0.0025062533 0.0016800957 -0.00013517043 -0.00036788348 0.001442523 -0.00011762439 0.00012591557
-0.00080627226 5.924724e-07 0.00019311113 0.00017403078 0.0011880667 -0.00016819619 -0.0001777754 0.001960392
-4.765923e-05 -0.0021981036 0.000980552 -7.264621e-05 0.00075615314 0.00090174045 -7.351704e-05 -0.0009331354
-0.0007809835 3.9439892e-05 0.0014858423 0.000212306 -0.00028619776 0.00023003989 8.5654174e-05 -0.0018334562
-0.000100321406 -6.0477145e-05 -0.00014988634 3.7055503e-05 -0.00020693064 -3.3625613e-06 -0.00021365633 -0.00025416535
0.00011572751 3.4043027e-05 0.0004492993 0.00018858862 0.00039009686 -0.0012529059 -0.00019857482 0.0019982315
0.0017120907 0.002246867 0.0006988412 0.0010559967 -6.407915e-05 0.00019425206 2.2492337e-05 0.0007590428
-0.0009113617 -0.0014422823 -0.00021692396 -0.0012357521 -0.0017260277 -0.0009995982 -2.7887587e-05 0.0003714008
0.00059378776 0.0011758697 -3.7781036e-05 -0.0014055381 0.0015448005 5.908053e-05 0.00024951168 0.0022038904
-0.0011927466 6.565229e-05 0.00078948174 -0.0004474286 6.225968e-05 4.4765843e-06 0.00014970447 -3.3152424e-05
-0.00015581975 -6.5325046e-05 -0.0014716123 -0.001050753 0.000115695155 -0.0019628902 6.973246e-06 0.0014408908
00000000: faa6 433a 3124 a13a c4af 393a a81e 4dbb
00000010: 829d 23b9 f7c0 9b3a 24f7 283b 44a7 1d3b
00000020: ad6a 543a 436f b03a 9569 abb9 45e2 8d39
00000030: ce62 b8b7 49dc 8e3a 72d2 e1ba a4b9 e9ba
00000040: 5e9b d0b9 1335 06bb 31d8 3bbb 295d b2ba
00000050: 3916 a2b9 b3ad df39 9650 ca3a 14b0 e93a
00000060: c015 97b8 3c6f dcba 27da 113b 1e81 0a39
00000070: 1dee a93a c6a0 2b3b f920 b6ba c658 2339
00000080: ce3e 603a 3e1d c3ba 916a 7139 f20b d2b8
00000090: 76ab ef3a 70b5 3db8 19f4 96b9 c9da bdb8
000000a0: c655 fcba 54af d4ba a2e1 5b39 7d45 2bbb
000000b0: 9195 b938 1cad 273b 3207 e1ba 169f 19b7
000000c0: 4241 0eba 3468 cfba 07de 55b8 21f4 033a
000000d0: 469b c03a be9c b7ba ff46 31bb b8d5 8cb9
000000e0: 246e 3f39 2830 8db9 bebb 9238 7b5c 0e3b
000000f0: 94e2 cd39 82c7 2c38 7611 1239 cad9 14b9
00000100: 202a 7439 6204 82b7 0dcb 8b39 2376 8239
00000110: 57c5 d5b8 9417 60b8 8f7b 85b6 72d1 9438
00000120: 61ae 5d37 b7de abb7 e9ba 2b37 fab8 02b9
00000130: 318f f8b7 e76b 54b8 a8af a0b7 3d0f 52b8
00000140: b05b 3db7 79be 77b6 0f2b 43b6 ba92 7db8
00000150: 89e2 ba37 cbd2 9438 eb3d 8836 ec47 c837
00000160: a791 8838 eb47 5a38 f96f 4db7 4a87 57b7
00000170: 6662 6838 e759 4db8 b84d 6d35 08e4 6a38
00000180: 9225 24b8 46f0 c835 fe8d a338 64af b2b8
00000190: 3388 f737 0106 16b6 6ce6 23b8 fee7 66b8
000001a0: 63a8 6136 b0cc 02b7 26c4 c338 e262 87b5
000001b0: 2f3e 3f36 59f3 de36 2fa2 cf37 8ee9 9d38
000001c0: d0f0 7736 bfa0 dc37 93af 7c36 87cf 2738
000001d0: 230d 1036 00a2 2437 0d75 0c36 5fa3 9bb8
000001e0: 5a9c d5b6 5f53 5b36 e717 7a38 108f b037
000001f0: e7a8 ef37 269e 80b7 973c 4fb6 8c6b 17b6
00000200: 3af0 8f36 8203 78b8 d706 c137 4aa8 6237
00000210: 7758 9b36 85ad 5bb6 2831 6034 92b6 88b5
00000220: 1bb2 b1b6 732a 81b6 6f46 26b6 6674 a8b6
00000230: 64f6 36ba 4d72 27ba ee88 f1b9 02bb 083b
00000240: 4097 a539 291f 39bb 3b6c 84ba 24a4 08bb
00000250: 38da 02ba ee55 7eba fedb 5c39 b878 90b9
00000260: 5349 4036 f4ef 25ba da07 813a 7efb e63a
00000270: f126 bb39 2728 be3a 9a0b 0a3a e041 913a
00000280: 71a2 3439 ab72 d5b9 3c9c 8bba ffcc 41ba
00000290: d3b9 6c38 6963 b73a 20b0 d7ba f74e 6cb8
000002a0: 924e 97ba f43f 24bb a836 dc3a 89bc 0db9
000002b0: 7ce0 c0b9 0a13 bd3a 1dad f6b8 3408 0439
000002c0: 045c 53ba 650a 1f35 e07d 4a39 087c 3639
000002d0: e7b8 9b3a d25d 30b9 3869 3ab9 ec79 003b
000002e0: b5e5 47b8 0f0e 10bb de85 803a a359 98b8
000002f0: 9438 463a c762 6c3a 292d 9ab8 a89d 74ba
00000300: eaba 4cba 436c 2538 98c0 c23a 759e 5e39
00000310: d00c 96b9 dd36 7139 3ca1 b338 9550 f0ba
00000320: a563 d2b8 d7a8 7db8 cf2a 1db9 0b6c 1b38
00000330: 85fb 58b9 5da8 61b6 ef08 60b9 7f41 85b9
00000340: bcb2 f238 6cc9 0e38 ee8f eb39 dfbf 4539
00000350: ea85 cc39 8c38 a4ba 8638 50b9 c3f4 023b
00000360: 3b68 e03a 2c40 133b 7032 373a 5f69 8a3a
00000370: 3b62 86b8 24b0 4b39 edad bc37 80fa 463a
00000380: 73e8 6eba f70a bdba 1576 63b9 f6f8 a1ba
00000390: e13b e2ba f304 83ba 23f0 e9b7 92b8 c239
000003a0: 6ca8 1b3a a41f 9a3a 1477 1eb8 083a b8ba
000003b0: e77a ca3a 3ccd 7738 e4d0 8239 256f 103b
000003c0: ef55 9cba ceae 8938 39f5 4e3a da94 eab9
000003d0: 6991 8238 9135 9636 fdf9 1c39 250d 0bb8
000003e0: 8c63 23b9 1eff 88b8 1de3 c0ba 6cb9 89ba
000003f0: 5da1 f238 d5a3 00bb bafb e936 46dc bc3a

exp_avg_sq f4 [50, 70]
7.030839e-07 1.920167e-05 1.2018279e-06 2.0506242e-05 2.3247158e-06 8.0221005e-05 1.4513442e-05 1.4256552e-05
7.0842225e-06 1.2096486e-05 9.617368e-07 7.293086e-07 9.3831466e-07 9.3841645e-06 7.997753e-06 1.4381409e-05
1.1891268e-06 9.973248e-06 2.9140405e-05 1.1328275e-05 1.1829433e-06 1.025212e-06 2.3462999e-05 1.1814106e-05
1.0224097e-06 1.1244694e-05 9.581365e-06 7.805238e-07 2.167247e-05 1.579743e-05 5.3927048e-05 9.612666e-07
1.2384244e-05 1.1726066e-05 1.0075353e-06 1.2597274e-06 1.843996e-05 1.0490907e-06 6.41787e-07 8.0055105e-07
1.3159909e-05 3.5447047e-05 5.0889247e-07 1.4837065e-05 7.806764e-07 1.0141368e-05 8.479806e-06 8.9496905e-07
1.1479804e-05 1.6096536e-05 9.155701e-07 8.4356685e-07 1.9772684e-05 6.2899953e-06 1.0342699e-05 9.0806435e-07
8.163208e-07 8.060503e-07 1.3273748e-05 5.064002e-05 8.518358e-07 1.246054e-06 6.469103e-07 1.3675011e-06
7.0263104e-07 8.1459376e-07 2.0407933e-06 7.887317e-07 1.368622e-06 6.9282805e-07 3.699297e-08 4.491922e-07
4.267884e-08 9.486371e-07 1.1293705e-07 2.2931856e-06 6.8538253e-07 5.008032e-07 2.0729208e-07 4.4034817e-07
1.2023138e-07 5.1221445e-08 4.046017e-08 2.839175e-07 3.34561e-07 6.8577015e-07 1.05367846e-07 2.2884164e-07
1.131673e-06 4.3373473e-07 6.027995e-08 7.4449716e-08 5.3235055e-07 5.102662e-07 6.594256e-08 3.2269506e-07
3.4089885e-07 6.679398e-08 5.051487e-07 7.1418685e-07 1.3913555e-06 3.1408483e-08 5.514973e-07 2.5812173e-07
8.6979e-08 1.03880105e-07 4.3720243e-07 3.804644e-08 2.8853881e-08 4.2361627e-08 6.725338e-07 8.591021e-07
4.7823356e-08 6.751919e-07 9.127909e-08 2.5631027e-07 3.052796e-07 3.8696996e-08 3.9111052e-07 2.7635082e-07
5.95516e-08 3.7419998e-08 4.6518892e-07 2.0037974e-07 2.8623933e-07 3.969183e-08 4.8399183e-08 3.9852843e-08
5.182728e-07 1.1226064e-06 6.4990644e-08 7.099906e-08 4.2367276e-08 1.3377242e-08 2.647704e-08 2.5101574e-08
5.5129625e-08 4.450745e-08 1.5534248e-07 4.2933827e-08 1.2039736e-06 1.1749998e-05 2.0168518e-06 5.2492203e-05
8.623399e-06 4.689783e-05 4.8752594e-05 3.6661942e-05 1.4719009e-05 3.1824977e-05 1.631083e-06 2.3331777e-06
1.3142294e-06 1.52442435e-05 2.2142338e-05 4.6490146e-05 1.6912503e-06 1.832577e-05 6.283024e-05 2.2319144e-05
1.0955739e-06 1.8407479e-06 1.0246067e-05 3.2178094e-05 2.327241e-06 2.5466052e-05 2.341612e-05 1.5057141e-06
1.0548049e-05 5.6829336e-05 2.0999401e-05 2.654693e-06 3.4303488e-05 9.063169e-06 1.5270471e-06 2.163063e-06
1.1131054e-05 1.6673157e-06 1.1310495e-06 1.3418262e-06 4.559104e-05 6.0769118e-05 9.351457e-07 3.8230177e-05
1.4839893e-06 1.7321274e-05 1.4529028e-05 3.495963e-06 2.0109315e-05 7.698475e-06 1.4169285e-06 1.513458e-06
1.0235027e-05 1.14086915e-05 1.703696e-05 2.2023748e-06 1.4935629e-06 2.2300117e-06 3.7196285e-05 1.718112e-05
1.5260559e-06 1.6561728e-06 1.6674281e-06 1.0447272e-06 9.084164e-07 1.0778704e-06 6.034493e-06 1.3849577e-06
1.8309751e-06 1.3531272e-06 4.814666e-07 6.0208517e-06 9.53643e-07 1.7848552e-05 2.4502062e-06 2.7543241e-05
1.652434e-05 1.18023845e-05 4.5853103e-06 9.990727e-06 5.9600376e-07 5.2907535e-07 5.367059e-07 6.0463067e-06
6.936852e-06 1.4394039e-05 6.4526864e-07 6.6914045e-06 2.0830383e-05 8.508535e-06 4.319924e-07 5.9650773e-07
6.861618e-06 1.0342508e-05 7.4858036e-07 8.740138e-06 7.16396e-06 5.144045e-07 6.2375107e-06 1.6261225e-05
1.8248566e-05 6.633426e-07 1.1159066e-05 3.6443043e-06 6.2248813e-07 7.3511166e-07 6.6392813e-06 4.436625e-07
3.5910605e-07 5.478765e-07 1.4326746e-05 1.9133146e-05 3.7793367e-07 1.4095946e-05 6.1867877e-07 5.9984213e-06
00000000: 8fbb 3c35 4613 a137 7e4e a135 d204 ac37
00000010: 5002 1c36 533c a838 c27e 7337 6d2f 6f37
00000020: 02b5 ed36 03f2 4a37 0615 8135 b5c5 4335
00000030: 7ee0 7b35 ae70 1d37 162e 0637 ae47 7137
00000040: 169a 9f35 c652 2737 8b72 f437 920e 3e37
00000050: 9fc5 9e35 049a 8935 68d2 c437 3335 4637
00000060: bb39 8935 98a7 3c37 a6bf 2037 3085 5135
00000070: 46cd b537 b984 8437 ba2f 6238 de04 8135
00000080: ecc5 4f37 12bb 4437 a63a 8735 e713 a935
00000090: 83af 9a37 7bce 8c35 4447 2c35 73e5 5635
000000a0: 61c9 5c37 faac 1438 d39a 0835 b5ec 7837
000000b0: ac8f 5135 d824 2a37 7d44 0e37 ce3d 7035
000000c0: 6299 4037 0c07 8737 80c5 7535 7971 6235
000000d0: 84dd a537 a60e d336 8e85 2d37 b5c1 7335
000000e0: 2321 5b35 5b5f 5835 50b2 5e37 4f66 5438
000000f0: b6a9 6435 173e a735 56a7 2d35 fb8a b735
00000100: 709c 3c35 75aa 5a35 90f4 0836 3bb9 5335
00000110: 7eb1 b735 c8fa 3935 33e2 1e33 8228 f134
00000120: e14d 3733 d8a5 7e35 cd87 f233 a1e4 1936
00000130: 21fb 3735 ef6e 0635 0394 5e34 fe68 ec34
00000140: f318 0134 93fe 5b33 6dc6 2d33 536d 9834
00000150: b79d b334 c415 3835 9646 e233 83b7 7534
00000160: fde3 9735 0cdc e834 4173 8133 2ae1 9f33
00000170: dae6 0e35 3af9 0835 4e9c 8d33 df3e ad34
00000180: c804 b734 6170 8f33 8e99 0735 8cb6 3f35
00000190: 9cbe ba35 fee5 0633 9b0a 1435 fb93 8a34
000001a0: 36c9 ba33 b114 df33 a5b8 ea34 8168 2333
000001b0: 5bda f732 1af1 3533 2c88 3435 0c9d 6635
000001c0: 5666 4d33 d63e 3535 3605 c433 049b 8934
000001d0: 4fe5 a334 cc33 2633 d2f9 d134 5e5d 9434
000001e0: adc5 7f33 b9b7 2033 14bf f934 f727 5734
000001f0: 6fac 9934 a179 2a33 77df 4f33 aa2a 2b33
00000200: 701f 0b35 76ac 9635 fc90 8b33 2578 9833
00000210: 50f7 3533 bcd1 6532 a06f e332 f29e d732
00000220: aac7 6c33 7528 3f33 37cc 2634 3e66 3833
00000230: 3898 a135 db21 4537 4059 0736 132b 5c38
00000240: 37ad 1037 29b4 4438 b37b 4c38 76c5 1938
00000250: aaf1 7637 cf7b 0538 96eb da35 b093 1c36
00000260: 9464 b035 87c1 7f37 4fbe b937 6afe 4238
00000270: ebfe e235 4bba 9937 bac3 8338 ff39 bb37
00000280: a20b 9335 9e0f f735 86e6 2b37 f7f6 0638
00000290: b22d 1c36 ee9f d537 bc6d c437 f117 ca35
000002a0: 87f7 3037 095c 6e38 df27 b037 4727 3236
000002b0: 17e1 0f38 040e 1837 f0f4 cc35 2429 1136
000002c0: 83bf 3a37 88c8 df35 91ce 9735 cc18 b435
000002d0: 0239 3f38 58e2 7e38 b906 7b35 5759 2038
000002e0: 7c2d c735 274d 9137 b3c1 7337 309c 6a36
000002f0: 6db0 a837 b328 0137 4b2d be35 0522 cb35
00000300: 1bb7 2b37 f567 3f37 98ea 8e37 83cc 1336
00000310: 6e76 c835 4fa7 1536 3503 1c38 2d20 9037
00000320: e2d2 cc35 aa49 de35 65cc df35 8e38 8c35
00000330: e6d9 7335 58ab 9035 e67b ca36 c9e2 b935
00000340: d3bf f535 199d b535 223e 0135 b906 ca36
00000350: d9fd 7f35 79b9 9537 396e 2436 a90c e737
00000360: c09d 8a37 db02 4637 84db 9936 d99d 2737
00000370: 11fd 1f35 c805 0e35 2612 1035 61e1 ca36
00000380: 1bc3 e836 ed7d 7137 8636 2d35 ba86 e036
00000390: e8bc ae37 e1bf 0e37 95ec e734 b31f 2035
000003a0: da3c e636 bc84 2d37 0df2 4835 9ba2 1237
000003b0: f361 f036 9c15 0a35 cf4b d136 b768 8837
000003c0: 7f14 9937 8e10 3235 d337 3b37 ac90 7436
000003d0: 0f19 2735 7d54 4535 fec6 de36 8230 ee34
000003e0: 29cb c034 c911 1335 e85c 7037 1e80 a037
000003f0: cfe6 ca34 a17d 6c37 4813 2635 0c46 c936
