models/training_new_loss_pico_soustraction/model_1/space_buffer_8_date_buffer_1/train_pfts_2/MLP.pth (torch, 56798 bytes, 18 tensors)

layers.0.weight f4 [70, 6]
000000 f5 32 b0 3e 98 bf ff 3d be 61 2f c0 61 cc 31 3f
       0.34413877 0.124877155 -2.7403407 0.6945248
000010 d8 9f ef bd 0b 6a 8a be 39 5b 0c c1 d2 84 04 40
       -0.1170041 -0.2703403 -8.772271 2.0706067
000020 47 80 aa c0 a9 fd 5e bf 76 1e 82 40 b6 bd 66 3f
       -5.328159 -0.87105805 4.0662184 0.90133226
000030 69 66 6d 3f 82 35 3c c0 38 45 18 3d 9c af e7 3f
       0.9273439 -2.9407659 0.037175387 1.8100467
000040 83 d6 0a 3c 9b 90 77 be e0 70 c0 bf 51 70 56 40
       0.008473995 -0.24176256 -1.5034447 3.3506052
000050 2f cb f2 bf 7f 19 55 3d c5 6f 99 3e 28 4e 0f 3e
       -1.8968257 0.052026268 0.29968086 0.13994658
000060 4e a2 d4 3e b2 60 86 be a2 9d 4e 3f 94 05 4b bf
       0.4153008 -0.26245648 0.8070928 -0.79305387
000070 c5 b7 2e 40 27 13 45 c0 f7 44 0a bf f5 ca eb 3f
       2.7299664 -3.079294 -0.5401148 1.8421313
000080 7c 6e 01 40 ce 32 76 bf 85 51 6a be 8e 71 be be
       2.0223684 -0.9617127 -0.2288266 -0.3719601
000090 02 5a 45 c0 33 13 42 c0 fe 9c ff 3f 2c c5 35 c0
       -3.0836186 -3.0324218 1.9969785 -2.8401594
0000a0 01 7a 95 c0 e0 f4 82 c0 6f 06 4b 40 96 35 d6 be
       -4.671143 -4.092392 3.1722677 -0.41837758
0000b0 ae 8a a0 c0 77 7c 52 40 a7 68 09 be b7 7c b4 bf
       -5.0169287 3.2888467 -0.13418828 -1.410056
0000c0 a4 71 5b c0 de a6 f2 3e 4a e3 46 40 6e 9c 2e 3e
       -3.428811 0.47392935 3.1076226 0.1705186
0000d0 9b 83 15 bf 53 ad c4 3c 5c d1 a7 3e ef 33 0c c0
       -0.5840394 0.024008429 0.32776916 -2.1906698
0000e0 00 de 71 bf 1b 6c 75 3f e5 04 a1 3e 3e fa 0c bd
       -0.9447937 0.9586808 0.31449047 -0.034418337
0000f0 74 c3 50 bf 32 28 a4 be f5 4f 01 40 6b cf 29 41
       -0.8154824 -0.32061917 2.0205052 10.613139
000100 7d 4e ec bf 24 f1 23 c0 bb 0b ac 3f 4e 61 3c 40
       -1.8461453 -2.561593 1.344108 2.943439
000110 96 ab 37 c0 15 55 6f be 3a 29 f0 bf c4 2c 4d 40
       -2.8698478 -0.233723 -1.8762581 3.2058573
000120 4b ca 00 bf 09 e9 c8 3e 53 0d c6 bf bd 0b 53 bf
       -0.50308675 0.39240292 -1.5472816 -0.82439786
000130 6e 09 ad 3f 35 eb 91 c0 c2 99 1d c0 27 70 b1 3d
       1.3518503 -4.559962 -2.4625096 0.086639695
000140 48 a9 a4 bf 85 06 9c 40 94 d0 40 c0 e9 bb f1 40
       -1.286416 4.875796 -3.0127306 7.5541883
000150 60 ba 71 3f d0 b2 ab c0 cf a7 37 3f 85 ef c8 3f
       0.9442501 -5.3655777 0.7174043 1.5698096
000160 e6 70 17 be 94 59 51 3e bb 78 e7 bd c3 cc 16 40
       -0.14789161 0.20444328 -0.113023244 2.3562477
000170 27 8b dd be 0f a4 2a bf eb c8 0a bd 06 a4 32 3d
       -0.43270227 -0.66656584 -0.033883017 0.043613456
000180 91 32 54 c0 96 b0 a6 3f 33 66 c3 3f b5 93 66 be
       -3.3155863 1.302264 1.5265564 -0.22517283
000190 ad 04 14 41 11 20 0e c0 cb a6 20 3f 00 b3 80 40
       9.251142 -2.2207072 0.62754506 4.0218506
0001a0 16 0b 82 3f b4 c5 c1 bf 1b 93 a6 bf 6c d1 e8 bf
       1.0159633 -1.5138459 -1.3013643 -1.818891
0001b0 e9 05 ac 40 42 4b 3e 40 c2 f3 ba bd 41 94 41 c0
       5.3757215 2.9733434 -0.09128524 -3.0246737
0001c0 27 c7 88 c0 ce ef 46 40 07 8c a7 be 35 6c b8 bf
       -4.2743106 3.1083865 -0.3272402 -1.4408022
0001d0 15 c4 f1 3f 86 ee 51 3f c5 99 aa c0 fd a3 a2 c0
       1.8887964 0.8200458 -5.3312707 -5.082518
0001e0 cd 03 33 bf 4e e2 f0 bf fa c7 09 40 e4 10 ab be
       -0.69927675 -1.8819063 2.1528306 -0.33411324
0001f0 79 65 60 c0 35 19 7b 40 cd 87 4f be 59 33 50 40
       -3.5061934 3.9234135 -0.20266648 3.253134
000200 57 72 57 3f 30 62 55 c0 2e 69 ce 3f 3c d8 9b be
       0.84158844 -3.334118 1.6125848 -0.3043841
000210 23 6a 0b 3f a8 79 d4 bf a6 5c 27 40 2c 2d 02 3f
       0.54458827 -1.6599627 2.6150298 0.50850177
000220 1d fb 52 c0 81 a5 71 40 f9 89 9d 3e 2c 29 cd bf
       -3.2965767 3.7757266 0.30769327 -1.602819
000230 e6 d4 83 3f f8 d4 b4 3d bf d1 8f 3f d7 33 34 c1
       1.0299346 0.08829683 1.1235884 -11.262656
000240 08 96 90 bf 3d c5 91 bf e2 6b 66 bf 14 a6 04 bf
       -1.1295786 -1.1388317 -0.90008366 -0.51815915
000250 c5 ea fe 3f 09 14 91 3f 3a db bb bf 3d f6 b0 bf
       1.9915396 1.1334239 -1.4676278 -1.3825146
000260 99 6d 6d be 12 21 98 3f cb 69 b6 bf 3c 0b 7c c0
       -0.2318634 1.1885092 -1.4251035 -3.9381857
000270 a3 e4 3a bf 5b e1 ea 3f 3d 75 f5 3f c0 e7 9d bf
       -0.7300512 1.8350023 1.9176403 -1.233635
000280 45 9a 1e 3e 2f 26 da 3c e9 45 4f 40 08 3a 85 40
       0.15488537 0.026629535 3.238642 4.163334
000290 9a 63 d0 bf 96 ae 65 c0 43 5d 59 40 f3 98 5d 40
       -1.6280396 -3.5887809 3.3963172 3.4624603
0002a0 dd 72 cc 3f 21 e6 38 c0 95 25 8f 3e 8e ff 69 3f
       1.5972553 -2.889046 0.2795836 0.9140557
0002b0 da aa 58 bf bc 28 45 3f 50 f9 5f c0 8f e9 6c 40
       -0.846357 0.7701528 -3.4995918 3.7017553
0002c0 f1 6f b2 be 18 18 0b be bc 74 14 3f 8e 0f f5 be
       -0.3485103 -0.1358341 0.5799062 -0.4786343
0002d0 f9 4e 22 40 d8 ef 12 3f 03 03 c9 bf 0e b1 2c c0
       2.53607 0.5739722 -1.5704044 -2.6983066
0002e0 da f5 2f c0 79 8d 5a 40 d1 65 04 c0 08 94 8e 3a
       -2.7493806 3.4148848 -2.0687144 0.0010877857
0002f0 dc b3 a7 bf 11 be 88 40 e7 e7 96 3e c0 40 ea bf
       -1.3101764 4.2732015 0.29473802 -1.830101
000300 e0 03 0b 40 dd 77 83 bf fe 42 97 40 50 2d 99 c0
       2.1721115 -1.0270954 4.7269278 -4.7867813
000310 df 4e bf 3f d4 79 e7 3f a0 9b 35 40 55 79 08 3f
       1.4945945 1.8084054 2.8376236 0.5331014
000320 fa d3 a2 c0 b9 1d 15 40 6c ec 19 be 68 1b 1f bf
       -5.088376 2.3299391 -0.15031594 -0.62151194
000330 83 13 b2 bf b6 de 72 3f 19 20 c3 bf 9d 28 d1 c0
       -1.3912205 0.9487108 -1.524417 -6.5362077
000340 3a b9 77 40 4e a0 ea bf 16 59 85 3f a8 a8 38 c0
       3.8706803 -1.8330171 1.0417812 -2.885294
000350 35 af 50 40 7e 61 b0 bf 0b 13 3a 3f c0 65 10 bd
       3.2606938 -1.3779752 0.7268531 -0.035253286
000360 f4 81 b5 bf 62 f8 61 40 ab 82 6a bf 34 1e 87 c0
       -1.4180284 3.530785 -0.91605633 -4.222437
000370 6b 26 14 41 e8 82 20 be 3e 05 1a bf b4 9e eb 3f
       9.259379 -0.15674937 -0.6016425 1.8407807
000380 b6 72 09 3e 42 24 26 c0 e9 cb b6 40 9a e9 e3 bf
       0.13422665 -2.595963 5.7123914 -1.7805665
000390 5c d2 d0 3e 5d 87 57 c0 c2 8b 48 3f 0e 49 20 40
       0.4078549 -3.367637 0.78338253 2.504459
0003a0 fc 36 a5 bf c1 df 36 3f fc c3 3e 40 6d e8 9a 3f
       -1.2907405 0.7143517 2.980712 1.2102181
0003b0 62 fc ad bf 60 d0 8d bf 90 1d 7e be 45 1b c5 3e
       -1.3592646 -1.1079216 -0.24815965 0.38497368
0003c0 47 9b 11 40 c3 97 a0 3f 89 52 c0 3f f6 89 df be
       2.2751024 1.2546314 1.5025188 -0.43659943
0003d0 0d 42 19 c0 fb f1 8a bf 7f 4b 31 40 0b 11 27 c0
       -2.3946564 -1.0855097 2.770233 -2.6104152
0003e0 60 d6 1f 40 94 c2 54 c0 f9 b5 32 40 17 27 a0 3e
       2.4974594 -3.324376 2.7923567 0.31279823
0003f0 b8 46 43 bf 83 83 76 3f 11 f1 ef be 7a bf 35 be
       -0.76279783 0.9629442 -0.46863607 -0.17748824

layers.0.bias f4 [70]
000000 42 0b 2f c0 e6 c7 2f 3f 67 5e 9d 3f 6b db 64 be
       -2.7350621 0.68664396 1.2294434 -0.22349326
000010 b7 33 1f 40 44 e6 45 40 19 ed 17 40 d5 7d 73 bd
       2.4875314 3.0921793 2.3738463 -0.059446175
000020 40 2f 0c be d5 8d 64 bf 76 c3 71 c0 58 c7 16 3e
       -0.136899 -0.8927892 -3.777555 0.14724481
000030 6a 0d 8e 40 37 c2 29 c0 53 cd 4b bf d0 d0 80 3f
       4.4391375 -2.652479 -0.79610175 1.0063725
000040 83 fc 18 c0 c9 21 d5 be 31 50 d6 3f 04 f5 8b c0
       -2.390412 -0.4162734 1.6743222 -4.373659
000050 94 a5 86 bf 5b 00 83 3f 01 ce f6 bf 78 69 3a 3f
       -1.051928 1.0234483 -1.9281617 0.7281718
000060 a6 e4 b9 40 9e 8e b8 40 90 8f 22 40 2d 20 8b bf
       5.809161 5.7674093 2.5400124 -1.0869194
000070 c8 88 7a 3e 0c 88 be 3e 24 b4 b2 bf 27 54 69 40
       0.2446624 0.3721317 -1.3961225 3.6457613
000080 48 87 b3 3f 23 b8 db bd 7f 97 ba 40 dd 1c 57 3e
       1.402566 -0.10728481 5.830993 0.21007104
000090 53 50 a0 3f 2a 89 02 c0 0f 3b 65 3f c2 8d e0 bf
       1.2524513 -2.0396218 0.8954324 -1.7543261
0000a0 22 9c 93 40 43 69 17 bf 63 d1 55 c0 aa eb 20 40
       4.612809 -0.5914499 -3.340905 2.5143838
0000b0 50 c0 27 c0 bb 73 b4 be 3b f0 79 40 3c c1 53 40
       -2.6211128 -0.35244545 3.9052875 3.308669
0000c0 d1 9a 11 40 3c 52 97 40 12 9a f7 bf 44 83 3a 3e
       2.2750742 4.7287884 -1.9343894 0.18214136
0000d0 65 ec f0 bf 17 b6 19 bf 99 1c d0 3e b7 34 89 3e
       -1.8822142 -0.6004347 0.40646818 0.2679803
0000e0 84 3b 14 bd fa 31 15 c0 13 36 a8 3e 3c b4 ff be
       -0.03618957 -2.3311753 0.32853755 -0.49942195
0000f0 65 c7 14 40 76 77 a7 be 12 4d 3f 3d 23 c7 48 c0
       2.32467 -0.3270833 0.04670436 -3.1371543
000100 2f 7e 70 c0 ee 75 1a c0 54 2c 33 c0 8d cc 7c c0
       -3.7577016 -2.4134479 -2.7995806 -3.9499848
000110 f7 f5 23 40 f2 86 a0 3f
       2.5618875 1.2541182

layers.1.weight f4 [50, 70]
000000 28 06 55 3e d2 c4 20 bf 33 aa a9 be d3 3b e4 3f
       0.2080313 -0.62800324 -0.33137664 1.7830757
000010 73 a7 80 3f 38 35 52 3f ac 94 4a 3f 66 ac f7 3f
       1.0051101 0.82112455 0.79133105 1.9349487
000020 ee 2b 89 bf e9 08 99 bf 09 83 89 be a8 5c 09 3f
       -1.0716531 -1.1955844 -0.26857784 0.5365701
000030 47 d3 a0 bf 71 6e 8c bf 39 f9 7c be 9e 40 9e 3f
       -1.2564477 -1.0971204 -0.24704446 1.236347
000040 ee a4 ee 3e 1f b9 f2 3d f7 40 28 3f 69 60 24 3f
       0.46610206 0.11851715 0.6572413 0.6420961
000050 26 0a ea c0 85 02 f3 ba 71 ec 7f bf 75 b7 d7 3f
       -7.313739 -0.001854018 -0.99970156 1.6852862
000060 2b 44 3e bf 53 08 ce 3e c4 31 e4 bb b6 fb f1 3f
       -0.74322766 0.40240726 -0.0069639403 1.8904941
000070 2c 24 98 bf fa 78 aa 40 10 56 aa bf 89 10 b3 be
       -1.1886039 5.3272676 -1.3307514 -0.34973553
000080 c6 f7 a0 bf 23 4c e1 3f a9 23 c7 bf 6e 35 09 c0
       -1.2575614 1.760136 -1.5557758 -2.143886
000090 be f8 f6 bd 7a 73 f6 3f 47 29 c6 bf 7a e2 63 be
       -0.120591626 1.9253991 -1.5481347 -0.22254363
0000a0 78 af 9e 3f b4 e0 86 3c e1 d9 8d bf f1 ef f9 3f
       1.2397299 0.016464569 -1.1082116 1.9526349
0000b0 d4 e6 e9 bf 88 55 18 40 0f 88 25 bf c3 f1 7c be
       -1.8273568 2.3802204 -0.64660734 -0.247016
0000c0 cc e4 a8 be 29 4d 0b bf 40 c0 a5 be 73 4b 8d 3e
       -0.32987058 -0.5441461 -0.32373238 0.27596626
0000d0 ad 5f 51 3f 95 75 84 bd d4 cf c0 bf d2 0e 35 bd
       0.81786615 -0.064677395 -1.5063424 -0.044203587
0000e0 1d 8e 64 bf 5b 0c 8f 3e e0 2d 2e 40 12 af 08 bf
       -0.8927935 0.27939114 2.72155 -0.53392136
0000f0 94 09 b8 be 0c 17 9f 3f ac 88 05 bf 23 7b 6f bf
       -0.35944808 1.2428908 -0.5216167 -0.93547267
000100 d7 b7 89 bf f2 60 9d 3e b7 ea df bf 45 2e 43 bf
       -1.0759228 0.30738026 -1.7493504 -0.76242477
000110 be 9e b4 be 4c 2d 10 c0 dc cb 84 be c2 78 37 bd
       -0.3527736 -2.2527647 -0.25936782 -0.044792898
000120 8d 4a 2e be 84 d7 8b 3f 9e 8b 69 3f 7c 16 1a be
       -0.17020626 1.0925145 0.91228664 -0.1504764
000130 d1 f7 18 c0 da 00 22 c0 5c c8 f1 3e 06 8e 56 3e
       -2.3901255 -2.531302 0.47223175 0.20952615
000140 24 cd 0a c0 58 3d 47 3f a2 56 29 40 6e c6 08 c0
       -2.1687708 0.7782798 2.6459126 -2.1371112
000150 95 95 a3 3f ec 11 13 bf 46 55 b7 bf f7 ec 67 bf
       1.2780024 -0.5744922 -1.4322898 -0.90595955
000160 80 da e2 bf 35 d9 70 c0 6a cc 76 bd 96 65 fd be
       -1.7722931 -3.7632573 -0.06025354 -0.49491566
000170 38 71 94 3f 6f ee 9d 3e 8e b2 24 3f 36 e8 68 40
       1.1597052 0.30845973 0.6433495 3.639173
000180 0d 2b e4 bc ad 9b 14 c0 40 ab b5 3e 17 39 5e 40
       -0.02785256 -2.3220017 0.35482216 3.4722345
000190 05 55 2c bf ba 39 30 40 b4 62 0c bf 9d a7 8c bf
       -0.6731723 2.7535233 -0.5483811 -1.0988652
0001a0 dc 80 c3 3f 41 cb c7 bf f0 35 68 bd fd 9f 7a c0
       1.52737 -1.5608903 -0.056692064 -3.916015
0001b0 22 20 ef be 26 5f 2d be 00 fb c8 be 48 b7 6b c0
       -0.46704203 -0.16930827 -0.39253998 -3.6830616
0001c0 37 31 4e be e8 b9 44 3f 3d 11 60 be 2b 4e c5 3e
       -0.20135961 0.7684617 -0.21881576 0.385362
0001d0 b2 91 61 40 99 50 67 3e 4d c3 9a 3e 76 14 5e 40
       3.5245175 0.2258934 0.30227128 3.4699988
0001e0 84 bf 7f bf 35 48 38 3f 85 b9 b3 bf 72 ef 8d 3f
       -0.99901605 0.7198518 -1.4040991 1.1088698
0001f0 e0 0f 06 3f 09 6b b3 3f 56 c8 aa c0 db ff ee 3e
       0.52367973 1.401704 -5.336955 0.46679577
000200 b1 11 65 be c4 a9 fd 3e e3 36 83 3d f5 1f 92 bf
       -0.2237003 0.49543583 0.06406953 -1.1416003
000210 56 bb c9 3f bc 3b a1 bf 76 9e f2 be 73 0c 97 be
       1.5760295 -1.2596354 -0.4738652 -0.29501686
000220 45 05 05 c0 f7 2f fa be 5e ea 29 3d 32 99 fe be
       -2.0784466 -0.4886472 0.041483276 -0.49726254
000230 34 45 2a c0 ba 6a 99 bc c4 39 28 3f bb 0c cb bf
       -2.6604738 -0.018727649 0.65713143 -1.586326
000240 de 00 a1 3f 18 5c a9 3f 59 66 f0 bf ea bc 3e c0
       1.257839 1.323123 -1.8781234 -2.9802804
000250 00 18 76 3f 3b 08 6b bf 40 31 0a 40 5d d4 f3 3e
       0.9613037 -0.91809434 2.159256 0.47622958
000260 f1 38 ec be 93 b1 af 3f ff 8b 5f bf c9 cf 3a 3f
       -0.46137193 1.3726066 -0.8732299 0.72973305
000270 b8 aa 1b 3e 6f bd b4 3e 80 6f a7 bf 4c 4a 3a 3f
       0.15201843 0.35300776 -1.3080902 0.7276962
000280 62 36 61 3e 01 c3 e7 3f b5 9d af be 77 d5 40 3f
       0.21993402 1.8106385 -0.34300008 0.7532572
000290 f8 50 c2 3e cb ce 1d 3f 41 e0 27 40 c6 fe 24 be
       0.379524 0.61643666 2.6230624 -0.16112813
0002a0 0d b7 0a be 60 43 19 3f 17 4f ea 3f 0f 06 de 3f
       -0.13546391 0.5986843 1.8305386 1.7345599
0002b0 47 49 7e 40 af db a0 c0 10 26 12 be 4f 1f 62 40
       3.9732225 -5.026817 -0.14272332 3.533161
0002c0 f9 04 ab be 1f a2 1c 3e cc 77 13 3e c7 f6 84 bd
       -0.3340223 0.1529622 0.14401168 -0.064923815
0002d0 70 cc 62 bd cf 03 06 40 aa 56 5c 3c ee 4a 42 40
       -0.055370748 2.0939825 0.013448397 3.0358233
0002e0 36 e5 dc bf 44 16 b5 bd 02 62 32 3f 64 c4 40 40
       -1.725745 -0.088421375 0.696808 3.0119867
0002f0 85 09 78 40 dd 14 cb 3e 8c 33 93 3e 3e 55 86 bd
       3.875581 0.39664355 0.28750265 -0.065592274
000300 e4 ac 0e bf 34 e2 79 bf 94 6c 04 40 87 9e 23 c0
       -0.5573256 -0.97610784 2.069127 -2.5565507
000310 93 0c 07 c0 1a c0 3f be 6c c3 0f 3f 94 0f 8f be
       -2.1101425 -0.18725625 0.56157565 -0.27941573
000320 01 be 47 40 97 58 3e 3f 14 26 28 3f f1 2f 34 bf
       3.120972 0.7435393 0.656831 -0.7038565
000330 87 5b 44 3f 92 0d 3c c0 32 91 99 3f 27 db ec bd
       0.7670216 -2.9383283 1.1997435 -0.115652375
000340 a2 fa 9f 40 30 8d 8b be d4 40 a2 bf 20 2f bc be
       4.999345 -0.27256155 -1.2676034 -0.36754704
000350 2f fd e2 bc e6 47 4b 40 ad 52 e0 3f 5c 1b 37 3f
       -0.027708618 3.1762633 1.7525231 0.7152612
000360 33 42 2b 3e a9 fa cb bf 15 db 38 3d b4 a0 c5 3d
       0.16724472 -1.593587 0.045130808 0.09649792
000370 05 37 4b bf f4 7d 12 40 8c 0a f6 bf 2b f5 74 bf
       -0.7938083 2.2889376 -1.9221969 -0.95686597
000380 b6 9a 4e be e5 ed 67 3d 62 75 01 3f 7c 0a 2b 3f
       -0.20176205 0.05662336 0.50569737 0.6681287
000390 f0 6d 44 40 fc 59 14 bf cb f3 ba be 27 8b 77 3e
       3.06921 -0.57949805 -0.36514124 0.24174176
0003a0 c7 7a 98 be 1c 9a cf 3f c5 58 02 bf fc 15 7f 3f
       -0.29781172 1.6218905 -0.509167 0.9964292
0003b0 40 43 5a 3f 77 e6 1d 3f 36 7e 01 bf c6 7a eb 40
       0.85258865 0.61679786 -0.5058321 7.358737
0003c0 e3 54 57 bd e0 9e cd 3e 0a 35 75 c0 5c f4 23 c0
       -0.05257119 0.40160275 -3.8313622 -2.5617895
0003d0 c4 6d 09 3f b2 73 51 c0 5a 90 96 3d c8 ed 08 40
       0.53683114 -3.2726865 0.073517516 2.139513
0003e0 4e fb 61 be a6 ef be 3d d0 fe 40 bf 0a ee 80 c0
       -0.22068521 0.09323053 -0.75388813 -4.0290575
0003f0 03 8f 39 c0 f7 93 a9 3f 64 6b d5 3d 6c ca 0c c0
       -2.8993537 1.324828 0.10420874 -2.1998549

layers.1.bias f4 [50]
000000 45 ed 48 40 0a b8 60 40 d5 c5 f8 bd 78 b7 6e 3f
       3.1394818 3.5112329 -0.121471085 0.932487
000010 c1 5a f6 bf 16 a8 20 3f eb 57 89 3f 27 47 8d bd
       -1.9246446 0.6275648 1.0729955 -0.06898337
000020 9e f8 97 3f da 1d 49 40 b5 19 00 c0 fa 6d 64 3e
       1.1872747 3.142447 -2.001569 0.22307578
000030 9f 7c 63 c0 eb 19 06 c0 3a af 04 c0 93 5d c0 bf
       -3.5544813 -2.095332 -2.073195 -1.5028557
000040 f5 56 a1 40 9a fb 14 c0 c1 48 3e bf 11 6d ba c0
       5.041865 -2.3278565 -0.74329764 -5.825814
000050 3c 5e 1a 3f de 3b 0c 3f 70 97 6d 3f 90 5b 8c bf
       0.6030004 0.5477885 0.928092 -1.0965443
000060 cc 96 57 3f bc 9f 9e c0 70 be f6 bf 92 e0 0a 3e
       0.8421447 -4.956999 -1.9276867 0.1356223
000070 c8 3c 8a c0 3b d2 51 be 1e 78 8e 3e 01 e2 76 3f
       -4.3199196 -0.20490353 0.27826017 0.96438605
000080 be 7e fc 3f 13 9a 61 bf 26 83 41 3c 5f 5e 0a 40
       1.9726179 -0.88125724 0.011811053 2.16201
000090 61 22 a8 3e af 50 ce 3f e2 45 8f 3e 3f 92 84 c0
       0.3283873 1.6118373 0.27983004 -4.1428523
0000a0 11 04 c6 3f a2 78 fc 3d 4e 41 3f c0 6b 7f 46 40
       1.5469991 0.123276964 -2.988361 3.101527
0000b0 52 95 1d c0 8b 4b 31 c0 86 2e 0e 40 4e ca b4 40
       -2.4622388 -2.7702358 2.2215896 5.6496954
0000c0 25 e3 ad bf c0 c1 a8 3f
       -1.3584944 1.3184128

output.weight f4 [2, 50]
000000 1c cf c8 bd b8 32 85 3d 5d 56 01 bd 71 96 bd bd
       -0.09805128 0.065038145 -0.031576503 -0.0925721
000010 ed c6 84 3c 07 6a 41 3d 18 1f 09 3d d0 fe 4a bd
       0.016208136 0.047220256 0.03347692 -0.049559414
000020 73 64 f0 bc 75 5e a6 3d 25 19 1d bd 52 34 1d bd
       -0.029344773 0.08123485 -0.038354058 -0.038379975
000030 2a 00 80 bd f3 b9 87 bd 64 56 57 bd 29 f7 5e bd
       -0.06250031 -0.06627264 -0.052572623 -0.05443493
000040 25 4f 6e 3d 37 6b 0d bc ce 4a 75 3d cc d3 87 bd
       0.058180947 -0.008631519 0.059885792 -0.06632194
000050 32 cb c8 bd e3 06 24 3d 29 bd 68 bd 50 77 2d bd
       -0.098043814 0.04004563 -0.056821022 -0.042350113
000060 be 4d a0 bd f0 0a 73 3d 4a c3 91 bd bd cc 6a 3d
       -0.07827328 0.059336603 -0.071173266 0.05732416
000070 ff 65 33 bd 06 c2 58 bd ac 0f 82 3d 71 c5 9f 3a
       -0.043798443 -0.05291941 0.063506454 0.001218958
000080 12 c7 42 bc f2 cf d6 bc 36 df 40 bd 3a 38 b8 bd
       -0.011888282 -0.026222203 -0.04708787 -0.08995099
000090 e1 f8 b9 3c 94 86 f7 bc 80 be bd 3d 58 03 b3 bd
       0.022701683 -0.030215539 0.092648506 -0.08740872
0000a0 e2 14 95 3d 96 b4 66 3d 5b a9 0c bd 23 a7 a5 bd
       0.07279374 0.056324564 -0.034341197 -0.080885194
0000b0 68 8d 66 bd e5 ae b3 3d 7a 16 a5 bd db 8e 86 3d
       -0.0562872 0.08773593 -0.08060928 0.06570216
0000c0 79 d9 16 bd 11 c5 87 3d ea 95 92 bd 8c 1c db ba
       -0.03682849 0.06629384 -0.071575 -0.0016716882
0000d0 aa 8f c6 bd 8a a0 e4 3b 25 ca 90 3d 54 1c 5b 3d
       -0.096953705 0.0069771456 0.07069806 0.053493813
0000e0 94 30 82 3d 6b 0d 89 3d 85 13 98 bd 11 31 48 3d
       0.06356922 0.066920124 -0.07425598 0.04887492
0000f0 e0 b3 bd 3d e3 70 89 bd 83 27 8f bd 3c 46 7a bd
       0.09262824 -0.067109846 -0.06989958 -0.061102137
000100 a8 81 94 bd 3a fd 48 bd 24 e7 8b 3d d3 da 96 3d
       -0.072512925 -0.04906962 0.06831196 0.07365956
000110 fc 6e b2 3d 66 98 14 bc 40 9b a5 bc 99 b7 91 3d
       0.08712575 -0.009069538 -0.02021563 0.071150966
000120 0c 36 8a 3d bf 54 7f bd 10 4d a8 bb 3e 33 75 3d
       0.0674859 -0.06233668 -0.0051361397 0.05986332
000130 f8 87 78 bd 47 0c 3e 3d b4 44 91 bd f6 2a 02 bd
       -0.060676545 0.046398427 -0.07093182 -0.031779252
000140 07 a9 ec 3d af 13 a3 bd fd 64 8c bd a6 61 bd 3d
       0.11555677 -0.07962739 -0.068551995 0.092471406
000150 b0 4e 9a 3d 24 53 89 bd be 86 96 3d cf 53 a0 3d
       0.0753454 -0.06705311 0.07349919 0.07828485
000160 56 3e d6 3c 71 d2 07 bd a1 94 4f 3c aa ec 66 bd
       0.026152771 -0.033159677 0.012669713 -0.056378044
000170 13 26 2e bd dd ec 4d 3c 20 ab 9e bd c5 55 a6 3d
       -0.04251678 0.01256868 -0.07747483 0.08121828
000180 ac 4c 36 bb c7 af 46 3d c9 5e ce bd 05 97 83 3d
       -0.0027816696 0.048507478 -0.100766726 0.06425289

output.bias f4 [2]
000000 86 75 11 3e da 87 44 3d
       0.14204988 0.04798112

exp_avg f4 [70, 6]
000000 9e d8 bb 3a 11 04 a2 3a 44 2a ac 3a 59 2e 39 3a
       0.0014331525 0.0012360831 0.0013135155 0.0007064096
000010 dc 92 b2 ba c2 b6 a2 ba ba 72 30 39 50 43 62 39
       -0.001362409 -0.0012414085 0.00016827407 0.00021578115
000020 3b 3c bf 39 73 1f 45 3a 31 f4 3b 3a d2 13 e3 39
       0.00036475234 0.000751964 0.0007169871 0.0004331158
000030 ec 45 16 ba e9 a5 20 ba bc 96 c9 b9 c9 ef 49 b9
       -0.0005732465 -0.0006128238 -0.00038450013 -0.0001925818
000040 29 ee 8f b9 29 37 77 b9 79 e3 d1 3b de ff a8 3b
       -0.0002745253 -0.00023576304 0.0064052907 0.005157455
000050 f2 51 73 3b d7 80 cc 38 7d b5 be ba fb 99 6a ba
       0.00371277 9.751476e-05 -0.0014549937 -0.00089493365
000060 2e 59 ea b9 12 75 1c ba 93 b0 17 ba c1 3f 57 ba
       -0.00044698402 -0.00059683726 -0.00057865045 -0.0008211099
000070 ea 03 4c b9 b1 4e 12 3a c8 5a da ba 4c b7 09 bb
       -0.00019456414 0.0005581184 -0.0016659135 -0.0021013794
000080 65 06 09 bb 20 26 07 bb 21 06 a8 ba 9a 1b 8c 3a
       -0.0020908352 -0.002062209 -0.0012819209 0.0010689378
000090 67 ec cf b9 2e 9a 31 ba 4f 96 96 ba 52 5e de ba
       -0.0003965825 -0.0006774989 -0.0011488887 -0.0016965366
0000a0 1f fd 2b 3a 69 28 b5 3a 10 93 61 3a 84 b6 83 3a
       0.00065608503 0.0013821247 0.0008604983 0.0010048901
0000b0 5b cf 7a 3a 60 85 d5 39 75 57 38 ba f1 ee da b9
       0.00095676415 0.00040725898 -0.0007032075 -0.00041758225
0000c0 ef 49 98 bb b1 4d a6 bb 23 f9 88 bb ad e5 d8 ba
       -0.0046474854 -0.0050751795 -0.00418009 -0.0016547941
0000d0 5d 5d 99 3a a4 76 94 3a e4 73 33 3a 08 ec 61 3a
       0.0011700798 0.0011326862 0.0006845577 0.000861824
0000e0 43 c1 83 3a 89 35 95 3a bc 57 37 3a ca e6 cb b9
       0.0010052103 0.0011383753 0.00069939694 -0.00038891128
0000f0 27 31 a4 37 3a 0c 13 38 15 ce b4 b7 1b cc 30 b9
       1.9573212e-05 3.5058918e-05 -2.1553637e-05 -0.00016860703
000100 b5 c9 a9 b9 f3 87 5a 39 ab ac 68 ba 97 52 6f ba
       -0.00032384475 0.00020840745 -0.0008875827 -0.00091294333
000110 b5 7f cd b9 ba 8e 3d 3a 64 a6 8e 3a dd 53 83 3a
       -0.00039195796 0.0007231046 0.0010883329 0.00100195
000120 1d 2e c9 38 21 64 83 38 2f 99 88 38 a5 15 3e 38
       9.593016e-05 6.265217e-05 6.513518e-05 4.5319688e-05
000130 be 8e 00 b8 77 94 24 b9 f5 dd f3 39 e1 3b 20 3a
       -3.0650517e-05 -0.00015695566 0.00046513943 0.0006112438
000140 be 47 3c 3a 72 2b 4b 3a 38 7b 18 3a d6 1c 05 ba
       0.0007182321 0.00077503093 0.0005816701 -0.0005077844
000150 63 8e 55 39 3e fa 75 39 11 c4 9d 39 80 c2 d0 39
       0.00020366306 0.00023458243 0.00030091454 0.00039817765
000160 f2 a5 96 39 54 18 22 b9 87 21 1b 38 be 5c 97 38
       0.00028733868 -0.00015458587 3.6986105e-05 7.217516e-05
000170 6a f8 06 39 ef a7 af b9 1f 0c 73 38 47 53 9e b9
       0.00012871777 -0.0003350372 5.7947003e-05 -0.00030198155
000180 af 9d 1a ba fb 65 21 ba 37 d4 26 ba d8 1d da b9
       -0.00058981305 -0.0006156859 -0.000636402 -0.00041602436
000190 81 fb be 37 00 f3 27 37 02 b3 2e b9 a6 b9 35 b9
       2.276688e-05 1.00105535e-05 -0.00016660619 -0.00017330665
0001a0 2b 91 24 b9 28 25 a2 b9 e0 30 ea b9 11 70 08 39
       -0.00015694338 -0.0003092673 -0.00044668373 0.00013011719
0001b0 9c 71 bd 38 e9 9c 0a 39 2f 7b 6b 39 fd 1f 8a 39
       9.033384e-05 0.00013219159 0.00022457236 0.00026345244
0001c0 46 11 f4 38 a0 58 80 b7 03 fb a3 bb ef 16 b5 bb
       0.00011638044 -1.5300058e-05 -0.005004288 -0.0055264155
0001d0 45 4b 9c bb 7f 3e 1c bb 00 3d 3b 3a b8 d0 f6 3a
       -0.004769715 -0.0023840962 0.00071425736 0.0018830514
0001e0 08 e0 13 bb c7 ca 10 bb e8 e1 0f bb 13 68 35 ba
       -0.0022563953 -0.002209352 -0.002195472 -0.00069201103
0001f0 25 db ad 3a 6a e6 82 3a d9 d7 ff ba b5 c7 0b bb
       0.0013264163 0.0009986882 -0.0019519284 -0.0021328751
000200 33 75 1b bb be 7c 1d bb ee 07 23 39 e5 70 fc 3a
       -0.002372098 -0.002403065 0.00015547845 0.0019259719
000210 12 a6 b2 ba 4e ee 96 ba 4b c5 fb b9 1a 3e 99 3a
       -0.0013629815 -0.0011515112 -0.00048021445 0.0011691481
000220 39 8f 1b 3b 6a 0d 79 39 bb f0 e1 36 ec b9 d8 37
       0.002373649 0.00023751488 6.7335473e-06 2.5835783e-05
000230 b6 e4 39 38 1c 67 12 39 d0 b7 ce 38 62 85 b5 36
       4.432044e-05 0.00013962056 9.857083e-05 5.409748e-06
000240 1c 2e 47 3b 22 38 5d 3b d5 92 37 3b cb b0 aa 3a
       0.0030392474 0.0033755382 0.0028011103 0.0013022659
000250 ac a3 16 ba 34 1c a4 ba 97 69 59 bb 75 08 54 bb
       -0.0005746435 -0.0012520612 -0.0033174509 -0.0032353674
000260 e7 30 40 bb aa 16 c0 ba 41 4e ce 3a 8b eb d5 3a
       -0.0029326023 -0.0014655192 0.0015739874 0.0016320808
000270 86 ec 87 ba f3 6e bc ba 11 fe b8 ba c2 96 d0 ba
       -0.0010370172 -0.0014376327 -0.0014113804 -0.001591407
000280 b4 71 a8 ba 21 51 4a 3a 86 dd 72 ba 35 0f a6 ba
       -0.0012851269 0.00077177776 -0.0009264577 -0.0012669327
000290 f3 e1 cd ba 1d 9c ad ba 5f a0 fa b9 93 c3 44 3a
       -0.0015707597 -0.0013245378 -0.00047803202 0.00075059495
0002a0 dd 1c c0 b9 c5 4b e0 b9 bf 93 36 b9 2c eb 9b b9
       -0.000366426 -0.00042781062 -0.00017411912 -0.0002973912
0002b0 82 fd 4e b9 46 1b c3 b9 ff b6 55 3c d5 e3 42 3c
       -0.0001974013 -0.0003721362 0.013044118 0.01189514
0002c0 0e 9e 32 3c 45 b0 a4 3b c5 25 13 bb 0a 29 38 bb
       0.010901941 0.005025896 -0.0022452932 -0.0028100633
0002d0 09 58 0c 3a 6e f8 19 3a 3d c1 38 3a 0c 89 2d 3a
       0.00053536944 0.0005873506 0.0007047838 0.0006619848
0002e0 fc 33 03 b7 61 ff f9 38 fa 83 8b bb c4 e9 8f bb
       -7.820312e-06 0.00011920813 -0.004257676 -0.0043918807
0002f0 31 a2 80 bb 59 29 09 bb 45 a0 2d 3b 19 c2 51 3b
       -0.0039255847 -0.0020929186 0.0026493233 0.003200656
000300 39 38 e8 3a 5d 40 de 3a af 5e a5 3a 52 e9 af ba
       0.0017716951 0.0016956438 0.0012616719 -0.0013420975
000310 cd 73 70 bb 82 99 25 bb 90 7c a9 bb 5c b9 61 bb
       -0.0036690116 -0.00252685 -0.0051723197 -0.0034442758
000320 a9 b3 eb ba f7 f3 46 3b 0b 05 83 3b e0 df f7 3a
       -0.001798262 0.0030357817 0.003998404 0.0018911324
000330 7c 1d 0a ba 9a 31 09 ba 1a 7d 1b ba be 62 c3 b8
       -0.0005268676 -0.00052335265 -0.00059314223 -9.316717e-05
000340 59 d7 fd 39 e3 16 41 39 bd 7f 0c bc 59 bf 16 bc
       0.00048416367 0.0001841444 -0.008575377 -0.009200894
000350 1c 09 16 bc e9 15 ff bb d8 4d ba b9 c3 8e 86 3b
       -0.009157445 -0.0077845943 -0.00035534683 0.004106374
000360 0c 2c 17 3b 3b 6c 1d 3b b3 f0 00 3b f6 db 3d 3a
       0.0023067025 0.002402081 0.0019674718 0.00072425546
000370 79 f3 0c ba b7 a7 2f ba c7 5d 58 b7 55 8d 09 b7
       -0.00053768564 -0.00067007117 -1.28964375e-05 -8.198743e-06
000380 e5 2d 6c b9 df 9a a0 ba 0b 91 a0 ba ab d9 aa ba
       -0.00022523811 -0.0012253186 -0.0012250257 -0.0013034841
000390 77 2a 3c 3b d2 b7 4e 3b a7 f9 73 3b 1b d0 5d 3b
       0.0028711834 0.003154267 0.0037227662 0.0033845964
0003a0 bd e0 6b ba db 25 23 bb 9e 3f cf b7 ff b7 67 b6
       -0.0008998027 -0.002489439 -2.4705947e-05 -3.4528782e-06
0003b0 05 55 ae 37 49 67 03 b8 91 57 24 37 2f 4d fd b7
       2.0782007e-05 -3.1329026e-05 9.79555e-06 -3.0195892e-05
0003c0 4a 0b ee b7 15 e3 07 b8 64 38 96 b8 c4 05 d8 b8
       -2.8377068e-05 -3.2397995e-05 -7.163061e-05 -0.000103007565
0003d0 cb 3b ab b8 a3 f7 88 b7 e4 86 05 bb d6 a4 0c bb
       -8.165053e-05 -1.6327778e-05 -0.002037459 -0.0021460555
0003e0 27 fb 0f bb f0 0d f3 ba b4 6f ab b9 73 7e 44 38
       -0.0021969767 -0.0018543582 -0.00032698887 4.6847807e-05
0003f0 80 7e 26 38 a7 9c 74 39 c0 df b7 39 94 6a 29 3a
       3.9695296e-05 0.00023328011 0.00035071187 0.000646272

exp_avg_sq f4 [70, 6]
000000 4a 94 8d 38 bc d9 93 38 6b e5 9e 38 dc 99 48 38
       6.751025e-05 7.0500624e-05 7.5767595e-05 4.782701e-05
000010 0f 5b f3 37 fb 48 1e 38 c8 42 09 33 bd 21 6c 33
       2.901026e-05 3.7738104e-05 3.1958535e-08 5.4978717e-08
000020 47 70 0c 34 bc 44 f2 34 60 29 21 35 2c a4 64 35
       1.3079362e-07 4.5126023e-07 6.003738e-07 8.517552e-07
000030 2f 34 26 37 f7 2e 22 37 51 17 16 37 f1 bb ee 36
       9.906521e-06 9.666887e-06 8.9461255e-06 7.114832e-06
000040 60 1c 10 37 fe b9 37 37 5d 25 22 39 b3 55 23 39
       8.589675e-06 1.0950955e-05 0.00015463443 0.00015576817
000050 6c ca 1d 39 f3 62 dd 38 df 4d a4 38 f6 94 c5 38
       0.00015048095 0.00010556532 7.834634e-05 9.421438e-05
000060 58 e7 8e 37 ca ad 99 37 d1 d2 7c 37 fb 6c 51 37
       1.7035447e-05 1.8319948e-05 1.5069455e-05 1.2482745e-05
000070 67 a4 bd 37 73 a0 bf 37 d7 c3 85 36 c2 2f 99 36
       2.2607112e-05 2.284369e-05 3.9865076e-06 4.565315e-06
000080 55 66 a8 36 19 bb dc 36 cd 22 9b 36 c0 07 44 36
       5.018703e-06 6.578292e-06 4.6234113e-06 2.9210787e-06
000090 b7 27 8b 36 67 3c 80 36 b0 37 4e 36 2b 8f 68 35
       4.1471462e-06 3.821729e-06 3.0728806e-06 8.663507e-07
0000a0 f8 68 99 35 87 e9 06 36 a7 1d 88 38 a0 0c 83 38
       1.1429938e-06 2.0103487e-06 6.4905085e-05 6.248918e-05
0000b0 7d b6 66 38 24 f3 15 38 60 0f 2f 38 a1 67 14 38
       5.500623e-05 3.575081e-05 4.173757e-05 3.538246e-05
0000c0 24 3a 95 38 bf 38 97 38 46 e6 6c 38 a2 4f 0f 38
       7.115703e-05 7.210811e-05 5.6481244e-05 3.416802e-05
0000d0 53 f4 1e 38 ff a9 27 38 2c 01 a9 35 9a ad af 35
       3.789768e-05 3.9974224e-05 1.2591822e-06 1.3089041e-06
0000e0 ab 27 07 36 0b 02 85 36 3a 8d 43 36 48 06 91 36
       2.0139657e-06 3.9639467e-06 2.913947e-06 4.322068e-06
0000f0 cf 67 82 37 76 8a 54 37 7b d8 ed 36 24 9b e8 35
       1.5545547e-05 1.2668423e-05 7.088352e-06 1.7330499e-06
000100 96 c9 b9 36 4a 46 f1 36 0f 81 f6 37 70 a8 fb 37
       5.5368973e-06 7.1905424e-06 2.9385583e-05 2.9999967e-05
000110 58 2b 03 38 08 47 b8 37 da a6 ad 37 b0 c6 c6 37
       3.12732e-05 2.1967586e-05 2.0700903e-05 2.369596e-05
000120 c5 a7 43 38 da 3d 36 38 60 83 80 38 30 be 46 38
       4.664787e-05 4.3449785e-05 6.127986e-05 4.7384005e-05
000130 17 54 e9 37 d1 08 0f 37 fa 23 bd 36 6a 42 c7 36
       2.7814922e-05 8.525517e-06 5.636827e-06 5.9383938e-06
000140 f8 b9 eb 36 27 e4 b4 36 9e 13 4b 36 e2 cd 96 35
       7.0251954e-06 5.3909785e-06 3.0260776e-06 1.1235791e-06
000150 65 b9 33 36 da 3d 52 36 95 9c 27 37 32 c7 59 37
       2.6780992e-06 3.132844e-06 9.990433e-06 1.2980587e-05
000160 93 27 d1 36 4e ca 83 36 37 d7 d3 37 8c 11 e2 37
       6.2332924e-06 3.9276556e-06 2.5253377e-05 2.694947e-05
000170 d2 bf 0a 38 d4 13 e3 37 6e c8 60 37 70 68 b3 37
       3.308041e-05 2.7069742e-05 1.3398107e-05 2.1387095e-05
000180 e3 06 5f 36 ab a2 6d 36 77 c3 81 36 60 f7 16 36
       3.3233598e-06 3.5410437e-06 3.8672547e-06 2.2495733e-06
000190 97 54 aa 34 b0 db bf 35 22 5f 77 35 3c 95 7a 35
       3.1726515e-07 1.4294546e-06 9.2153107e-07 9.334942e-07
0001a0 58 f2 d1 35 d5 a7 56 36 d4 dc 01 36 93 b6 b8 35
       1.5642245e-06 3.1986176e-06 1.9351037e-06 1.3762204e-06
0001b0 09 bd d2 35 43 94 f0 35 53 ca 34 36 d6 72 78 36
       1.5701236e-06 1.7924543e-06 2.6939858e-06 3.7021723e-06
0001c0 5e 4a d4 35 29 38 8d 36 09 f3 2e 37 87 20 2e 37
       1.5816875e-06 4.2086654e-06 1.0427794e-05 1.0378782e-05
0001d0 8a d8 07 37 b3 ef 71 36 bd 95 8d 36 33 93 35 36
       8.097044e-06 3.6051322e-06 4.2195593e-06 2.7056783e-06
0001e0 b6 0c 30 38 99 a9 37 38 7c 02 b0 38 64 52 b3 38
       4.1973508e-05 4.378855e-05 8.392797e-05 8.5507316e-05
0001f0 c3 93 74 38 48 23 2d 38 e7 e5 6c 38 5a 7c 73 38
       5.8311747e-05 4.1279272e-05 5.6480898e-05 5.8051526e-05
000200 79 a8 96 38 a6 b2 60 38 ab ea ce 37 d1 49 da 37
       7.183938e-05 5.357214e-05 2.466639e-05 2.6021999e-05
000210 37 7f 9e 37 03 fe 96 37 07 36 4e 37 3f 44 34 37
       1.8894307e-05 1.7999677e-05 1.2291136e-05 1.0744726e-05
000220 99 70 64 37 f8 b3 0b 37 98 34 3f 36 f0 50 4a 36
       1.3616075e-05 8.326948e-06 2.8491831e-06 3.0147457e-06
000230 d1 1a 35 36 2a 01 d7 35 ac 00 12 35 ec e3 97 31
       2.698671e-06 1.6019087e-06 5.4390216e-07 4.42059e-09
000240 09 96 b6 37 41 5f af 37 84 0a 76 37 c8 bb 36 36
       2.1765956e-05 2.0905982e-05 1.4665191e-05 2.7229416e-06
000250 19 b2 7f 36 0f 3e 69 36 1f 61 a9 37 da 15 a0 37
       3.8101628e-06 3.4755828e-06 2.0191595e-05 1.9083662e-05
000260 fb 02 68 37 c9 1a 15 37 f8 db 74 37 6a c7 63 37
       1.38289715e-05 8.8873285e-06 1.4594749e-05 1.3576684e-05
000270 a9 30 9c 36 6d ed b1 36 ed d0 c3 36 db 67 07 37
       4.654827e-06 5.302651e-06 5.835775e-06 8.070808e-06
000280 92 36 a6 36 aa 08 a6 36 ab fa c4 37 43 76 dd 37
       4.9535383e-06 4.948194e-06 2.3481747e-05 2.6400323e-05
000290 75 05 28 38 59 fb 2a 38 08 ed 0f 38 43 0b cf 37
       4.0059404e-05 4.0765244e-05 3.431461e-05 2.4681567e-05
0002a0 c0 10 c2 37 3f 9f bc 37 0a 83 c9 37 31 44 99 37
       2.3134402e-05 2.2485501e-05 2.4022087e-05 1.8270775e-05
0002b0 56 3d a4 37 24 d7 94 37 c5 9e 54 39 c1 ec 58 39
       1.9578885e-05 1.7743158e-05 0.00020277042 0.00020687563
0002c0 98 3f 69 39 eb 04 43 39 21 a6 19 39 5a cf 17 39
       0.00022244302 0.00018598481 0.00014653105 0.00014477727
0002d0 3c 0c 71 37 22 ff 75 37 36 64 68 37 c7 6c c1 36
       1.4367568e-05 1.4662541e-05 1.385161e-05 5.7645116e-06
0002e0 c9 41 8c 36 67 c8 cf 36 21 5a 9e 37 0c 41 92 37
       4.1799835e-06 6.1924106e-06 1.8877037e-05 1.7434846e-05
0002f0 1f 8b 70 37 f6 16 f9 36 9a 3d 39 37 b0 a3 cd 36
       1.4337506e-05 7.4234513e-06 1.1041202e-05 6.128532e-06
000300 7c 6d 81 38 26 74 91 38 b6 9f a8 38 2e 91 9c 38
       6.1715924e-05 6.935773e-05 8.040613e-05 7.4657015e-05
000310 89 86 33 38 79 61 96 38 b1 2d 29 39 7a c1 2f 39
       4.280222e-05 7.170713e-05 0.00016134117 0.00016761376
000320 ed 07 12 39 b9 f0 e3 38 60 a4 21 39 71 42 1c 39
       0.00013926598 0.000108690416 0.00015415391 0.0001490207
000330 e0 43 9a 37 1b bb 99 37 e1 84 5b 37 cf 5f aa 36
       1.8389837e-05 1.8326149e-05 1.30843555e-05 5.0775484e-06
000340 57 6c c1 36 7b 8e 8f 36 96 ab 28 39 bf 26 33 39
       5.7644606e-06 4.278319e-06 0.00016085649 0.00017085204
000350 85 1b 21 39 a2 d3 ef 38 e5 67 2b 39 c5 e2 30 39
       0.00015364408 0.00011435828 0.00016346535 0.00016869146
000360 0d 46 42 37 74 89 49 37 e2 a2 48 37 f6 3e d8 36
       1.1579611e-05 1.2012537e-05 1.1958853e-05 6.4446313e-06
000370 75 42 8b 35 8f 31 ea 36 ce cc c3 37 26 f9 d5 37
       1.0375649e-06 6.979513e-06 2.3341181e-05 2.5507597e-05
000380 36 1d c0 37 78 71 ff 37 0c 59 cc 37 f1 6b cf 37
       2.2901786e-05 3.0451207e-05 2.436016e-05 2.4726587e-05
000390 d8 c0 ce 37 27 7e d6 37 7a 95 d0 37 56 41 76 37
       2.4646914e-05 2.5569532e-05 2.4865138e-05 1.4677955e-05
0003a0 28 bd 22 37 5c 7e 9a 36 40 f2 8e 37 85 cc 86 37
       9.699994e-06 4.604268e-06 1.7040526e-05 1.6069282e-05
0003b0 8b e2 c3 37 63 d0 9c 37 03 dc 2d 37 e4 02 46 36
       2.3351304e-05 1.8693687e-05 1.0362829e-05 2.9505982e-06
0003c0 9a b7 6e 35 39 2a 83 35 ea 9f a5 35 4a 2f 27 36
       8.8929085e-07 9.772549e-07 1.2339999e-06 2.4912465e-06
0003d0 90 6f c8 35 5b 65 bf 35 0b e4 da 37 8c 71 df 37
       1.493363e-06 1.4260107e-06 2.6093816e-05 2.6636546e-05
0003e0 e7 8e db 37 a4 a0 b1 37 58 91 c2 37 55 48 ef 37
       2.6173379e-05 2.1174848e-05 2.3194283e-05 2.8524702e-05
0003f0 6b b1 a1 37 eb d6 b0 37 94 05 8c 37 b4 30 6d 37
       1.9275312e-05 2.1080914e-05 1.6691898e-05 1.413764e-05

exp_avg f4 [70]
000000 e8 fb 07 ba 74 8e 27 b8 4b d2 19 39 15 42 84 3b
       -0.0005187378 -3.9948573e-05 0.00014669557 0.004036198
000010 ed 62 f0 39 64 6c f6 3a c2 c4 a8 3a 7a cb ae 3a
       0.00045850073 0.0018800613 0.0012876021 0.0013335787
000020 b7 cc e5 bb 29 cc 12 ba fd 28 de b9 1a 41 b2 ba
       -0.0070129293 -0.000559988 -0.00042373678 -0.0013599724
000030 4c 83 3a b9 a8 7c 9c ba 04 c9 67 b9 0c 28 f4 b9
       -0.00017787254 -0.0011939006 -0.00022104761 -0.00046569144
000040 3e cc df 38 9e 4f 52 b9 ff 10 78 39 e6 6a 84 bb
       0.00010671512 -0.0002005682 0.00023657455 -0.0040410636
000050 dd 19 a9 39 13 8f 47 3a 48 fe 91 bb c3 3e 4b b9
       0.00032253462 0.0007612567 -0.0044553615 -0.00019382969
000060 09 44 21 3b c4 b4 1a b9 4c 80 a7 3a 84 5b 1f b9
       0.0024607203 -0.00014753925 0.0012779324 -0.00015197514
000070 06 da c4 ba b2 2a a0 3b 24 f8 6f b8 c5 08 e8 39
       -0.0015018589 0.004887902 -5.721314e-05 0.00044257022
000080 ff 20 1c bb 5d f1 ce ba 79 e5 10 ba 22 72 3b 3b
       -0.0023823378 -0.0015788485 -0.0005527358 0.0028601964
000090 3a aa 00 3b 85 7a 49 ba bf 07 01 bb c3 83 77 b8
       0.0019632713 -0.00076857983 -0.0019688455 -5.90121e-05
0000a0 58 a2 8a b7 76 63 4f b9 75 fe f7 b9 53 43 ad 3a
       -1.652648e-05 -0.0001977811 -0.00047301096 0.0013218917
0000b0 6f 8b dd b7 02 a1 b7 3a 3e 8f 43 b7 fc 61 62 3a
       -2.6410182e-05 0.0014009776 -1.1656257e-05 0.00086358166
0000c0 cb 91 f8 ba b4 2b 6d b9 1d fd b0 ba 7f 87 11 bb
       -0.0018964348 -0.00022618362 -0.0013503168 -0.0022206006
0000d0 ad c8 85 3a 1b a3 20 3b d4 07 ce 3b 1a 49 8d ba
       0.0010206901 0.002451128 0.0062875543 -0.0010779232
0000e0 bd fb a5 3c 22 32 d4 b9 f4 b4 0b 39 61 4a 0d ba
       0.02026164 -0.00040473143 0.00013323483 -0.00053898065
0000f0 98 da 89 3a ba f5 51 3b 1a 5a 62 3b c6 ff 03 3a
       0.0010517417 0.0032037334 0.0034538568 0.00050353666
000100 17 42 c9 b9 24 7d ae ba e7 75 37 3a 31 df ac b9
       -0.00038386948 -0.0013312441 0.0006998465 -0.00032972687
000110 89 49 61 39 b1 7e c1 3a
       0.00021485066 0.0014762488

exp_avg_sq f4 [70]
000000 8f e2 e6 37 af fd 8f 35 6e 1e 44 37 03 39 ba 38
       2.7523636e-05 1.0728162e-06 1.1689595e-05 8.8797904e-05
000010 93 44 1c 37 84 64 8e 36 c4 cc 4a 36 09 5e 86 38
       9.314291e-06 4.2436313e-06 3.0219535e-06 6.407133e-05
000020 b9 01 32 38 8a 67 6a 36 49 f0 e4 36 be 9a 60 37
       4.244011e-05 3.4928985e-06 6.8229024e-06 1.3387469e-05
000030 45 d2 98 37 ec 06 f6 36 51 26 e3 36 b9 04 98 37
       1.8217726e-05 7.332177e-06 6.769588e-06 1.8122011e-05
000040 0d f7 33 36 9b d7 66 36 78 ed 9e 36 b3 a4 22 37
       2.681688e-06 3.439817e-06 4.736412e-06 9.6942995e-06
000050 ce 97 22 38 5d c7 37 38 61 05 7a 37 1a ee c1 35
       3.876519e-05 4.381627e-05 1.4902414e-05 1.4448917e-06
000060 98 4b 20 37 a6 91 c9 36 5f 11 98 36 7f 13 e2 37
       9.554344e-06 6.0072225e-06 4.5319753e-06 2.6950378e-05
000070 5f 67 c9 37 98 db dd 38 74 a2 1e 37 62 d6 20 37
       2.4009203e-05 0.00010579004 9.455358e-06 9.586658e-06
000080 59 df 85 38 bb 23 e6 38 d2 56 27 37 95 c1 d8 38
       6.383536e-05 0.0001097391 9.97419e-06 0.0001033574
000090 92 14 50 37 e7 1f 5f 37 2f 43 ab 37 f1 12 2d 37
       1.24025555e-05 1.3299264e-05 2.0416073e-05 1.0316014e-05
0000a0 46 ea e1 35 09 fe d0 37 40 6f 28 37 26 6b 94 37
       1.6831989e-06 2.4913827e-05 1.0039483e-05 1.769287e-05
0000b0 f8 2a c5 36 6e 41 41 37 07 bd 0b 37 ab 9d 2c 38
       5.8760597e-06 1.15189305e-05 8.329057e-06 4.1154835e-05
0000c0 09 81 3c 38 b5 b9 2e 37 43 09 0d 38 d4 d7 1a 38
       4.4942866e-05 1.04144465e-05 3.3625645e-05 3.6917467e-05
0000d0 4f 83 b6 37 0a 28 2b 38 ef 5d 0b 38 39 82 f4 37
       2.1757236e-05 4.0806866e-05 3.3227665e-05 2.9147706e-05
0000e0 3c de f9 38 77 0a 7f 37 77 ad aa 37 93 66 b6 36
       0.000119146396 1.5201621e-05 2.0346355e-05 5.435964e-06
0000f0 18 29 c6 37 fa d5 e5 37 f4 00 5d 38 25 71 7a 37
       2.3622575e-05 2.7398568e-05 5.2691394e-05 1.4927505e-05
000100 ad 2d 12 37 93 aa 9a 37 f1 9d f8 36 4c 42 ad 36
       8.712913e-06 1.843766e-05 7.4093628e-06 5.1635197e-06
000110 31 52 72 38 61 1c fe 37
       5.7773843e-05 3.0292375e-05

exp_avg f4 [50, 70]
000000 46 e3 cb b8 3b 6b 66 b9 10 01 fe b8 a7 ed f0 b8
       -9.722127e-05 -0.00021974456 -0.00012111862 -0.00011488358
000010 96 32 42 38 59 6f 7c 39 e6 59 84 38 4d d8 92 37
       4.6300316e-05 0.00024074073 6.3109954e-05 1.750528e-05
000020 fe cd aa 38 b5 f9 6a b9 77 ca 32 38 80 31 75 39
       8.144601e-05 -0.00022409002 4.2627067e-05 0.00023383461
000030 55 ac 83 36 9a c6 63 b8 ff 4e 6c b9 34 ed f8 38
       3.9241663e-06 -5.430598e-05 -0.00022536142 0.00011869744
000040 ba 26 e9 b8 de 2a 5e 39 4e 50 50 39 36 76 1e 39
       -0.00011117519 0.00021187539 0.00019866342 0.00015112091
000050 75 b2 82 b8 15 bd 0e 39 0e b0 99 38 bd b2 59 38
       -6.232123e-05 0.00013612614 7.328401e-05 5.1903295e-05
000060 87 e5 f9 b6 0a 3a 3c b6 a7 7a 06 39 25 c8 dc b5
       -7.447499e-06 -2.8047966e-06 0.00012824927 -1.6449527e-06
000070 1c 0e e7 35 ca f2 5a b8 3e 10 ac 38 1a d8 78 37
       1.7214948e-06 -5.2201365e-05 8.2046245e-05 1.4832267e-05
000080 a0 32 40 39 da c1 c2 b8 b1 ba a0 b7 e7 e0 fe 38
       0.00018329406 -9.2867485e-05 -1.9160421e-05 0.00012153555
000090 28 80 30 b9 a4 b2 0c b9 d5 2b 16 b7 d0 59 39 39
       -0.0001683241 -0.00013417989 -8.950902e-06 0.00017676433
0000a0 48 2e 86 39 db f3 e5 37 47 e9 c9 b8 57 76 10 38
       0.00025592954 2.7412481e-05 -9.627878e-05 3.4442488e-05
0000b0 41 ff 28 b9 60 00 39 b9 1c fd dd b6 fc 7b da 37
       -0.00016116818 -0.00017643115 -6.615779e-06 2.604536e-05
0000c0 e7 b0 1e 39 7e 3e ad 37 08 ec f3 38 a5 af 57 b9
       0.00015133955 2.0652307e-05 0.00011631107 -0.0002056943
0000d0 31 59 38 b8 c9 62 8e b7 a9 82 d4 38 dd 80 bd 38
       -4.3952085e-05 -1.697372e-05 0.00010133285 9.036225e-05
0000e0 aa f2 98 b8 2f e7 0a 39 bd f5 8f b8 f5 fd 25 b9
       -7.2931245e-05 0.00013246828 -6.864544e-05 -0.00015830233
0000f0 0d 97 ca 38 cd 37 15 39 4c 4a 0c b9 1f 02 aa b5
       9.660246e-05 0.00014230535 -0.00013379118 -1.2666604e-06
000100 23 c8 71 b8 57 2e d6 b8 49 ea 2f 38 31 d0 20 38
       -5.764527e-05 -0.00010212947 4.1941446e-05 3.8340866e-05
000110 05 3e c2 38 f5 ea c5 38 89 95 a3 37 53 7e 03 b7
       9.262193e-05 9.437456e-05 1.9500747e-05 -7.837621e-06
000120 63 a3 1b 39 50 1f 15 b8 66 10 4c 37 5e e9 18 b8
       0.00014842818 -3.555353e-05 1.2163166e-05 -3.6456964e-05
000130 0f d5 71 38 97 a3 28 38 92 8c 86 38 60 d3 ff 38
       5.7657304e-05 4.0206676e-05 6.415801e-05 0.00012198719
000140 ba 73 89 b7 86 50 8a b8 2c a0 07 b9 9f 7f 09 39
       -1.6385562e-05 -6.5953514e-05 -0.00012934272 0.0001311288
000150 a6 45 aa 37 1d ca e7 b7 cb a8 53 39 67 b9 f9 b7
       2.0298012e-05 -2.7631462e-05 0.00020185408 -2.9769448e-05
000160 d8 8f fd b7 8a 27 9f 37 c7 42 d6 37 2c eb ac b7
       -3.0226933e-05 1.8972689e-05 2.5541884e-05 -2.0613508e-05
000170 a4 cd 06 37 cd 46 c5 b8 fc a7 0e 39 d1 63 cc b8
       8.034902e-06 -9.40688e-05 0.00013604754 -9.74607e-05
000180 ba ec 41 b8 13 e6 26 b7 63 7c 3f 39 a8 82 88 b8
       -4.6235255e-05 -9.947939e-06 0.00018261517 -6.509322e-05
000190 e6 35 08 b9 32 0f 1e b7 a6 e0 d6 b8 a3 f0 72 b7
       -0.0001299005 -9.421072e-06 -0.00010246159 -1.4480352e-05
0001a0 d3 2d 04 38 92 5d 10 b8 d1 77 87 38 50 68 e3 37
       3.151393e-05 -3.441942e-05 6.459619e-05 2.7109083e-05
0001b0 05 e6 1c 39 0a c8 11 b8 f6 a2 10 b9 9a 80 e5 b8
       0.00014963008 -3.4756995e-05 -0.00013793618 -0.00010943525
0001c0 44 6f 47 38 10 75 5c b8 2d d7 22 37 c5 70 de 36
       4.754892e-05 -5.256111e-05 9.706052e-06 6.6292437e-06
0001d0 ca d4 d8 38 af 02 3e b8 14 f4 a8 b7 b6 19 fa 38
       0.00010339318 -4.530203e-05 -2.0140818e-05 0.00011925718
0001e0 29 77 99 38 f4 88 d5 37 73 b0 6b b8 1f e3 b2 38
       7.317804e-05 2.5455352e-05 -5.6192697e-05 8.530006e-05
0001f0 53 bc 87 b8 98 b1 45 b8 ca e6 d7 b7 5f 1b 0d b8
       -6.47238e-05 -4.7133857e-05 -2.5737467e-05 -3.364251e-05
000200 e1 55 92 b7 51 60 af 37 00 92 98 b7 cb 11 ce b8
       -1.7444547e-05 2.0906476e-05 -1.8187799e-05 -9.82616e-05
000210 43 b0 25 38 47 e2 a9 37 30 f8 0c 38 7e 8d cf 37
       3.9503222e-05 2.0251739e-05 3.3609744e-05 2.474221e-05
000220 26 08 61 35 81 29 c8 b8 cb ab 7e b7 57 3c 1b b7
       8.383089e-07 -9.544474e-05 -1.5179578e-05 -9.252769e-06
000230 f6 79 0d 39 19 c9 24 38 86 11 80 b7 d3 e7 67 37
       0.00013492242 3.9287934e-05 -1.5266949e-05 1.3822649e-05
000240 27 e2 29 b9 67 5e 95 b6 4b 41 0f 39 b6 0e b4 b8
       -0.00016201344 -4.451536e-06 0.00013661866 -8.585809e-05
000250 80 1a eb b8 6d 82 c2 b8 09 8a 6e 38 07 aa 03 38
       -0.00011210609 -9.2749346e-05 5.6872177e-05 3.1391184e-05
000260 ea da 81 37 9d f6 1b 38 49 98 2f b8 58 fd 00 38
       1.5479938e-05 3.7184556e-05 -4.1865078e-05 3.0753523e-05
000270 76 a4 fa 38 db 3f bc b8 28 d2 b8 b8 36 0c 8c 36
       0.00011951562 -8.9764326e-05 -8.812948e-05 4.1737467e-06
000280 47 c0 f2 38 e0 e1 ae 38 37 4e c0 b6 11 d0 25 b8
       0.00011575274 8.339039e-05 -5.7311513e-06 -3.9532842e-05
000290 74 fb 2a b7 87 5f ce 38 d7 72 01 36 6b 2f 3e 39
       -1.0191336e-05 9.840639e-05 1.9289344e-06 0.00018137477
0002a0 51 2c 00 b9 da b1 82 b8 27 f3 36 39 0f bf 2e b9
       -0.0001222354 -6.2320105e-05 0.00017447454 -0.00016665108
0002b0 9d d7 53 39 e7 3d 2b b9 cd 79 0c 38 05 9e c1 38
       0.0002020285 -0.00016330891 3.3492037e-05 9.2323906e-05
0002c0 b5 2e 12 b8 f7 af 15 39 f3 2f b9 b6 90 3b c6 38
       -3.4852612e-05 0.000142753 -5.5190117e-06 9.45247e-05
0002d0 96 c5 ed 36 18 b0 0d 39 11 db 43 39 54 da 7f b8
       7.0861524e-06 0.00013512408 0.00018678258 -6.100007e-05
0002e0 48 32 bc 38 c8 a9 22 37 2b 1a 82 b8 fe 12 2d b9
       8.973904e-05 9.695483e-06 -6.203757e-05 -0.00016505641
0002f0 81 26 df b7 93 bc 94 37 02 0e 3b b8 ef b3 3a 38
       -2.6601601e-05 1.7730787e-05 -4.459732e-05 4.4513432e-05
000300 74 8e 46 39 2a dc e1 b7 e4 fa 8d b8 61 8c 3e b9
       0.0001893582 -2.6924612e-05 -6.770136e-05 -0.00018172107
000310 28 0d 13 38 6b 43 f8 b8 81 5e 31 b9 9e 8e 32 b8
       3.5059784e-05 -0.00011838119 -0.00016915241 -4.257133e-05
000320 be ba 01 b9 95 0d 0d b7 97 fb f7 b6 3f f4 73 b8
       -0.00012371966 -8.407417e-06 -7.3904625e-06 -5.8163187e-05
000330 b6 ce 04 38 3e 11 a3 38 e6 b9 96 39 fc 7c 7a 37
       3.1663767e-05 7.775657e-05 0.00028748735 1.4930261e-05
000340 ee a4 ef b8 67 3f b1 38 d5 da c2 ba 1a b9 ba ba
       -0.000114271286 8.451827e-05 -0.0014866242 -0.0014245838
000350 8f 6e 7a 38 66 bb 97 ba d1 15 c1 3a eb 02 c5 3a
       5.970761e-05 -0.0011576235 0.0014731233 0.0015030777
000360 dd b4 55 37 c2 09 17 38 7d 5a aa ba d8 62 c1 ba
       1.27379e-05 3.6010293e-05 -0.0012996938 -0.0014754189
000370 27 09 b2 ba 8c a7 28 38 bc 76 b0 3a 6e 65 af ba
       -0.001358305 4.021036e-05 0.001346312 -0.0013381669
000380 ff 34 b7 ba db 2c b9 3a 81 70 b3 ba f9 95 b7 3a
       -0.0013977586 0.0014127748 -0.0013690145 0.0014006487
000390 52 32 b6 3a 69 2e af 3a d6 18 bb ba e3 eb b4 3a
       0.0013900495 0.0013365272 -0.001427437 0.001380321
0003a0 b3 bb fb b9 89 58 b6 3a 43 57 af ba e9 db b0 3a
       -0.00048014297 0.0013911884 -0.0013377446 0.0013493273
0003b0 c5 70 86 38 36 e4 c8 3a 5c bb 98 ba 8d ee 9f ba
       6.410623e-05 0.0015326801 -0.0011652517 -0.0012201831
0003c0 e4 ca ad 3a 43 67 aa ba 15 02 be 3a fc ad 37 3a
       0.0013259319 -0.0013000745 0.001449647 0.00070068217
0003d0 77 97 af 3a 0c d6 b4 3a 69 99 ad 38 71 15 bc ba
       0.001339658 0.0013796701 8.277858e-05 -0.0014349652
0003e0 55 6b b0 ba 3d ca b5 3a 42 af bb 3a 25 64 be 3a
       -0.0013459722 0.0013869476 0.0014319199 0.0014525695
0003f0 9e 86 c8 35 47 e4 bc 3a 0e 7a b9 ba 9e 02 c9 ba
       1.494034e-06 0.0014411294 -0.0014150755 -0.0015335863
