models/training_new_loss_pico_soustraction/model_1/space_buffer_8_date_buffer_1/train_pfts_2/MLP.pth (torch, 56798 bytes, 18 tensors)

layers.0.weight f4 [70, 6]
000000 3d 9b be 3d 77 c8 1f c0 b0 f4 19 40 76 fd f4 be
       0.09306953 -2.4966104 2.4055595 -0.47849625
000010 ac 21 a9 3e 24 1c 31 bf 14 32 3f 40 89 27 61 c0
       0.33033502 -0.69183564 2.9874315 -3.518038
000020 63 ca bf be 69 8c 78 3f b9 f7 91 be a8 13 fd be
       -0.37459096 0.9708925 -0.2850931 -0.4942906
000030 3d 96 a2 bf ee ea 06 40 1d e1 e2 be cb 9a 27 be
       -1.2702099 2.108089 -0.44312373 -0.16367643
000040 46 c5 90 3f b6 70 14 c0 59 ec 1e c0 c7 36 f2 3f
       1.1310203 -2.3193793 -2.4831755 1.8922967
000050 21 64 a4 be 18 c3 e8 3e a5 bf 70 3d 3c a2 66 bf
       -0.32107642 0.45461345 0.058776516 -0.900913
000060 94 1a 45 3f 97 8c 06 40 8f 87 7e 40 2d 39 ea c0
       0.7699368 2.102331 3.9770238 -7.3194795
000070 f0 d0 4b 40 3d 5e 8e 3f c7 60 bd bf fd cd 19 40
       3.1846275 1.1122509 -1.4795159 2.4031975
000080 47 b4 72 bf cc 6e 4e be c9 22 33 3e 5f 1a 21 3e
       -0.9480633 -0.20159453 0.17493738 0.15732716
000090 89 07 8e 3f 55 33 1d c0 27 c1 b4 3f 6a 3f dc be
       1.109605 -2.456258 1.4121445 -0.4301713
0000a0 b1 5a 60 be 21 02 92 be a7 19 b4 be 6d 52 26 c0
       -0.21909596 -0.2851725 -0.3517582 -2.5987809
0000b0 b1 0a a6 40 3d f0 89 bf e9 70 6c be 5a d1 92 3e
       5.188805 -1.077644 -0.23089947 0.28675348
0000c0 d3 cd c3 3f c8 bb 3e c0 fc 28 88 3f 57 9e c9 3e
       1.5297188 -2.9802113 1.0637507 0.39378616
0000d0 30 61 ad be 45 8d bd be 8a 2e 2a bf 0e eb 10 c0
       -0.3386321 -0.37021843 -0.6647726 -2.2643466
0000e0 48 ce 83 3f 94 78 b4 3f 1f d8 94 c0 d1 78 01 40
       1.0297327 1.4099298 -4.651382 2.022999
0000f0 4d 3f e1 bf 17 e2 81 c0 67 29 d8 3f 61 eb c0 40
       -1.7597443 -4.058849 1.6887635 6.028733
000100 42 6f 8b bb 28 4c d7 40 52 f3 15 c0 76 13 be be
       -0.0042552063 6.7280464 -2.342976 -0.37124223
000110 e3 34 42 bf d2 17 2f 40 69 4a 0f bf 5f d1 60 3f
       -0.7586195 2.7358289 -0.55972916 0.87819475
000120 c6 2a 19 c0 c6 dd 3b 40 be 96 9d bf eb d6 34 3f
       -2.3932357 2.935411 -1.2311628 0.7064044
000130 ed d3 2b bf 51 8c 73 3e 4c d7 06 40 3c 14 62 40
       -0.6712025 0.23783995 2.1068907 3.532485
000140 e5 e2 82 3f b7 06 93 bf 18 bf aa bd 62 72 36 3f
       1.0225493 -1.1486424 -0.083372295 0.71268284
000150 e7 54 12 40 95 33 ef bd 89 2d 88 c0 dd 24 87 40
       2.286432 -0.1167976 -4.2555585 4.22325
000160 82 af 8b bf bb 5f 22 3c e0 ac 4c 40 7a 65 0a c0
       -1.0912936 0.009910519 3.1980515 -2.1624436
000170 99 94 cb be 83 1d 8a be 7f c5 ed be 84 67 63 3f
       -0.3976181 -0.2697564 -0.4643974 0.8882983
000180 37 02 9b 3f 06 ae 37 c0 38 53 ab 3f 48 7f 3d 3d
       1.2110051 -2.8699965 1.3384771 0.046263963
000190 d2 70 f0 be ea 1c 9a 3f 3e c2 56 3d eb 71 cb 3e
       -0.46961075 1.2040074 0.052431338 0.3973535
0001a0 51 0c 42 bf 89 a2 47 3f 9b 80 a2 be 31 0d d9 3d
       -0.75800043 0.77982384 -0.31738743 0.10598219
0001b0 f1 10 b3 3f 2b 3b 52 bf 93 b0 a4 3f c9 8f 04 40
       1.3989545 -0.82121533 1.2866386 2.071276
0001c0 99 02 62 c0 66 a9 8c bf cc e1 03 40 ce 37 2b c0
       -3.5314085 -1.0989196 2.0606565 -2.675281
0001d0 46 7f 80 be 79 72 29 3f 1b 38 6e bd b2 31 ef be
       -0.25097102 0.66190296 -0.058158975 -0.46717602
0001e0 b1 86 ff bf 55 75 79 c0 1d 6c 1e 40 72 1d 48 40
       -1.996298 -3.8977864 2.4753487 3.1267972
0001f0 90 40 46 c0 e4 bd e3 bf c1 c3 35 3f 0d 4c 71 3f
       -3.0976906 -1.7792325 0.7100182 0.9425667
000200 71 35 f7 3f d2 84 13 40 73 40 c6 40 7f d3 8f c0
       1.9313184 2.3049817 6.1953673 -4.4945674
000210 00 97 54 bf 46 1c 52 40 7c dd 69 c0 e0 66 ce 3e
       -0.8304291 3.2829757 -3.6541433 0.40312862
000220 c4 8e 47 3f 6a 75 10 be c7 49 ff be f2 5f 0d 3f
       0.7795222 -0.1410729 -0.49860975 0.55224526
000230 81 3b 61 40 b7 27 68 bf 92 4b 91 40 6e ec 57 c0
       3.5192568 -0.906856 4.540475 -3.3738055
000240 7e b9 39 40 9a 0b 09 c0 0b 2d aa be ba 86 c4 be
       2.9019465 -2.141333 -0.3323749 -0.38384038
000250 46 bf 52 3f 19 58 99 be 99 ca 71 40 90 d6 9e bf
       0.8232311 -0.29950026 3.7779906 -1.2409229
000260 62 56 ba bf c1 d1 1c c0 6a 1e 47 3f 27 18 fa 3e
       -1.4557612 -2.4503024 0.77780783 0.48846552
000270 99 dd 97 3f eb 84 10 40 90 d4 91 c0 03 e9 2d 40
       1.1864501 2.2581127 -4.5571976 2.717347
000280 5a d2 6f bf 03 76 ba 3d 4d 07 02 c0 c4 d1 2c 40
       -0.93680346 0.0910454 -2.0316956 2.700303
000290 81 81 90 3d cb 99 49 be a4 2c 1b 3f 69 8e 72 bf
       0.07055951 -0.19687574 0.6061499 -0.9474855
0002a0 b3 bf 6d bf 67 53 b8 be 52 d0 1c 3f 60 55 17 3f
       -0.92870635 -0.3600113 0.6125537 0.59114647
0002b0 53 3e 06 3e dc d7 10 bf d7 7e 0a bd 62 e4 2e 40
       0.13109712 -0.56579375 -0.03381237 2.7326894
0002c0 7a 4a a4 c0 d9 c3 2d 40 7d c2 05 bf 0e d9 8e bf
       -5.1340914 2.7150786 -0.5224989 -1.115999
0002d0 28 a0 4f c0 3c 9e d7 3f 1d fe f7 3f 33 02 66 bf
       -3.2441502 1.6845164 1.9374424 -0.89847106
0002e0 dc 54 3c be ce c9 f9 3d 16 01 d5 3f 20 f9 78 3f
       -0.18391746 0.12196694 1.6640956 0.97255135
0002f0 77 14 21 c0 57 92 eb 3e 8b ea dc 3d f9 ab b0 3e
       -2.516874 0.46010086 0.10786923 0.34506205
000300 7d c6 79 3f 21 17 56 c0 ae 0c cd 3f e9 93 cc be
       0.97568494 -3.3451617 1.6019495 -0.39956596
000310 29 c6 22 3f 73 03 13 3e 90 bb 42 c0 b7 0a a4 be
       0.6358362 0.14356785 -3.042698 -0.32039425
000320 84 ff 10 40 0b 33 11 3e 41 c4 1f c0 52 4a 5f 3e
       2.2655954 0.14179628 -2.4963534 0.21805695
000330 9c 34 98 3a d6 34 92 c0 94 9a 79 40 83 24 af be
       0.0011612359 -4.5689497 3.9000597 -0.34207544
000340 de 07 d4 bf f8 63 ef 3e 1d 7b 73 3f 67 3b 02 40
       -1.6564901 0.46755958 0.9510973 2.0348756
000350 c5 26 78 c0 79 a6 05 40 ca 66 c1 bf a5 27 16 40
       -3.8773663 2.0882857 -1.5109494 2.3461697
000360 17 e6 9e 3f ae 7c 94 3f 84 5f be c0 20 36 54 40
       1.2413968 1.1600549 -5.9491596 3.3158035
000370 b0 50 90 be 80 3b 2c c0 9f c1 2d 3f aa 65 80 3f
       -0.2818656 -2.6911316 0.6787357 1.0031025
000380 e3 f7 ff bf 78 8f b0 bf 8d 42 04 40 bd 46 b2 bf
       -1.9997524 -1.3793783 2.066562 -1.3927838
000390 a0 f2 d0 3f 33 6a c9 bf 8d 05 7d bf 75 cd 15 3e
       1.6324043 -1.5735534 -0.98836595 0.14629157
0003a0 58 2e 6c 3e de da 4f 3e 51 bd 1f 3f 58 bd f5 3f
       0.23064554 0.20298335 0.6239825 1.9198408
0003b0 41 8a 50 c0 7b 24 a3 3f 69 d3 8a be 18 38 03 3f
       -3.2584383 1.2745508 -0.27114418 0.5125747
0003c0 dc b2 0d bf 59 8b 7d 40 67 e2 98 be 59 36 80 c0
       -0.5535104 3.96163 -0.2986023 -4.006634
0003d0 88 ed 81 40 64 f3 b0 bd 86 13 37 c0 62 38 bc bf
       4.0602455 -0.08640173 -2.8605666 -1.4704707
0003e0 f0 48 2b bf b6 c1 7e 40 7b 86 c6 3f 3a 91 d1 c0
       -0.6690817 3.9805732 1.550979 -6.548978
0003f0 69 4a c9 be 15 e2 32 c0 0f a5 4b 40 81 43 69 be
       -0.39314583 -2.795049 3.1819494 -0.22779657

layers.0.bias f4 [70]
000000 06 83 75 3c 64 96 cf bd 08 3b 4d 40 69 f7 32 3f
       0.014984852 -0.101361066 3.206728 0.6990877
000010 ad 11 9c 3f 5d 22 71 3d 3d 9f db 3d 6b 9a 75 3f
       1.2192894 0.058870662 0.10723732 0.9593875
000020 01 80 53 bc 8f 9a 54 3f 3a cf a9 3e 45 8e d4 3e
       -0.0129089365 0.8304834 0.33165914 0.41514793
000030 87 2f c4 bd 52 c1 93 40 17 93 5e bd 7e 41 e8 bc
       -0.095793776 4.6173487 -0.054339495 -0.028351542
000040 e9 3c f8 bf 7c 73 68 3c 87 73 9d c0 24 c9 41 be
       -1.9393588 0.01418769 -4.9203525 -0.18924385
000050 84 61 3c 3f 50 75 cd 40 ab 66 9e bc 84 d5 94 40
       0.735863 6.4205704 -0.019336065 4.651064
000060 be 66 df bc 1b d9 04 3f 77 32 a0 bd 50 39 c8 3f
       -0.027270671 0.51893777 -0.078221254 1.564249
000070 9d 64 21 bd 5b ee 11 3e 2a ac 1c 3e 1b 82 60 bc
       -0.039402593 0.14251082 0.1530005 -0.013702895
000080 93 fc cb bf 33 51 28 3f 20 e7 38 3e a1 2b 27 bf
       -1.5936455 0.657489 0.18056917 -0.6530095
000090 a5 ac ab 3e a0 89 95 3f 44 76 54 3e d8 33 74 bd
       0.33530155 1.1682625 0.2074824 -0.059619755
0000a0 bb c5 70 3e 0c 29 00 bf 49 5a 70 3e 90 63 b7 bf
       0.23512928 -0.5006263 0.23471941 -1.4327259
0000b0 2d 02 17 be 58 d9 c8 be 53 9f a5 3f 49 ac 1d c0
       -0.14746924 -0.3922832 1.2939247 -2.4636405
0000c0 86 e0 7a 3f 7e 45 6c bc a7 8f 22 40 64 6e 2a be
       0.97998846 -0.014420865 2.5400178 -0.16643673
0000d0 2c 50 05 bc 88 92 f1 bd 39 ee 08 3e b0 89 8b 3f
       -0.00813679 -0.11795527 0.13372125 1.0901394
0000e0 34 42 6b c0 35 81 04 3e 11 e7 a7 c0 75 6e 34 c0
       -3.6759157 0.12939914 -5.2469563 -2.8192418
0000f0 a4 8f 6d 40 be d6 2b 3e 52 df b6 3d 0b 08 cd bf
       3.7118921 0.16781136 0.08929314 -1.601808
000100 c9 7d 11 40 a6 56 df be bf 60 da 3f 96 a4 bb 3c
       2.2733023 -0.43620795 1.7060775 0.02290563
000110 b6 48 23 bf dd dd f0 be
       -0.63782823 -0.47044268

layers.1.weight f4 [50, 70]
000000 ef 4c 8c 3a a1 dc 73 c0 77 af 0f bf a5 de 05 bf
       0.001070408 -3.8103411 -0.56127113 -0.52292854
000010 61 50 ed be 4b 1c 20 be ce bb b1 bf ad 86 0e 3f
       -0.46350387 -0.15635793 -1.3885438 0.5567425
000020 d1 aa 91 bf 1a 08 ea bd 1f 18 cb bf 44 bf ce 3e
       -1.1380254 -0.114273265 -1.5866736 0.403803
000030 61 56 ef 3f 26 b7 88 bf 25 aa 07 c0 90 7a cc be
       1.8698236 -1.0680892 -2.1197598 -0.39937258
000040 38 ad 23 3f fe e3 57 3e 71 b8 fc 3e 60 95 06 c0
       0.63936186 0.21083066 0.49359468 -2.1028671
000050 a4 86 30 bf 13 9d 42 3f 87 79 4b 3d 93 77 98 3e
       -0.68955445 0.76020926 0.049676444 0.29778728
000060 a6 cd 6d bf c3 3d cf bf aa 22 14 3f fd c8 e9 be
       -0.9289192 -1.6190723 0.57865393 -0.45661154
000070 8d 69 24 be 72 cc fb bd 8e be 1f 3f bb 0c 52 bf
       -0.1605589 -0.12294854 0.6240014 -0.82050675
000080 19 9a ee 3e 56 eb c2 be 3a cf cb bf 25 b5 13 3f
       0.46601942 -0.38070172 -1.5922616 0.5769828
000090 f5 ea 83 3f e1 23 24 bf e8 dc 18 c0 af 4a 28 bf
       1.0306078 -0.64117247 -2.388483 -0.6573896
0000a0 f3 c0 3d 3f fc a2 89 3f 47 6d ac 3e ce 9d d0 bf
       0.7412254 1.0752864 0.33677122 -1.6298158
0000b0 75 15 6f 3e a6 23 ca 3f 60 ea 2b 3e f8 51 41 be
       0.23348029 1.5792129 0.16788626 -0.18878925
0000c0 2f 7b b2 bf 08 c5 0e c0 7f 09 2b bf ea cd 0a 40
       -1.3943843 -2.2307758 -0.66811365 2.168818
0000d0 c8 52 05 c0 cb ce 1d bf 1d ac 12 be 96 52 40 c0
       -2.0831776 -0.61643666 -0.14323469 -3.0050406
0000e0 58 90 44 bf 20 68 91 be 1e ab 00 40 ac 1f 02 c0
       -0.7678275 -0.28399754 2.0104442 -2.033183
0000f0 44 3b 9b 3e d4 63 2b c0 69 ca 95 3a fd 9d 92 be
       0.30318654 -2.677968 0.0011428121 -0.2863616
000100 46 07 b8 3f 39 8e 15 3f cb db 75 3f 38 c7 c2 3f
       1.437722 0.5842014 0.960385 1.5217047
000110 35 69 38 be 99 30 e5 bf d9 31 24 3e 29 4b fc 3e
       -0.18008883 -1.7905456 0.1603464 0.49276093
000120 ee 68 b4 be 6f 40 a4 3e 36 76 b6 3d a3 0d 5f be
       -0.35236305 0.3208041 0.08909266 -0.21782546
000130 8b 42 3d 3e 8e 22 d4 be e1 bd b1 3f 1c 78 80 bf
       0.18482415 -0.41432613 1.3886071 -1.0036654
000140 f2 fa 6f 3f 79 b5 09 3f a0 60 a1 bf e6 e5 99 3e
       0.9374229 0.5379253 -1.2607613 0.3005821
000150 be 19 5c bf 1f c7 07 bf 73 7d c1 be e8 ea cd be
       -0.8597678 -0.5303821 -0.37791023 -0.40218282
000160 f5 b7 95 bf 9f 15 f9 3e 1b c2 df 3f e1 91 a7 bf
       -1.1696764 0.48649308 1.7481111 -1.3091394
000170 b7 8b 87 be 82 d7 90 3e 2c 0f a2 3e 39 c4 94 3e
       -0.2647378 0.2828942 0.316522 0.29055956
000180 4c 3a bc bf 3f e3 97 3d ea a7 a3 bd b7 5f 95 bf
       -1.4705291 0.07416391 -0.079910114 -1.1669835
000190 b0 7e e1 3f 41 5f b2 bf 99 97 3c bf 5a 12 7f 3f
       1.7616787 -1.3935319 -0.7366882 0.9963738
0001a0 c7 c0 44 3f ff ab 51 3f 8b 80 23 be 65 2a 94 3e
       0.76856655 0.8190307 -0.15967004 0.28938594
0001b0 74 58 fe 3e d0 2e 5e be 60 e0 ac be f1 fd 3c 40
       0.4967686 -0.21697545 -0.33764935 2.9529994
0001c0 bc 65 0f be 8f 10 88 bf 6a 81 82 bf 4b c0 16 bf
       -0.14003652 -1.0630053 -1.0195744 -0.58887166
0001d0 b5 dc e0 3f b5 17 28 3f 01 b2 b5 3f 94 4a 6c 3f
       1.7567354 0.65661174 1.4194947 0.923013
0001e0 f9 72 6e 3e 38 e4 09 bf 6d 4a 40 3f 00 0f cf be
       0.23286046 -0.5386386 0.75113565 -0.40441132
0001f0 af 10 48 3d f8 50 67 c0 eb 6c 60 bf ec ba 04 3f
       0.048844036 -3.614317 -0.87666196 0.5184772
000200 41 ae 53 bf da 56 08 3f cb 30 d1 3f 10 b0 d8 3e
       -0.82687765 0.53257525 1.6343015 0.42321825
000210 8c bd b6 3e a7 da 67 40 ff ce 3a 3f 54 fe fa bf
       0.35691488 3.6227205 0.729721 -1.9608865
000220 f1 ec 89 3f 49 2f 4c bf ba 4f b4 bf f0 77 4b be
       1.0775434 -0.7975965 -1.4086831 -0.19869971
000230 e7 cc 77 3f 1e e3 c1 bf 58 e6 01 3e c9 0d b0 3b
       0.9679703 -1.5147436 0.12685525 0.005372737
000240 ff 5e ef 3e a0 92 33 3f 10 cd 17 bf 04 3f 1f 3f
       0.46752164 0.70145607 -0.59297276 0.6220553
000250 d9 6c 27 bf 17 c3 d6 bf 10 22 7d bd 6e e0 c5 3f
       -0.65400463 -1.6778287 -0.061800063 1.5459116
000260 5f ad 4a 3e 94 85 9f bd 6a b5 7f bf d4 33 ae bf
       0.19792698 -0.0778915 -0.9988619 -1.3609567
000270 5f c8 8c be a3 6f 6c bf 21 56 90 be 2d 7b 52 bd
       -0.2749662 -0.92357844 -0.2819071 -0.051387
000280 98 ad b3 3f a0 a0 ff bf 63 67 1b 3d 26 68 ca bf
       1.4037352 -1.9970894 0.037940394 -1.5813034
000290 29 c1 da bd f0 71 b3 bf 50 4d 93 bf 19 80 1b 3e
       -0.106813736 -1.4019146 -1.1507969 0.15185584
0002a0 28 8f 61 3e 6d 2d 06 c0 85 78 59 3f c5 fb 85 bf
       0.22027266 -2.0965226 0.84949523 -1.0467459
0002b0 07 71 90 3b 8e 0e e1 bd c1 2b 86 bf af 89 0e bf
       0.004408005 -0.10989104 -1.0482103 -0.5567884
0002c0 30 55 e9 bf 10 f3 ec be ef ef a2 3d e1 fe 1a bf
       -1.8229122 -0.46279192 0.0795592 -0.60545164
0002d0 46 db 30 bf e5 28 65 3f c5 5a 3c be 6c e1 03 40
       -0.69084585 0.89515525 -0.18394001 2.0606337
0002e0 30 c4 95 3f 45 ac 43 3f e6 10 4b be f4 96 f6 3f
       1.1700497 0.7643474 -0.19830665 1.9264817
0002f0 ea f7 f1 be 12 a9 09 be 68 30 74 3e ba 68 73 3e
       -0.47259456 -0.13443401 0.2384659 0.23770419
000300 f0 19 f5 be ee 3d f6 be e5 e3 5f 3d c8 80 0b 40
       -0.4787135 -0.48094124 0.054660697 2.1797352
000310 12 f5 23 c0 16 a2 d2 3e ab 8b f6 3c d1 d2 a5 3f
       -2.561833 0.41139287 0.030095896 1.2954961
000320 0a 2e 83 3f db e7 5d 3d bb 9e 17 3f fb ba a2 bf
       1.0248425 0.054176193 0.5922658 -1.2713312
000330 3e d0 2e be a5 ff b1 bf d5 5f 27 40 e3 a9 8b 3f
       -0.17071626 -1.3906142 2.6152241 1.091122
000340 53 08 b6 bd b4 cb 64 3e f4 43 14 be 4e de 35 bd
       -0.088883065 0.22343332 -0.14479047 -0.04440146
000350 ab 8b 40 bf 88 b8 f2 be 6d 10 14 40 d4 a2 dd 3e
       -0.75213116 -0.4740641 2.3135026 0.4328829
000360 7c a6 9b 3f 4d 72 3c 40 f7 0b 9d be b6 12 50 3c
       1.2160182 2.9444764 -0.3067319 0.012699774
000370 4c 66 88 bf b3 af 7d bf 35 0a 14 bf 54 e3 bd 3e
       -1.0656219 -0.9909622 -0.57828075 0.370875
000380 6a 84 0e c0 c3 cd 04 3f da b8 92 be 06 e4 c1 bf
       -2.226832 0.5187647 -0.28656656 -1.5147712
000390 0a 93 38 3f 2f 56 3d bf c6 56 85 bf ca 84 90 bd
       0.72099364 -0.7395963 -1.0417106 -0.070565775
0003a0 b2 fa 2b c0 55 a7 b1 3e a1 0c 28 3d 53 02 6d bf
       -2.6871762 0.34697977 0.04102767 -0.9258167
0003b0 2e 4b c2 bf f7 ae 24 be 06 61 a4 be 9b e1 36 3e
       -1.5179193 -0.16082369 -0.32105273 0.17859499
0003c0 13 43 1f 3f e2 27 0d bd ba 49 5e bf d3 3d aa be
       0.6221172 -0.034461863 -0.8683125 -0.33250293
0003d0 f4 da 1f bf 5e e9 95 3f c1 d4 2b 3d 5f 80 24 be
       -0.6244347 1.1711843 0.041950945 -0.16064595
0003e0 a9 7b 35 c0 d9 b4 9c bf 92 5f 88 3f 71 ee c2 bf
       -2.8356726 -1.224269 1.0654166 -1.5229017
0003f0 83 59 a1 be 55 19 29 c0 c5 e3 83 bf 6d cd ae bf
       -0.31513605 -2.6421711 -1.0303885 -1.3656441

layers.1.bias f4 [50]
000000 f5 2b b6 bf 0d e8 ae be 4d 87 25 bf c5 50 03 c0
       -1.4232165 -0.34161416 -0.6465958 -2.0518048
000010 e1 52 c5 3f 88 86 c9 be 2f 51 ea bf 51 42 b5 3f
       1.5415918 -0.39360452 -1.8306025 1.4160863
000020 96 d9 9c 3f 74 03 0a 3f 51 45 44 bf 13 11 2f bf
       1.2253902 0.5391152 -0.7666827 -0.6838543
000030 fe 39 f6 3e 54 94 40 c0 10 17 d3 be 5a 4d c6 3f
       0.4809112 -3.0090532 -0.41228533 1.5492356
000040 a2 b2 af 3e 4b 49 c9 3f 30 ea 11 bf 2a 99 e3 be
       0.34315974 1.5725492 -0.56997967 -0.44452792
000050 65 fa 23 bf 2a 59 13 c0 5e 56 19 40 c2 04 a3 3f
       -0.64053947 -2.3023171 2.3958964 1.2735827
000060 c4 09 6b c0 17 cd 82 bf 64 5d e1 3f b3 52 81 3f
       -3.672471 -1.0218838 1.7606626 1.0103363
000070 8c 08 40 c0 2b 9f 08 40 68 a7 84 3f 69 bf 08 40
       -3.0005217 2.1347148 1.0363588 2.1366827
000080 5f 21 9d 40 7d 66 dd bf 16 3a f0 bf af 26 83 c0
       4.9103236 -1.7296902 -1.8767726 -4.098472
000090 39 71 dd 3f 02 49 12 be fd 2a 50 40 89 58 41 3f
       1.7300178 -0.14285663 3.2526238 0.7552572
0000a0 02 0a 20 40 fa 28 99 c0 27 6a 50 c0 76 3e 9d 3f
       2.5006108 -4.786252 -3.256479 1.2284687
0000b0 06 ff da bf 08 0f b5 c0 47 49 4b 40 6a 39 4e 3f
       -1.7109077 -5.658085 3.1763475 0.80556357
0000c0 c1 71 07 c0 f4 51 9c bf
       -2.116318 -1.221251

output.weight f4 [2, 50]
000000 4a f2 87 bc 1d 90 f4 3c 7a b7 ef 3c 58 b5 5e bd
       -0.016595025 0.029853875 0.029262293 -0.05437216
000010 58 1b 81 bd a0 53 b1 bd 2b f8 41 3d 7a 0b b5 bd
       -0.063040435 -0.08658528 0.047355812 -0.088400796
000020 0a 98 ef bc 22 30 08 3d 96 16 a2 bd f7 23 21 bc
       -0.029247303 0.033249028 -0.07914464 -0.009835235
000030 29 bb 82 3d d0 49 88 3d bd 01 9b 3d 61 b8 45 3c
       0.06383354 0.066547036 0.07568691 0.012067885
000040 5c 57 97 3c 3e 83 be 3c 68 cc 5a 3d 48 f8 83 3d
       0.018474273 0.02325594 0.053417593 0.0644384
000050 d3 82 52 3c ba 02 60 3d fd fc a7 bc b9 11 43 bd
       0.012848574 0.0546901 -0.020506376 -0.047624324
000060 0e f3 2d bd 2b 57 38 3d 1e 6f 95 3c bc 76 13 3d
       -0.042468123 0.045005005 0.018241461 0.036001906
000070 36 28 2c 3d 7e df 2a 3d 28 49 80 bc 91 37 ca bd
       0.042030536 0.041717045 -0.015659884 -0.0987388
000080 a9 b3 1a bd 06 1f 82 3d 4e 2e 99 bd 90 72 0b bd
       -0.037768994 0.063535735 -0.07479535 -0.034044802
000090 2b 36 a4 bd 4d ed 56 bd b7 56 95 bd a4 3d 88 3d
       -0.08018144 -0.0524724 -0.0729193 0.06652382
0000a0 49 ac 6c bd a1 a3 8e 3d e0 f6 5c 3d ee 51 87 3d
       -0.05778149 0.069648035 0.053946376 0.06607424
0000b0 5d 9f 81 bd ef f9 c3 3d 01 82 65 bd c8 85 9d bd
       -0.06329224 0.095691554 -0.056032185 -0.076915324
0000c0 67 15 97 3d 23 53 3a 3c f5 bf 15 bd a8 f1 c1 3b
       0.07377129 0.01137236 -0.036560018 0.0059187002
0000d0 97 fb 25 3d 9e f0 a9 bd b2 ea 9f 3c 35 57 1d bd
       0.040523138 -0.08297847 0.019521091 -0.038413245
0000e0 fb 7f f3 3c 1f da df bc e5 ad 8e bd 61 d4 53 3d
       0.029724112 -0.027325688 -0.069667615 0.051716212
0000f0 1d a7 05 bd 2a 33 bd bd 93 e8 4f bc 5c f8 ed 3b
       -0.032630075 -0.092382744 -0.012689727 0.0072622728
000100 f2 29 06 bd 2c 04 6e bd 11 dc 28 bc ad d0 77 3d
       -0.032754846 -0.058109447 -0.010306374 0.060501743
000110 4b 81 61 3c 94 9d 5c bc 24 d3 54 bd 4f 16 70 bd
       0.013763736 -0.013465304 -0.051959172 -0.058615025
000120 be 49 60 bd 80 39 27 bd 61 b3 27 bd 7f a9 ea 3b
       -0.054757826 -0.04082632 -0.040942553 0.007161319
000130 31 99 65 bd 4a c4 5f 3d 10 f1 90 bd 76 7f 86 3d
       -0.056054298 0.054630555 -0.07077229 0.0656728
000140 c7 13 47 bd 18 6a 19 bd 81 f9 b6 bd 08 f9 23 bd
       -0.048602846 -0.037454695 -0.08934308 -0.040032417
000150 52 79 46 3a 29 f3 5a bd b4 cc 88 bd f8 b5 9d 3c
       0.0007571179 -0.05345455 -0.06679669 0.019251809
000160 74 5f 10 bc ae 0b 88 3d 0e 87 51 bd cc 97 78 3d
       -0.00881182 0.06642853 -0.05115419 0.06069164
000170 62 a0 14 3d 99 99 14 3d 8a 3c 0d bd 94 ed aa 3c
       0.036285765 0.036279295 -0.034481563 0.02086524
000180 82 65 4e 3d 0f 02 02 3d 39 28 80 3d 78 92 40 3d
       0.050389774 0.031740244 0.06257672 0.047014683

output.bias f4 [2]
000000 bb c6 23 3f 65 ca ab 3e
       0.63975114 0.33552852

exp_avg f4 [70, 6]
000000 87 1a f0 b9 76 6f 58 b9 62 e1 f6 39 b6 86 08 3b
       -0.00045796132 -0.00020640888 0.000470887 0.0020832247
000010 6b ba 11 3b 3f e0 ab 3a 5e 50 df 3a 70 2f d4 3a
       0.0022236358 0.0013113095 0.0017037501 0.0016188454
000020 ca a1 ba 3a 34 1f 96 39 7f 7b 64 ba 03 75 02 bb
       0.0014238891 0.00028633478 -0.0008715912 -0.001990617
000030 96 28 51 3a 35 43 57 3a 77 a1 17 3a 7b 6c 1e b8
       0.0007978765 0.0008211614 0.0005784253 -3.7771166e-05
000040 74 9c ac ba cd 99 84 ba 21 ae 90 3a 7c 76 96 3a
       -0.0013169185 -0.0010116637 0.0011038223 0.0011479403
000050 b7 c6 9f 3a ca 16 a3 3a 78 81 5b b8 09 1d ee b9
       0.0012189959 0.0012442705 -5.2334246e-05 -0.0004541653
000060 de 16 89 ba dd 8e 7f ba fa a6 8e ba 0c d3 80 ba
       -0.0010459085 -0.00097487663 -0.0010883503 -0.0009828522
000070 4e 09 50 ba 90 d3 41 3a b5 33 c7 b7 91 ba a9 b8
       -0.0007935957 0.0007393891 -2.3746727e-05 -8.093299e-05
000080 d4 80 31 b9 dc e5 05 ba 64 4a d5 b9 48 3d 45 38
       -0.00016928028 -0.0005107799 -0.0004068195 4.7025533e-05
000090 93 34 38 3a 60 4b 44 3a 44 8a 2f 3a b6 aa ed 39
       0.0007026877 0.00074880384 0.00066963234 0.00045331352
0000a0 65 67 14 ba 1e 59 fc b9 89 10 10 b9 cf fb 21 b9
       -0.0005661159 -0.00048131583 -0.0001373907 -0.00015447963
0000b0 92 8a 71 39 ea 45 01 3a 9a 05 80 3a 6b 74 83 39
       0.00023035172 0.00049313775 0.0009767294 0.00025073005
0000c0 8d 95 23 3b af 56 23 3b c4 37 12 3b d2 4e b5 3a
       0.0024960965 0.0024923494 0.002231107 0.0013832694
0000d0 3d f7 95 39 a3 b0 17 bb 20 1a b8 3a a6 b7 b3 3a
       0.00028603702 -0.0023146055 0.0014045872 0.0013711348
0000e0 f3 2c b9 3a bf 27 a3 3a 52 b3 76 ba 2b fb a7 ba
       0.0014127776 0.0012447758 -0.0009410876 -0.0012815943
0000f0 41 4f 66 b9 2e 3b 4e b9 2f 8f 80 b9 a6 3e 67 b9
       -0.00021964034 -0.00019667737 -0.00024520743 -0.00022053215
000100 3a 6e 0a 38 04 4f e6 37 5e cb 0b 3a 36 f9 09 3a
       3.300442e-05 2.7454931e-05 0.0005332733 0.00052632706
000110 fb 16 2f 3a 15 5a 61 3a d9 d1 37 3a 4f 4b ca b8
       0.00066791446 0.0008596492 0.0007012166 -9.646138e-05
000120 ac fb d0 3a a1 00 d1 3a b0 1f 3c 3a 4b eb d3 ba
       0.0015944145 0.0015945622 0.00071763527 -0.0016168145
000130 50 d3 61 bb cf 89 2f bb 17 ae e8 38 e9 4c 11 39
       -0.0034458227 -0.0026785021 0.00011095049 0.00013856929
000140 37 4b ee 38 dc 98 f7 b6 92 f8 f2 b8 a6 4e 22 b9
       0.00011362734 -7.378969e-06 -0.00011585759 -0.00015478823
000150 03 97 63 3a 98 2b 55 3a 35 0a 65 3a 5a 6a 95 39
       0.00086818653 0.0008131801 0.00087371777 0.00028498733
000160 fa 13 02 ba 04 96 5a ba b5 53 06 3a f1 d8 10 3a
       -0.0004962083 -0.0008338394 0.00051241677 0.0005525491
000170 0f e2 9e 39 cd 35 ec 39 38 d0 0d ba e1 ae d2 b9
       0.00030304535 0.00045053512 -0.000540975 -0.00040184616
000180 8c 82 ac ba 1f a4 b4 ba 12 be bd ba bf 7e 8f ba
       -0.0013161465 -0.0013781822 -0.0014476201 -0.0010947807
000190 6b 7d 89 3a 17 83 a3 3a b5 9e 59 39 b7 9c 15 39
       0.0010489648 0.0012474981 0.00020753856 0.00014268128
0001a0 47 f3 7c 39 b6 4d 24 39 01 82 00 39 d2 d1 88 b9
       0.0002412322 0.00015669208 0.00012255461 -0.0002609627
0001b0 ae e6 0f ba d9 42 0d ba 26 c1 0c ba 0c 6e d2 b9
       -0.0005489391 -0.0005388684 -0.00053693575 -0.00040136313
0001c0 30 88 a2 b9 56 43 04 b9 59 5c 9d ba ec cc 70 ba
       -0.00031000515 -0.00012613586 -0.0012005671 -0.0009185809
0001d0 80 ed c9 b8 6e 52 fe 3a 04 34 3e 3b 3c 0e 25 3b
       -9.628665e-05 0.0019403228 0.0029022703 0.0025185486
0001e0 46 fd ab ba 35 e5 90 ba a2 5b 06 ba f0 84 b5 3a
       -0.0013121746 -0.0011054637 -0.00051253487 0.0013848823
0001f0 c1 7b 10 3b fc 08 fc 3a 5c 37 06 3a 34 73 11 3a
       0.002204642 0.0019228752 0.00051199435 0.00055484776
000200 7a 1e 1c 3a fe 27 8d 39 1a 3f 1d b9 fc 67 9d b9
       0.0005955469 0.00026923412 -0.00014996194 -0.00030022848
000210 ea 23 94 b8 ee eb dd b8 46 86 4b b9 ef ce 33 b9
       -7.0638795e-05 -0.000105820465 -0.0001940961 -0.00017147859
000220 1f 8f 04 b9 af a5 c8 39 ad f0 10 3a 5d cc 14 3a
       -0.00012641818 0.00038270417 0.00055290275 0.00056762045
000230 37 54 18 3a 36 3e 96 39 95 40 2e ba 3f 65 10 ba
       0.0005810889 0.0002865658 -0.0006647197 -0.0005508251
000240 42 6a af ba 21 0d ab ba 9c 23 7a ba 4e da dc b9
       -0.0013383108 -0.0013050177 -0.00095420494 -0.0004212432
000250 3b 7f d8 3a 9d a7 b0 3a ef 56 c1 b8 e2 e2 85 b8
       0.001651741 0.0013477687 -9.21915e-05 -6.3841944e-05
000260 39 02 54 b9 28 aa e0 b9 c3 43 f8 b9 66 e5 14 ba
       -0.00020218724 -0.00042851386 -0.00047352733 -0.0005679935
000270 e7 bd 67 3a e5 4f 52 3a 4b 32 11 3a 2b c7 da b9
       0.00088402483 0.00080227695 0.0005538805 -0.00041728592
000280 b8 e8 c5 b9 30 7b 88 ba 64 7e d7 39 24 f1 af 39
       -0.00037748157 -0.0010412689 0.00041102164 0.00033558265
000290 86 c3 a1 39 f7 89 d4 b8 9e ac 86 b9 98 69 fe b9
       0.0003085399 -0.00010134646 -0.00025687082 -0.0004852533
0002a0 bf 12 a7 39 44 71 85 39 26 fd 91 39 f5 b1 85 39
       0.0003186669 0.00025452126 0.00027845165 0.00025500325
0002b0 e2 49 90 b8 57 c2 85 38 43 c7 ea 3a 33 97 c8 3a
       -6.880217e-05 6.378133e-05 0.0017912168 0.001530385
0002c0 01 a3 2d 39 92 24 62 bb dc 04 95 bb 40 b5 80 bb
       0.0001655929 -0.003450666 -0.0045476984 -0.0039278567
0002d0 71 f2 35 bb 6e f1 2f bb 06 33 3a bb a4 2f 9a ba
       -0.0027762915 -0.0026846784 -0.002841176 -0.0011763466
0002e0 ea d1 82 3a 1b 84 e4 3a a2 4a f1 3a a1 01 e4 3a
       0.0009980772 0.001743439 0.0018409083 0.0017395505
0002f0 7a a6 c3 3a 76 c6 95 b8 7c 75 e8 ba 64 b7 e2 ba
       0.0014926933 -7.14184e-05 -0.0017735208 -0.0017297086
000300 0f 74 6b 3a 0d 5b 63 3a a4 56 5f 3a cc 2e 8f 3a
       0.00089818327 0.00086729304 0.00085196854 0.0010923981
000310 43 f0 93 39 27 4c 4d 39 44 65 ad b9 80 6a a0 b9
       0.00028217034 0.00019578692 -0.0003307258 -0.00030596927
000320 c5 93 2d b9 7d d3 23 39 47 19 53 39 b0 73 45 3a
       -0.00016553614 0.00015623677 0.00020131945 0.00075321924
000330 8c 8b b8 b9 d4 f4 9e b9 7c 43 b1 b8 b9 de 68 3a
       -0.00035199185 -0.0003031852 -8.452588e-05 0.0008883286
000340 8a 23 85 3a ec d8 62 3a 61 c2 cc ba 0c 08 e4 ba
       0.0010157686 0.00086535397 -0.0015621894 -0.0017397418
000350 cb a1 04 bb c7 da fc ba 95 4e da 38 30 eb 93 3a
       -0.0020238038 -0.0019291275 0.00010409687 0.0011285301
000360 99 41 0d 3a 2c d9 c0 39 2c a0 a6 b9 9c 77 03 bb
       0.0005388498 0.000367829 -0.00031781325 -0.0020060306
000370 fb ef ef ba dc 28 d2 ba 11 d8 93 b9 bd c9 66 b9
       -0.0018305773 -0.0016033906 -0.00028199007 -0.00022009663
000380 ff 92 95 b8 9a 4b 82 39 29 80 a7 39 f9 6f 4a 39
       -7.132254e-05 0.0002485186 0.0003194821 0.00019305934
000390 c7 b0 e4 38 91 95 bb 38 8d b6 1e 39 0a bb 98 39
       0.000109048146 8.944714e-05 0.0001513606 0.00029131054
0003a0 91 68 85 39 b7 c8 4a 39 1a 4c 24 ba 84 f8 80 ba
       0.00025445645 0.00019338993 -0.00062674435 -0.0009839688
0003b0 97 0b d0 ba 84 73 44 bb e1 e1 04 bb 55 7d 92 ba
       -0.0015872595 -0.002997608 -0.0020276236 -0.0011176268
0003c0 db 53 1a b9 81 b4 a6 b9 53 43 23 b9 0b 83 9a 39
       -0.00014717823 -0.00031796473 -0.00015569972 0.00029470804
0003d0 5d 0f 00 3a a7 61 bd 3a 3c c0 22 3a aa e3 13 3a
       0.0004885102 0.0014448658 0.0006208455 0.00056415296
0003e0 1b 1a 4d 3a 67 b9 45 3a 03 23 2e 3a 84 7e 3c 39
       0.00078240194 0.0007542581 0.00066427904 0.00017976208
0003f0 bf e6 97 b9 ba 7c 97 b9 de f3 e1 b8 1e 93 85 3a
       -0.00028972884 -0.00028893893 -0.0001077426 0.0010190939

exp_avg_sq f4 [70, 6]
000000 97 4e d3 38 26 75 d5 38 6f b8 a0 38 48 ab 84 38
       0.000100759025 0.00010178452 7.663748e-05 6.326154e-05
000010 da d2 13 39 97 36 13 39 35 ff 1f 39 3c 1d 19 39
       0.00014097561 0.00014039349 0.00015258494 0.00014602108
000020 64 9f fc 38 64 f6 89 38 29 08 47 39 c6 0d 43 39
       0.00012045985 6.578563e-05 0.00018981159 0.0001860178
000030 56 12 fa 38 30 c8 ff 38 7e 5f e4 38 41 23 93 38
       0.00011924344 0.00012196635 0.00010889674 7.016073e-05
000040 9f 05 c4 38 d7 00 04 39 30 11 5c 38 a0 4e 5a 38
       9.347055e-05 0.00012588814 5.2468095e-05 5.2048475e-05
000050 07 15 46 38 58 ef db 37 26 1e f9 37 9d 5a 13 38
       4.7226462e-05 2.6218288e-05 2.9697152e-05 3.513192e-05
000060 b3 bd 07 38 1c 8c 0a 38 e1 dd 04 38 07 50 ac 37
       3.236318e-05 3.303225e-05 3.1677893e-05 2.0541263e-05
000070 bf 30 38 38 c0 57 49 38 70 36 3c 38 b3 4e 33 38
       4.3914417e-05 4.8003858e-05 4.487339e-05 4.275022e-05
000080 0d 0a 09 38 8c 4b b6 37 af 24 df 37 73 e1 ae 37
       3.2672706e-05 2.173127e-05 2.6600754e-05 2.08474e-05
000090 14 22 dd 36 05 4a d9 36 a9 68 c7 36 ca a7 2e 36
       6.5902805e-06 6.475721e-06 5.942846e-06 2.6025687e-06
0000a0 51 c0 57 36 51 5c 99 36 63 71 bb 37 c5 95 c2 37
       3.214944e-06 4.5705024e-06 2.2344937e-05 2.3196344e-05
0000b0 40 32 a7 37 99 32 c9 37 09 44 e3 37 72 d4 d6 37
       1.993135e-05 2.3984629e-05 2.709219e-05 2.5609716e-05
0000c0 d8 d9 ae 38 21 9a a7 38 98 c2 88 38 9e e5 70 38
       8.337543e-05 7.991889e-05 6.521231e-05 5.7434307e-05
0000d0 49 3f ef 38 a2 52 d5 38 39 75 40 38 79 51 39 38
       0.00011408196 0.00010172023 4.588554e-05 4.4183314e-05
0000e0 32 cb 05 38 b6 fa 9d 37 07 94 7c 38 b1 42 8c 38
       3.189891e-05 1.8832605e-05 6.0219343e-05 6.6881425e-05
0000f0 97 09 62 36 a3 7e 77 36 9f 2e 79 36 95 dd 3a 36
       3.3682206e-06 3.687958e-06 3.7131028e-06 2.7845138e-06
000100 e5 86 4e 35 8f 62 17 35 d5 d4 1a 36 38 df 29 36
       7.693728e-07 5.6395305e-07 2.3071673e-06 2.5312893e-06
000110 d1 6e 69 36 57 ba 90 36 a2 5e 35 36 ed cf 4d 35
       3.478421e-06 4.3132272e-06 2.7026185e-06 7.6671023e-07
000120 c1 09 f7 38 2c 45 f8 38 22 d1 c0 38 ae f1 90 38
       0.000117796946 0.00011838446 9.1942275e-05 6.9114714e-05
000130 1b b2 25 39 e7 fc 2a 39 a6 55 8e 36 13 15 98 36
       0.00015801976 0.00016306677 4.2419006e-06 4.5324064e-06
000140 0a e3 42 36 16 cf c3 36 78 9e 48 37 5c f0 29 37
       2.9040407e-06 5.835561e-06 1.1957825e-05 1.0129148e-05
000150 e4 29 86 38 64 58 83 38 6f f7 58 38 ca 42 24 37
       6.397421e-05 6.263031e-05 5.1728854e-05 9.790712e-06
000160 cd 19 1b 38 2b 42 32 38 86 58 a5 38 5c 42 a6 38
       3.697891e-05 4.250013e-05 7.884302e-05 7.927857e-05
000170 1c be 87 38 0e 72 04 38 15 5f bf 38 59 b5 d7 38
       6.472712e-05 3.1577474e-05 9.1253e-05 0.000102857775
000180 d0 bc 97 38 a3 51 9f 38 74 e9 86 38 14 d3 4e 38
       7.23541e-05 7.596917e-05 6.433102e-05 4.931081e-05
000190 e8 2f bb 38 f8 2e d5 38 74 d2 46 37 7a 8c 34 37
       8.925778e-05 0.0001016538 1.185072e-05 1.0761543e-05
0001a0 d6 d4 18 37 f2 53 40 36 0a f4 f1 36 0d cd ca 36
       9.109461e-06 2.8659092e-06 7.2107696e-06 6.04394e-06
0001b0 39 ef 25 38 11 6d 1d 38 97 88 eb 37 cd d7 9d 36
       3.956186e-05 3.7533293e-05 2.8077788e-05 4.704087e-06
0001c0 6d 3c 21 36 cf 76 69 36 2a 72 9a 38 fc 4f 94 38
       2.4026042e-06 3.4788861e-06 7.364557e-05 7.072088e-05
0001d0 1c 4e 60 38 b5 f3 90 38 38 2d 0b 39 d7 69 f1 38
       5.3478507e-05 6.911849e-05 0.00013272918 0.0001151149
0001e0 17 7b 9b 37 0b 47 9a 37 32 4c 94 37 b6 39 dd 37
       1.8534758e-05 1.8391313e-05 1.7678456e-05 2.6372127e-05
0001f0 5a 63 e6 37 1d 53 c1 37 8f 94 a1 36 82 ad a7 36
       2.74644e-05 2.3046096e-05 4.8154684e-06 4.997187e-06
000200 ac da b4 36 d3 b4 0d 36 fd 4a c0 35 98 66 03 36
       5.389875e-06 2.111589e-06 1.4326939e-06 1.9580239e-06
000210 22 dd fa 36 1a b4 07 37 a9 19 00 37 67 f8 6b 37
       7.476324e-06 8.08856e-06 7.635369e-06 1.4064927e-05
000220 33 02 4c 37 59 8e 63 37 96 b9 58 37 81 16 5f 37
       1.215986e-05 1.3563397e-05 1.2917813e-05 1.3297075e-05
000230 c5 3c 54 37 95 8d 9a 36 da 70 2b 37 42 ca 54 37
       1.2650334e-05 4.60604e-06 1.021867e-05 1.26832765e-05
000240 ac a4 fb 38 69 ad fc 38 46 d9 c2 38 34 d2 24 38
       0.00011999285 0.000120485965 9.291111e-05 3.9296414e-05
000250 7e 8a fd 38 a8 cb 0c 39 fc a7 db 36 bb f5 d8 36
       0.00012089776 0.00013427308 6.5462646e-06 6.4659084e-06
000260 7d b6 8e 36 8a 4a 31 36 06 06 1f 37 74 6f 2c 37
       4.253174e-06 2.6418443e-06 9.478541e-06 1.0277949e-05
000270 9e ff 5a 38 85 25 53 38 9f 50 1b 38 d9 c4 7d 38
       5.2213312e-05 5.0341263e-05 3.7029964e-05 6.050323e-05
000280 f0 f8 ed 38 0c d6 c3 38 d2 04 7e 37 2b a5 83 37
       0.00011347409 9.338194e-05 1.5140702e-05 1.569333e-05
000290 da 0c 7b 37 b5 17 1e 37 44 de 1b 37 bf 8c 3a 37
       1.4963758e-05 9.423054e-06 9.29047e-06 1.1119234e-05
0002a0 c6 60 24 37 9b 0a 27 37 e6 e1 2f 37 28 42 06 37
       9.797694e-06 9.956445e-06 1.0483409e-05 8.002426e-06
0002b0 e7 6b 03 37 6a 09 32 37 2b 02 ad 38 b5 c1 a5 38
       7.833331e-06 1.0611819e-05 8.249687e-05 7.903894e-05
0002c0 1d 75 7d 38 04 62 a8 38 66 f9 0e 39 e8 69 e6 38
       6.042897e-05 8.029121e-05 0.00013635083 0.00010986981
0002d0 96 de 16 39 d3 82 1a 39 09 01 01 39 74 27 91 38
       0.00014388034 0.0001473532 0.00012302784 6.9214875e-05
0002e0 6b 89 27 39 2f 3e 36 39 56 d0 34 38 c6 fa 2d 38
       0.00015977553 0.00017380038 4.3109372e-05 4.1479965e-05
0002f0 9a 13 11 38 36 5a 5b 38 95 e4 aa 38 ba 6e 93 38
       3.458895e-05 5.2297684e-05 8.1488084e-05 7.030131e-05
000300 8e c6 91 37 b6 a8 94 37 c8 8a 9d 37 21 dd 2b 38
       1.7377806e-05 1.7721537e-05 1.8780484e-05 4.097552e-05
000310 77 2b 24 38 44 ca ee 37 5f eb c3 37 46 e7 ba 37
       3.9141127e-05 2.8465998e-05 2.3355415e-05 2.2280623e-05
000320 2f d1 a8 37 83 bf 5a 37 f8 f2 40 37 20 87 5a 37
       2.012457e-05 1.3038402e-05 1.1500662e-05 1.3025274e-05
000330 b9 83 fb 38 64 df ec 38 78 67 b2 38 f4 ce 86 38
       0.00011993148 0.00011294967 8.506974e-05 6.428166e-05
000340 7e d6 31 39 a3 2e 23 39 5b b4 e1 37 96 1d e8 37
       0.0001695994 0.00015562265 2.6906075e-05 2.7670332e-05
000350 0e cb fc 37 7b 02 c7 37 6e d9 90 37 5b 50 91 37
       3.0135296e-05 2.3723804e-05 1.7267386e-05 1.7322765e-05
000360 be 9a be 38 3c 07 b9 38 a2 92 8e 38 3a 09 68 38
       9.088729e-05 8.822835e-05 6.7984e-05 5.5321703e-05
000370 f1 ba e5 38 7e 02 d0 38 a3 99 82 37 39 68 70 37
       0.000109543915 9.918677e-05 1.556875e-05 1.4329381e-05
000380 c7 bb 34 37 76 ba 07 37 e1 a5 26 37 9e 83 ab 36
       1.0772556e-05 8.090041e-06 9.932993e-06 5.1115194e-06
000390 05 e8 38 35 02 da f8 34 06 4f ea 35 6d 78 fd 36
       6.8882974e-07 4.635222e-07 1.7457357e-06 7.554007e-06
0003a0 0f 1f dc 36 dd 3e a4 36 db 61 a0 38 64 be a0 38
       6.5601266e-06 4.894899e-06 7.6476215e-05 7.6648575e-05
0003b0 54 c6 9e 38 2b e2 6f 38 a3 97 80 38 e5 37 5b 38
       7.5709686e-05 5.7192676e-05 6.13176e-05 5.2265725e-05
0003c0 e5 19 93 37 82 2a 8a 37 d3 86 96 37 88 be 0c 38
       1.7535824e-05 1.6470676e-05 1.7944176e-05 3.3556047e-05
0003d0 ad fa 16 38 b6 3d f7 37 4a b4 3e 37 d2 b6 45 37
       3.5996247e-05 2.9473431e-05 1.1366859e-05 1.1784681e-05
0003e0 2e 6f 48 37 19 b3 13 37 b9 58 5a 37 97 7f 46 37
       1.1946815e-05 8.803582e-06 1.301447e-05 1.18314265e-05
0003f0 12 7f 97 38 74 13 99 38 bb 0b 92 38 28 1e 17 38
       7.22391e-05 7.299232e-05 6.9640075e-05 3.602929e-05

exp_avg f4 [70]
000000 5c 17 a0 3a b3 38 53 ba 17 5a f0 b9 13 28 a7 b8
       0.0012213993 -0.000805746 -0.0004584349 -7.970645e-05
000010 b2 2d 8a 3a 1f 9a 43 b9 09 2e 80 b9 52 13 1c ba
       0.0010542183 -0.00018654064 -0.0002444836 -0.00059538067
000020 61 45 ba 39 34 b0 83 ba 70 99 17 3a 03 b5 b5 b8
       0.00035528376 -0.001004702 0.0005783057 -8.6644686e-05
000030 3e 9b 80 ba df ca 2a b9 48 51 57 ba f4 2c 0d 3a
       -0.0009811891 -0.00016288039 -0.0008213711 0.00053854217
000040 1b 53 32 3a 26 57 82 b9 92 52 08 b9 f8 62 db 3a
       0.0006802545 -0.00024860463 -0.0001300073 0.0016737869
000050 6a 76 f9 3a 4b 95 0f ba 6a 6f d7 39 c3 71 6c b9
       0.0019032483 -0.00054772635 0.00041091006 -0.00022549093
000060 3f 10 ac b9 41 de 8f b9 6a fd 55 ba 2c a8 e8 b9
       -0.000328185 -0.00027440678 -0.0008163067 -0.00044375786
000070 c4 9e 94 b9 45 13 14 bb be a6 2a 3b 5e ec 0a bb
       -0.0002834705 -0.0022594493 0.0026039327 -0.0021198015
000080 71 bf d1 b9 53 f3 00 ba dc b9 9b 3a f4 a9 d8 3a
       -0.0004000622 -0.00049190706 0.0011880952 0.0016530142
000090 77 e4 b3 ba d0 bc 0d 39 55 16 48 37 f4 13 89 39
       -0.0013724704 0.00013517146 1.19261285e-05 0.00026145543
0000a0 8c a9 36 b9 77 d9 42 ba 50 2f b9 3a 5b e7 31 b9
       -0.00017420034 -0.00074329175 0.001412848 -0.00016966222
0000b0 a7 8b 6f b9 4a f7 8e 39 d5 27 a3 ba f2 b8 3e b9
       -0.0002284484 0.00027268595 -0.0012447784 -0.0001818871
0000c0 ce e0 ca b8 33 82 46 ba 9e d3 20 ba 09 4a b2 3a
       -9.673984e-05 -0.0007572502 -0.0006135049 0.0013602386
0000d0 2f db 04 39 0b 27 ba ba ba 18 9d b9 29 60 09 39
       0.00012670153 -0.001420231 -0.00029963796 0.0001310116
0000e0 b4 cf 5e ba 09 b0 dd 3a 35 5f c0 39 ee e4 b5 38
       -0.0008499578 0.0016913424 0.00036692029 8.673394e-05
0000f0 7b 6a 39 39 b0 47 64 ba df bb dd b9 b9 b0 1c ba
       0.00017682642 -0.0008708192 -0.0004229238 -0.00059772615
000100 7f 34 01 3a 12 9b 5e ba d9 b0 4d 39 f0 b4 b3 3a
       0.0004928782 -0.0008491735 0.00019616204 0.001371054
000110 e0 50 60 3a 38 04 03 b9
       0.0008556973 -0.00012494705

exp_avg_sq f4 [70]
000000 01 bc 96 38 06 30 f9 38 e6 6b 33 38 c4 af dd 37
       7.187576e-05 0.0001188219 4.2777414e-05 2.64271e-05
000010 0a 3c 25 38 dc 61 09 38 8e b5 a9 36 1f 61 bb 37
       3.939498e-05 3.2754484e-05 5.0577282e-06 2.2337363e-05
000020 8c 27 b2 38 b4 d0 ce 37 ce 79 38 36 9f b8 98 36
       8.4950676e-05 2.4654299e-05 2.7489036e-06 4.5514457e-06
000030 a0 15 b5 38 45 fa 0c 37 d2 6b 24 38 74 41 44 38
       8.6347805e-05 8.402921e-06 3.9201062e-05 4.6791e-05
000040 8b c4 2f 38 fb 70 1e 37 14 d4 80 37 4f 87 9c 38
       4.1906296e-05 9.443839e-06 1.5357546e-05 7.463863e-05
000050 9f 40 ca 37 92 48 83 36 67 c2 ac 37 d8 1d ce 36
       2.4110368e-05 3.9125525e-06 2.0594523e-05 6.1427527e-06
000060 0f ce 8d 38 f7 c1 0a 37 61 07 9b 38 a8 9d 7e 37
       6.761785e-05 8.270602e-06 7.3923504e-05 1.5176287e-05
000070 96 fe 3c 37 b4 f9 a6 38 44 18 f5 38 ba e4 47 38
       1.1264949e-05 7.962008e-05 0.0001168703 4.7658315e-05
000080 8a eb d1 37 90 b0 83 37 7e b3 f3 38 52 07 9c 37
       2.5024423e-05 1.5698635e-05 0.00011620576 1.8600058e-05
000090 e4 8b a0 38 2f 85 3f 37 57 69 0f 37 24 c4 82 38
       7.655451e-05 1.1415496e-05 8.547991e-06 6.235417e-05
0000a0 ba 8d 0f 38 35 02 83 37 8d 8d 6e 38 60 27 9a 36
       3.422585e-05 1.5617445e-05 5.687545e-05 4.5941415e-06
0000b0 9d fd 1a 38 2c 5e 49 38 cc 18 81 38 e9 4d a3 36
       3.6952657e-05 4.800984e-05 6.155818e-05 4.8668485e-06
0000c0 df d9 23 36 82 68 02 39 a4 c6 4f 38 fb 85 ce 38
       2.441571e-06 0.00012436698 4.9537644e-05 9.847801e-05
0000d0 11 9d 1a 36 e9 0e 68 38 80 3d 88 38 d5 40 c6 36
       2.3039213e-06 5.5326997e-05 6.4964406e-05 5.9084073e-06
0000e0 e5 cf fb 36 7d 11 41 38 c2 d7 35 37 ce 67 d4 36
       7.504585e-06 4.6031073e-05 1.0838676e-05 6.330177e-06
0000f0 04 45 94 36 19 15 52 38 f3 38 ec 37 b6 d6 43 36
       4.418778e-06 5.008755e-05 2.8159911e-05 2.9182243e-06
000100 c1 4b 5a 37 8c 7d ea 38 a5 11 50 36 10 a2 48 38
       1.301145e-05 0.000111813744 3.1004686e-06 4.783465e-05
000110 0d ca f3 38 56 c1 8f 37
       0.00011624778 1.7136957e-05

exp_avg f4 [50, 70]
000000 d6 f2 ac 37 18 35 f3 b5 a0 d3 5b 38 ed ad a6 38
       2.0617077e-05 -1.8120363e-06 5.241076e-05 7.947893e-05
000010 6e 23 af b7 f7 fa 43 39 8b 56 3b 37 ca e3 81 38
       -2.0878124e-05 0.00018690141 1.1166218e-05 6.193628e-05
000020 ef 9f d8 37 6e 04 1e 39 e3 50 cf 37 e2 71 0b b8
       2.5823681e-05 0.00015069704 2.4713989e-05 -3.3246244e-05
000030 94 16 25 39 bf 27 6c 38 a7 93 fc 37 9e 75 26 b9
       0.00015744037 5.63038e-05 3.0109497e-05 -0.0001587481
000040 e7 32 f9 b8 9a 12 cd 38 6a e2 9c b8 55 bb ac 38
       -0.000118827265 9.7786266e-05 -7.4808326e-05 8.2364924e-05
000050 65 71 26 39 ea e1 52 38 73 11 31 39 45 ae 71 38
       0.00015873236 5.02783e-05 0.00016886536 5.762118e-05
000060 9d 9e 13 b9 3c be 37 38 de a4 72 38 46 f8 6e 38
       -0.000140781 4.380777e-05 5.785084e-05 5.6974844e-05
000070 1b 78 44 38 33 45 35 39 8e 50 5d 38 71 4e b3 37
       4.68419e-05 0.00017287284 5.276553e-05 2.137499e-05
000080 33 9a 00 b9 cb e3 09 39 e4 b3 a8 b6 8b e2 11 b9
       -0.00012264475 0.00013150198 -5.027732e-06 -0.00013912671
000090 09 bf f1 38 9c 0b 30 39 c1 63 19 39 e1 c2 cc 37
       0.000115273586 0.00016788993 0.00014628378 2.4409443e-05
0000a0 df eb 86 b8 35 95 7f 39 11 f4 29 38 d0 f3 28 36
       -6.433552e-05 0.00024374279 4.0520044e-05 2.5175868e-06
0000b0 af 50 09 38 6f e4 32 b7 e1 d0 14 38 47 60 2b 38
       3.2738488e-05 -1.0662813e-05 3.5480483e-05 4.0859242e-05
0000c0 43 ea 5b 37 f5 e5 89 b7 81 ce 80 38 35 1f 23 38
       1.31079605e-05 -1.6438755e-05 6.14198e-05 3.8891292e-05
0000d0 07 4c 20 b8 16 1d 1a b9 ea d9 59 b7 a8 32 86 39
       -3.821778e-05 -0.0001469742 -1.2984945e-05 0.00025596214
0000e0 fa 6b 1d b9 52 8e c6 b7 40 0c 2b b9 f7 53 27 b9
       -0.00015012911 -2.3669712e-05 -0.00016312394 -0.0001595764
0000f0 e2 25 94 38 6a fe 99 b7 87 d1 8d b8 ca 27 b2 b8
       7.064246e-05 -1.8357492e-05 -6.7624314e-05 -8.495113e-05
000100 2b 84 9a 38 4e d3 39 39 d1 2c 11 39 1e 0a ab b8
       7.3679104e-05 0.00017721692 0.00013844973 -8.1558e-05
000110 ed c7 b5 b8 2d a5 26 b9 37 d3 58 b7 94 1e 98 b8
       -8.667992e-05 -0.00015892526 -1.2923781e-05 -7.2536204e-05
000120 56 8d c5 38 06 1e 55 38 36 48 a3 38 6e 45 c4 38
       9.420018e-05 5.081112e-05 7.785896e-05 9.3589406e-05
000130 f7 f5 e9 38 ca 5b 19 b9 32 f8 37 b9 68 19 9c 38
       0.0001115612 -0.00014625411 -0.000175447 7.443392e-05
000140 77 3f 67 39 77 25 35 39 f7 a1 9b b8 ae d8 46 b9
       0.00022053519 0.00017275462 -7.421144e-05 -0.00018963471
000150 c3 2b 3d b9 54 08 cf 38 5a 9b 16 b8 af 42 c5 b8
       -0.00018040747 9.8720804e-05 -3.590747e-05 -9.406113e-05
000160 f4 99 31 b9 6b 38 4e b8 3c 64 63 b9 b1 fe a4 b8
       -0.00016937387 -4.916677e-05 -0.00021685747 -7.8675694e-05
000170 c8 7c 32 39 11 79 84 b8 df bb bc 38 51 0c 51 39
       0.00017021887 -6.316801e-05 8.999532e-05 0.00019936381
000180 5d ac 16 b9 19 d8 05 b9 3d 8d 3e b9 ab f5 cd b8
       -0.00014369325 -0.00012764371 -0.00018172427 -9.820921e-05
000190 eb db a3 38 14 e0 63 b8 1f e0 63 39 06 c8 84 37
       7.8134086e-05 -5.4329706e-05 0.00021731899 1.582877e-05
0001a0 09 d6 12 39 37 91 81 b8 02 5a 9f b8 ed fb 2e 39
       0.0001400338 -6.178248e-05 -7.598476e-05 0.00016687783
0001b0 22 5b 50 39 09 10 74 37 c3 a8 1d 39 24 84 69 b9
       0.00019870375 1.4547267e-05 0.00015035555 -0.00022269838
0001c0 12 a8 9d b8 4c eb 30 39 e2 b5 28 39 00 c0 43 b9
       -7.517649e-05 0.00016872323 0.00016089485 -0.00018668175
0001d0 a4 de 5d 38 49 f8 0b 39 35 3a 1c 39 60 59 8a b8
       5.2897856e-05 0.00013348566 0.00014899003 -6.597e-05
0001e0 c7 b0 97 37 81 05 a4 b8 80 df 2f 39 f3 02 60 38
       1.8082921e-05 -7.8211546e-05 0.00016772561 5.340851e-05
0001f0 66 6d 1b 38 29 32 80 b8 66 0b 2c 39 fa 94 a8 b5
       3.7056765e-05 -6.112859e-05 0.00016407444 -1.2560333e-06
000200 c0 15 1c 39 64 2d 33 b9 bb b1 88 b9 d5 8d 3a 39
       0.00014885422 -0.0001708768 -0.0002607236 0.00017791179
000210 44 ff c6 b8 0e bf 6c 39 ce 67 6c b9 bb 38 0a b9
       -9.488923e-05 0.00022577887 -0.00022545384 -0.0001318184
000220 60 7b 21 39 87 36 67 b6 ff 97 ca 38 a4 44 3e 39
       0.00015400117 -3.4453421e-06 9.660422e-05 0.00018145383
000230 eb 9b 20 38 0b 80 d5 b8 41 db 01 39 0d f3 05 3a
       3.8292183e-05 -0.00010180481 0.00012384077 0.0005109765
000240 96 d2 15 ba 10 7a 29 39 c4 c8 28 ba 44 96 d9 39
       -0.00057152787 0.00016162568 -0.0006438608 0.00041501422
000250 5b 63 93 b8 fb 0c 93 b9 2e c2 32 3a 22 8a 3b 3a
       -7.0280126e-05 -0.00028047696 0.0006819096 0.0007154067
000260 f9 11 65 38 79 8f b3 b9 bc 2a 27 3a 63 8e 08 ba
       5.4614593e-05 -0.00034248436 0.00063769124 -0.00052092056
000270 b5 2e a4 b9 11 29 9b 39 07 6e 8d b9 d3 c1 95 b9
       -0.00031315317 0.000295945 -0.00026975592 -0.00028563905
000280 a9 a8 40 b9 a2 5e 1a 3a f7 6e 04 3a b0 be 96 39
       -0.00018373378 0.0005888735 0.00050519354 0.00028752303
000290 42 ed fe b9 e4 2c 24 ba 7f a0 06 b9 0f 94 d9 39
       -0.00048623426 -0.0006262793 -0.00012839025 0.00041499778
0002a0 fd 85 11 3a c0 33 10 b9 d8 b2 dc 39 37 6c 0e 37
       0.0005551277 -0.00013752189 0.0004209492 8.489055e-06
0002b0 f6 bd ff 39 2a 82 01 ba d3 75 eb b6 f1 cc 9b 39
       0.00048778922 -0.00049403554 -7.0172623e-06 0.00029716597
0002c0 95 04 05 ba 70 d0 0c b9 53 57 04 3a 0c 08 6d 39
       -0.000507423 -0.0001342909 0.0005048413 0.00022605079
0002d0 ca a4 49 39 7e 9e 07 3a d3 26 88 39 26 95 e8 39
       0.00019230242 0.00051734585 0.00025968868 0.00044361613
0002e0 2f 27 55 b8 fa 93 47 39 29 c8 36 39 0e fc 50 ba
       -5.081965e-05 0.00019033244 0.00017431438 -0.00079721294
0002f0 21 b4 d8 b9 a8 3a 1d b9 c8 23 f8 39 10 d1 b4 39
       -0.00041332937 -0.00014994538 0.00047328905 0.0003448804
000300 ab 18 57 ba 68 c9 41 b9 28 0b b9 36 68 23 5a ba
       -0.0008205275 -0.00018480944 5.5147284e-06 -0.0008321316
000310 b8 8f 37 3a 37 19 5e b9 05 d0 98 b9 2b bb 68 39
       0.0007002312 -0.00021180963 -0.00029146686 0.0002219497
000320 41 75 5d ba ac 49 db b9 24 55 90 b9 fc de d3 b8
       -0.0008447953 -0.00041825825 -0.00027529255 -0.00010102798
000330 14 df 43 ba 45 b0 26 39 0a fe 07 3a 72 12 39 3a
       -0.0007471901 0.00015896659 0.0005187696 0.00070599385
000340 cf d5 c0 38 37 be f4 b9 89 48 e2 37 49 1e 0c 38
       9.1950984e-05 -0.00046681028 2.6975076e-05 3.3406806e-05
000350 f7 e4 31 38 27 02 86 36 53 2a 0b b8 68 f2 6d 38
       4.241333e-05 3.9937618e-06 -3.31796e-05 5.673096e-05
000360 7b 94 44 38 52 1d 7a b8 b6 66 ae 37 2e b2 b4 b7
       4.6868325e-05 -5.963195e-05 2.0790245e-05 -2.1540644e-05
000370 fa 4e 0d b9 01 46 75 b8 ba 9f 59 b5 6e b7 a9 b8
       -0.00013476229 -5.8477748e-05 -8.107123e-07 -8.0927144e-05
000380 63 1c 41 b8 5e 40 36 35 dc 7f 63 b8 2f 92 27 b8
       -4.6041223e-05 6.789395e-07 -5.4240096e-05 -3.9952047e-05
000390 00 c3 91 37 ad 86 08 38 24 75 eb 37 5f 19 f5 37
       1.7376151e-05 3.2550353e-05 2.806873e-05 2.921809e-05
0003a0 98 61 10 38 8e 2d 15 37 ce 15 36 38 1d 8c 7c b7
       3.4423167e-05 8.891699e-06 4.341249e-05 -1.5052993e-05
0003b0 2a 17 52 b7 6c 30 8d b5 3c 60 d0 38 d6 6e 58 b6
       -1.2522369e-05 -1.0519411e-06 9.936138e-05 -3.2251023e-06
0003c0 a1 b2 07 b8 87 11 03 33 e1 b1 ac 37 2f ee 3f b7
       -3.235287e-05 3.0516755e-08 2.058683e-05 -1.1439944e-05
0003d0 a6 3a d0 b7 c6 1f 00 b8 17 fd 88 37 7c 7b 99 38
       -2.4822843e-05 -3.054717e-05 1.6330318e-05 7.318609e-05
0003e0 6a d4 03 37 81 3e dd b7 3a bb 07 38 99 64 13 37
       7.857665e-06 -2.6374359e-05 3.2360877e-05 8.785305e-06
0003f0 e9 b4 81 37 0b 2c 93 38 b8 14 65 38 25 3e 0e 38
       1.5462241e-05 7.01771e-05 5.461715e-05 3.3913315e-05
